models/2024-07-15_15-03-29/epoch_0001_loss_0.00091784/dynamics.pth (torch, 83084 bytes, 8 tensors)

fc1.weight f4 [64, 34]
000000 bf 9e 3e 3d 27 f6 a7 bd 56 3f 2c 3d 2b 7d 8c 3d
       0.04653811 -0.08201247 0.04205259 0.068598114
000010 41 4f 16 be 88 6d 0f be 36 dd 99 3d 70 3b cf 3d
       -0.1467867 -0.14006627 0.07512896 0.10118759
000020 62 3d 7b 3c 68 d4 30 bd f6 1e 32 be 93 29 1f 3e
       0.015334459 -0.043171316 -0.17394623 0.15543203
000030 9d 5b eb 3d 04 41 19 3d d0 5f 23 bd cf a6 d2 bd
       0.11492083 0.03741552 -0.039886296 -0.102857225
000040 95 7e a7 bd 23 78 32 3d e9 9e 5a be d0 1e 13 3e
       -0.081784405 0.043571603 -0.21349682 0.14367223
000050 45 fa 06 bd 89 2a 89 3c e4 b9 61 bd 47 77 82 bc
       -0.03295352 0.016743915 -0.05510892 -0.015926016
000060 52 35 29 3d 99 38 7a bd 94 56 1e be 27 46 2f 3e
       0.041310616 -0.061089132 -0.15462714 0.17116605
000070 56 ae 18 3e 79 15 6d bd 87 f2 43 bd fc 37 1d 3d
       0.14910254 -0.057881806 -0.047838714 0.03838347
000080 91 04 cf bd e5 18 1a be 40 2e 3d 3d a4 f3 2e 3d
       -0.10108293 -0.15048559 0.046186686 0.042712823
000090 52 50 87 3d 38 c5 23 3e 82 5d a7 3c bd c3 9c bd
       0.06607117 0.15993202 0.02043033 -0.076545216
0000a0 24 41 1b be 1d 18 50 bd 76 5c a6 3b 82 06 a9 3d
       -0.15161568 -0.050804246 0.00507694 0.082531944
0000b0 07 f6 b1 bd a0 30 47 be 98 9d 7d bd c5 6b 34 3d
       -0.08689504 -0.19452143 -0.06191787 0.04404809
0000c0 02 c6 fe bd fe 9f 0d be 00 a9 5b 3e c1 a2 85 bd
       -0.12440111 -0.13830563 0.21451187 -0.065251835
0000d0 db 9f cc bd a5 b1 cf bc 6f 68 85 3c 0f 9b e1 bd
       -0.099914275 -0.025353262 0.01628515 -0.11015903
0000e0 60 1a 84 ba a9 43 6f 3d 88 58 f8 3c 39 37 fc 3d
       -0.0010078661 0.058414135 0.030315652 0.123152204
0000f0 c9 6f 3f be 4f 67 bb 3d 97 09 16 be ff 23 f8 3d
       -0.18694986 0.09150564 -0.14652096 0.12116241
000100 e2 58 4c be 89 33 fb 3d ca 9c 9c 3d 04 eb 8f 3d
       -0.19955781 0.12265689 0.07647093 0.070272475
000110 2c 29 94 bd f6 5d 05 be 68 2d aa bc 88 3e d8 bc
       -0.072344154 -0.13024125 -0.020773605 -0.026397005
000120 06 0d c3 bd ea 2a a5 3d 22 20 e0 3d 40 bc b5 3c
       -0.095239684 0.08064826 0.10943629 0.022184491
000130 a0 01 84 bc c5 72 01 3e b2 96 b2 3d 0d 92 05 be
       -0.016114056 0.12641437 0.08720149 -0.13043995
000140 40 7d 29 3c e2 22 c6 3d f2 53 27 be 1b 96 1e 3e
       0.010344803 0.09674622 -0.16340616 0.15486948
000150 e0 d0 57 3d 85 ee 15 be 6a 2d 05 be 80 7e 9f ba
       0.052689433 -0.14641769 -0.13005605 -0.0012168437
000160 ee ea 20 be 30 9c 12 3c 3a 27 bd 3d db 49 99 bd
       -0.15714619 0.008948371 0.092359975 -0.0748479
000170 b0 07 79 3d 70 f5 1c bd 90 43 54 bc 8f c9 b6 bd
       0.060798347 -0.038320005 -0.012955561 -0.08925163
000180 42 07 e6 3d aa 63 ca 3d cc e1 03 bd 40 dc d6 3b
       0.11231853 0.09882291 -0.03219776 0.0065570176
000190 30 44 43 3d 88 f1 f3 bc 9c 32 99 3c d0 23 e8 bd
       0.04767245 -0.029778257 0.01870089 -0.11334956
0001a0 2c 85 b9 bd 4e 87 85 3d f6 eb 1d bd 97 7e 3d 3e
       -0.09058604 0.06519948 -0.038555108 0.18505321
0001b0 d8 e4 09 bd 78 d6 fd bd 9a 7a 4a 3d d1 7e 27 3e
       -0.033665508 -0.12394422 0.04943333 0.1635697
0001c0 dd ab 23 3d 26 22 01 3e af 50 a4 bd 85 a3 ca 3d
       0.039958823 0.12610683 -0.08023202 0.0989447
0001d0 69 e8 a5 3d 0d 66 24 3e 58 02 1e be 1a 07 a8 3d
       0.08100969 0.16054554 -0.15430582 0.082044795
0001e0 f5 a8 8e 3d 23 ed 10 3e 85 a4 c4 3c 9e 6d 61 3d
       0.0696582 0.1415296 0.02400423 0.05503618
0001f0 78 ad aa 3d 38 21 76 3d 82 f1 1d bd db cc 23 3e
       0.08333868 0.060090274 -0.038560398 0.15996115
000200 ca 03 3e be 66 ba 1c 3e 06 a3 30 3d ec 6f 6c bc
       -0.18556133 0.1530548 0.04312422 -0.014430981
000210 04 03 3d 3b 4c e7 d5 3d 7a 30 6b bd 55 29 38 3e
       0.0028840909 0.10444507 -0.057419278 0.17984517
000220 00 8f c0 ba bb e6 20 3e 72 e6 97 3d b0 22 7d 3d
       -0.0014691055 0.15713017 0.07417001 0.06180066
000230 bb 90 18 3e 70 60 a2 bd e0 a7 9e bb 16 12 89 3d
       0.1489896 -0.0792855 -0.0048417896 0.06692903
000240 3e 01 c7 3d bb c6 16 3e f5 b3 db bd a7 31 ec bd
       0.09717034 0.14724247 -0.107276835 -0.11532908
000250 71 a2 2c 3e 3e 58 e7 3d 7c b1 4f 3d c5 c6 29 3e
       0.16858841 0.11296128 0.05070637 0.16579731
000260 20 e7 23 3c d0 d5 04 be 82 41 1e be 1a d2 bd 3d
       0.010003835 -0.12972188 -0.15454677 0.09268589
000270 b6 03 ba bd 77 f1 86 bd a8 3b 01 3d 23 16 29 3e
       -0.09082739 -0.065890245 0.031551033 0.1651235
000280 01 1c 13 3e 60 fe 09 3c 7e 59 e1 3d 42 56 f2 3d
       0.14366151 0.008422464 0.110033974 0.118328586
000290 60 99 64 3c 88 5f da 3c 92 74 e7 3d 7b ea 02 3e
       0.013952583 0.026656881 0.11301531 0.1278476
0002a0 06 15 4b bd 68 a0 94 bd 90 c2 bb bd 04 0e 05 be
       -0.049580596 -0.072571576 -0.09167969 -0.12993628
0002b0 60 be 8b bb d7 6d 82 bd 10 97 b7 bc e0 80 ad 3b
       -0.004264638 -0.063686065 -0.0224109 0.005294904
0002c0 e2 70 e2 3d 12 ad 26 be 0d d2 25 3e 2b e3 06 3e
       0.11056687 -0.16276959 0.1619341 0.13172595
0002d0 98 60 8b 3c 4a 86 d0 bd 80 6f ef 3b 8e 73 da bd
       0.017013833 -0.101818636 0.007306993 -0.106665716
0002e0 70 b0 2a 3c d0 1f e3 bc 66 e2 bd 3d fe e3 de 3d
       0.010418043 -0.02772513 0.09271698 0.1088333
0002f0 a3 12 cc bd da 7e bf 3d 7d 21 bf bd 3a f5 16 be
       -0.09964492 0.09350367 -0.09332559 -0.14741984
000300 a4 26 4f 3d 8e 85 8f bd 14 ed 6b 3d 73 59 fa bd
       0.05057396 -0.070078954 0.057599142 -0.12224092
000310 d5 5a d9 bd d8 6e 21 3d 52 c5 cb 3d 3e 3b 88 3d
       -0.10613028 0.03941235 0.09949745 0.066519246
000320 60 ee b3 bc ab 65 8d bd 3a 79 25 be 04 6c 53 3d
       -0.021964252 -0.06904157 -0.16159526 0.051616684
000330 96 68 2a 3e 12 41 6f 3c d0 b4 3e be c5 a6 1b bd
       0.16641459 0.014602916 -0.18623662 -0.03800084
000340 f0 35 86 3d b1 58 1f be 77 b7 99 bc 78 05 91 bc
       0.065532565 -0.15561177 -0.01876424 -0.017702803
000350 91 dd a3 3d e0 a0 ef 3d 86 b1 ac 3d cc c1 0a 3d
       0.08001245 0.11700606 0.084322974 0.033876225
000360 f6 46 17 be 92 a3 7f bd 19 0a 48 be cf 04 88 3d
       -0.14773163 -0.062411852 -0.19535102 0.06641542
000370 4a c1 31 3d 76 97 3f be cf b8 4a 3e 0b 12 fc 3d
       0.043397225 -0.18710122 0.19797061 0.12308129
000380 09 1e 10 bc fd 93 c5 3c 04 27 5b be 53 bf dd bc
       -0.008796223 0.024118418 -0.21401602 -0.02706877
000390 42 53 91 bd ef 42 90 bd 34 cf 8d bd 7c ec f7 3d
       -0.07095958 -0.070440166 -0.069242865 0.12105653
0003a0 71 64 07 be 4e 8b be bd f1 6f 5e be 3b d1 06 3d
       -0.13221909 -0.09303914 -0.2172239 0.03291438
0003b0 7e c7 1a be a4 24 bb bc 16 a7 86 bd 86 ff c0 3d
       -0.15115163 -0.02284462 -0.06574838 0.09423737
0003c0 f0 8f 80 3c 60 7a 82 3b a6 ac b9 3d e0 5c 84 3d
       0.015693635 0.0039818734 0.09066133 0.06463027
0003d0 5e c8 a9 3d 00 38 e8 38 42 a3 b9 3d a0 f6 25 bd
       0.0829017 0.00011073053 0.09064342 -0.040518403
0003e0 6a 05 eb bd ff 48 d9 bd 68 c4 0a bd f1 88 1a 3e
       -0.11475642 -0.10609626 -0.033878714 0.15091302
0003f0 70 08 bf bd 03 e6 23 3e 24 2f 02 3d bb 34 2b 3e
       -0.09327781 0.16005711 0.031783238 0.16719334

fc1.bias f4 [64]
000000 6c 8f 15 3d 9d c8 63 3e 70 18 e6 bc 5f a3 57 3b
       0.03651373 0.22244497 -0.028087825 0.0032903773
000010 00 8f 3c bd 6b e0 14 be fb 8e 2e be 76 d0 68 3d
       -0.046034813 -0.14538734 -0.1704673 0.05683943
000020 f4 83 10 3e 39 a5 fb bd 41 44 5b 3c b9 8f 46 bd
       0.14112836 -0.12287373 0.013382972 -0.04847691
000030 cc 6f 77 bd f3 8d ca 3d 6d 4f a3 bd 18 81 20 3e
       -0.060409352 0.09890356 -0.07974134 0.15674245
000040 42 87 10 be 8b d6 b6 3d f3 c7 e4 bc b1 1d d5 bd
       -0.14114097 0.089276396 -0.027927374 -0.10406054
000050 10 58 63 bd 3b 88 aa bd 1c c3 85 bd f8 67 89 bd
       -0.055503905 -0.08326765 -0.06531355 -0.067092836
000060 fe a6 93 bb 0d 81 9f bc d8 4e 01 bd 59 ff 30 3e
       -0.004505991 -0.019470716 -0.031569332 0.17284907
000070 85 78 ad 3d 00 72 08 3e 80 86 c0 bb 25 f5 f2 bc
       0.08470253 0.13324738 -0.0058754086 -0.02965791
000080 d3 a3 b4 bd b3 4e 0a 3e 52 98 37 bd c0 22 82 bc
       -0.088203095 0.13506584 -0.044823 -0.01588571
000090 ba 6b b2 bd e5 c3 12 bd 85 18 22 bd 68 b9 63 ba
       -0.087119535 -0.03583135 -0.039574165 -0.00086869905
0000a0 0b 7e f5 3d ec db 26 be bd fb 1c be 4a 08 10 3e
       0.119869314 -0.16294831 -0.15330406 0.14065662
0000b0 4b 71 f3 bd eb 70 3e 3e 21 ca 1f 3e 60 35 2d be
       -0.11886843 0.18597762 0.1560445 -0.16914892
0000c0 ca ed 9f bd e0 89 81 bb 72 aa cb 3d f4 52 99 3d
       -0.078090265 -0.0039532036 0.09944619 0.07486525
0000d0 d7 21 e8 3d 6e 6c 17 be d4 ab e6 3c f9 3b f7 bd
       0.113345794 -0.14787456 0.028158106 -0.12071986
0000e0 33 23 f8 bc 9a dd 01 bd 84 5d 50 bc 8f ff 91 3d
       -0.030290222 -0.031705476 -0.012717608 0.07128822
0000f0 a8 de e9 bc e1 80 83 3d fb ed d4 bd 42 e9 e8 bd
       -0.028548554 0.06421066 -0.10396954 -0.113726154

fc2.weight f4 [128, 64]
000000 10 69 5a bc c4 8c b5 bd 6c 55 c5 bd 96 a6 11 3d
       -0.013330713 -0.088647395 -0.096354336 0.03555926
000010 de 4f a7 bd ec ae 24 bd 12 6c 35 be d0 8e ab bd
       -0.0816953 -0.04020588 -0.17717007 -0.08376849
000020 ac fa 07 be e4 11 3e 3d b2 f6 9e bd 58 8d 90 bc
       -0.13279217 0.04640378 -0.07761897 -0.017645523
000030 f4 7e 2e bd f0 4a 8d 3c 8a d9 d1 bd f0 ff ca 3d
       -0.04260154 0.017247647 -0.102465704 0.099120975
000040 ac 62 6b bd a8 db 13 3d 4c d0 ee bc 2a 6e ac bd
       -0.057467148 0.036098152 -0.029152058 -0.084194496
000050 a2 30 d0 3d ff 0f 1e bd 52 3e f0 bd 5b 34 56 3d
       0.10165526 -0.038589474 -0.11730637 0.052296024
000060 b6 ec d8 3c 88 21 9f 3c 42 ed ed bd e8 1a 9a 3d
       0.02648006 0.019425169 -0.11617519 0.07524663
000070 08 53 87 3c 4f a8 4e bc 5c 28 fc bd 25 e9 a4 bd
       0.016519085 -0.01261337 -0.123123854 -0.08052281
000080 61 5d 42 bc 20 e8 24 3d d4 72 83 3d 08 2c 6c 3d
       -0.011863084 0.040260434 0.06418386 0.05765918
000090 c8 1e 18 be 46 64 be 3c ee a8 2d 3d d2 81 b2 bc
       -0.14855492 0.023241173 0.042397432 -0.021790419
0000a0 74 eb b5 bd 54 4d 9e bd e8 ef 85 bd 58 31 ff 3c
       -0.088828 -0.07729593 -0.06539899 0.031151459
0000b0 c8 50 37 bd 80 45 e5 3d 2c b3 23 3d 58 77 d0 bc
       -0.044754773 0.11194897 0.039965793 -0.025447533
0000c0 08 a7 02 be 6c c8 c1 bd c7 1e b4 bd 2f bc 3b 3d
       -0.1275903 -0.094620556 -0.08794933 0.045833763
0000d0 5d 70 60 bd 00 7c 56 bd de a0 87 bd ce 17 25 bd
       -0.054794658 -0.05236435 -0.0662248 -0.040305905
0000e0 4c 09 82 bd fa 36 82 3d a9 99 da bd 16 fd 93 bd
       -0.063494295 0.06358142 -0.106738396 -0.07226007
0000f0 a0 1a c6 bb 3c 17 9a bd 0c 22 f5 bd 3b c1 be 3c
       -0.0060456544 -0.07523963 -0.119693846 0.023285499
000100 e8 9f 9d bd 20 cf 29 3d 00 88 be 3b fe d1 80 bd
       -0.07696515 0.041457295 0.0058145523 -0.06290053
000110 b4 77 ab 3d d4 5c b1 3d f0 d6 c4 bd b0 58 9f bc
       0.08372441 0.08660284 -0.096113086 -0.01945147
000120 bc dc b7 bd e4 ce e4 3d f4 d7 58 3d fe 67 c6 bd
       -0.089776486 0.11172274 0.052940324 -0.09687804
000130 d4 e1 0b 3d 2a 23 b4 3d d6 6f bd bd 14 bb 6c 3d
       0.034150913 0.087957695 -0.09249847 0.0577956
000140 0c 4f 15 bd 80 84 62 3d 7a 1b 92 3d 14 29 80 bd
       -0.036452338 0.055302143 0.07134147 -0.06257835
000150 14 3e 6f 3d 5c af 29 3d 50 65 3e bd f4 65 26 3d
       0.05840881 0.041427 -0.046483338 0.040624574
000160 56 86 e8 3d 46 4b fe bd e0 d7 23 bc 90 55 83 3d
       0.113537475 -0.12416701 -0.010000199 0.06412804
000170 5a 55 df bd 0c b4 ae bd 80 d3 99 3c c0 32 6f 3b
       -0.109049514 -0.08530435 0.018777609 0.0036498755
000180 b8 db 75 3d 98 4c 8a bd 78 29 27 bd 58 75 cf bd
       0.060023993 -0.0675289 -0.040811032 -0.101298034
000190 b0 bc 78 bd 00 03 ce 3d 60 be 0d 3c fe 81 fa bd
       -0.06072682 0.10059166 0.008651346 -0.12231825
0001a0 82 b7 fa 3d 14 05 fe bd 70 4c 4c 3c c6 84 8a bd
       0.122420326 -0.12403312 0.012469396 -0.06763606
0001b0 fc 64 22 bd 30 2a 5d bd e0 43 a6 3b 72 d3 bb bd
       -0.039647087 -0.05399531 0.0050740093 -0.09171189
0001c0 48 11 78 bd 50 45 5a bc 82 75 f5 bd 36 f5 85 3d
       -0.060563356 -0.013322189 -0.119853035 0.06540911
0001d0 50 45 e4 bc 0e 0a ec 3d 24 8b c0 3d 60 59 b7 bd
       -0.027865082 0.11525355 0.09401539 -0.08952594
0001e0 1e 79 cc bd cc 63 5f bd f0 29 0e bc 72 80 b2 3d
       -0.09984039 -0.054538533 -0.008676991 0.08715905
0001f0 b6 33 a9 bd b8 a6 dc 3c e0 e2 e2 bb dc f1 1c 3d
       -0.08261816 0.026934966 -0.0069240183 0.038316593
000200 04 2a 1b bd 40 6b a0 3c 68 5d 53 3d e0 31 54 3c
       -0.037881866 0.01958239 0.05160275 0.012951344
000210 c2 ac f4 3d ec ed 16 bd 7e 11 b2 3d 10 9a 47 3c
       0.119470134 -0.036847994 0.086947426 0.012182727
000220 fa 5c ae bd 94 dd 7b bd 48 d8 81 bc 1c fc a0 3d
       -0.085138276 -0.06149061 -0.015850201 0.07860586
000230 ec 95 39 3d d0 50 c8 3c 84 ce da bd a2 e6 bc bd
       0.045308992 0.024452597 -0.10683921 -0.09223677
000240 0e 60 fb 3d 28 16 fc 3c 9e af c1 bd 8a 55 9a bd
       0.1227418 0.030772284 -0.094573244 -0.075358465
000250 e2 35 b0 3d 2e b6 d9 bd 00 ab db bb f0 b1 eb 3d
       0.08604027 -0.10630451 -0.0067037344 0.11508548
000260 00 cd da 3d 10 07 bf bc 58 95 f1 3c c0 0a 78 3c
       0.10683632 -0.023318797 0.029490158 0.015139282
000270 e8 e5 26 3d 90 cc 63 bd 06 79 ed bd 80 7a 3d bb
       0.0407466 -0.055615008 -0.11595349 -0.0028912127
000280 90 fc 17 bd dc 33 1c bd a6 41 f3 bd 00 22 f2 3b
       -0.037106097 -0.038135394 -0.11877756 0.007389307
000290 60 c4 cb 3d 0a dc fe bd 70 1d 4b 3d f6 c5 d6 3d
       0.09949565 -0.12444313 0.04958862 0.10486977
0002a0 ec 3e 59 bd f0 de 32 bc 22 f6 b6 3d b8 01 d3 3c
       -0.053038523 -0.01091741 0.08933665 0.025757656
0002b0 64 de 93 bd f4 ea 65 3d 1e 10 d7 3d 08 a8 d3 3d
       -0.07220152 0.056132272 0.10501121 0.10334784
0002c0 50 4a c2 bd 20 9f af 3c 80 f7 60 3c 3e c5 bf bd
       -0.0948683 0.021438181 0.013730884 -0.09363793
0002d0 e8 f0 5d 3d 54 e6 34 bd f8 eb f9 3c 62 07 f3 bd
       0.054184824 -0.04416497 0.030508026 -0.118666425
0002e0 c8 ec 9b bd 50 65 dc bd 54 61 f8 bd d0 03 13 bd
       -0.07613522 -0.10761511 -0.12127939 -0.035892308
0002f0 44 fd 06 bd 78 d5 a4 bc b4 78 03 3d 48 25 d5 3c
       -0.032956377 -0.020121321 0.032097533 0.026018754
000300 7c e5 19 be f7 a8 49 bd 08 15 f7 bc af c1 95 bd
       -0.15028948 -0.049233403 -0.030161396 -0.07312333
000310 d0 ba a5 3c a0 f3 b6 3c 28 a5 9f 3d 30 cc 85 3d
       0.02023068 0.022332966 0.07795173 0.06533086
000320 21 0a bd bb 84 ed 1d 3d 48 ce 82 3c 60 5c fa bc
       -0.0057690297 0.03855659 0.015967503 -0.030561626
000330 a4 42 dc 3d 18 64 da 3d 89 ee a9 bd c8 5e 35 bd
       0.10754898 0.106636226 -0.0829745 -0.044279844
000340 80 29 3e 3b fc 4e f9 bd 45 2d 1f be d8 76 9c bd
       0.0029016435 -0.12173268 -0.15544613 -0.07639855
000350 c0 a7 32 3d e9 d4 dc bd 44 eb 4a bd af a7 fb bc
       0.04361701 -0.10782797 -0.049540773 -0.030719606
000360 81 f2 07 be b8 10 3e bc 90 97 43 bd a0 f4 74 bc
       -0.13276102 -0.011600666 -0.047751963 -0.014950901
000370 fb 9a 0d 3d 65 ee 8f 3d 68 04 8c 3c de b4 2a bc
       0.03457163 0.07027892 0.017091945 -0.010419099
000380 c3 c6 ba bd 2b 24 99 bd 8b 53 1b 3d d8 43 b3 3c
       -0.09119942 -0.074776016 0.03792147 0.021882936
000390 15 68 5d bd 9f 4c 33 3d 17 b9 12 3c 59 13 84 bc
       -0.05405434 0.043774243 0.008955262 -0.016122507
0003a0 de ff ab bd 80 af fd ba 38 5a c5 bc c8 5c 2b bd
       -0.08398412 -0.0019354671 -0.024090871 -0.04183653
0003b0 bd 02 8c bd a6 d0 df 3d d0 53 c8 bd b8 ac ce bc
       -0.0683646 0.109284684 -0.09781611 -0.025228843
0003c0 33 44 8c bd 32 47 d1 3d 03 8a e7 bd 2a 08 9e bd
       -0.068489455 0.102186576 -0.113056205 -0.07716401
0003d0 a3 a5 e6 bc 24 db 88 bd 20 1b 67 3d b7 c0 24 bd
       -0.028155154 -0.06682423 0.056422353 -0.04022285
0003e0 44 33 08 bd 8c c8 4d 3d 0c 9b 1f be 0c 54 bd bd
       -0.033252016 0.050240085 -0.1558649 -0.09244546
0003f0 70 e3 b3 3c c8 0e 8d bd 2d 8c ab 3d f6 98 0c be
       0.021959037 -0.06887585 0.08376346 -0.13730225

fc2.bias f4 [128]
000000 f6 16 21 be e8 4e a6 bc 14 5a 3a bd e1 f4 53 bd
       -0.15731415 -0.020301297 -0.04549606 -0.051747207
000010 e5 99 92 3d c3 2d 85 bd bb 7a 88 3d 9f 30 b3 bd
       0.07158259 -0.06502869 0.06664034 -0.08749508
000020 a2 39 a3 bd 52 17 d8 bd 69 59 ea 3d 55 da d4 bd
       -0.07969977 -0.10551323 0.11442835 -0.10393206
000030 19 b5 93 bd a3 ac 54 3d 24 43 17 be 9e 60 3f bd
       -0.07212276 0.05192245 -0.14771706 -0.046723
000040 14 91 69 bd c7 9d eb bd 48 d7 b9 bd cf e4 8b bd
       -0.057023123 -0.11504703 -0.09074265 -0.06830751
000050 70 e4 6d bc 14 17 20 bc f6 71 86 3d 7c 36 0d 3d
       -0.014519796 -0.009771127 0.06564705 0.03447579
000060 5a b0 af bd 22 31 ad bd 39 1d 5b 3d 2e 15 57 3d
       -0.08578558 -0.08456637 0.053494666 0.052510433
000070 10 b5 fd bd 82 47 98 bc bc 32 02 be ce e4 99 3d
       -0.123880506 -0.018588785 -0.12714666 0.07514344
000080 32 2e fc bd b2 98 e8 3c 72 fc ad 3c 22 09 f6 3d
       -0.123134986 0.028393123 0.02123854 0.12013461
000090 19 60 64 3d d0 2f 25 3d 5b 1c d9 3d 70 f9 53 bd
       0.05575571 0.0403288 0.106011115 -0.051751554
0000a0 24 d0 30 3e 16 dd bd bd 05 71 bd bd 42 0c 45 bd
       0.172669 -0.092706844 -0.092500724 -0.048107393
0000b0 a9 49 0d 3b 1d f6 8c 3d 1b 0c ae bc c0 62 58 3b
       0.0021558797 0.0688288 -0.021246007 0.0033017844
0000c0 7c 5c 5d 3d da 4a e2 bd 0e c4 0a be b5 38 9e 3c
       0.054043278 -0.11049433 -0.13551351 0.01931415
0000d0 29 d8 fa 3c aa 0f d5 bd 02 f8 e8 3d 6a f8 88 bd
       0.030620651 -0.10403378 0.11375429 -0.06688006
0000e0 db d6 44 3d 29 d4 31 bc 37 06 0a 3d 38 df 91 bd
       0.048056465 -0.010853806 0.033697333 -0.07122654
0000f0 d2 60 25 3e 68 1a b6 bc 2f 20 11 bd 35 57 02 be
       0.16150215 -0.022229388 -0.035431083 -0.1272858
000100 06 51 f1 3c d0 75 56 bd 1e 20 23 3b 56 73 98 bd
       0.02945758 -0.05235845 0.002489097 -0.074438736
000110 68 a2 c2 bd 96 d6 82 bd 60 1c 62 3d 0b 5e 14 3e
       -0.09503633 -0.06388585 0.05520284 0.14489
000120 61 00 54 3d 3a 45 30 be 39 3b f2 3d 15 18 cc bd
       0.051758174 -0.17213908 0.11827702 -0.09965531
000130 dc 9e aa 3d 56 0b 84 bd 32 66 d2 bd 9c 68 70 bd
       0.08331081 -0.06447475 -0.102733985 -0.058693513
000140 28 6e eb bd 5e 3f ca bd 74 b9 e0 bd df 57 33 be
       -0.1149562 -0.098753676 -0.109728724 -0.17513989
000150 0a b1 30 bd 6a 3c be bd 98 de 60 bd de df 24 3c
       -0.043137588 -0.09288867 -0.054899782 0.01006314
000160 75 2d c6 bd ff 9f 18 3d 04 e3 7d bd e0 3f 80 bd
       -0.09676639 0.03726196 -0.061984077 -0.06262183
000170 a5 d2 e6 bd c3 2e 87 3d 55 26 33 3d ce 98 61 3d
       -0.11270646 0.06600716 0.04373773 0.055077367
000180 06 8e 03 bd 4e 65 df 3d e5 b7 b7 3d 5e 62 e8 bd
       -0.032117866 0.10907994 0.08970622 -0.11346887
000190 71 1d c6 3c 08 a0 c1 bd b8 97 33 bd 13 04 b9 bc
       0.02418396 -0.09454352 -0.043845862 -0.02258495
0001a0 8d 11 53 3d 86 fb 83 bd 18 49 e0 3c 83 64 02 3d
       0.05153041 -0.06444459 0.027378604 0.031834137
0001b0 ac 96 0c 3d 25 0a de 3d 3a 5f 2c bd 2b ba d2 3c
       0.03432338 0.10841779 -0.042083003 0.025723537
0001c0 98 15 0d 3c 34 75 8f 3d d9 fa ea bd 02 57 a3 bd
       0.008611105 0.070047766 -0.11473627 -0.0797558
0001d0 e3 32 4b 3d 01 d4 b3 3c a8 7e a0 b9 91 13 ee bb
       0.049609076 0.021951677 -0.00030611944 -0.007265516
0001e0 e0 c1 4c bc 90 11 a3 bd 31 3f 75 bc 9c 3c 7d bd
       -0.012497395 -0.07962334 -0.014968679 -0.06182538
0001f0 9a 04 f8 bd 1c 22 03 3d 26 c3 37 3d 22 6d 6c 3c
       -0.12110253 0.03201495 0.044863842 0.014430316

fc2_1.weight f4 [64, 128]
000000 18 99 36 bd 80 5f b6 bb 58 d7 da bc e8 04 20 bd
       -0.044579595 -0.0055655837 -0.026714012 -0.03906718
000010 a7 44 92 3d 10 51 af bd 84 2d 97 bd 70 9a a4 bb
       0.07142001 -0.08560383 -0.07381728 -0.005023293
000020 88 cd 46 bc 6c c5 c5 bc d6 85 60 3d fc 74 b5 3c
       -0.012133963 -0.02414199 0.054815136 0.022150509
000030 a5 e7 a5 3d fa 17 2a 3d a4 6d 91 bd e5 46 9a bd
       0.08100823 0.041526772 -0.071009904 -0.07533053
000040 6e 6f 39 3d ce bf 51 3d c1 39 52 bd 05 53 3d bd
       0.045272283 0.05120831 -0.05132461 -0.04622175
000050 d2 35 3e 3d d2 d0 5c 3d 6a a2 b2 bd bc bd 01 3d
       0.046438046 0.053910084 -0.08722384 0.031675085
000060 e8 08 86 bd 4c dd 9e bc 96 d2 a9 bd 88 2d 74 bc
       -0.065446675 -0.019392632 -0.08292119 -0.014903434
000070 92 96 f0 bc ac 8d e6 3c 10 66 33 bc 04 c5 a4 3c
       -0.029368673 0.028143726 -0.010949627 0.020113476
000080 00 94 89 bc 0e 69 47 3d 78 9c e4 bc 10 22 ff 3b
       -0.016794205 0.048684172 -0.027906641 0.007786043
000090 46 8d 5e bd 60 b9 97 bc 07 80 9d 3d 30 77 ea bb
       -0.054333948 -0.01852101 0.07690435 -0.0071553215
0000a0 72 aa ff bc 82 ca 05 3d d8 5f 3d bc 14 ee 6b bd
       -0.031209204 0.03266383 -0.011558495 -0.057600096
0000b0 09 9c 14 bd ec 6b be bc c0 53 50 bb c0 01 9c 3a
       -0.03628162 -0.02324482 -0.00317882 0.0011902377
0000c0 98 e2 f7 bc 20 28 09 bd 65 00 8a 3d cf ca 61 bd
       -0.030259416 -0.03348553 0.067383565 -0.055125054
0000d0 a8 11 33 bd 00 a4 52 39 25 ef aa 3d 7d 64 b2 3d
       -0.04371801 0.00020088255 0.083463944 0.08710573
0000e0 5e 33 a8 bd e8 bd fc 3c 88 a1 07 3d 30 55 a8 3c
       -0.082129225 0.030852273 0.033113033 0.020548433
0000f0 ae 07 ab bd 00 63 a5 39 78 85 93 bc cd c4 98 bd
       -0.08351074 0.00031545013 -0.018007979 -0.07459412
000100 10 13 d2 3b 80 48 29 bc e2 15 ee bc b0 18 58 bd
       0.006410964 -0.010332227 -0.029063169 -0.05275792
000110 a8 bf f2 bc a6 6d 48 3d fc 16 80 bd 5e 8b 57 3d
       -0.029632404 0.048932694 -0.06254384 0.052623145
000120 77 0a 9a bd 80 c5 64 ba e6 41 42 3d 82 a6 63 3d
       -0.07521527 -0.00087269396 0.047426127 0.055578716
000130 60 62 3a bc 39 eb ae bd 64 e5 e3 3c f4 19 91 bc
       -0.0113759935 -0.08540959 0.027819343 -0.01771257
000140 9a 0c 35 3d 98 7e 9e bd bc a0 09 bd 36 83 71 3d
       0.04420147 -0.077389896 -0.033600554 0.058963023
000150 56 7e 53 3d 20 10 ba 3b 66 7b 5c 3d c0 22 58 3c
       0.051634155 0.005678192 0.05382862 0.013191879
000160 20 23 87 bd d4 f9 a9 bc cd 3f 12 bd 2a 93 2d bd
       -0.065984964 -0.02074901 -0.035705376 -0.042376675
000170 59 ca a4 bd 18 23 86 3c 78 42 3b 3c be 95 3e 3d
       -0.08046407 0.016374156 0.011429422 0.046529524
000180 60 32 cf bc e0 ec e5 bb 9f 91 b2 3d 06 e2 32 3d
       -0.025292575 -0.007016763 0.08719181 0.043672584
000190 ed 43 84 3d e0 3e 44 bd 90 57 b2 3b f4 3e 97 bc
       0.06458268 -0.047911525 0.005442567 -0.018462636
0001a0 20 de 8d bd ea 6c 43 3d be 67 5f 3d b8 17 6c 3c
       -0.069271326 0.04771129 0.054542296 0.014409952
0001b0 6c fc a5 bd 98 c8 4f bd ce 56 71 bd 88 c9 b5 bc
       -0.08104786 -0.05072841 -0.058920674 -0.022190824
0001c0 43 be 1f bd 0e 69 62 3d 6c 71 70 bd 17 36 16 bd
       -0.038999807 0.05527597 -0.058701918 -0.036672678
0001d0 d0 9e 03 3d 69 1d 9b bd 83 ec 93 3d d9 1a 98 3d
       0.032133877 -0.07573969 0.072228454 0.07426996
0001e0 d4 0e b6 bc db 17 88 3d 40 09 c4 3c a8 cf 3c 3c
       -0.022223867 0.06645175 0.023930192 0.0115241185
0001f0 3c fa b5 bc c8 10 6e bc 00 91 9c 3c e9 15 24 bd
       -0.022214048 -0.014530368 0.01911211 -0.040059958
000200 27 23 8c 3c 40 a7 05 bd f3 d3 a5 bd 61 1a 4f bd
       0.017106606 -0.032630205 -0.08097067 -0.050562266
000210 35 9b c0 3d ba 34 e8 bd 01 b5 df bb 97 20 a5 bc
       0.094046034 -0.11338182 -0.0068269973 -0.020157142
000220 03 b9 01 3c cc ce 09 bd 6d 86 a4 bc 49 5f 33 3d
       0.007917645 -0.033644482 -0.02008363 0.043792043
000230 f7 2a 61 3d 8e 2d f8 bc c3 fa 95 3d c0 aa 3a 3c
       0.054972615 -0.03029516 0.073232196 0.011393249
000240 cb ee a1 bd d4 4a b2 3d 45 59 b3 bd e3 2e d4 3c
       -0.07906874 0.087056786 -0.08757261 0.025901264
000250 30 86 e8 bb df 72 48 3c 8a f7 09 bd 2f cc 7b bd
       -0.0070960745 0.012234419 -0.033683337 -0.06147402
000260 43 9b 19 3d f8 77 d6 bc 50 b4 de bb f0 0f 0a be
       0.037501585 -0.026180252 -0.0067963973 -0.13482642
000270 ca 1b 74 bd 58 7a ea bc 5e 56 bb 3c 6d 1b b3 bc
       -0.059596814 -0.028622791 0.022868332 -0.021863664
000280 12 2d d4 bc 5e dd 3c bd ec 08 a9 3d 4b c3 af bd
       -0.025900397 -0.04610955 0.08253655 -0.08582171
000290 b4 d8 e0 bd 2f 5d 77 3d f2 54 f9 bd aa 73 26 3d
       -0.10978833 0.0603916 -0.12174405 0.04063765
0002a0 d1 39 99 bd 63 6e 9a 3d 8c c2 43 3d 99 97 c8 bc
       -0.07481731 0.07540586 0.047792956 -0.02448635
0002b0 82 f9 93 bd 04 ea 50 3d a0 cb 63 bd aa 89 19 3d
       -0.07225324 0.051004425 -0.055614114 0.037484802
0002c0 cf c1 e6 bd ce 56 53 bd 81 30 cc 3d f9 1b c4 bc
       -0.11267435 -0.051596455 0.09970189 -0.02393912
0002d0 25 12 75 3d ef f7 8b 3d 12 ae df bb fa 6c e8 bc
       0.059831757 0.06834399 -0.0068261707 -0.028372277
0002e0 d5 e9 b6 3d 9e 30 1b bd 3a d9 f2 bc 90 b3 ea 3c
       0.08931319 -0.03788816 -0.029644597 0.028650075
0002f0 d4 ad 0e be 33 c0 a5 3d 15 cb 06 3b d1 df ca 3d
       -0.13933498 0.080933 0.0020567824 0.09905971
000300 57 03 c5 bc 6b 48 a5 bd b6 e4 e7 bd 8c c1 99 bc
       -0.024049444 -0.08070453 -0.1132292 -0.018769048
000310 81 c8 85 3d 75 95 3d bc 5d 41 a0 3d 89 b8 9d bd
       0.06532384 -0.011571278 0.07824967 -0.07701213
000320 60 53 9e 3d 98 de 3b 3d 95 86 eb bd 10 6f 33 3d
       0.07730746 0.04586658 -0.11500279 0.04380709
000330 f8 28 a7 bd f6 7f a6 bd 8f 7f ad bd 68 7d 0c bd
       -0.08162111 -0.08129875 -0.084715955 -0.034299284
000340 61 c6 63 bd af d4 94 3d f8 3a 83 3c 03 e9 c2 3d
       -0.05560911 0.07267129 0.01601933 0.095171
000350 c0 71 9d bd 6b 56 be 3d 4b b9 1a bd d9 1c dd bd
       -0.07687712 0.09293827 -0.037774365 -0.10796518
000360 78 b4 02 3d a2 02 29 bd 6a 03 35 3d 52 43 c5 3d
       0.03191039 -0.041262276 0.04419271 0.09631981
000370 66 1a 10 bd 7f c8 12 bd 83 8d 12 be 4a fe 9b 3d
       -0.035181426 -0.03583574 -0.14311795 0.07616861
000380 8a 51 0b 3d f8 b3 60 bd a3 f7 a8 3c 7d d7 a6 3d
       0.03401331 -0.05485913 0.020625895 0.0814657
000390 06 8b e2 3c 42 e8 68 bd d6 98 41 3d d5 01 81 bc
       0.027654182 -0.056862123 0.047264896 -0.015747944
0003a0 25 7b f5 bd a5 ea ca 3d 12 99 19 3d d6 1d 20 bd
       -0.119863786 0.09908036 0.037499495 -0.039090954
0003b0 c0 3c 14 bc 39 b6 81 bd 37 b2 42 bd 96 51 25 bd
       -0.009047687 -0.06333584 -0.04753324 -0.04036101
0003c0 2a df db bb 7c 54 64 bd 19 ee 99 bc b0 42 1d bc
       -0.006709953 -0.055744633 -0.018790292 -0.009598419
0003d0 ed 73 c5 bd 9a 7e 0d 3d 6a 83 da bc b4 60 9b 3d
       -0.09641252 0.034544565 -0.026673991 0.07586804
0003e0 0e 37 51 3d 52 7b 8e bd 56 09 a4 3d 28 6e f3 bc
       0.051077895 -0.06957115 0.08009593 -0.029715613
0003f0 f2 07 5c 3d 9f 19 65 bd d0 da 55 3d a7 8e a8 3c
       0.053718515 -0.055932637 0.05221063 0.020575834

fc2_1.bias f4 [64]
000000 76 08 88 bd d4 71 a4 bc 6e 9f 76 bc 00 70 65 bc
       -0.06642239 -0.020073809 -0.015052659 -0.014003754
000010 2a 05 3e bd 69 dd bb ba 4f 96 8e bd 28 7e 82 bc
       -0.046391644 -0.0014332953 -0.06962263 -0.015929297
000020 01 a3 89 bd 3d ea 8a 3b 9a 2a fc bd 52 79 69 bd
       -0.06720544 0.004239349 -0.12312813 -0.057000466
000030 61 8f 60 3c 54 30 6d bd 23 5d a1 3c e5 ee 38 3d
       0.013706059 -0.057907417 0.019697731 0.045149703
000040 11 ad 78 bd 74 0b 82 bd 51 46 5a bd 69 db 7d bc
       -0.060711924 -0.06349841 -0.053289715 -0.015494206
000050 2b 87 b7 3c 88 18 24 bc 18 0c e7 3c 25 58 32 bd
       0.02240332 -0.010015614 0.028204009 -0.043541092
000060 fd 23 c8 3c 62 be d9 bc 3b 96 8e 3d 24 ed ab bd
       0.024431223 -0.02658004 0.06962248 -0.0839484
000070 a7 0f ba 3c 59 b0 a8 bd 8d 73 64 bd 6c 90 24 bd
       0.022712542 -0.08236761 -0.05577426 -0.040176794
000080 5a a4 bb bc a1 db 81 3c 6a dd 83 3d 0a 50 65 3d
       -0.022905517 0.015851798 0.06438716 0.055984534
000090 10 db d3 3d 83 36 e2 bd 6f 02 fa bd ea 71 4b bc
       0.10344517 -0.110455535 -0.122074954 -0.012417296
0000a0 69 8b 88 bd a8 f0 b0 bc b2 39 a1 3c b6 7f 46 3d
       -0.066672154 -0.021599129 0.019680832 0.04846164
0000b0 bd f5 5d bd c4 9d f2 bd c4 a5 96 bd eb 8e 31 bc
       -0.054189432 -0.11846498 -0.07355836 -0.010837297
0000c0 14 b8 99 bc d0 c6 8e 3d 88 67 72 bd 91 08 3a 3d
       -0.018764533 0.06971514 -0.059180766 0.045418326
0000d0 c4 d5 31 bd 8e 17 db bd d5 28 0e 3d 9c 63 3a bd
       -0.043416753 -0.10697852 0.03470691 -0.04550515
0000e0 dc 1d c2 bc 35 29 a6 bd 2a e2 9e bc 3c fc be bd
       -0.023695879 -0.08113328 -0.019394953 -0.09325454
0000f0 7a 9d 25 3d 93 ba a2 3d c1 82 10 bd 40 2f 84 bd
       0.040433384 0.079457425 -0.035280947 -0.06454325

fc3.weight f4 [18, 64]
000000 00 1f 83 3d 68 dd 5e 3d 43 16 e8 bd a4 2a c0 3d
       0.06402397 0.05441037 -0.11332371 0.09383133
000010 ba 21 ce bd c2 2b 45 bc 72 39 0d 3d 90 df fd bd
       -0.100650266 -0.012034358 0.034478612 -0.12396157
000020 90 4b 59 bd 7e f6 a9 3d 20 68 90 3d 69 1f 04 be
       -0.053050578 0.08298968 0.0705111 -0.12902607
000030 8a 4c 88 3d 1a 20 93 bd c8 7f 7c 3a 01 c9 91 3c
       0.06655224 -0.07183857 0.0009632078 0.017796041
000040 12 6e b3 bd 34 7a ea bd 32 53 f8 3d 4a c8 34 3d
       -0.087612286 -0.1144909 0.12125243 0.044136323
000050 90 76 82 bd 9e d9 b1 bd d4 a6 57 3d 1b 77 3f 3d
       -0.0637027 -0.08684085 0.052649334 0.046744447
000060 9b 6e 65 3d f7 7c a9 bd 7e 23 96 3d f6 81 9e 3d
       0.056013685 -0.08275788 0.07330988 0.07739632
000070 ac b8 51 3d 58 0b d7 3b 76 27 17 be 0a e3 db bd
       0.051201507 0.0065626316 -0.14761147 -0.10736664
000080 9d b4 56 bd 22 26 25 bd f1 27 b8 bd 97 19 cf bb
       -0.05241834 -0.04031957 -0.08991993 -0.006320189
000090 74 8d b7 bd 23 75 83 bd 88 1e da b9 5a 12 98 bd
       -0.08962527 -0.064188264 -0.00041602948 -0.07425375
0000a0 13 7f f5 3d e0 95 b8 bb 10 2d f8 b9 80 53 65 37
       0.11987128 -0.005633101 -0.0004733582 1.3668905e-05
0000b0 78 50 da 3d 53 3c ac bd 56 ac 30 be 5e e6 06 be
       0.106598794 -0.084099434 -0.17253241 -0.13173816
0000c0 f8 c1 8e bc 23 f2 0d bd 86 ed 69 3d 9e 8c cc bc
       -0.017426476 -0.034654748 0.057111286 -0.024969395
0000d0 33 54 09 be 63 3a ff bd de 78 02 be b8 2d 44 bd
       -0.13411026 -0.12462308 -0.1274142 -0.047895163
0000e0 76 15 62 bd f0 55 23 3c 73 39 d9 bd 1f dc 94 bd
       -0.055196248 0.00996922 -0.10606661 -0.07268547
0000f0 ce dc d2 bd 4b 9d 8b bd 80 29 9a 3c ab d8 8f 3d
       -0.102960214 -0.06817111 0.018818617 0.07023748
000100 40 52 20 bb 7b e7 d8 bd 39 13 c3 3d 2c ba 64 3d
       -0.0024463087 -0.105910264 0.09525151 0.05584161
000110 e4 b9 96 bd 04 e2 f8 bd 29 28 ab 3d 80 6b 37 bd
       -0.073596746 -0.12152484 0.08357269 -0.044780254
000120 a0 fb d8 bb ec 8f 81 bd c1 cc 48 bd cc b1 98 bd
       -0.006621793 -0.06326279 -0.049023394 -0.07455787
000130 bc 1b 1d bc 0a 96 d0 3d 4d 1c d4 3d 5a 86 1c bd
       -0.009589132 0.10184868 0.103569604 -0.038214065
000140 da fb 97 3d 64 32 3c bd e0 a1 b6 bd 39 40 9d bd
       0.07421084 -0.045946494 -0.08917594 -0.07678265
000150 6b da df bc cc bf 37 3d 30 18 fa 3d a0 c6 cd bd
       -0.02732583 0.044860646 0.12211645 -0.1004765
000160 45 3d 53 3c 13 17 5a 3d 63 08 bc 3d 52 ed 91 3d
       0.012893026 0.05324466 0.09181287 0.071253434
000170 58 b6 20 bd 27 ef 04 be 30 4c 2e 3e 7b 23 9c 3c
       -0.039236397 -0.12981854 0.1702125 0.019059887
000180 09 cb c0 bc 10 be 8c 3d ed cd 54 3d bd 81 9b 3d
       -0.023534315 0.06872189 0.0519542 0.07593105
000190 28 ba 2b 3d fb e4 4d bd 76 cc 9c bd 68 1e 1d be
       0.04192558 -0.0502672 -0.07656185 -0.1534363
0001a0 51 48 f5 3d 00 8a e0 3a 53 42 11 bd d3 82 15 bd
       0.11976684 0.0017130971 -0.035463642 -0.036501717
0001b0 65 ba 0f bd b8 64 52 bd d1 fe eb bc a3 ba f1 3d
       -0.03508987 -0.051365584 -0.02880803 0.11803176
0001c0 c8 37 24 3d e3 e2 9e bc 58 8a d3 3c f2 90 fa bd
       0.04009226 -0.019395297 0.025822803 -0.122346774
0001d0 22 7a 67 bc 1d 22 6e 3d df 47 cd bd fe 61 9b bd
       -0.01412824 0.058138 -0.10023474 -0.0758705
0001e0 cf 84 15 3d e0 ff b7 bc 47 36 56 3d 19 cc 9b 3d
       0.03650361 -0.022460878 0.052297857 0.07607288
0001f0 94 04 cd bd f4 72 86 3a 44 2b 15 bd 12 54 51 3d
       -0.10010639 0.0010257647 -0.036418214 0.051105566
000200 60 f3 be 3c df ba c9 bd 64 11 02 3d 46 2d a0 bd
       0.02330941 -0.09850096 0.031754866 -0.07821135
000210 cb 21 f7 bc 85 62 b1 3d 19 fb 0b bd 00 c4 d6 b9
       -0.03016748 0.08661369 -0.034175012 -0.00040963292
000220 5e f1 9c bd 71 80 a0 bd fa c1 6c 3c b5 f2 a2 3d
       -0.07663225 -0.07836998 0.0144505445 0.07956449
000230 ad 55 7a bc c6 e5 ca 3d 3b 15 84 3c dd 74 c4 bb
       -0.015279216 0.09907107 0.016123405 -0.0059953765
000240 c2 d8 c1 3d a2 60 d1 bd ba bd 8b bd 13 74 3f 3d
       0.094651714 -0.10223509 -0.06823297 0.046741556
000250 94 1d 98 3d 4b da 84 bd ec 44 73 3d 56 de 34 bd
       0.074275166 -0.064869486 0.0593919 -0.04415735
000260 b9 e7 c2 bd f9 9d 3f 3d 0d a1 f1 bd 88 a3 a1 bc
       -0.09516854 0.046781514 -0.11798296 -0.019731298
000270 5f 13 7d 3d a7 93 f7 bc 02 49 41 3d 3b b6 d7 3d
       0.06178605 -0.030221773 0.047188766 0.105328046
000280 09 bf d2 3d de c8 93 3d b1 9c 01 bd 65 54 cc bd
       0.10290343 0.07216047 -0.031643573 -0.099770345
000290 ce 36 36 bd 62 4f 25 bd 97 8c 40 bd bc fb 19 be
       -0.04448586 -0.04035891 -0.047009077 -0.15037435
0002a0 05 f8 47 3d e0 f3 47 bd 83 e6 ed bd 3d c4 5f bd
       0.048820514 -0.04881656 -0.11616232 -0.054630507
0002b0 49 a1 0d 3e c1 7d 04 3e ed 4a 81 3d 64 81 31 bd
       0.13831057 0.12938596 0.06313119 -0.043336287
0002c0 7e 0c bb bd 4d 80 3e 3d 90 f0 8d 3c b7 42 62 3d
       -0.09133242 0.046509076 0.017326623 0.055239405
0002d0 49 ec 9e 3c 6d e4 28 be 42 cf 97 3d 58 f9 85 3d
       0.019399779 -0.16493388 0.07412578 0.06541699
0002e0 22 c8 37 3d 26 bd 98 3d 4d 82 49 3d c2 1a 99 3a
       0.044868596 0.07457952 0.04919653 0.0011680948
0002f0 e0 e8 f7 3c e0 c9 0e be 74 54 97 3d 59 8f 88 3d
       0.03026241 -0.13944197 0.07389155 0.066679664
000300 c2 f1 b4 bd 72 af 27 bd d6 25 4b 3d ec 09 21 bd
       -0.08835174 -0.040938802 0.04959663 -0.039316103
000310 54 88 ab 3d 20 75 26 3d 2c 4c 1e bd 96 ba f0 3d
       0.08375612 0.040639043 -0.038646862 0.117543384
000320 80 c1 f5 bc 28 01 12 3d bd aa d6 3d a2 89 ee bd
       -0.029999495 0.035645634 0.104817845 -0.11647345
000330 c6 a3 7f bd 1e 8c 90 3d b5 fa e4 3d dd 20 f5 3d
       -0.062412046 0.07057975 0.11180631 0.11969159
000340 60 ef a8 3d 9c 78 85 bd d2 af cf bd 83 5e 9c 3d
       0.08248782 -0.06517145 -0.10140957 0.07635214
000350 e6 eb b7 bb 26 e8 e8 bc 12 3b ae bd 63 fe a4 bd
       -0.005612838 -0.02843101 -0.085073605 -0.08056333
000360 e8 23 ec 3d 13 bc 67 bc 6d 26 4e 3d 9e 0f ce 3d
       0.11530286 -0.0141439615 0.050329614 0.100615725
000370 b1 b6 27 3e a0 ec e1 3c 74 7a 3f 3a 96 26 8c 3d
       0.16378285 0.027578652 0.0007304319 0.06843297
000380 23 db 3b 3c fb 21 ae bd 4e 3c bc bd b6 06 f1 bd
       0.0114658205 -0.08502575 -0.0919119 -0.11768858
000390 de 56 07 3e b8 9c 0d 3e 3a 07 1f 3e 0c 44 1d 3d
       0.13216731 0.13829315 0.155301 0.038394973
0003a0 0e 66 24 bd c6 f9 d3 bd f2 01 75 bd a1 08 b4 3d
       -0.04013639 -0.10350375 -0.05981631 0.08790708
0003b0 68 1c d5 3c cc f7 2c bd c4 77 87 3d e0 07 85 3b
       0.026014522 -0.042228505 0.0661464 0.0040597767
0003c0 28 bb c9 bc ef 4d bb 3d a0 b3 04 bd c0 62 0f bd
       -0.024625376 0.09145724 -0.032397866 -0.035006285
0003d0 82 c7 ed 3d 4b ba d6 3d 28 92 f6 bd bc 21 b4 3d
       0.11610319 0.10484751 -0.12039596 0.08795497
0003e0 a9 0f 54 bd 24 23 83 bd 9c c5 a8 ba a6 1e f6 bd
       -0.051772747 -0.06403187 -0.0012876275 -0.120175645
0003f0 b6 b1 98 bd bf a2 8b 3d 0c 18 0e 3d a2 cc 52 bd
       -0.07455771 0.06818151 0.0346909 -0.051464684

fc3.bias f4 [18]
000000 95 2b 10 3c a0 c8 5e bc 38 71 8e 3d 46 2f 55 bd
       0.008799453 -0.013597637 0.069551885 -0.052047037
000010 5b 96 0c 3c e5 5e 18 3c a6 07 25 3d 52 cd 6d 3b
       0.008580769 0.009299968 0.040290497 0.003628571
000020 df d4 d2 3c e2 92 1b 3d 3a 0c 3f bd 10 51 5d 3c
       0.02573627 0.037981875 -0.04664252 0.013508096
000030 3e 81 74 bc 0a 33 87 bc 8f 7a 81 bd dc 01 95 3c
       -0.014923392 -0.01650383 -0.06322204 0.018189363
000040 4d a9 05 bd 8b 69 b2 3c
       -0.03263216 0.021778842
