models/2024-07-20_16-15-34/epoch_0037_loss_0.00035923/dynamics.pth (torch, 83084 bytes, 8 tensors)

fc1.weight f4 [64, 34]
0.117622696 0.014124641 -0.03473292 0.006595268 0.043679927 0.11871676 -0.039957326 -0.03928541
-0.055213723 -0.058000937 -0.008238646 0.107495725 0.06891584 -0.01791717 -0.09511597 0.018936321
-0.06905659 0.10231136 -0.074244626 0.08577377 -0.052213866 0.1534536 -0.03671262 0.1765906
0.21524358 0.069351144 -0.063612886 0.06606958 0.15458716 0.04750133 0.13859291 -0.116389416
-0.057156067 -0.026010996 -0.11918175 -0.15850565 -0.06602779 0.104224816 0.17078127 -0.037418082
0.15373896 0.16230966 0.096726194 -0.049632646 0.023412004 -0.0058175623 0.024190113 -0.120557114
-0.08798891 -0.15846401 -0.032775074 -0.0070086867 -0.15963206 -0.14769688 -0.089264184 -0.09707507
-0.085748084 -0.07816645 0.08058886 0.12061478 -0.042081043 0.1664256 -0.15155545 0.07850836
-0.015335336 0.07746521 0.080149904 0.040436327 0.071874395 0.11550777 0.16148199 0.0893874
-0.14111982 -0.20811543 0.042320672 0.027652653 0.011297449 -0.21516383 0.13263285 -0.0039340993
-0.119171366 -0.08211087 0.026786072 -0.21294683 0.104657575 -0.20758153 -0.042545963 0.07638152
-0.06710372 0.060191788 -0.1489931 0.21037047 0.0526903 -0.102230564 0.14628726 -0.009575993
-0.15184703 -0.12464094 -0.11027288 -0.10387986 -0.19792011 -0.15798175 -0.14413026 0.21445133
0.04295014 -0.076573186 -0.106296785 0.068247005 0.07916365 -0.032634653 -0.06593818 0.083955966
-0.040442396 -0.029713973 -0.20806403 -0.028145438 0.018623997 0.07947585 0.035942845 -0.03743338
-0.09600116 -0.017643284 -0.03424946 -0.09275315 0.036553904 0.18419294 0.15087122 0.07555943
-0.043207083 0.103141926 -0.16362152 0.01670239 0.041929442 -0.17344815 -0.17357989 0.00081845047
0.07459477 0.111333095 0.060745537 -0.0041896254 -0.09938708 -0.13559124 -0.01583657 -0.059534185
-0.045794282 -0.0833908 -0.053900477 0.0225577 -0.09233027 0.019835902 -0.09015094 -0.038187984
-0.06302375 0.032137282 0.19091421 -0.040227536 -0.099698894 -0.19085345 0.0043144748 -0.016768973
-0.08567313 -0.12356657 -0.061454542 -0.13352251 0.10010253 0.03277969 -0.120598495 0.010440519
0.04791751 -0.1974188 0.06187111 0.0044495016 0.17068784 -0.1052816 -0.07090157 -0.10661274
0.10569005 0.05666262 0.1154186 0.16135834 0.13560857 -0.07563257 0.06106393 -0.058770888
0.13583265 0.080609605 0.121553525 -0.03247884 -0.0059760064 -0.013842657 -0.120346256 -0.09752608
-0.15890439 0.023909003 0.10606091 0.16055943 -0.025409028 0.15684669 0.099454984 0.15472548
0.0907086 -0.06685775 0.16492693 0.13670589 -0.083032124 -0.12939143 0.093893506 0.14051344
-0.2484456 0.0379658 0.071243584 -0.082586676 -0.04756305 0.02583687 0.01147743 -0.05401142
0.017593745 0.035196036 0.06292197 0.019200914 0.09563384 0.14720821 -0.19928622 0.18681647
-0.118965015 -0.0230119 0.10433403 0.041674502 0.13107386 0.033060294 0.12800583 -0.16888823
-0.07696262 0.04312353 0.05276711 0.12370816 -0.08011203 -0.12281344 -0.20512986 0.13114157
-0.15203261 0.081855044 -0.084432885 0.11036401 -0.18740027 -0.017306708 0.08395342 -0.18028045
-0.037383523 0.053559154 -0.13000944 0.14690255 -0.00010780657 -0.16098739 0.17882243 -0.19094498
00000000: 2be4 f03d 0a6b 673c 1b44 0ebd 1e1d d83b
00000010: b9e9 323d c621 f33d 4baa 23bd bde9 20bd
00000020: c927 62bd 6492 6dbd 63fb 06bc b826 dc3d
00000030: bf23 8d3d 07c7 92bc 29cc c2bd 5820 9b3c
00000040: 8b6d 8dbd 9e88 d13d 910d 98bd 29aa af3d
00000050: 35de 55bd f122 1d3e f95f 16bd 2bd4 343e
00000060: d068 5c3e f907 8e3d 7947 82bd 7d4f 873d
00000070: 194c 1e3e c190 423d 4deb 0d3e 935d eebd
00000080: 7b1c 6abd 0315 d5bc 9015 f4bd 4e4f 22be
00000090: 9439 87bd d273 d53d 49e1 2e3e b443 19bd
000000a0: bf6d 1d3e 8134 263e 6218 c63d 9a4b 4bbd
000000b0: 88ca bf3c 40a1 bebb 582a c63c a6e6 f6bd
000000c0: 8833 b4bd 6444 22be 283f 06bd 20a9 e5bb
000000d0: 9676 23be da3d 17be 24d0 b6bd 4bcf c6bd
000000e0: b19c afbd bb15 a0bd c60b a53d e204 f73d
000000f0: 2c5d 2cbd 796b 2a3e 5a31 1bbe fec8 a03d
00000100: 1041 7bbc 14a6 9e3d a225 a43d 90a0 253d
00000110: e232 933d 568f ec3d 895b 253e be10 b73d
00000120: b781 10be 361c 55be 7158 2d3d d187 e23c
00000130: ef18 393c e853 5cbe e8d0 073e 9ee9 80bb
00000140: 1e10 f4bd be29 a8bd 776e db3c bc0e 5abe
00000150: b656 d63d 4190 54be ad44 2ebd ea6d 9c3d
00000160: ad6d 89bd aa8b 763d a691 18be 5b6b 573e
00000170: c9d1 573d 425e d1bd 54cc 153e a0e4 1cbc
00000180: ca7d 1bbe c043 ffbd bfd6 e1bd f7be d4bd
00000190: 92ab 4abe f8c5 21be e296 13be 2199 5b3e
000001a0: 7cec 2f3d 67d2 9cbd 21b2 d9bd 16c5 8b3d
000001b0: 8d20 a23d eaab 05bd 990a 87bd 1bf1 ab3d
000001c0: eda6 25bd b86a f3bc bd0e 55be 4391 e6bc
000001d0: 5a91 983c 3cc4 a23d ce38 133d be53 19bd
000001e0: 429c c4bd a688 90bc 2949 0cbd 5df5 bdbd
000001f0: 8cb9 153d 139d 3c3e fc7d 1a3e e7be 9a3d
00000200: e9f9 30bd 133c d33d 668c 27be 73d3 883c
00000210: 35be 2b3d 649c 31be edbe 31be 488d 563a
00000220: 25c5 983d 9b02 e43d 50d0 783d 2049 89bb
00000230: 748b cbbd 6ed8 0abe b2bb 81bc 1eda 73bd
00000240: c992 3bbd ccc8 aabd bfc6 5cbd edca b83c
00000250: a717 bdbd e77e a23c 0ea1 b8bd 016b 1cbd
00000260: 9912 81bd 62a2 033d 047f 433e a1c5 24bd
00000270: ef2e ccbd 166f 43be 7060 8d3b 165f 89bc
00000280: 6575 afbd 7810 fdbd c2b7 7bbd 20ba 08be
00000290: 8e02 cd3d ff43 063d 58fc f6bd b60e 2b3c
000002a0: 2745 443d 2728 4abe 906c 7d3d 20cd 913b
000002b0: cbc8 2e3e e19d d7bd d834 91bd c857 dabd
000002c0: 0674 d83d 1017 683d 9660 ec3d 1f3b 253e
000002d0: f9dc 0a3e 40e5 9abd 2c1e 7a3d beb9 70bd
000002e0: b717 0b3e a616 a53d 0ef1 f83d 8808 05bd
000002f0: 60d2 c3bb 50cc 62bc 1978 f6bd c1bb c7bd
00000300: d5b7 22be d0dc c33c 7636 d93d b169 243e
00000310: 9826 d0bc 6b9c 203e 0eaf cb3d 5b70 1e3e
00000320: 6ec5 b93d b7ec 88bd 9be2 283e a1fc 0b3e
00000330: bf0c aabd 307f 04be 3d4b c03d c1e2 0f3e
00000340: 8668 7ebe 0782 1b3d 28e8 913d 3423 a9bd
00000350: 79d1 42bd d8a7 d33c d50b 3c3c 143b 5dbd
00000360: c220 903c b829 103d 3cdd 803d 3c4b 9d3c
00000370: addb c33d c0bd 163e b011 4cbe d14c 3f3e
00000380: eea3 f3bd 7483 bcbc 14ad d53d e2b2 2a3d
00000390: 3a38 063e 3b6a 073d f613 033e 09f1 2cbe
000003a0: 949e 9dbd 4ca2 303d 5322 583d b45a fd3d
000003b0: c711 a4bd 9d85 fbbd 900d 52be fa49 063e
000003c0: 70ae 1bbe 9ea3 a73d 26eb acbd 8706 e23d
000003d0: dbe5 3fbe ccc6 8dbc c5ef ab3d 709b 38be
000003e0: 771f 19bd d860 5b3d 3221 05be 9f6d 163e
000003f0: 3616 e2b8 e1d9 24be 3a1d 373e 1587 43be

fc1.bias f4 [64]
-0.008259958 -0.045066327 -0.17007163 -0.1424535 0.17889948 -0.009579673 0.11377689 -0.18467978
0.03555731 0.0062111393 -0.21190098 -0.075387605 -0.034542132 -0.13183218 0.11405383 0.0051736953
0.1168583 -0.086760014 -0.08413369 -0.16911855 -0.13347466 -0.079423666 -0.12605058 -0.06579033
-0.09526299 -0.06333412 0.08710946 -0.13859418 -0.14748657 -0.11039578 -0.09120869 0.07298167
0.06502243 0.019485062 -0.11274724 0.0073855016 0.121992745 -0.003962018 -0.12858942 -0.15824363
0.049239628 -0.035391733 -0.16993314 -0.09664679 -0.18041432 -0.1872723 0.013816616 0.08295382
0.09392251 0.03570729 -0.042991757 0.03110856 0.16236399 -0.06305657 -0.08609617 -0.15581627
0.06561934 0.1046003 0.13852604 -0.15503526 0.021518484 -0.064653546 0.055556748 0.1208602
00000000: c654 07bc 7897 38bd 4227 2ebe 55df 11be
00000010: 6d31 373e 10f4 1cbc dc03 e93d b21c 3dbe
00000020: 8ba4 113d d086 cb3b 92fc 58be d164 9abd
00000030: 0d7c 0dbd 04ff 06be 0e95 e93d 1a88 a93b
00000040: 6853 ef3d 3caf b1bd 494e acbd 6a2d 2dbe
00000050: 95ad 08be e0a8 a2bd 6713 01be 15bd 86bd
00000060: 3e19 c3bd 52b5 81bd 7266 b23d a2eb 0dbe
00000070: b806 17be 2f17 e2bd 9fcb babd 6a77 953d
00000080: 7b2a 853d 239f 9f3c 06e8 e6bd 1402 f23b
00000090: 55d7 f93d d1d3 81bb f2ac 03be 9e0a 22be
000000a0: 7eaf 493d ecf6 10bd f402 2ebe c1ee c5bd
000000b0: 88be 38be 4fc4 3fbe 165f 623c b1e3 a93d
000000c0: 725a c03d cf41 123d 2018 30bd 61d7 fe3c
000000d0: bf42 263e ce23 81bd 3053 b0bd 4d8e 1fbe
000000e0: 6f63 863d af38 d63d c5d9 0d3e 90c1 1ebe
000000f0: 8847 b03c 1469 84bd 798f 633d 8d85 f73d

fc2.weight f4 [128, 64]
-0.053280972 0.046415374 0.0014170561 0.1054368 -0.026736645 0.056050032 0.015911167 0.022233192
-0.03826592 0.019177364 0.14418793 0.10306368 -0.0009437919 0.049948886 0.033594612 -0.08596649
-0.060947612 0.0025340975 0.12187385 0.03273638 0.032276463 0.05367083 0.057675093 -0.09415528
0.055550292 0.08710369 -0.17052127 -0.05001135 -0.07279878 0.07724736 0.15270455 -0.066441596
0.019697879 -0.06948027 -0.121936336 0.059745353 0.024730109 0.026966657 0.037299693 -0.055651337
-0.086854294 -0.119152546 -0.06972305 0.06573026 0.08823674 0.06431696 0.0034813338 -0.07469528
-0.12814267 -0.059747912 -0.07665403 0.04129506 -0.0999076 0.023344189 0.09469754 -0.0027708262
-0.15571472 -0.022040464 -0.08771135 0.10463333 0.010194919 0.01147093 -0.017803751 -0.0624419
0.009177331 0.079718545 0.06440457 0.11198322 -0.21174613 0.009243518 0.10926996 0.08343185
-0.09418835 -0.074729875 0.13572931 0.046474822 -0.04790009 0.06408508 -0.119978204 0.12725906
-0.028967328 -0.10726502 -0.022151077 0.005856399 0.016720932 -0.0109815635 0.123604834 0.10042325
-0.014402494 -0.053915825 -0.119980864 0.03994827 -0.03437532 0.09455585 0.009143617 0.00719186
0.11029731 0.11485796 -0.07237694 -0.10087218 0.0023486477 -0.18982106 -0.085984364 0.055588454
-0.10899357 -0.16162671 -0.09215811 -0.05437024 -0.08608808 0.06800189 -0.06330472 0.10851283
-0.09311117 -0.23159692 0.048923224 0.02337042 -0.19301717 -0.05308205 0.116809346 0.079454735
-0.107902616 0.12454858 -0.12761311 0.01218228 -0.04351516 -0.11810242 -0.009310154 -0.10147053
0.08188684 0.045702294 -0.088009775 -0.10871488 -0.002287954 0.036345527 0.03965737 -0.04260683
-0.04538478 -0.09490046 -0.1151766 -0.11810735 0.04996571 0.04423213 -0.07404177 0.07010405
-0.027708188 -0.021205485 -0.053178474 0.061417595 0.05730562 0.108748436 0.0229308 0.09362787
0.06095779 0.0018396825 0.09729102 -0.037590265 -0.0069811493 -0.09195484 -0.055820614 -0.08467971
-0.031304955 0.033810467 -0.028690591 -0.083835945 -0.051318243 -0.023173466 0.11732635 -0.10776596
0.042509586 0.06966163 0.095965475 0.006747693 0.015197918 0.097601786 0.09002641 -0.08255178
-0.039513797 0.02975215 5.0887465e-05 -0.07633856 -0.06462829 -0.0063242167 0.04466273 -0.045358524
0.117042646 0.0025889724 -0.10094574 0.006311074 -0.09332013 0.036669135 -0.050903514 -0.008393958
-0.03668417 -0.08848314 -0.015664726 0.108542964 0.05464074 0.019527748 -0.08012079 0.06636214
-0.033681855 0.027681515 -0.03257902 0.042075768 -0.09675558 -0.07377945 -0.09044768 -0.066492885
0.11994153 0.10763766 -0.030648232 -0.030088812 0.02998522 0.06123641 -0.120013565 0.064860865
-0.016689003 0.04713984 0.027568296 -0.07910906 0.030612439 0.035511553 0.12336126 -0.00644058
0.109008506 -0.04975529 -0.04225874 -0.08030087 -0.07829465 -0.08550052 -0.08858381 0.053485394
-0.003780067 0.08844057 0.08312984 -0.07437281 -0.10996491 0.04940243 -0.12489413 -0.018974304
-0.016998708 -0.08478625 0.011005864 -0.036591113 0.009150654 -0.12423591 0.015556321 0.05099508
-0.09337835 -0.1140051 -0.007948503 0.06658666 0.08699322 -0.08979504 -0.058281153 0.10696022
00000000: 263d 5abd 0c1e 3e3d 83bc b93a 40ef d73d
00000010: cf06 dbbc b894 653d 2358 823c 6222 b63c
00000020: babc 1cbd d919 9d3c 00a6 133e 0d13 d33d
00000030: cd68 77ba 3497 4c3d 819a 093d 330f b0bd
00000040: 34a4 79bd 1a13 263b ff98 f93d 9516 063d
00000050: 5334 043d f2d5 5b3d b83c 6c3d 7cd4 c0bd
00000060: b488 633d 6b63 b23d 219d 2ebe b4d8 4cbd
00000070: 8717 95bd dd33 9e3d 955e 1c3e 8812 88bd
00000080: 725d a13c ac4b 8ebd c2b9 f9bd 8bb7 743d
00000090: cc96 ca3c 2ee9 dc3c 90c7 183d a8f2 63bd
000000a0: aae0 b1bd 4006 f4bd f5ca 8ebd 969d 863d
000000b0: 77b5 b43d 9cb8 833d 1727 643b d7f9 98bd
000000c0: d537 03be 3aba 74bd cafc 9cbd 0225 293d
000000d0: 5b9c ccbd 503c bf3c c9f0 c13d c096 35bb
000000e0: ae73 1fbe 348e b4bc 02a2 b3bd 004a d63d
000000f0: 9708 273c 91f0 3b3c 2cd9 91bc 14c3 7fbd
00000100: 845c 163c 7a43 a33d 8be6 833d 7557 e53d
00000110: fad3 58be 2072 173c eec8 df3d 51de aa3d
00000120: d2e5 c0bd fa0b 99bd a0fc 0a3e 625c 3e3d
00000130: e332 44bd 0a3f 833d 22b7 f5bd 3350 023e
00000140: e44c edbc c3ad dbbd 2d76 b5bc 09e7 bf3b
00000150: 56fa 883c 04ec 33bc 8824 fd3d b4aa cd3d
00000160: 70f8 6bbc d7d6 5cbd 87b8 f5bd cca0 233d
00000170: 23cd 0cbd 7fa6 c13d 1ccf 153c b2a9 eb3b
00000180: 8ee3 e13d a63a eb3d 5c3a 94bd 1396 cebd
00000190: c5eb 193b 7460 42be 9218 b0bd b8b0 633d
000001a0: 0538 dfbd 7981 25be 64bd bcbd 54b3 5ebd
000001b0: f34e b0bd 9344 8b3d e8a5 81bd fa3b de3d
000001c0: 12b1 bebd be27 6dbe b863 483d 5373 bf3c
000001d0: 4ba6 45be 906c 59bd bd39 ef3d 2ab9 a23d
000001e0: 0cfc dcbd 5313 ff3d 03ad 02be 3098 473c
000001f0: f43c 32bd aedf f1bd 9e89 18bc c8cf cfbd
00000200: 4ab4 a73d 5432 3b3d 783e b4bd e8a5 debd
00000210: 80f1 15bb 0cdf 143d c46f 223d 8084 2ebd
00000220: 64e5 39bd 2c5b c2bd b6e1 ebbd 44e2 f1bd
00000230: d8a8 4c3d c02c 353d 36a3 97bd b692 8f3d
00000240: 48fc e2bc 20b7 adbc acd1 59bd 0491 7b3d
00000250: 4cb9 6a3d 80b7 de3d 60d9 bb3c f8bf bf3d
00000260: e0ae 793d 8021 f13a 8440 c73d 40f8 19bd
00000270: 20c2 e4bb d252 bcbd 28a4 64bd 8e6c adbd
00000280: a039 00bd d87c 0a3d 8808 ebbc 2eb2 abbd
00000290: 1433 52bd 48d6 bdbc cc48 f03d 66b4 dcbd
000002a0: 881e 2e3d c2aa 8e3d 8c89 c43d c01b dd3b
000002b0: b000 793c 72e3 c73d c45f b83d e810 a9bd
000002c0: 38d9 21bd c8ba f33c 0070 5538 6457 9cbd
000002d0: d65b 84bd 603b cfbb 44f0 363d dcc9 39bd
000002e0: 0eb4 ef3d c0ab 293b a4bc cebd 20cd ce3b
000002f0: a01e bfbd 6032 163d 3480 50bd d086 09bc
00000300: 2442 16bd a636 b5bd 5053 80bc c64b de3d
00000310: f8ce 5f3d a8f8 9f3c 5e16 a4bd e0e8 873d
00000320: fcf5 09bd 58c4 e23c 9471 05bd a457 2c3d
00000330: ca27 c6bd ae19 97bd a23c b9bd 6c2d 88bd
00000340: e8a3 f53d 2271 dc3d 0012 fbbc d07c f6bc
00000350: 90a3 f53c 08d3 7a3d acc9 f5bd c6d5 843d
00000360: 60b7 88bc b415 413d e8d6 e13c ee03 a2bd
00000370: f0c6 fa3c 9074 113d d4a4 fc3d 800b d3bb
00000380: da3f df3d 34cc 4bbd 8017 2dbd c874 a4bd
00000390: f258 a0bd e61a afbd 6e6b b5bd 8013 5b3d
000003a0: 00bb 77bb 5420 b53d fa3f aa3d c650 98bd
000003b0: 4835 e1bd 345a 4a3d 7ec8 ffbd 0070 9bbc
000003c0: e040 8bbc 6aa4 adbd f051 343c 90e0 15bd
000003d0: a0ec 153c 666f febd f0df 7e3c 38e0 503d
000003e0: 263d bfbd 827b e9bd 703a 02bc 965e 883d
000003f0: 8029 b23d 76e6 b7bd 38b8 6ebd f60d db3d

fc2.bias f4 [128]
0.062099468 0.025211442 0.04037261 -0.014365196 0.0030601174 0.0020943275 0.0738511 0.13067354
-0.078284934 0.0068980465 -0.111719266 0.010280126 -0.08892156 0.0069093206 0.030994132 0.11126298
-0.15783304 0.02731397 0.062650114 -0.075488865 -0.039735116 0.03347258 0.066087745 -0.044972785
0.041495692 -0.06426149 0.026252372 -0.06434317 -0.17105688 -0.01771921 -0.14841782 -0.022664055
-0.084338024 0.0975384 -0.008876881 0.10649955 -0.104692884 -0.05373968 0.017256161 -0.03683018
-0.060234267 -0.069837034 -0.0868503 -0.09622976 -0.05808927 0.02927385 -0.017747402 -0.03855865
-0.033879995 -0.023105213 -0.09209043 -0.0005733144 0.053037513 -0.023557398 -0.09406299 -0.15176664
0.032356277 -0.10453447 0.0014695227 -0.05903414 -0.060493544 -0.021194022 -0.14946215 0.0098806
-0.0037467123 -0.04931621 0.099812485 -0.014260989 -0.09290153 0.035832398 -0.12272744 -0.023699127
-0.09575558 -0.048434153 0.027015075 -0.15912646 -0.104754835 -0.04475888 0.0069329445 0.0009835333
0.0909629 -0.054999217 -0.08064814 0.09220859 0.038236387 -0.09335234 0.013634958 0.13303836
-0.115361825 -0.00030205783 0.029598393 -0.077580325 -0.0076762587 0.01032641 0.023887755 -0.055585127
-0.09960454 -0.077101156 -0.08277714 -0.10012042 -0.028219014 0.058821857 0.048831277 0.076833285
-0.102372676 -0.12075761 -0.047163058 -0.109024346 -0.108038925 0.023043482 -0.020692889 -0.051543146
-0.08853129 -0.031244814 -0.03741443 0.09878381 -0.17534707 -0.061588965 -0.018401152 0.14848177
0.008922545 0.080529585 -0.026231665 0.0268428 0.12292552 0.037053056 -0.048814848 -0.031618256
00000000: 035c 7e3d 3a88 ce3c c05d 253d 005c 6bbc
00000010: 408c 483b fc40 093b 3f3f 973d 49cf 053e
00000020: da53 a0bd 0209 e23b 12cd e4bd f96d 283c
00000030: 821c b6bd 9567 e23b 68e7 fd3c d8dd e33d
00000040: fc9e 21be 8cc1 df3c b44e 803d e899 9abd
00000050: 4ac1 22bd 8b1a 093d 0359 873d 6235 38bd
00000060: 63f7 293d 879b 83bd 370f d73c 5ac6 83bd
00000070: 8929 2fbe e027 91bc d7fa 17be f8a9 b9bc
00000080: 6ab9 acbd 36c2 c73d 5670 11bc 701c da3d
00000090: 3969 d6bd 241e 5cbd cb5c 8d3c 3edb 16bd
000000a0: 35b8 76bd b806 8fbd 92de b1bd 1c14 c5bd
000000b0: 04ef 6dbd b7cf ef3c 0063 91bc adef 1dbd
000000c0: c0c5 0abd 2547 bdbc e899 bcbd 7a4a 16ba
000000d0: dd3d 593d 72fb c0bc 19a4 c0bd b768 1bbe
000000e0: 0488 043d 2b16 d6bd 009d c03a c8cd 71bd
000000f0: 14c8 77bd 169f adbc 9b0c 19be 3de2 213c
00000100: 678b 75bb cbff 49bd 7d6a cc3d eca6 69bc
00000110: 2843 bebd fec4 123d 8658 fbbd ac24 c2bc
00000120: 801b c4bd e462 46bd b84e dd3c 0cf2 22be
00000130: b489 d6bd 1655 37bd c12d e33b e7e9 803a
00000140: c24a ba3d dc46 61bd da2a a5bd dbd7 bc3d
00000150: c29d 1c3d 832f bfbd 2965 5f3c 353b 083e
00000160: d242 ecbd 845d 9eb9 5478 f23c 6fe2 9ebd
00000170: 2089 fbbb 1a30 293c 41b0 c33c 3bad 63bd
00000180: 77fd cbbd 36e7 9dbd 1087 a9bd ef0b cdbd
00000190: 902b e7bc 30ef 703d 4e03 483d c55a 9d3d
000001a0: c4a8 d1bd c44f f7bd 0d2e 41bd 2848 dfbd
000001b0: 8343 ddbd afc5 bc3c 2284 a9bc e81e 53bd
000001c0: e54f b5bd 20f5 ffbc e03f 19bd 2b4f ca3d
000001d0: 2f8e 33be b644 7cbd 03be 96bc 9b0b 183e
000001e0: de2f 123c b2ec a43d cae3 d6bc 6fe5 db3c
000001f0: 60c0 fb3d f2c4 173d 14f2 47bd 2582 01bd

fc2_1.weight f4 [64, 128]
-0.018097369 -0.09388414 -0.0064934567 0.0668182 0.02100379 -0.063109845 -0.14299501 -0.03486319
-0.011553325 -0.02206804 0.0029469207 0.025499523 -0.03355364 -0.12436029 -0.10780981 -0.037004184
0.075674795 -0.09699767 -0.10779004 -0.080407694 -0.07735395 -0.086435705 0.005223048 -0.004441508
-0.006036811 0.022754654 0.008423568 0.016003788 0.017186254 -0.037939966 -0.041089315 -0.05479518
0.0034672543 -0.13674252 -0.056403123 -0.017578792 -0.06762074 0.018913493 -0.14424314 -0.1399083
-0.019364767 -0.025638469 -0.11010865 -0.14494252 -0.07604688 -0.05579796 -0.072322324 -0.052450564
-0.08006604 0.055154227 0.026849419 -0.1297845 -0.10764048 0.030943424 -0.111451626 0.005420923
-0.14768277 0.012287044 0.054730542 -0.0039739534 0.013183837 -0.048255224 -0.014974572 0.0056020264
-0.094315 -0.003064609 -0.13745026 -0.01683273 0.015509695 0.0039220974 0.02163633 -0.103140816
-0.06264804 0.047539987 -0.13061137 -0.027030887 0.002059004 -0.11733794 0.019431202 0.019564137
-0.13934298 -0.0494286 0.04640416 -0.13381459 -0.047976032 -0.09639107 -0.0023950406 -0.040521976
-0.023774138 -0.039058372 -0.09158213 -0.12203623 -0.040804498 -0.091084816 -0.04951988 -0.11694008
0.013240171 -0.12511338 0.017651342 -0.073951736 -0.13020632 -0.13068138 0.026407924 -0.09437089
0.07787303 0.060407214 -0.06942568 0.07045028 -0.044011984 -0.07977347 -0.1406109 0.006002851
-0.05172986 0.08355019 0.018442474 0.011299086 -0.07296993 0.0037893464 -0.031173902 -0.06860087
0.048441105 -0.015669407 -0.020133233 -0.11847179 0.024139393 -0.082482055 0.016718326 0.026790544
-0.045492355 -0.0059954524 -0.08660128 0.086032964 0.05304762 0.0046772906 -0.068788566 0.013346961
-0.030873809 -0.073115095 0.0142997205 -0.029619813 0.0801997 -0.012437379 0.116574876 -0.029840948
-0.06491607 0.06505126 -0.14419352 -0.0041530654 0.07453455 -0.14831583 0.06910245 0.14142345
0.0017073723 -0.005835825 0.017748829 -0.0062311366 0.013929427 -0.032984227 -0.03034739 0.08034038
0.018972337 0.10300036 -0.058351785 0.11016022 0.08377882 0.00868541 -0.029377865 -0.037161127
0.09852844 0.07969914 -0.0027402702 -0.007285099 -0.023633331 0.059845027 0.06257432 0.041587926
0.04744628 -0.08318524 0.08326762 0.022226723 -0.021573747 0.04445862 -0.047139015 0.01710997
0.09496868 0.114480495 -0.005377203 0.08366706 0.059743043 -0.009912257 -0.08036022 0.052688442
0.04425703 -0.07059427 0.02144121 -0.021638375 -0.043414257 0.06490563 -0.015299097 0.13156463
-0.014640063 0.028044142 0.08615623 0.14270635 -0.022364156 -0.11965969 0.104191124 -0.14285074
0.023102053 -0.024096772 -0.04587034 0.062290557 -0.05869078 0.12514575 0.13166529 -0.108502746
0.07236372 0.015047489 -0.1404273 0.034785252 0.09178897 0.0076653957 0.09369042 -0.040345166
0.052065954 0.01864882 0.011735603 0.10239344 -0.0021805712 -0.12751691 0.013561994 0.019870337
-0.007796705 0.03618657 0.06465529 0.030429013 0.039004136 0.053288244 0.09927478 0.026108332
0.14526339 -0.072371945 -0.017286636 -0.10073835 -0.02545535 0.081711896 0.12647009 0.043336444
-0.07936934 -0.1717359 -0.010160455 0.07605811 -0.12581764 -0.04840477 0.031508062 -0.13593113
00000000: ef40 94bc 5446 c0bd 10c7 d4bb fbd7 883d
00000010: 2410 ac3c bc3f 81bd 496d 12be b4cc 0ebd
00000020: 284a 3dbc 09c8 b4bc 2021 413b 60e4 d03c
00000030: 8b6f 09bd 9cb0 febd 64cb dcbd b391 17bd
00000040: 63fb 9a3d b7a6 c6bd 06c1 dcbd caac a4bd
00000050: bf6b 9ebd 3405 b1bd 1a26 ab3b 128a 91bb
00000060: 71d0 c5bb f867 ba3c 0103 0a3c 601a 833c
00000070: 30ca 8c3c f066 1bbd 454d 28bd e970 60bd
00000080: e03a 633b 3b06 0cbe f606 67bd 6601 90bc
00000090: be7c 8abd 78f0 9a3c 79b4 13be 1f44 0fbe
000000a0: dca2 9ebc c407 d2bc a580 e1bd d06b 14be
000000b0: 77be 9bbd 678c 64bd ba1d 94bd 67d6 56bd
000000c0: aaf9 a3bd 66e9 613d 50f3 db3c 3ae6 04be
000000d0: 9d72 dcbd 107d fd3c c040 e4bd ffa1 b13b
000000e0: 273a 17be 994f 493c 222d 603d f037 82bb
000000f0: 0501 583c 45a7 45bd e857 75bc 3491 b73b
00000100: 3928 c1bd 9bd7 48bb c3bf 0cbe cbe4 89bc
00000110: 601c 7e3c f084 803b ac3e b13c 7e3b d3bd
00000120: 9e4d 80bd 4ab9 423d fdbe 05be e16f ddbc
00000130: 5bf0 063b e04e f0bd 2f2e 9f3c f844 a03c
00000140: edaf 0ebe a575 4abd 4a12 3e3d b106 09be
00000150: 8482 44bd ae68 c5bd 1df6 1cbb 5ffa 25bd
00000160: fbc1 c2bc acfb 1fbd 698f bbbd 22ee f9bd
00000170: 9e22 27bd ad8a babd 5cd5 4abd 487e efbd
00000180: 4ded 583c b91d 00be 8c99 903c 0274 97bd
00000190: ce54 05be 57d1 05be 6e55 d83c 8645 c1bd
000001a0: e57b 9f3d 8e6d 773d 0d2f 8ebd 3d48 903d
000001b0: e945 34bd 4660 a3bd 4efc 0fbe 90b3 c43b
000001c0: b1e2 53bd 5d1c ab3d ac14 973c cd1f 393c
000001d0: 4271 95bd af56 783b 6960 ffbc 9d7e 8cbd
000001e0: 2e6a 463d 215d 80bc 73ee a4bc 56a1 f2bd
000001f0: fabf c53c 5aec a8bd dff4 883c d877 db3c
00000200: 3156 3abd 8075 c4bb 035c b1bd 0d32 b03d
00000210: 7648 593d f543 993b 05e1 8cbd 36ad 5a3c
00000220: 12eb fcbc 5ebd 95bd 6049 6a3c 40a5 f2bc
00000230: be3f a43d 26c6 4bbc cfbe ee3d 0175 f4bc
00000240: b7f2 84bd 9839 853d 77a7 13be 7016 88bb
00000250: 92a5 983d 1be0 17be 9685 8d3d 4fd1 103e
00000260: e8c9 df3a 733a bfbb fe65 913c 902e ccbb
00000270: 4038 643c 781a 07bd 179b f8bc 7f89 a43d
00000280: e06b 9b3c daf1 d23d 4802 6fbd ae9b e13d
00000290: 3b94 ab3d 404d 0e3c d9a9 f0bc 4436 18bd
000002a0: 47c9 c93d 4d39 a33d 1b96 33bb d7b7 eebb
000002b0: b09a c1bc 0f20 753d f726 803d 1a58 2a3d
000002c0: 0857 423d 065d aabd 3788 aa3d d114 b63c
000002d0: 6dbb b0bc 3e1a 363d d714 41bd 352a 8c3c
000002e0: f07e c23d c074 ea3d 4033 b0bb a359 ab3d
000002f0: 1fb5 743d 0567 22bc e693 a4bd d6cf 573d
00000300: dc46 353d bb93 90bd 7aa5 af3c f642 b1bc
00000310: 26d3 31bd 3eed 843d 10a9 7abc e1b8 063e
00000320: e0dc 6fbc d4bc e53c ad72 b03d 9d21 123e
00000330: 0935 b7bc 2410 f5bd 2862 d53d 7747 12be
00000340: 8440 bd3c 9866 c5bc 8ae2 3bbd 6224 7f3d
00000350: be65 70bd 3526 003e 44d3 063e b036 debd
00000360: 6e33 943d be89 763c 2dcc 0fbe fb7a 0e3d
00000370: dbfb bb3d 002e fb3b c3e0 bf3d f940 25bd
00000380: 1c43 553d 69c5 983c b046 403c a7b3 d13d
00000390: eae7 0ebb cb93 02be 2033 5e3c 1ec7 a23c
000003a0: 807b ffbb 5e38 143d fe69 843d 4446 f93c
000003b0: cdc2 1f3d c644 5a3d 9350 cb3d 24e1 d53c
000003c0: edbf 143e be37 94bd b49c 8dbc e84f cebd
000003d0: bd87 d0bc 9158 a73d 6081 013e 8e81 313d
000003e0: 648c a2bd 89db 2fbe 0978 26bc 5bc4 9b3d
000003f0: 57d6 00be 1544 46bd 990e 013d 8831 0bbe

fc2_1.bias f4 [64]
-0.018640017 -0.029307593 0.056597296 0.057278816 -0.030073838 0.04481474 0.034153856 -0.033006333
-0.081328005 -0.010744979 -0.069978476 -0.022041518 -0.009427093 0.024335647 -0.06162458 -0.11135448
-0.04904459 -0.062217414 -0.12133117 0.0514935 -0.1023148 0.093385145 -0.02348376 0.0072890427
-0.04735642 -0.06494452 0.06947082 0.08065184 -0.09038013 0.07015837 -0.111410715 -0.08430619
0.1084991 -0.06291895 -0.044277955 -0.026942804 -0.08582294 -0.104554065 -0.0533407 -0.12180969
-0.09155551 0.058517653 -0.04263333 0.03466131 -0.09775296 -0.020773184 0.0077175186 0.10129742
-0.013300949 0.09656273 -0.050670974 -0.097906314 -0.0603351 -0.022959864 -0.037329454 0.016721988
-0.07995558 0.04924525 -0.11607445 -0.08728325 -0.05801894 0.027124567 -0.082038805 -0.1147369
00000000: f3b2 98bc 7a16 f0bc 91d2 673d 319d 6a3d
00000010: 695d f6bc a98f 373d eae4 0b3d a631 07bd
00000020: 4c8f a6bd b50b 30bc e050 8fbd 6a90 b4bc
00000030: 1874 1abc 8d5b c73c 0e6a 7cbd d10d e4bd
00000040: fbe2 48bd b0d7 7ebd 7a7c f8bd d9ea 523d
00000050: 6c8a d1bd b640 bf3d 0461 c0bc ecd8 ee3b
00000060: cef8 41bd a201 85bd b846 8e3d cb2c a53d
00000070: 3819 b9bd 31af 8f3d 4d2b e4bd b9a8 acbd
00000080: c734 de3d a7db 80bd cd5c 35bd 28b7 dcbc
00000090: f0c3 afbd 7120 d6bd c77b 5abd 5c77 f9bd
000000a0: 7581 bbbd 35b0 6f3d 49a0 2ebd 05f9 0d3d
000000b0: b432 c8bd 862c aabc 3de3 fc3b 0675 cf3d
000000c0: 39ec 59bc aec2 c53d 5e8c 4fbd 1b83 c8bd
000000d0: f021 77bd 5316 bcbc c5e6 18bd 8dfc 883c
000000e0: c0bf a3bd 63b5 493d 71b8 edbd 90c1 b2bd
000000f0: 45a5 6dbd 5734 de3c f603 a8bd 2efb eabd

fc3.weight f4 [18, 64]
0.1408464 0.03250842 -0.02273676 0.07195954 -0.051176395 0.030981185 -0.036089934 0.06647088
-0.122747436 0.16456178 -0.04623313 0.15088406 0.10962841 0.059622068 -0.056904137 -0.14093168
0.020854339 0.010693909 -0.01127927 0.01586945 -0.07145187 0.104233906 0.014948204 -0.098868854
0.042361632 0.0949734 0.14855754 0.07173951 0.12512207 0.032154895 -0.06740713 0.17404109
0.017757231 -0.08018573 0.00038992811 -0.022082154 0.06585566 -0.15738575 -0.15959254 0.08248039
0.05369696 0.073418304 -0.09480986 -0.045302097 0.13757366 -0.010413621 0.062139016 -0.10535286
0.043258756 -0.07621946 -0.008672282 0.17845342 -0.06293669 0.029674739 0.07413717 -0.054334044
0.018480716 -0.05493441 -0.012493452 0.044762522 0.09940364 0.058861077 -0.090565085 0.031011255
0.061231595 0.044163756 0.004861466 0.15552297 0.021005763 -0.06567448 -0.05812801 -0.113315195
-0.043218106 0.014472298 0.13595217 0.042184837 -0.11491743 -0.0019915332 -0.09477389 0.029346576
-0.03136994 -0.011431876 -0.050691407 0.050772034 -0.06343161 0.0009308691 0.0049819946 0.055486843
-0.035892934 0.108906485 0.047003668 0.16050404 -0.09179643 -0.07245504 0.022444142 0.006906179
0.010584585 0.12159523 0.038283963 0.0009845818 0.029551022 0.05159621 -0.09716866 -0.023924466
0.0521522 0.116650894 -0.06396964 0.12518412 0.07714665 0.07891707 0.0968767 -0.07507805
0.058533214 -0.043745596 -0.08036746 0.02449405 0.124623895 -0.028862124 0.09741737 0.09247016
0.10237994 0.06490555 -0.025497831 0.0020398002 0.008411943 0.07960796 0.102133036 -0.044100862
-0.06235888 -0.035517734 -0.094233796 0.17487462 -0.032106116 -0.04481758 -0.035371713 0.122910306
-0.06628333 0.07287792 0.048044052 0.101163246 0.08074613 0.15305644 -0.017913401 0.10125973
-0.11747092 -0.040328056 0.105777144 -0.057953767 -0.07097592 0.05817062 0.02540353 0.09096066
0.105774224 -0.056090344 0.06556757 -0.0015424358 -0.18240386 -0.029833566 0.024426179 0.10824392
0.13940957 0.10647382 -0.0091403965 -0.030400474 0.12209724 0.17061207 0.09491322 0.07804711
-0.12790014 -0.014407021 0.039617315 0.082236834 0.09754326 0.06449612 -0.02077684 0.10957603
0.05739686 0.0027841022 0.104144484 0.10541386 -0.06042044 -0.048976738 -0.020612745 0.087627195
-0.0108377505 0.032149356 0.0026326277 0.16598254 0.15201187 0.025173489 -0.03099887 0.050765846
0.14222369 -0.06016064 0.07292538 -0.07120936 -0.10299524 -4.1989286e-05 -0.029705271 0.114828914
0.023074448 -0.006346952 0.13451362 -0.0042433576 -0.08216567 -0.052022625 0.024480686 -0.0829079
-0.013278902 -0.0012733754 -0.04183407 0.09063936 -0.010512292 0.10013609 -0.06744318 0.048892472
-0.10763432 -0.032989476 0.08513426 0.06032254 0.04396564 -0.0018601782 0.13558811 0.152823
-0.050478518 0.06410524 0.1345212 0.07788172 0.017657705 0.1100954 0.05248996 0.049114954
-0.01696818 -0.070237145 0.08847639 -0.033881895 -0.013887802 0.02995635 0.08767375 -0.05629312
0.09545372 -0.052162066 -0.08530964 0.0065652905 -0.01562475 0.05992737 0.016793102 0.024800668
0.012690044 0.07291863 0.013490053 -0.0322463 0.04018014 0.072259285 -0.10610443 0.0982309
00000000: 0a3a 103e 8d27 053d 7142 babc 865f 933d
00000010: 579e 51bd 41cc fd3c 0ad3 13bd e221 883d
00000020: 0263 fbbd e282 283e f35e 3dbd 5a81 1a3e
00000030: dc84 e03d 4536 743d 5014 69bd 6550 10be
00000040: b8d6 aa3c 8135 2f3c b0cc 38bc a600 823c
00000050: 5c55 92bd 9678 d53d 50e9 743c c17b cabd
00000060: 6483 2d3d 6a81 c23d 781f 183e 2aec 923d
00000070: 0020 003e dab4 033d c00c 8abd d437 323e
00000080: 9d77 913c 6a38 a4bd 446f cc39 a2e5 b4bc
00000090: 55df 863d bb29 21be 3a6c 23be 7beb a83d
000000a0: 58f1 5b3d 565c 963d ac2b c2bd b18e 39bd
000000b0: 1ce0 0c3e e49d 2abc 7b85 7e3d 3ec3 d7bd
000000c0: 1830 313d f318 9cbd 3016 0ebc 7ebc 363e
000000d0: f4e4 80bd 7018 f33c 3bd5 973d 608d 5ebd
000000e0: df64 973c e702 61bd 56b1 4cbc e858 373d
000000f0: 2394 cb3d 5018 713d 307a b9bd 510b fe3c
00000100: fbcd 7a3d 0ee5 343d ef4c 9f3b 6a41 1f3e
00000110: 4714 ac3c 5780 86bd a317 6ebd cc11 e8bd
00000120: 7805 31bd 381d 6d3c 0c37 0b3e 02ca 2c3d
00000130: d459 ebbd 6284 02bb d018 c2bd 3b68 f03c
00000140: c47d 00bd c34c 3bbc cba1 4fbd 56f6 4f3d
00000150: 6fe8 81bd 9105 743a 0040 a33b 2c46 633d
00000160: 7804 13bd 5d0a df3d eb86 403d 2c5b 243e
00000170: c4ff bbbd 4f63 94bd c7dc b73c 3a4d e23b
00000180: f86a 2d3c ec06 f93d a5cf 1c3d 150d 813a
00000190: fc14 f23c 8c56 533d 5d00 c7bd 3efd c3bc
000001a0: 8c9d 553d aae6 ee3d 8402 83bd 4430 003e
000001b0: 10ff 9d3d 469f a13d 4b67 c63d 85c2 99bd
000001c0: 86c0 6f3d 952e 33bd b297 a4bd bfa7 c83c
000001d0: d03a ff3d 4370 ecbc c282 c73d ff60 bd3d
000001e0: 93ac d13d 33ed 843d d4e0 d0bc 2bae 053b
000001f0: 3fd2 093c 8009 a33d 202b d13d 1ba3 34bd
00000200: 066c 7fbd 0b7b 11bd a6fd c0bd 5512 333e
00000210: b481 03bd a492 37bd eee1 10bd 66b8 fb3d
00000220: 8ebf 87bd 0541 953d d7c9 443d ad2e cf3d
00000230: 3a5e a53d d4ba 1c3e 20bf 92bc 4361 cf3d
00000240: 9894 f0bd 082f 25bd b0a1 d83d ee60 6dbd
00000250: d35b 91bd 5144 6e3d 101b d03c 9549 ba3d
00000260: 28a0 d83d fdbe 65bd 4a48 863d 8f2b caba
00000270: 14c8 3abe 8665 f4bc 6919 c83c fdae dd3d
00000280: 62c1 0e3e f20e da3d 9ac1 15bc 6a0a f9bc
00000290: 1e0e fa3d eeb4 2e3e dd61 c23d 2ad7 9f3d
000002a0: 41f8 02be 6d0b 6cbc c445 223d c96b a83d
000002b0: c3c4 c73d 8b16 843d 3134 aabc 6669 e03d
000002c0: f818 6b3d 7c75 363b b449 d53d 39e3 d73d
000002d0: 6c7b 77bd d59b 48bd 0fdc a8bc e375 b33d
000002e0: d290 31bc 0baf 033d 2a88 2c3b 54f7 293e
000002f0: 00a9 1b3e a238 ce3c 58f1 fdbc d9ef 4f3d
00000300: 16a3 113e 016b 76bd e759 953d 37d6 91bd
00000310: 2bef d2bd a71d 30b8 7858 f3bc 6c2b eb3d
00000320: a006 bd3c 18fa cfbb f0bd 093e dd0b 8bbb
00000330: 7a46 a8bd ad15 55bd b88b c83c 9ecb a9bd
00000340: c08f 59bc 63e7 a6ba 345a 2bbd 21a1 b93d
00000350: c03b 2cbc 2614 cd3d a61f 8abd 7943 483d
00000360: 626f dcbd f91f 07bd df5a ae3d c514 773d
00000370: 5115 343d 39d1 f3ba 9cd7 0a3e a27d 1c3e
00000380: 90c2 4ebd 9c49 833d edbf 093e 7480 9f3d
00000390: e4a6 903c b279 e13d b6ff 563d c32c 493d
000003a0: da00 8bbc 7ed8 8fbd 1c33 b53d bec7 0abd
000003b0: aa89 63bc 0567 f53c 4c8e b33d 9d93 66bd
000003c0: 3d7d c33d e4a7 55bd d2b6 aebd a621 d73b
000003d0: f4fe 7fbc 6776 753d b091 893c c52a cb3c
000003e0: e7e9 4f3c 5d56 953d 6205 5d3c b214 04bd
000003f0: ee93 243d adfc 933d 484d d9bd 482d c93d

fc3.bias f4 [18]
-0.027549373 -0.036035035 -0.023659173 -0.010356566 0.021369698 0.0057787346 -0.0024277149 -0.008904048
-0.0142472945 0.02828389 -0.013346046 -0.014425693 0.020414338 -0.039975997 0.008515448 0.021567008
-0.019307442 0.007246268
00000000: 39af e1bc 7999 13bd e2d0 c1bc 96ae 29bc
00000010: 810f af3c 8a5b bd3b 4c1a 1fbb 49e2 11bc
00000020: 7c6d 69bc 9eb3 e73c 60a9 5abc be59 6cbc
00000030: f83b a73c dfbd 23bd 6184 0b3c 4bad b03c
00000040: a42a 9ebc 1a72 ed3b
