models/2024-07-20_16-34-18/epoch_0018_loss_0.00060698/dynamics.pth (torch, 83084 bytes, 8 tensors)

fc1.weight f4 [64, 34]
0.2332893 -0.113895275 0.038224846 -0.13181116 0.06851711 0.018883336 -0.15471773 0.0019106242
-0.16244803 0.043894745 0.16911392 -0.058128767 -0.12407814 -0.15240133 0.11322314 0.06506073
-0.11998646 -0.09939861 0.082642004 -0.09222677 0.079050206 -0.04969779 0.12839046 -0.09875301
0.14005715 0.017079253 0.14163265 0.13133213 0.08819638 -0.14138563 -0.05219105 0.1611217
0.016776828 0.13537522 0.055865295 -0.06764138 -0.025812669 -0.11909027 0.008413122 -0.072503336
0.032492258 -0.07627858 -0.10131489 -0.024595078 0.094345145 0.016783282 0.06780061 -0.10059461
-0.08285221 0.08516438 0.21222606 -0.14239427 0.15166643 -0.010101177 -0.14621574 0.08086076
-0.044754475 -0.052559562 0.056590546 -0.057443555 0.10177941 -0.24190915 -0.2297621 -0.041997068
-0.21368365 -0.02207467 0.043970168 -0.13387951 -0.07614665 0.079463646 0.19481257 -0.012435276
-0.08045586 0.12485699 -0.14969468 -0.02203866 -0.21744601 0.13094948 -0.033392645 -0.055584904
-0.038120426 -0.094228745 -0.1941418 0.1059738 0.0064165248 -0.18958858 -0.0032218448 0.0031059124
0.08305422 -0.11900596 0.0172574 0.044905428 0.13266172 0.09176575 -0.009494209 -0.082205206
-0.20960803 -0.048642643 -0.019455716 -0.22753106 -0.22320014 -0.035733048 0.097778395 -0.0028006285
0.08166869 0.108354226 -0.07224288 0.15819763 0.15231694 0.15128626 -0.0038634837 -0.065869756
-0.095277525 0.11805521 0.026036695 -0.010447115 -0.018088311 0.034746498 0.032291412 0.009015247
0.115453675 -0.086163 -0.091615744 -0.119684756 0.15823849 0.10901041 0.1598369 0.032776788
0.070652574 0.16506849 -0.11544395 -0.013233036 0.014054164 -0.031468198 -0.0058559477 0.07047805
0.14323168 0.12969123 -0.06944357 -0.10084721 -0.077160425 0.17001759 -0.034396157 0.16426839
0.13800742 0.11347155 -0.06917702 0.12800638 -0.023954034 0.045971572 0.13502528 -0.02498798
-0.036891133 -0.02117519 -0.043810487 -0.0868017 -0.13570991 -0.16501835 -0.12633932 -0.08150905
0.06349334 0.031211331 -0.099921495 0.14474784 -0.08901583 -0.08065116 -0.085234076 0.029929012
0.07196063 0.113047674 -0.16290009 -0.10045686 0.09985031 0.106631175 0.04114695 -0.13233292
-0.119059086 -0.03579332 -0.11792521 0.07799694 0.13044162 0.019557476 0.0021850169 -0.05918619
0.10161407 0.093676075 -0.11454809 0.14716001 0.14309348 0.02689898 -0.12572114 -0.15739176
0.052678257 0.04677193 -0.038525 0.026420116 -0.017649353 -0.12354214 0.053875133 -0.05520881
0.10775153 0.017019555 0.08510439 -0.08888118 0.2739205 0.006677892 0.09231397 0.10380159
0.02517918 -0.07336805 -0.089147046 0.046360087 -0.011077251 -0.09746991 -0.11930188 0.11358601
0.17209035 -0.08188354 0.03998418 0.15330979 -0.061200324 0.06319646 0.1312416 -0.09109882
0.0331949 0.1504849 0.13866246 0.06967209 0.19575053 0.08096162 -0.24957307 0.09928312
-0.09469295 -0.17120995 -0.08581016 -0.10979373 -0.15165791 -0.11948374 -0.14018093 -0.12462036
-0.05379133 0.02622138 -0.048874065 -0.1619912 -0.06254845 0.13804005 -0.16214885 -0.06550221
-0.11427659 -0.08555944 0.042464077 -0.0165689 0.13799752 -0.057760924 -0.056974232 0.06455818
00000000: 64e3 6e3e ed41 e9bd a891 1c3d 81f9 06be
00000010: b352 8c3d 3ab1 9a3c 536e 1ebe e96d fa3a
00000020: c758 26be faca 333d 332c 2d3e 6e18 6ebd
00000030: ae1c febd 180f 1cbe 89e1 e73d 8f3e 853d
00000040: 76bb f5bd 8091 cbbd 3640 a93d 64e1 bcbd
00000050: 13e5 a13d e98f 4bbd ca78 033e 053f cabd
00000060: 246b 0f3e cae9 8b3c 2608 113e ee7b 063e
00000070: 4ea0 b43d 65c7 10be 48c6 55bd 16fd 243e
00000080: 8f6f 893c cd9f 0a3e 02d3 643d 9087 8abd
00000090: 1775 d3bc 99e5 f3bd 31d7 093c a17c 94bd
000000a0: 9a16 053d f237 9cbd 2e7e cfbd 9e7b c9bc
000000b0: 0738 c13d 187d 893c 0cdb 8a3d 8c04 cebd
000000c0: 6bae a9bd aa6a ae3d ca51 593e cecf 11be
000000d0: 724e 1b3e 687f 25bc 94b9 15be 539a a53d
000000e0: 7850 37bd b248 57bd 7dcb 673d ef49 6bbd
000000f0: b971 d03d 08b7 77be c246 6bbe 1e05 2cbd
00000100: e3cf 5abe f0d5 b4bc 101a 343d b617 09be
00000110: c6f2 9bbd d6bd a23d f27c 473e 54bd 4bbc
00000120: 0bc6 a4bd 06b5 ff3d 9049 19be 6b8a b4bc
00000130: 2baa 5ebe 9f17 063e bac6 08bd ffac 63bd
00000140: 2a24 1cbd 00fb c0bd 1ccd 46be cb08 d93d
00000150: b641 d23b 8223 42be 9625 53bb 908c 4b3b
00000160: 5518 aa3d 66b9 f3bd 645f 8d3c c1ee 373d
00000170: 79d8 073e aeef bb3d 998d 1bbc 345b a8bd
00000180: 7da3 56be 823d 47bd 9861 9fbc e7fd 68be
00000190: 948e 64be d15c 12bd 0a40 c83d c08a 37bb
000001a0: ea41 a73d d2e8 dd3d 13f4 93bd 8ffe 213e
000001b0: f9f8 1b3e c9ea 1a3e 8032 7dbb b9e6 86bd
000001c0: dd20 c3bd eec6 f13d e84a d53c 602a 2bbc
000001d0: f02d 94bc 5852 0e3d 0044 043d b0b4 133c
000001e0: fa72 ec3d 3a76 b0bd 09a1 bbbd 481d f5bd
000001f0: 4509 223e da40 df3d 49ac 233e f440 063d
00000200: 4cb2 903d b707 293e e16d ecbd 60cf 58bc
00000210: 7043 663c cce4 00bd 40e3 bfbb cc56 903d
00000220: 53ab 123e c7cd 043e 6e38 8ebd fb88 cebd
00000230: 4906 9ebd 1719 2e3e fce2 0cbd f935 283e
00000240: d151 0d3e c663 e83d aeac 8dbd 1b14 033e
00000250: 403b c4bc b04c 3c3d 1144 0a3e 98b3 ccbc
00000260: 281b 17bd 9877 adbc a072 33bd 17c5 b1bd
00000270: 8af7 0abe 92fa 28be 185f 01be 38ee a6bd
00000280: cc08 823d e8ae ff3c a4a3 ccbd c738 143e
00000290: ee4d b6bd 6f2c a5bd 348f aebd b02d f53c
000002a0: 1860 933d 8a85 e73d 48cf 26be 54bc cdbd
000002b0: 527e cc3d 7261 da3d b489 283d 4882 07be
000002c0: 40d5 f3bd 049c 12bd c682 f1bd dcbc 9f3d
000002d0: 7d92 053e 0037 a03c 8032 0f3b 386d 72bd
000002e0: 0a1b d03d 3ed9 bf3d 3098 eabd 1db1 163e
000002f0: 1987 123e 405b dc3c 0bbd 00be 4e2b 21be
00000300: 28c5 573d ec93 3f3d 64cc 1dbd 006f d83c
00000310: 6095 90bc a903 fdbd 2cac 5c3d a222 62bd
00000320: d6ac dc3d 986c 8b3c 364b ae3d 5607 b6bd
00000330: 4f3f 8c3e 38d2 da3b 1b0f bd3d ee95 d43d
00000340: 9144 ce3c fd41 96bd ba92 b6bd 13e4 3d3d
00000350: 5c7d 35bc 4e9e c7bd 8b54 f4bd c89f e83d
00000360: 7438 303e 8fb2 a7bd 74c6 233d 3efd 1c3e
00000370: 31ad 7abd 256d 813d 3364 063e 0592 babd
00000380: 60f7 073d b718 1a3e 88fd 0d3e 3eb0 8e3d
00000390: d472 483e 35cf a53d 1590 7fbe f354 cb3d
000003a0: 61ee c1bd a951 2fbe 3dbd afbd 89db e0bd
000003b0: 364c 1bbe e4b3 f4bd 978b 0fbe f638 ffbd
000003c0: 4c54 5cbd 38ce d63c 2c30 48bd 05e1 25be
000003d0: 6719 80bd 5f5a 0d3e 590a 26be 0626 86bd
000003e0: d809 eabd ca39 afbd d0ee 2d3d 80bb 87bc
000003f0: 394f 0d3e b896 6cbd d05d 69bd 1437 843d

fc1.bias f4 [64]
-0.041702602 -0.054545827 0.040260818 -0.0022395551 0.045751482 -0.048159577 -0.14539039 -0.007944546
-0.15053645 -0.069963984 -0.10548637 -0.040109478 -0.01437408 -0.08206948 -0.04397533 -0.13789898
-0.00081170036 -0.010817961 0.24128258 -0.043693688 -0.030208388 -0.16219704 -0.113549754 -0.010259628
-0.08586485 -0.01855362 -0.110370144 -0.089151986 -0.052614387 0.01762372 -0.05723014 0.051178724
-0.14554594 -0.028881364 -0.03296882 -0.13313887 0.025592715 0.18215989 0.13142622 -0.013638869
-0.016192546 0.035510954 -0.19744095 -0.02760552 -0.068299286 -0.059164193 -0.0122204125 0.021067798
0.12115881 -0.022866637 -0.008974473 -0.13762042 -0.01815689 -0.08207442 -0.13036321 0.13974163
-0.026897497 -0.22560409 -0.012326716 -0.042267244 -0.03880806 -0.035217647 -0.10866733 -0.1633383
00000000: 59d0 2abd 726b 5fbd 87e8 243d 80c5 12bb
00000010: e865 3b3d fa42 45bd 38e1 14be d729 02bc
00000020: 3a26 1abe 4749 8fbd 3d09 d8bd d649 24bd
00000030: 4381 6bbc 0b14 a8bd 7a1f 34bd 6435 0dbe
00000040: 4ac8 54ba d13d 31bc c812 773e 27f8 32bd
00000050: 9577 f7bc fb16 26be c68c e8bd 0018 28bc
00000060: e9d9 afbd c3fd 97bc be09 e2bd 5195 b6bd
00000070: 2f82 57bd 9f5f 903c 276a 6abd c8a0 513d
00000080: ff09 15be 9c98 ecbc 500a 07bd 8e55 08be
00000090: d0a7 d13c 1f88 3a3e 9894 063e 9075 5fbc
000000a0: 3ba6 84bc ef73 113d f62d 4abe f924 e2bc
000000b0: 7fe0 8bbd 2756 72bd 2038 48bc 6096 ac3c
000000c0: 1c22 f83d d052 bbbc ab09 13bc 5eec 0cbe
000000d0: c2bd 94bc a216 a8bd ef7d 05be 6e18 0f3e
000000e0: 2458 dcbc c204 67be fff5 49bc 6b20 2dbd
000000f0: 33f5 1ebd 6140 10bd fa8c debd 2842 27be

fc2.weight f4 [128, 64]
-0.1403983 -0.0021994247 -0.17213675 0.014842346 -0.22410733 0.034476757 -0.048086368 -0.059901886
-0.0674254 -0.23633733 0.05820094 -0.053639542 0.011926365 -0.1100103 -0.06905603 0.03130059
-0.11549094 -0.17588983 -0.05389864 0.023176365 -0.04660884 -0.066738695 0.08880356 0.12041725
0.034000136 -0.07536885 -0.023035645 0.061209768 -0.00040924118 -0.030291494 -0.11430273 -0.05598454
-0.08810857 -0.0372712 -0.08591436 -0.07498256 -0.060718153 -0.2289644 -0.04147376 -0.07039305
-0.039905738 -0.21512933 0.06327104 -0.1393956 0.0028806329 -0.045947537 -0.08885963 -0.20793158
-0.019239962 -0.081039906 0.028427994 -0.10029197 -0.021263335 0.11749153 -0.07229085 -0.02071136
-0.027278295 0.029352283 -0.06861607 -0.03557984 0.037229378 -0.1849127 0.04662022 -0.061181456
-0.041017 0.09050141 -0.16092195 0.014453679 -0.052953426 -0.067159384 -0.06707886 -0.09060042
-0.08854346 0.02545103 0.05126603 0.011976046 -0.055354886 -0.030004948 -0.07828389 -0.037912324
-0.06699132 -0.17301285 -0.005393912 -0.15794405 -0.03794629 -0.021020547 0.060533762 0.04217577
-0.105480745 -0.085475564 0.10393402 0.03732881 -0.0020853323 -0.020401077 -0.08430439 -0.005525725
-0.03412105 -0.0008113252 -0.0015308708 -0.044555366 -0.12483899 0.010901803 -0.05632859 -0.002037788
0.009341538 -0.023543047 0.08701536 0.0010713934 0.006279111 -0.061134696 -0.09773521 -0.07761529
-0.16629745 0.014824867 -0.08764523 -0.07552041 -0.058644056 0.03566435 0.06575869 0.034330495
-0.120350406 -0.0960684 0.052568827 -0.03234157 -0.017622277 -0.11932954 -0.008483157 -0.0324616
-0.12164956 -0.031897843 0.042190935 0.11886363 -0.16371125 0.022240639 0.062371224 -0.08560801
-0.039483562 -0.029085914 -0.017959729 0.02347297 -0.004396293 0.042238362 -0.013959267 0.03710875
-0.10370379 0.055085354 -0.15197065 -0.00885444 0.024986729 0.040616676 0.08233398 -0.0869938
-0.064242 -0.023946928 -0.07507573 0.06529872 -0.0048777247 -0.16930947 -0.11626158 -0.058586616
0.07543513 -0.033018034 -0.032729536 -0.09312099 -0.14104111 0.0021724405 -0.14557742 -0.03834
-0.16941494 -0.17061524 -0.07730339 -0.1510217 0.09337041 0.04976222 -0.06672233 -0.0020414228
-0.08908601 0.08259131 -0.0019523466 0.08696212 -0.091836095 0.0049431026 -0.0078109764 0.048603687
-0.06587543 -0.049239546 -0.08385938 -0.17048773 -0.004156352 0.052880377 0.11819857 -0.04360625
0.042818002 0.035765633 -0.0077575813 -0.1138342 -0.02370599 0.052997828 -0.121464945 0.028153002
-0.04520972 0.04145907 0.072546914 -0.015143821 0.023505012 -0.15647182 -0.17908612 -0.10377957
-0.002089783 -0.050464213 -0.00022643805 -0.026306385 -0.13482426 0.09842421 -0.08847833 0.026446208
-0.03363904 -0.091410205 -0.013762936 -0.10635267 0.046861514 0.007238634 -0.14897975 -0.15216053
0.04699695 -0.03965155 -0.030274719 -0.100250944 -0.024416223 -0.03883651 -0.07764545 0.009843677
-0.0515451 -0.020050347 -0.033674303 -0.07795534 0.028951585 -0.030828878 0.06929661 0.056563348
-0.036267728 -0.06233391 -0.0041194716 0.08687559 -0.14787199 0.01445815 0.032819852 0.048849065
-0.105376706 0.10418615 -0.1335923 -0.008754213 -0.1739741 0.016489252 0.117885366 -0.03602937
00000000: 92c4 0fbe 3924 10bb 9e44 30be 502d 733c
00000010: 647c 65be 8037 0d3d 36f6 44bd ae5b 75bd
00000020: 5416 8abd 6a02 72be 1c64 6e3d 23b5 5bbd
00000030: cd66 433c 154d e1bd 3f6d 8dbd 0c35 003d
00000040: 8486 ecbd 771c 34be d2c4 5cbd 5cdc bd3c
00000050: e9e8 3ebd 4cae 88bd a4de b53d 529d f63d
00000060: ba43 0b3d fc5a 9abd 40b5 bcbc 18b7 7a3d
00000070: 6c8f d6b9 de25 f8bc 8d17 eabd 0c50 65bd
00000080: 4472 b4bd b0a9 18bd def3 afbd 7590 99bd
00000090: 99b3 78bd a575 6abe 64e0 29bd 3b2a 90bd
000000a0: 3374 23bd dd4a 5cbe 3f94 813d b8bd 0ebe
000000b0: 00c9 3c3b 7c33 3cbd 0afc b5bd 04ec 54be
000000c0: 209d 9dbc 40f8 a5bd d3e1 e83c e065 cdbd
000000d0: 7230 aebc 669f f03d 3a0d 94bd dfaa a9bc
000000e0: bb76 dfbc 3374 f03c 9586 8cbd 2bbc 11bd
000000f0: d57d 183d c159 3dbe d8f4 3e3d 6899 7abd
00000100: 7101 28bd ce58 b93d b9c8 24be 20cf 6c3c
00000110: b1e5 58bd dc8a 89bd a460 89bd b78c b9bd
00000120: 4656 b5bd ae7e d03c 54fc 513d 2d37 443c
00000130: cebb 62bd f0cc f5bc 4e53 a0bd f449 1bbd
00000140: bf32 89bd 482a 31be 6abf b0bb 16bc 21be
00000150: 926d 1bbd 4833 acbc 40f2 773d 80c0 2c3d
00000160: 4a06 d8bd d00d afbd 5cdb d43d 18e6 183d
00000170: 12aa 08bb 2920 a7bc c8a7 acbd 2411 b5bb
00000180: 84c2 0bbd 1daf 54ba 80a7 c8ba b07f 36bd
00000190: 96ab ffbd 7a9d 323c cfb8 66bd 698c 05bb
000001a0: 400d 193c 59dd c0bc 1c35 b23d ff6d 8c3a
000001b0: 00c1 cd3b 6068 7abd 6629 c8bd c4f4 9ebd
000001c0: e149 2abe 00e4 723c 587f b3bd 72aa 9abd
000001d0: c034 70bd c814 123d 7eac 863d 229e 0c3d
000001e0: 467a f6bd 82bf c4bd 6952 573d 9878 04bd
000001f0: 985c 90bc 0c63 f4bd f0fc 0abc 74f6 04bd
00000200: 6823 f9bd 50a7 02bd 67d0 2c3d c66e f33d
00000210: eca3 27be 0032 b63c f878 7f3d 4153 afbd
00000220: 84b9 21bd 9545 eebc 4820 93bc 634a c03c
00000230: c70e 90bb 2202 2d3d 69b5 64bc 58ff 173d
00000240: a762 d4bd 2ea1 613d 329e 1bbe 3712 11bc
00000250: f8b0 cc3c ac5d 263d b89e a83d ce29 b2bd
00000260: 4f91 83bd 592c c4bc 4ec1 99bd 56bb 853d
00000270: 52d5 9fbb 765f 2dbe 8d1a eebd 85f8 6fbd
00000280: bc7d 9a3d eb3d 07bd 680f 06bd 38b6 bebd
00000290: 156d 10be 815f 0e3b 3f12 15be 670a 1dbd
000002a0: 1c7b 2dbe c3b5 2ebe 3d51 9ebd 6fa5 1abe
000002b0: fc38 bf3d 78d3 4b3d b8a5 88bd 64c9 05bb
000002c0: ba72 b6bd a225 a93d e2e5 ffba 3219 b23d
000002d0: 9014 bcbd c0f9 a13b 38f3 ffbb a914 473d
000002e0: b3e9 86bd 68af 49bd 77be abbd 5694 2ebe
000002f0: 0232 88bb 1899 583d 1812 f23d 789c 32bd
00000300: ee61 2f3d fc7e 123d 4f33 febb e821 e9bd
00000310: 1033 c2bc 4014 593d 9dc2 f8bd 20a1 e63c
00000320: d42d 39bd fcd0 293d 7a93 943d ca1d 78bc
00000330: 958d c03c 263a 20be 5a62 37be 628a d4bd
00000340: bef4 08bb 90b3 4ebd 0070 6db9 7d80 d7bc
00000350: 5f0f 0abe a292 c93d 2034 b5bd b8a5 d83c
00000360: 17c9 09bd 4635 bbbd f07d 61bc 6ecf d9bd
00000370: dcf1 3f3d 1032 ed3b 268e 18be f8cf 1bbe
00000380: e07f 403d aa69 22bd b002 f8bc 5e50 cdbd
00000390: 8804 c8bc 0813 1fbd 9404 9fbd 6047 213c
000003a0: f420 53bd a040 a4bc 11ee 09bd 0da7 9fbd
000003b0: e02b ed3c d88c fcbc 62eb 8d3d f8ae 673d
000003c0: 788d 14bd d851 7fbd a2fc 86bb d4eb b13d
000003d0: c16b 17be e0e1 6c3c 1c6e 063d f515 483d
000003e0: becf d7bd 8c5f d53d 6bcc 08be d56d 0fbc
000003f0: 4426 32be 7814 873c e26d f13d 8893 13bd

fc2.bias f4 [128]
-0.022005044 -0.054681383 -0.029729962 -0.06252772 -0.045868993 0.012364562 -0.09461552 0.07899449
0.00093970326 -0.00142589 0.028041938 -0.025884649 -0.083847985 -0.014479607 -0.13737358 0.04959636
-0.11062914 -0.118714914 -0.118882924 0.02068977 -0.12072842 -0.10039662 -0.112782404 0.021963418
0.0028124447 -0.092143975 0.0563663 -0.2007733 -0.12879914 0.11178579 -0.08451037 0.024722774
-0.037699576 0.093759395 0.035425875 -0.06294683 -0.15528636 0.10328759 0.05156806 -0.18986547
0.05270493 -0.14522634 -0.04236452 -0.06930704 -0.087467216 -0.015224064 0.02445567 -0.081432104
0.052302904 -0.07990205 -0.056010067 -0.11548132 -0.009132965 -0.036701053 -0.07099061 -0.091498986
0.048601404 -0.14375487 -0.031975508 -0.11513898 -0.119343325 -0.094549604 -0.053606704 -0.03640582
-0.17033322 -0.19194852 -0.0702101 -0.0107006 0.059599787 -0.087837435 -0.097470924 -0.025323167
0.031638876 0.089695014 -0.09880239 0.0233773 -0.11095276 0.08938704 -0.0064344937 -0.09152009
-0.034001205 -0.044794217 -0.068332516 0.07155184 -0.07251842 -0.11403909 -0.108050525 0.06083518
-0.052666094 -0.088685855 -0.12090731 -0.120201185 0.012644439 -0.02806975 -0.073593915 -0.06067179
0.015080967 -0.12291071 0.09067779 -0.09474257 -0.01637235 -0.036889344 0.055614527 0.01327417
-0.07009699 -0.049106315 0.09345375 0.012033342 0.04269499 0.02831911 -0.07460174 -0.02661945
-0.049491346 -0.07696466 -0.0032077385 0.008733558 -0.104263976 -0.043074686 -0.1451513 -0.0673899
-0.11289026 0.027651884 -0.06497064 0.05893089 -0.05044657 -0.08348829 0.011883117 -0.17960007
00000000: ec43 b4bc 96f9 5fbd 408c f3bc 890e 80bd
00000010: 20e1 3bbd bb94 4a3c c8c5 c1bd ddc7 a13d
00000020: 6b56 763a eee4 baba 35b8 e53c 0b0c d4bc
00000030: 7eb8 abbd e03b 6dbc a9ab 0cbe 8e25 4b3d
00000040: 8891 e2bd ce20 f3bd e478 f3bd 987d a93c
00000050: 7640 f7bd be9c cdbd 76fa e6bd a0ec b33c
00000060: fe50 383b fbb5 bcbd 59e0 663d 8497 4dbe
00000070: ece3 03be f3ef e43d c613 adbd 6a87 ca3c
00000080: df6a 1abd ed04 c03d b91a 113d 45ea 80bd
00000090: 6303 1fbe 7288 d33d 0839 533d 186c 42be
000000a0: 20e1 573d 37b6 14be 6b86 2dbd d9f0 8dbd
000000b0: 0322 b3bd 5a6e 79bc 4257 c83c e0c5 a6bd
000000c0: 923b 563d b0a3 a3bd d06a 65bd 7881 ecbd
000000d0: 6ea2 15bc d853 16bd 8663 91bd d263 bbbd
000000e0: 4412 473d 7a34 13be c0f8 02bd fccd ebbd
000000f0: 466a f4bd 39a3 c1bd b492 5bbd 451e 15bd
00000100: d56b 2ebe 278e 44be 50ca 8fbd 9251 2fbc
00000110: e81e 743d 1de4 b3bd d69e c7bd 8872 cfbc
00000120: c497 013d 05b2 b73d e858 cabd c081 bf3c
00000130: 333b e3bd 8d10 b73d 72d8 d2bb e36e bbbd
00000140: d944 0bbd 247a 37bd ebf1 8bbd c589 923d
00000150: 8a84 94bd 548d e9bd 9849 ddbd 4f2e 793d
00000160: 67b8 57bd eea0 b5bd 409e f7bd 0a2c f6bd
00000170: 9f2a 4f3c 88f2 e5bc 68b8 96bd fc82 78bd
00000180: 2916 773c 9cb8 fbbd 47b5 b93d 6408 c2bd
00000190: 4e1f 86bc 4819 17bd 0fcc 633d e87b 593c
000001a0: 038f 8fbd b423 49bd ae64 bf3d 7f27 453c
000001b0: f1e0 2e3d 7afd e73c ccc8 98bd 0811 dabc
000001c0: 70b7 4abd a69f 9dbd ec38 52bb 3217 0f3c
000001d0: 5a88 d5bd 156f 30bd 8ba2 14be b703 8abd
000001e0: 0233 e7bd 3486 e23c 540f 85bd 8461 713d
000001f0: 10a1 4ebd e9fb aabd 68b1 423c 15e9 37be

fc2_1.weight f4 [64, 128]
-0.03649179 0.022365063 -0.13104917 0.0408962 0.060032107 0.05853047 -0.041219026 -0.02028147
-0.008603697 -0.06798439 0.10681182 0.0046882033 0.027727306 -0.060630023 -0.060372066 -0.03640166
0.047149606 -0.12973137 -0.018119043 -0.07181358 -0.051963154 -0.039226383 0.07484255 -0.03717002
0.13773519 -0.003427219 -0.06660957 0.008923666 -0.045707505 -0.15230551 -0.025896272 0.09641961
0.036197186 0.019286169 0.036226552 -0.14184688 0.003995545 -0.004797478 0.025780855 -0.011780277
-0.1125228 0.07878017 -0.00086963107 -0.0881447 0.13810177 -0.07459217 0.02767639 -0.07398096
-0.10573567 0.068195425 -0.058087114 -0.02422072 -0.14169857 0.07262655 -0.0468876 0.0025546178
-0.023631368 -0.03471398 -0.046382584 -0.035166845 -0.01550802 0.14887731 -0.097497046 0.08970176
-0.0131906895 -0.0055436194 0.061998926 -0.08733362 0.023647688 0.02182434 0.062954284 -0.12281871
0.14289194 -0.1411527 0.048900105 -0.014857128 0.054928906 -0.04461316 -0.086962685 0.078854345
-0.13937038 -0.058011636 -0.108958475 -0.054126665 0.1188726 -0.028460693 -0.004195392 -0.10952958
-0.040392574 0.014337316 -0.060946617 0.08738118 0.0745305 -0.085415706 0.07192976 0.059328623
0.045713812 0.076410286 -0.028648438 -0.041541677 0.13560174 -0.0684441 0.0053774402 0.079841
0.0453173 0.03692078 -0.022698713 -0.09621208 -0.09065926 -0.095809266 -0.021223374 -0.03285062
-0.05439705 -0.04142518 0.008308903 -0.024634255 -0.08541741 -0.0466531 -0.105274 0.00879008
-0.008214392 0.000103779224 -0.041586906 -0.12874845 -0.039110366 -0.14572236 0.0062723765 -0.08726369
-0.028758705 -0.10958395 0.14028537 0.06636026 -0.06546505 -0.08069841 -0.06093822 -0.18148668
-0.01359355 -0.10538655 -0.17902167 0.035651207 0.060730614 -0.059798673 0.069479644 -0.16680007
-0.054813072 0.0794308 0.0987658 -0.062163472 0.07000188 -0.03313171 0.033188775 0.10116395
-0.011067059 0.049950056 0.061562736 0.07168842 0.019642387 -0.010183529 -0.13180974 0.02354267
-0.056962702 0.06556075 -0.1807811 0.11281218 0.09732016 -0.14107314 -0.008545848 -0.006903723
0.1254327 -0.08396763 0.051943228 -0.023183199 -0.012895386 0.03265732 -0.06309208 -0.007080579
0.10613786 -0.006024882 0.065883376 -0.03162867 0.06426776 -0.07170913 0.0016552657 0.038213305
-0.06372141 0.07931058 -0.03942375 0.07844069 0.10237627 0.0031384786 -0.016433513 0.021436878
0.08262772 0.015357856 -0.017872758 0.054243505 -0.085214846 -0.009803887 0.07053875 0.018815063
0.06384718 -0.06611484 -0.010661952 0.0024454482 -0.0046152775 0.02885993 -0.011610359 0.12560268
0.060410153 0.07167609 -0.096817285 0.096581616 -0.0063805934 0.02008491 0.055341296 -0.020071581
0.05790419 -0.013393089 -0.025079176 -0.0231008 -0.0089965165 0.020357288 0.01694126 -0.0010747463
0.049558952 0.055130593 -0.04384356 -0.0011783732 0.06729623 0.025127858 -0.11306734 0.049475532
0.13191903 0.010592073 0.06595069 0.04289883 0.08076801 0.08417912 -0.011233799 -0.016853102
0.017880179 -0.02012612 -0.030099124 0.038079515 0.07670643 0.05931417 0.027566858 -0.09255893
0.043042965 -0.006079979 0.016218811 0.023285422 -0.041642763 0.01802221 0.076312214 -0.005024997
00000000: 6a78 15bd f036 b73c c131 06be c682 273d
00000010: 3ae4 753d a5bd 6f3d 48d5 28bd 5325 a6bc
00000020: 85f6 0cbc 663b 8bbd 28c0 da3d 809f 993b
00000030: 6024 e33c 3057 78bd b348 77bd e819 15bd
00000040: f21f 413d 4dd8 04be 636e 94bc 0013 93bd
00000050: 51d7 54bd d8ab 20bd 0d47 993d 973f 18bd
00000060: 740a 0d3e 329b 60bb 996a 88bd 9134 123c
00000070: cb37 3bbd faf5 1bbe 6b24 d4bc a577 c53d
00000080: 8043 143d 07fe 9d3c 4b62 143d 4f40 11be
00000090: 10ed 823b 2a34 9dbb 5f32 d33c 1002 41bc
000000a0: 5b72 e6bd 7f57 a13d f4f7 63ba 3585 b4bd
000000b0: 8d6a 0d3e c8c3 98bd 99b9 e23c 5483 97bd
000000c0: f18b d8bd 0baa 8b3d c1ec 6dbd 886a c6bc
000000d0: 6e19 11be 3bbd 943d 360d 40bd 606b 273b
000000e0: 9296 c1bc 3f30 0ebd aafb 3dbd 1c0b 10bd
000000f0: 5a15 7ebc 4b73 183e 88ac c7bd 8eb5 b73d
00000100: c31d 58bc 40a7 b5bb 96f2 7d3d f8db b2bd
00000110: ccb8 c13c f5c8 b23c 2dee 803d 6088 fbbd
00000120: 4452 123e 558a 10be 7a4b 483d 506b 73bc
00000130: 22fd 603d 4abc 36bd 7e19 b2bd 637e a13d
00000140: 1cb7 0ebe 9c9d 6dbd 9f25 dfbd ecb3 5dbd
00000150: 7a73 f33d 6626 e9bc 8079 89bb 0b51 e0bd
00000160: af72 25bd 10e7 6a3c 29a3 79bd e7f4 b23d
00000170: 72a3 983d 6eee aebd e94f 933d 9202 733d
00000180: 683e 3b3d ff7c 9c3d 21b0 eabc 9b27 2abd
00000190: 2fdb 0a3e 6c2c 8cbd 3d35 b03b ae83 a33d
000001a0: a29e 393d 3e3a 173d a7f2 b9bc d70a c5bd
000001b0: 90ab b9bd a637 c4bd a4dc adbc 5f8e 06bd
000001c0: 71cf 5ebd 73ad 29bd 1122 083c c7cd c9bc
000001d0: 53ef aebd 5217 3fbd e599 d7bd 4504 103c
000001e0: a895 06bc 0ca4 d938 0857 2abd a2d6 03be
000001f0: 3132 20bd 3e38 15be 8288 cd3b 4eb7 b2bd
00000200: 6097 ebbc 8d6d e0bd f8a6 0f3e e3e7 873d
00000210: 8a12 86bd 3545 a5bd 5b9a 79bd a5d7 39be
00000220: 7bb7 5ebc e7d4 d7bd 7551 37be 0007 123d
00000230: aac0 783d 74ef 74bd 584b 8e3d a3cd 2abe
00000240: ac83 60bd 9eac a23d b945 ca3d 209f 7ebd
00000250: 255d 8f3d 1eb5 07bd f4f0 073d 0c2f cf3d
00000260: 9c52 35bc 6e98 4c3d 3529 7c3d 61d1 923d
00000270: 12e9 a03c d1d8 26bc 22f9 06be 8fdc c03c
00000280: b951 69bd b744 863d ae1e 39be 120a e73d
00000290: cb4f c73d 7a75 10be e203 0cbc a038 e2bb
000002a0: 6e71 003e 39f7 abbd 6cc2 543d b1ea bdbc
000002b0: 2b47 53bc afc3 053d 6c36 81bd 3404 e8bb
000002c0: ce5e d93d 606c c5bb dded 863d 108d 01bd
000002d0: d19e 833d 3ddc 92bd 80f5 d83a 8e85 1c3d
000002e0: 5f80 82bd 966d a23d cc7a 21bd 83a5 a03d
000002f0: a6aa d13d efae 4d3b 939f 86bc 649c af3c
00000300: b938 a93d 849f 7b3c e469 92bc 702e 5e3d
00000310: 1f85 aebd 7ca0 20bc 9f76 903d 0c22 9a3c
00000320: 4fc2 823d 3867 87bd 78af 2ebc d043 203b
00000330: c13b 97bb a96b ec3c 6039 3ebc fd9d 003e
00000340: a370 773d eaca 923d 2448 c6bd 95cc c53d
00000350: 4c14 d1bb 1c89 a43c 8ead 623d 286d a4bc
00000360: f22c 6d3d b06e 5bbc d872 cdbc e43d bdbc
00000370: 2066 13bc 54c4 a63c 66c8 8a3c 80de 8cba
00000380: 54fe 4a3d 9ed0 613d 4e95 33bd a573 9aba
00000390: 9bd2 893d f0d8 cd3c d98f e7bd dba6 4a3d
000003a0: c815 073e 608a 2d3c 2811 873d afb6 2f3d
000003b0: b369 a53d 1a66 ac3d f80d 38bc 840f 8abc
000003c0: 7479 923c 88df a4bc 7092 f6bc 44f9 1b3d
000003d0: 4318 9d3d 6af3 723d e4d3 e13c 898f bdbd
000003e0: d24d 303d 8f3a c7bb 50dd 843c 12c1 be3c
000003f0: 9a91 2abd 50a3 933c 9449 9c3d bba8 a4bb

fc2_1.bias f4 [64]
-0.013369602 0.029527396 -0.011588936 -0.033327196 -0.03787061 -0.02761038 -0.092067726 0.13534747
-0.1069668 -0.08410258 0.0032937229 0.07046024 -0.056317512 -0.05214201 0.0279557 -0.052057542
-0.020172086 -0.00012547165 0.03200431 0.09269402 -0.09544842 0.071248226 0.042675883 0.080653675
0.08347832 -0.03534525 -0.062626295 -0.0023035556 -0.07275564 -0.026642323 -0.00335092 -0.07614486
0.0375145 -0.0876292 0.044982746 -0.052013226 0.04643015 -0.07457266 -0.033920072 0.02771301
0.03710497 0.07528171 -0.038555343 -0.04256442 -0.090126894 0.00072360714 0.0007645104 -0.056118812
0.019312434 -0.054580424 -0.12141458 -0.015933163 0.015972195 -0.0040137595 0.009996962 -0.017097019
-0.026830569 -0.03976785 -0.032728788 -0.07558681 -0.08943489 -0.083669215 -0.08879851 -0.04309032
00000000: 2d0c 5bbc 70e3 f13c 85df 3dbc 1982 08bd
00000010: 361e 1bbd 2a2f e2bc 018e bcbd 8798 0a3e
00000020: 6911 dbbd f93d acbd 80db 573b 754d 903d
00000030: 31ad 66bd dc92 55bd 5a03 e53c 4a3a 55bd
00000040: ee3f a5bc 0a91 03b9 f416 033d 5dd6 bd3d
00000050: 767a c3bd 97ea 913d e8cc 2e3d c12d a53d
00000060: aef6 aa3d 2ec6 10bd 3742 80bd 40f7 16bb
00000070: e900 95bd 0041 dabc 1c9b 5bbb d6f1 9bbd
00000080: cea8 193d f076 b3bd d43f 383d d20b 55bd
00000090: 8a2d 3e3d 8db9 98bd c6ef 0abd 6506 e33c
000000a0: 62fb 173d 4c2d 9a3d 35ec 1dbd 0758 2ebd
000000b0: 7394 b8bd 74b0 3d3a 6d69 483a d7dc 65bd
000000c0: 1c35 9e3c b98f 5fbd 35a8 f8bd 4486 82bc
000000d0: 1fd8 823c db85 83bb 4cca 233c 0c0f 8cbc
000000e0: c8cb dbbc 9de3 22bd 9f0e 06bd 42cd 9abd
000000f0: a429 b7bd c45a abbd fedb b5bd 7a7f 30bd

fc3.weight f4 [18, 64]
-0.17978573 -0.02717032 -0.035747252 0.032590244 -0.075884156 -0.110585794 0.006183511 -0.003744872
-0.08729873 0.06592034 -0.060118034 -0.052398644 -0.024972208 0.0639795 -0.0053787073 0.027497187
-0.07002628 -0.038380906 0.03347092 0.014125189 0.051028922 -0.038672365 -0.09633023 0.0872981
-0.16932465 0.106779605 -0.056505788 0.0077332705 -0.1450634 -0.030698258 -0.088556826 0.09686273
0.08204077 -0.11232564 0.023065185 0.04032223 -0.08066076 -0.032788556 0.0069746166 -0.01837649
-0.043442894 -0.1409149 -0.07774428 0.11816715 -0.01040691 -0.19966999 -0.07033062 0.0251915
-0.013853833 0.033821695 -0.040152665 -0.041418806 -0.07590668 -0.055384744 0.053731695 -0.048738703
-0.01756014 -0.13910599 0.123453036 0.01858805 -0.09210787 0.007817358 -0.0706947 -0.16376449
0.031566646 -0.051286764 0.028213764 0.024223868 -0.0735041 -0.0411292 -0.09112202 0.06529415
0.032365397 0.0068941643 0.027955353 -0.1372748 0.0681924 -0.09069757 0.046520874 0.07869652
-0.027098058 -0.053639952 -0.08189366 0.08403345 -0.03275506 0.051751588 0.12647629 0.019489946
0.122321814 0.013942188 0.087120935 -0.007773474 -0.038243584 -0.18950108 0.02448563 -0.0019915162
-0.04567999 -0.11061515 0.05743841 -0.048552465 0.057167597 0.03187889 -0.062208652 -0.11328457
0.013126657 0.015079464 0.09991374 -0.03651285 -0.043556996 0.09268922 -0.124661736 0.04342155
-0.0030634105 -0.13095339 -0.038417898 0.06857865 -0.012570791 -0.012960851 0.09437674 -0.09562908
0.100375324 0.113987915 0.04822655 -0.014502795 -0.11003456 -0.11534919 -0.119218715 0.04352845
-0.0168004 0.0834355 -0.029630236 0.023687402 0.0540763 0.00910683 -0.072544634 0.093058035
-0.05705962 -0.052117057 0.0063279867 -0.105510294 0.002602258 0.04082957 -0.005826985 0.03114006
-0.12633179 -0.11982024 -0.083176784 -0.08987933 0.027828455 -0.061441492 0.027136106 -0.013582944
0.0001504109 0.011415924 0.102755845 -0.0907145 -0.05561989 0.0375717 -0.010698505 -0.015922997
-0.0011614459 0.08087227 0.11075842 0.089501 0.06094818 -0.079060845 0.03511481 0.06877505
-0.093672685 0.0020931088 -0.015463849 -0.04249233 0.01745079 -0.02287427 -0.07108616 0.113263905
-0.039937392 0.10445752 0.07958302 0.0064508845 0.010446771 0.069553256 -0.06024497 -0.10035533
-0.021333396 0.046676155 -0.023908854 -0.070637114 -0.15015057 -0.045900077 -0.15721667 -0.008927931
-0.08383276 0.036466043 -0.03107312 0.02821889 0.07259744 0.047102213 -0.15247011 -0.11463882
-0.21634845 -0.07290845 -0.018681973 -0.15367492 -0.10070808 0.007063272 -0.022843774 0.016165286
-0.02090449 0.017344262 0.045444384 -0.012119366 -0.056778207 0.054897793 0.009035213 -0.03438286
-0.13314037 0.105230995 0.05001382 0.05189742 -0.08596427 0.03714653 -0.002492392 0.11123353
0.009939497 0.06355898 -0.090655744 0.021169296 0.011938132 -0.12221017 -0.010985454 0.042381193
-0.05227362 -0.08022762 -0.031674813 0.031097412 0.05077505 -0.057214897 0.08692481 -0.020238385
0.11029343 -0.0541939 -0.042702954 -0.08872453 0.048331406 0.07942056 -0.11091893 0.004934743
-0.039810583 -0.14416735 0.07732341 -0.05443226 -0.045177028 -0.12392224 -0.05827113 -0.124694854
00000000: c019 38be 4a94 debc b66b 12bd 597d 053d
00000010: 2769 9bbd ce7a e2bd 0d9f ca3b 876c 75bb
00000020: adc9 b2bd 3e01 873d 543e 76bd f69f 56bd
00000030: 8492 ccbc af07 833d de3f b0bb c841 e13c
00000040: f069 8fbd 4c35 1dbd ce18 093d 566d 673c
00000050: b403 513d ea66 1ebd c948 c5bd 59c9 b23d
00000060: 7163 2dbe 44af da3d 9d72 67bd 6067 fd3b
00000070: 808b 14be ea7a fbbc 485d b5bd f85f c63d
00000080: fe04 a83d fc0a e6bd 33f3 bc3c ec28 253d
00000090: 7831 a5bd 4b4d 06bd 538b e43b 4b8a 96bc
000000a0: 2df1 31bd ff4b 10be 6538 9fbd 9e01 f23d
000000b0: bf81 2abc 4a76 4cbe 8009 90bd 685e ce3c
000000c0: 30fb 62bc 9e88 0a3d 1f77 24bd c4a6 29bd
000000d0: f674 9bbd 1ddb 62bd c415 5c3d 3ca2 47bd
000000e0: 48da 8fbc cd71 0ebe f2d4 fc3d f745 983c
000000f0: 0da3 bcbd 6014 003c 62c8 90bd e1b1 27be
00000100: 074c 013d 1212 52bd 8d20 e73c 2271 c63c
00000110: 5189 96bd 1877 28bd 2e9e babd f0b8 853d
00000120: 9491 043d 71e8 e13b a002 e53c c491 0cbe
00000130: 75a8 8b3d a6bf b9bd ac8c 3e3d a42b a13d
00000140: bffc ddbc 91b5 5bbd ddb7 a7bd bb19 ac3d
00000150: 2b2a 06bd 79f9 533d 0083 013e 61a9 9f3c
00000160: dc83 fa3d c66d 643c 766c b23d a0b8 febb
00000170: 4ea5 1cbd 920c 42be 1796 c83c 1984 02bb
00000180: f11a 3bbd 328a e2bd 8a44 6b3d f3de 46bd
00000190: 9228 6a3d 7093 023d 80ce 7ebd be01 e8bd
000001a0: 3111 573c db0f 773c 939f cc3d 808e 15bd
000001b0: d268 32bd d9d3 bd3d a74e ffbd ccda 313d
000001c0: 80c3 48bb a518 06be 165c 1dbd f772 8c3d
000001d0: b8f5 4dbc c059 54bc 9848 c13d 2ed9 c3bd
000001e0: 9491 cd3d 7f72 e93d 3489 453d 229d 6dbc
000001f0: cd59 e1bd 323c ecbd f128 f4bd e34a 323d
00000200: fea0 89bc 3be0 aa3d 1cbb f2bc 150c c23c
00000210: 1c7f 5d3d d034 153c 4892 94bd 3695 be3d
00000220: 59b7 69bd b278 55bd 005b cf3b c815 d8bd
00000230: a58a 2a3b e83c 273d 4bf0 bebb 7019 ff3c
00000240: 1f5d 01be 5064 f5bd 9758 aabd a712 b8bd
00000250: 80f8 e33c 13aa 7bbd 8a4c de3c ff8a 5ebc
00000260: 9eb7 1d39 db09 3b3c a871 d23d 86c8 b9bd
00000270: afd1 63bd c8e4 193d c848 2fbc f270 82bc
00000280: a83b 98ba 5ca0 a53d 4fd5 e23d 4d4c b73d
00000290: cca4 793d a7ea a1bd 8cd4 0f3d efd9 8c3d
000002a0: 77d7 bfbd 8a2c 093b 155c 7dbc 700c 2ebd
000002b0: f6f4 8e3c d262 bbbc 9f95 91bd e8f6 e73d
000002c0: 6495 23bd d3ed d53d 6cfc a23d f161 d33b
000002d0: ef28 2b3c f071 8e3d 6ec3 76bd 1887 cdbd
000002e0: 60c3 aebc 7f2f 3f3d 80dc c3bc 31aa 90bd
000002f0: 12c1 19be b801 3cbd 68fd 20be 7546 12bc
00000300: 83b0 abbd 6b5d 153d 0e8d febc 4d2b e73c
00000310: f7ad 943d 40ee 403d 2021 1cbe c2c7 eabd
00000320: 738a 5dbe 0751 95bd f00a 99bc f55c 1dbe
00000330: 0a40 cebd 0573 e73b de22 bbbc 106d 843c
00000340: e53f abbc 8e15 8e3c e423 3a3d 4e90 46bc
00000350: 4490 68bd 82dc 603d 6e08 143c 0bd5 0cbd
00000360: f355 08be 5983 d73d 4bdb 4c3d 6492 543d
00000370: 090e b0bd f626 183d 6657 23bb 68ce e33d
00000380: 46d9 223c 362b 823d b8a9 b9bd 3b6b ad3c
00000390: 2898 433c 5349 fabd 55fc 33bc e797 2d3d
000003a0: dd1c 56bd 614e a4bd 73bd 01bd 00c0 fe3c
000003b0: 80f9 4f3d 2b5a 6abd a305 b23d f8ca a5bc
000003c0: 86e1 e13d 6cfa 5dbd 4be9 2ebd 35b5 b5bd
000003d0: 27f7 453d 3fa7 a23d 7729 e3bd a0b3 a13b
000003e0: 6c10 23bd 9ba0 13be bc5b 9e3d 5df4 5ebd
000003f0: 8c0b 39bd f2ca fdbd b5ad 6ebd 0460 ffbd

fc3.bias f4 [18]
0.04082164 -0.04559703 0.0049237926 0.04865392 -0.0747059 0.03824942 -0.03435847 -0.10567092
0.062164478 0.069299 -0.051575806 -0.019767199 0.06725912 -0.0971967 0.033218034 0.08745344
-0.11355889 -0.02879174
00000000: 9834 273d f4c3 3abd c457 a13b 5549 473d
00000010: 68ff 98bd 6cab 1c3d 78bb 0cbd ff69 d8bd
00000020: 2ea0 7e3d a2ec 8d3d 2741 53bd d2ee a1bc
00000030: 26bf 893d 100f c7bd a20f 083d ca1a b33d
00000040: 9091 e8bd a8dc ebbc
