models/2024-07-20_16-34-18/epoch_0047_loss_0.00052385/dynamics.pth (torch, 83084 bytes, 8 tensors)

fc1.weight f4 [64, 34]
0	0x3e6ee37f	0.2332897
1	0xbde94226	-0.1138957
2	0x3d1c91f5	0.038225133
3	0xbe06f981	-0.13181116
4	0x3d8c52b3	0.06851711
5	0x3c9ab14a	0.018883366
6	0xbe1e6e53	-0.15471773
7	0x3afa7004	0.001910687
8	0xbe2658c7	-0.16244803
9	0x3d33cafa	0.043894745
10	0x3e2d2c33	0.16911392
11	0xbd6e187b	-0.058128815
12	0xbdfe1cb5	-0.12407819
13	0xbe1c0f18	-0.15240133
14	0x3de7e184	0.113223106
15	0x3d853e8a	0.06506069
16	0xbdf5bb6f	-0.11998641
17	0xbdcb9185	-0.09939865
18	0x3da94036	0.082642004
19	0xbdbce147	-0.09222656
20	0x3da1e510	0.07905018
21	0xbd4b8ffa	-0.049697854
22	0x3e0378ca	0.12839046
23	0xbdca3efd	-0.09875295
24	0x3e0f6b3d	0.14005752
25	0x3c8bea22	0.017079417
26	0x3e11081f	0.14163254
27	0x3e067bef	0.13133214
28	0x3db4a047	0.08819633
29	0xbe10c765	-0.14138563
30	0xbd55c652	-0.052191086
31	0x3e24fd16	0.1611217
32	0x3c896f84	0.016776808
33	0x3e0a9fcd	0.13537522
34	0x3d64d30b	0.05586533
35	0xbd8a8790	-0.06764138
36	0xbcd3751a	-0.025812674
37	0xbdf3e599	-0.11909027
38	0x3c09d752	0.008413153
39	0xbd947ca1	-0.072503336
40	0x3d051694	0.032492235
41	0xbd9c37f2	-0.07627858
42	0xbdcf7e2e	-0.10131489
43	0xbcc97bbe	-0.024595138
44	0x3dc13807	0.094345145
45	0x3c897d0b	0.016783258
46	0x3d8adb0c	0.06780061
47	0xbdce048c	-0.10059461
48	0xbda9ae6b	-0.08285221
49	0x3dae6aaa	0.08516438
50	0x3e5951ca	0.21222606
51	0xbe11cfce	-0.14239427
52	0x3e1b4e78	0.15166652
53	0xbc257fc6	-0.010101264
54	0xbe15b994	-0.14621574
55	0x3da59a53	0.08086076
56	0xbd375081	-0.04475451
57	0xbd5748ab	-0.052559536
58	0x3d67cbad	0.056590725
59	0xbd6b4a10	-0.05744368
60	0x3dd071b1	0.10177935
61	0xbe77b712	-0.2419093
62	0xbe6b46c2	-0.2297621
63	0xbd2c0525	-0.041997094
64	0xbe5acfe3	-0.21368365
65	0xbcb4d5fb	-0.02207469
66	0x3d341a08	0.043970138
67	0xbe0917b6	-0.13387951
68	0xbd9bf2c2	-0.07614662
69	0x3da2bdd6	0.079463646
70	0x3e477cf2	0.19481257
71	0xbc4bbd1f	-0.012435227
72	0xbda4c60e	-0.080455884
73	0x3dffb503	0.12485697
74	0xbe194990	-0.14969468
75	0xbcb48a50	-0.022038609
76	0xbe5eaa2b	-0.21744601
77	0x3e06179f	0.13094948
78	0xbd08c6ad	-0.033392597
79	0xbd63ad0c	-0.055584952
80	0xbd1c2437	-0.038120475
81	0xbdc0fafb	-0.09422871
82	0xbe46cd1c	-0.1941418
83	0x3dd908c6	0.105973765
84	0x3bd2421b	0.006416572
85	0xbe422382	-0.18958858
86	0xbb5325e6	-0.0032218634
87	0x3b4b8d0a	0.0031059408
88	0x3daa1851	0.08305419
89	0xbdf3b96b	-0.119006
90	0x3c8d5f4b	0.017257353
91	0x3d37eed2	0.04490549
92	0x3e07d879	0.13266172
93	0x3dbbefac	0.09176573
94	0xbc1b8dc5	-0.00949425
95	0xbda85b34	-0.082205206
96	0xbe56a37d	-0.20960803
97	0xbd473d8f	-0.04864269
98	0xbc9f61b1	-0.019455763
99	0xbe68fde7	-0.22753106
100	0xbe648e94	-0.22320014
101	0xbd125cdc	-0.03573309
102	0x3dc8400a	0.097778395
103	0xbb378ac0	-0.0028006285
104	0x3da741ea	0.08166869
105	0x3ddde8d2	0.108354226
106	0xbd93f413	-0.07224288
107	0x3e21fe8f	0.15819763
108	0x3e1bf8f9	0.15231694
109	0x3e1aeac9	0.15128626
110	0xbb7d3280	-0.0038634837
111	0xbd86e6b9	-0.065869756
112	0xbdc320dd	-0.095277525
113	0x3df1c6ee	0.11805521
114	0x3cd54ae8	0.026036695
115	0xbc2b2a60	-0.010447115
116	0xbc942df0	-0.018088311
117	0x3d0e5258	0.034746498
118	0x3d044400	0.032291412
119	0x3c13b4b0	0.009015247
120	0x3dec72fa	0.115453675
121	0xbdb0763a	-0.086163
122	0xbdbba109	-0.091615744
123	0xbdf51d48	-0.119684756
124	0x3e220945	0.15823849
125	0x3ddf40da	0.10901041
126	0x3e23ac49	0.1598369
127	0x3d0640f4	0.032776788
128	0x3d90b24c	0.070652574
129	0x3e2907b7	0.16506849
130	0xbdec6de1	-0.11544395
131	0xbc58cf60	-0.013233036
132	0x3c664370	0.014054164
133	0xbd00e4cc	-0.031468198
134	0xbbbfe340	-0.0058559477
135	0x3d9056cc	0.07047805
136	0x3e12ab53	0.14323168
137	0x3e04cdc7	0.12969123
138	0xbd8e386e	-0.06944357
139	0xbdce88fb	-0.10084721
140	0xbd9e0649	-0.077160425
141	0x3e2e1917	0.17001759
142	0xbd0ce2fc	-0.034396157
143	0x3e2835f9	0.16426839
144	0x3e0d51d1	0.13800742
145	0x3de863c6	0.11347155
146	0xbd8dacae	-0.06917702
147	0x3e03141b	0.12800638
148	0xbcc43b40	-0.023954034
149	0x3d3c4cb0	0.045971572
150	0x3e0a4411	0.13502528
151	0xbcccb398	-0.02498798
152	0xbd171b28	-0.036891133
153	0xbcad7798	-0.02117519
154	0xbd3372a0	-0.043810487
155	0xbdb1c517	-0.0868017
156	0xbe0af78a	-0.13570991
157	0xbe28fa92	-0.16501835
158	0xbe015f18	-0.12633932
159	0xbda6ee38	-0.08150905
160	0x3d8208cc	0.06349334
161	0x3cffaee8	0.031211331
162	0xbdcca3a4	-0.099921495
163	0x3e1438c7	0.14474784
164	0xbdb64dee	-0.08901583
165	0xbda52c6f	-0.08065116
166	0xbdae8f34	-0.085234076
167	0x3cf52db0	0.029929012
168	0x3d936018	0.07196063
169	0x3de7858a	0.113047674
170	0xbe26cf48	-0.16290009
171	0xbdcdbc54	-0.10045686
172	0x3dcc7e52	0.09985031
173	0x3dda6172	0.106631175
174	0x3d2889b4	0.04114695
175	0xbe078248	-0.13233292
176	0xbdf3d540	-0.119059086
177	0xbd129c04	-0.03579332
178	0xbdf182c6	-0.11792521
179	0x3d9fbcdc	0.07799694
180	0x3e05927d	0.13044162
181	0x3ca03700	0.019557476
182	0x3b0f3280	0.0021850169
183	0xbd726d38	-0.05918619
184	0x3dd01b0a	0.10161407
185	0x3dbfd93e	0.093676075
186	0xbdea9830	-0.11454809
187	0x3e16b11d	0.14716001
188	0x3e128719	0.14309348
189	0x3cdc5b40	0.02689898
190	0xbe00bd0b	-0.12572114
191	0xbe212b4e	-0.15739176
192	0x3d57c528	0.052678257
193	0x3d3f93ec	0.04677193
194	0xbd1dcc64	-0.038525
195	0x3cd86f00	0.026420116
196	0xbc909560	-0.017649353
197	0xbdfd03a9	-0.12354214
198	0x3d5cac2c	0.053875133
199	0xbd6222a2	-0.05520881
200	0x3ddcacd6	0.10775153
201	0x3c8b6c98	0.017019555
202	0x3dae4b36	0.08510439
203	0xbdb60756	-0.08888118
204	0x3e8df8d0	0.2772889
205	0x3cb2ff8a	0.021850366
206	0x3d8bfd3b	0.06835409
207	0x3dd374ab	0.10324987
208	0x3d54f5ac	0.051992103
209	0xbd9c5909	-0.076341696
210	0xbdb59c56	-0.08867709
211	0x3d3ccc47	0.04609325
212	0xbc2bf11d	-0.010494498
213	0xbde4b06b	-0.111664616
214	0xbdf5371d	-0.11973403
215	0x3deb976a	0.11503489
216	0x3e33e0d6	0.17566237
217	0xbda9fda7	-0.083003335
218	0x3d279caf	0.04092091
219	0x3e1de0d5	0.15417798
220	0xbd7c7bdb	-0.061641555
221	0x3d83f98d	0.064440824
222	0x3da94a0f	0.08266079
223	0xbdbfee7f	-0.093716614
224	0x3d09934d	0.033587743
225	0x3e18d244	0.1492396
226	0x3e113bc8	0.14182961
227	0x3d943274	0.07236186
228	0x3e5743cb	0.21021955
229	0x3d93b7e6	0.0721281
230	0xbe874315	-0.26418367
231	0x3d952279	0.07281966
232	0xbdc7f03d	-0.09762619
233	0xbe3146ac	-0.17312115
234	0xbdaed41a	-0.08536549
235	0xbde1ce49	-0.11025674
236	0xbe189941	-0.14902212
237	0xbdf4eb0b	-0.119588934
238	0xbe0f8b97	-0.14018093
239	0xbdff38f6	-0.12462036
240	0xbd5c544c	-0.05379133
241	0x3cd6ce38	0.02622138
242	0xbd48302c	-0.048874065
243	0xbe25e105	-0.1619912
244	0xbd801967	-0.06254845
245	0x3e0d5a5f	0.13804005
246	0xbe260a59	-0.16214885
247	0xbd862606	-0.06550221
248	0xbdea09d8	-0.11427659
249	0xbdaf39ca	-0.08555944
250	0x3d2deed0	0.042464077
251	0xbc87bb80	-0.0165689
252	0x3e0d4f39	0.13799752
253	0xbd6c96b8	-0.057760924
254	0xbd695dd0	-0.056974232
255	0x3d843714	0.06455818

fc1.bias f4 [64]
0	0xbd2ad06e	-0.04170268
1	0xbd5f6b78	-0.05454585
2	0x3d259b7f	0.040431496
3	0xbb12c580	-0.0022395551
4	0x3d3cd714	0.046103552
5	0xbd4542fa	-0.048159577
6	0xbe14263d	-0.14467712
7	0xbc022a32	-0.00794463
8	0xbe1a263a	-0.15053645
9	0xbd8f494f	-0.069964044
10	0xbdd8093d	-0.10548637
11	0xbd244a17	-0.04010972
12	0xbc6b8178	-0.0143741295
13	0xbda553f5	-0.08072654
14	0xbd33e8e1	-0.043923263
15	0xbe0d3564	-0.13789898
16	0xba54c966	-0.0008117169
17	0xbc313e34	-0.010818053
18	0x3e777974	0.24167424
19	0xbd32f836	-0.043693744
20	0xbcf78035	-0.030212501
21	0xbe2616fb	-0.16219704
22	0xbde88cc6	-0.113549754
23	0xbc281800	-0.010259628
24	0xbdb2a9c2	-0.08723785
25	0xbc97fdfa	-0.018553723
26	0xbde209be	-0.110370144
27	0xbdb69551	-0.089151986
28	0xbd5378d3	-0.0516289
29	0x3c90bb8b	0.017667552
30	0xbd65d1eb	-0.056108397
31	0x3d4f4317	0.05060109
32	0xbe1509ff	-0.14554594
33	0xbce5142d	-0.027963722
34	0xbd070a50	-0.03296882
35	0xbe08558e	-0.13313887
36	0x3cdcd14f	0.026955275
37	0x3e37cab2	0.17948416
38	0x3e06e546	0.13173398
39	0xbc5f75f5	-0.013638963
40	0xbc84a64e	-0.016192582
41	0x3d1644b1	0.036686603
42	0xbe4a2df6	-0.19744095
43	0xbcddf8b5	-0.027096132
44	0xbd8be07f	-0.068299286
45	0xbd71883a	-0.058967806
46	0xbc483820	-0.0122204125
47	0x3cbb5048	0.02286543
48	0x3df3c12b	0.11902078
49	0xbcbb52d0	-0.022866637
50	0xbc130b49	-0.008974859
51	0xbe0cec5e	-0.13762042
52	0xbc94bdd5	-0.018156925
53	0xbda816a2	-0.08207442
54	0xbe057def	-0.13036321
55	0x3e0dec0a	0.13859573
56	0xbcd4a6dc	-0.025958471
57	0xbe6704c2	-0.22560409
58	0xbc49f66a	-0.012326816
59	0xbd2b98b2	-0.04189367
60	0xbd0cbcd4	-0.034359768
61	0xbd10408d	-0.03521781
62	0xbdde8cfa	-0.10866733
63	0xbe274228	-0.1633383

fc2.weight f4 [128, 64]
0	0xbe0fc492	-0.1403983
1	0xbb1024b1	-0.0021994526
2	0xbe30449f	-0.17213677
3	0x3c732d50	0.014842346
4	0xbe657c66	-0.22410735
5	0x3d0d3780	0.034476757
6	0xbd44f63d	-0.048086394
7	0xbd755bc3	-0.059901964
8	0xbd8a1654	-0.0674254
9	0xbe72026b	-0.23633735
10	0x3d6e641c	0.05820094
11	0xbd5bb52b	-0.053639572
12	0x3c43669d	0.01192632
13	0xbde14d15	-0.1100103
14	0xbd8d6d40	-0.069056034
15	0x3d003506	0.031300567
16	0xbdec868a	-0.11549099
17	0xbe341c79	-0.17588986
18	0xbd5cc4e7	-0.05389872
19	0x3cbddc49	0.02317633
20	0xbd3ee8f3	-0.046608876
21	0xbd88ae4c	-0.066738695
22	0x3db5dea4	0.08880356
23	0x3df69d52	0.12041725
24	0x3d0b43b3	0.03400011
25	0xbd9a5b05	-0.07536892
26	0xbcbcb540	-0.023035645
27	0x3d7ab718	0.061209768
28	0xb9d693b5	-0.0004092731
29	0xbcf825f7	-0.03029154
30	0xbdea178d	-0.11430273
31	0xbd655021	-0.05598462
32	0xbdb47244	-0.08810857
33	0xbd18a9b8	-0.03727123
34	0xbdaff3de	-0.08591436
35	0xbd999075	-0.07498256
36	0xbd78b3ae	-0.06071823
37	0xbe6a75a7	-0.22896443
38	0xbd29e06e	-0.0414738
39	0xbd902a44	-0.070393115
40	0xbd237447	-0.039905813
41	0xbe5c4adf	-0.21512936
42	0x3d81943f	0.06327104
43	0xbe0ebdb8	-0.1393956
44	0x3b3cc900	0.0028806329
45	0xbd3c3383	-0.045947563
46	0xbdb5fc0a	-0.08885963
47	0xbe54ec06	-0.20793161
48	0xbc9d9d48	-0.019240037
49	0xbda5f840	-0.081039906
50	0x3ce8e1b8	0.028427944
51	0xbdcd65e0	-0.10029197
52	0xbcae3085	-0.02126337
53	0x3df09f66	0.11749153
54	0xbd940d3a	-0.07229085
55	0xbca9aafa	-0.02071141
56	0xbcdf76cc	-0.027278326
57	0x3cf07424	0.029352255
58	0xbd8c8698	-0.06861609
59	0xbd11bc32	-0.035579868
60	0x3d187dce	0.03722935
61	0xbe3d59c3	-0.18491273
62	0x3d3ef4d8	0.04662022
63	0xbd7a9968	-0.061181456
64	0xbd280177	-0.041017022
65	0x3db958ce	0.09050141
66	0xbe24c8b9	-0.16092195
67	0x3c6ccf20	0.014453679
68	0xbd58e5b7	-0.05295345
69	0xbd898adc	-0.067159384
70	0xbd8960a4	-0.06707886
71	0xbdb98cb7	-0.09060042
72	0xbdb55646	-0.08854346
73	0x3cd07e9f	0.025451003
74	0x3d51fc54	0.05126603
75	0x3c443710	0.011976019
76	0xbd62bbd4	-0.055354908
77	0xbcf5ccf0	-0.030004948
78	0xbda0534e	-0.07828389
79	0xbd1b49f4	-0.037912324
80	0xbd8932bf	-0.06699132
81	0xbe312a48	-0.17301285
82	0xbbb0bfa3	-0.0053939386
83	0xbe21bc16	-0.15794405
84	0xbd1b6d98	-0.037946314
85	0xbcac3348	-0.021020547
86	0x3d77f240	0.060533762
87	0x3d2cc080	0.04217577
88	0xbdd8064a	-0.105480745
89	0xbdaf0dd0	-0.085475564
90	0x3dd4db5c	0.10393402
91	0x3d18e618	0.03732881
92	0xbb08aa7f	-0.0020853577
93	0xbca72038	-0.020401105
94	0xbdaca7c8	-0.08430439
95	0xbbb5115d	-0.0055257515
96	0xbd0bc284	-0.03412105
97	0xba54b0ce	-0.0008113504
98	0xbac8a780	-0.0015308708
99	0xbd367fb0	-0.044555366
100	0xbdffab96	-0.12483899
101	0x3c329d5d	0.010901776
102	0xbd66b8d5	-0.056328613
103	0xbb058cda	-0.0020378144
104	0x3c190d25	0.009341513
105	0xbcc0dd66	-0.023543071
106	0x3db2351c	0.08701536
107	0x3a8c6d1d	0.0010713671
108	0x3bcdc100	0.006279111
109	0xbd7a6860	-0.061134696
110	0xbdc82966	-0.09773521
111	0xbd9ef4c4	-0.07761529
112	0xbe2a49e1	-0.16629745
113	0x3c72e400	0.014824867
114	0xbdb37f58	-0.08764523
115	0xbd9aaa72	-0.07552041
116	0xbd7034c6	-0.05864408
117	0x3d1214c8	0.03566435
118	0x3d86ac7e	0.06575869
119	0x3d0c9e1c	0.034330472
120	0xbdf67a46	-0.120350406
121	0xbdc4bf82	-0.0960684
122	0x3d575263	0.052568804
123	0xbd047898	-0.03234157
124	0xbc905c98	-0.017622277
125	0xbdf4630c	-0.11932954
126	0xbc0afcf0	-0.008483157
127	0xbd04f674	-0.0324616
128	0xbdf92368	-0.12164956
129	0xbd02a755	-0.03189786
130	0x3d2cd05f	0.042190906
131	0x3df36ec6	0.11886363
132	0xbe27a3ec	-0.16371125
133	0x3cb63200	0.022240639
134	0x3d7f78f3	0.062371206
135	0xbdaf5343	-0.08560803
136	0xbd21b984	-0.039483562
137	0xbcee45a7	-0.029085947
138	0xbc932048	-0.017959729
139	0x3cc04a55	0.023472944
140	0xbb900f02	-0.0043963203
141	0x3d2d021d	0.042238344
142	0xbc64b584	-0.013959292
143	0x3d17ff53	0.03710873
144	0xbdd462a7	-0.10370379
145	0x3d61a127	0.055085327
146	0xbe1b9e32	-0.15197065
147	0xbc111254	-0.008854467
148	0x3cccb0e9	0.024986701
149	0x3d265dac	0.040616676
150	0x3da89eb8	0.08233398
151	0xbdb229ce	-0.0869938
152	0xbd83914f	-0.064242
153	0xbcc42c6c	-0.023946963
154	0xbd99c14e	-0.07507573
155	0x3d85bb56	0.06529872
156	0xbb9fd589	-0.0048777503
157	0xbe2d5f76	-0.16930947
158	0xbdee1a8d	-0.11626158
159	0xbd6ff88d	-0.058586646
160	0x3d9a7dbc	0.07543513
161	0xbd073df0	-0.033018053
162	0xbd060f68	-0.032729536
163	0xbdbeb638	-0.09312099
164	0xbe106d15	-0.14104111
165	0x3b0e5eed	0.002172406
166	0xbe15123f	-0.14557742
167	0xbd1d0a6f	-0.03834003
168	0xbe2d7b1c	-0.16941494
169	0xbe2eb5c3	-0.17061524
170	0xbd9e513d	-0.07730339
171	0xbe1aa56f	-0.1510217
172	0x3dbf38fc	0.09337041
173	0x3d4bd373	0.0497622
174	0xbd88a5b8	-0.06672233
175	0xbb05c9f2	-0.0020414558
176	0xbdb672ba	-0.08908601
177	0x3da925a2	0.08259131
178	0xbaffe6cd	-0.001952374
179	0x3db21932	0.08696212
180	0xbdbc1490	-0.091836095
181	0x3ba1f9c0	0.0049431026
182	0xbbfff36f	-0.007811002
183	0x3d4714a3	0.048603665
184	0xbd86e9b3	-0.06587543
185	0xbd49af6e	-0.04923957
186	0xbdabbe77	-0.08385938
187	0xbe2e9456	-0.17048773
188	0xbb883237	-0.0041563767
189	0x3d589910	0.052880347
190	0x3df21218	0.11819857
191	0xbd329c78	-0.04360625
192	0x3d2f61e7	0.042817976
193	0x3d127ef5	0.035765607
194	0xbbfe338f	-0.007757611
195	0xbde921e8	-0.1138342
196	0xbcc23310	-0.02370599
197	0x3d591440	0.052997828
198	0xbdf8c29d	-0.121464945
199	0x3ce6a120	0.028153002
200	0xbd392dd4	-0.04520972
201	0x3d29d0fc	0.04145907
202	0x3d94937a	0.072546914
203	0xbc781dea	-0.015143851
204	0x3cc08d84	0.02350498
205	0xbe203a26	-0.15647182
206	0xbe37625a	-0.17908612
207	0xbdd48a62	-0.10377957
208	0xbb08f53c	-0.0020898124
209	0xbd4eb390	-0.050464213
210	0xb96d7000	-0.00022643805
211	0xbcd7808e	-0.026306417
212	0xbe0a0f5f	-0.13482426
213	0x3dc992a2	0.09842421
214	0xbdb53420	-0.08847833
215	0x3cd8a5b8	0.026446208
216	0xbd09c91e	-0.033639066
217	0xbdbb3546	-0.091410205
218	0xbc617df0	-0.013762936
219	0xbdd9cf6e	-0.10635267
220	0x3d3ff1d5	0.04686149
221	0x3bed31d0	0.007238604
222	0xbe188e26	-0.14897975
223	0xbe1bcff8	-0.15216053
224	0x3d407fe0	0.04699695
225	0xbd2269b1	-0.039651576
226	0xbcf802b0	-0.030274719
227	0xbdcd505e	-0.100250944
228	0xbcc80488	-0.024416223
229	0xbd1f1308	-0.03883651
230	0xbd9f0494	-0.07764545
231	0x3c214760	0.009843677
232	0xbd5320f4	-0.0515451
233	0xbca440a0	-0.020050347
234	0xbd09ee18	-0.03367433
235	0xbd9fa70d	-0.07795534
236	0x3ced2be0	0.028951585
237	0xbcfc8ce9	-0.03082891
238	0x3d8deb62	0.06929661
239	0x3d67aef8	0.056563348
240	0xbd148d78	-0.036267728
241	0xbd7f51d8	-0.06233391
242	0xbb86fce2	-0.0041195014
243	0x3db1ebd4	0.08687559
244	0xbe176bc1	-0.14787199
245	0x3c6ce1e0	0.01445815
246	0x3d066e15	0.032819826
247	0x3d4815ee	0.04884904
248	0xbdd7cfbe	-0.105376706
249	0x3dd55f8c	0.10418615
250	0xbe08cc6b	-0.1335923
251	0xbc0f6df5	-0.008754243
252	0xbe322644	-0.1739741
253	0x3c871478	0.016489252
254	0x3df16de2	0.117885366
255	0xbd139388	-0.03602937

fc2.bias f4 [128]
0	0xbcb44410	-0.022005111
1	0xbd5ff99c	-0.054681405
2	0xbcf38c51	-0.029729994
3	0xbd800e89	-0.06252772
4	0xbd3be120	-0.045868993
5	0x3c4a9466	0.0123644825
6	0xbdc1c5c8	-0.09461552
7	0x3da0e7c5	0.078567065
8	0x3b1d6f0a	0.0024022483
9	0xbabaf259	-0.0014262899
10	0x3ce5b80d	0.028041864
11	0xbcd746d1	-0.026278885
12	0xbdabb87e	-0.083847985
13	0xbc6d3be0	-0.014479607
14	0xbe0caba9	-0.13737358
15	0x3d4c321a	0.049852468
16	0xbde29188	-0.11062914
17	0xbdf320d1	-0.118714936
18	0xbdf378e5	-0.11888293
19	0x3ca97d98	0.02068977
20	0xbdf74076	-0.12072842
21	0xbdcd0d97	-0.10012358
22	0xbde6fa76	-0.112782404
23	0x3cba86ee	0.022769418
24	0x3b384ff1	0.002812382
25	0xbdb8d0b6	-0.090241835
26	0x3d6b33dc	0.057422504
27	0xbe4d9784	-0.2007733
28	0xbe03e3ec	-0.12879914
29	0x3de44d88	0.111476004
30	0xbdad13c6	-0.08451037
31	0x3cca874f	0.024722723
32	0xbd1a6af8	-0.03769967
33	0x3dc03d0d	0.093866445
34	0x3d12b0ba	0.03581307
35	0xbd7878f7	-0.060662236
36	0xbe1f0363	-0.15528636
37	0x3dd3f73f	0.10349893
38	0x3d5338ff	0.051568028
39	0xbe426c18	-0.18986547
40	0x3d656a0b	0.056009334
41	0xbe14b63b	-0.1452264
42	0xbd26f890	-0.04076439
43	0xbd8fb690	-0.07017243
44	0xbdb32207	-0.087467246
45	0xbc5c6e1d	-0.013453987
46	0x3cc85730	0.024455637
47	0xbda6aaab	-0.08138021
48	0x3d61f030	0.0551607
49	0xbda3a3b0	-0.07990205
50	0xbd656ada	-0.056010105
51	0xbdec8178	-0.11548132
52	0xbbde6c71	-0.0067878296
53	0xbd1653d8	-0.036701053
54	0xbd916386	-0.07099061
55	0xbe308908	-0.17239773
56	0x3d483c45	0.048885603
57	0xbe13347a	-0.14375487
58	0xbd02f8d0	-0.031975567
59	0xbdebcdfc	-0.11513898
60	0xbdf46a46	-0.119343325
61	0xbdc1a33b	-0.09454962
62	0xbd5b92c4	-0.053606763
63	0xbd151e4b	-0.036405843
64	0xbe2e6bdd	-0.17033334
65	0xbe448e27	-0.19194852
66	0xbd8fca50	-0.0702101
67	0xbc2f51d2	-0.01070066
68	0x3d741ee8	0.059599787
69	0xbdb3e41d	-0.087837435
70	0xbdc79ed6	-0.097470924
71	0xbcbf69a8	-0.02336581
72	0x3d0a9544	0.033833757
73	0x3dbe0810	0.092788815
74	0xbdca58e8	-0.09880239
75	0x3cc4f3b2	0.024041984
76	0xbde33b36	-0.11095278
77	0x3db96243	0.09051945
78	0xbbd2d8ed	-0.006434551
79	0xbdbb6f7f	-0.091521256
80	0xbd0a8c6b	-0.03382532
81	0xbd2e31a5	-0.042527813
82	0xbd8ceaeb	-0.068807445
83	0x3d9576e4	0.07298067
84	0xbd94848a	-0.07251842
85	0xbde98d54	-0.11403909
86	0xbddd4998	-0.108050525
87	0x3d791e20	0.060819745
88	0xbd57b870	-0.052666128
89	0xbdb5a0ee	-0.088685855
90	0xbdf79e40	-0.12090731
91	0xbdf62c0a	-0.120201185
92	0x3c4f2a5c	0.012644377
93	0xbce5f288	-0.02806975
94	0xbd96b88c	-0.07359418
95	0xbd7882fc	-0.06067179
96	0x3c8f719f	0.017510233
97	0xbdfbb89c	-0.12291071
98	0x3dbadde6	0.09124355
99	0xbdbfbe15	-0.09362427
100	0xbc861f6f	-0.01637241
101	0xbd171948	-0.036889344
102	0x3d5cd288	0.053911716
103	0x3c597bc7	0.01327414
104	0xbd8f8f03	-0.07009699
105	0xbd4923b4	-0.049106315
106	0x3dbf0661	0.093273886
107	0x3c452758	0.012033306
108	0x3d340ab8	0.043955535
109	0x3cfd00d9	0.030884193
110	0xbd98c8cc	-0.07460174
111	0xbcdcde60	-0.026961505
112	0xbd4ab770	-0.049491346
113	0xbd9d9fa6	-0.07696466
114	0xbb523a1e	-0.0032078098
115	0x3c0f16f5	0.008733501
116	0xbdd5885a	-0.104263976
117	0xbd25b0e0	-0.040451884
118	0xbe14a28b	-0.1451513
119	0xbd878119	-0.0661642
120	0xbde73302	-0.11289026
121	0x3ce2861b	0.027651837
122	0xbd850f54	-0.06497064
123	0x3d716ed9	0.058943603
124	0xbd4ea110	-0.05044657
125	0xbdaafbe9	-0.08348829
126	0x3c505781	0.012716175
127	0xbe37e915	-0.17960007

fc2_1.weight f4 [64, 128]
0	0xbd15786f	-0.036491808
1	0x3cb736ff	0.022365091
2	0xbe0631c1	-0.13104917
3	0x3d2782c6	0.0408962
4	0x3d75e43a	0.060032107
5	0x3d6fbd8a	0.058530368
6	0xbd28d548	-0.041219026
7	0xbca6258c	-0.020281576
8	0xbc0cf66a	-0.008603672
9	0xbd8b3b6f	-0.067984454
10	0x3ddac028	0.10681182
11	0x3b999f80	0.0046882033
12	0x3ce32460	0.027727306
13	0xbd785730	-0.060630023
14	0xbd7748b9	-0.060372088
15	0xbd1519f3	-0.0364017
16	0x3d411ff2	0.047149606
17	0xbe04d84d	-0.12973137
18	0xbc946e72	-0.01811907
19	0xbd931300	-0.07181358
20	0xbd54d751	-0.051963154
21	0xbd20abdf	-0.03922641
22	0x3d99470d	0.07484255
23	0xbd183fa4	-0.037170067
24	0x3e0d0a74	0.13773519
25	0xbb609ba5	-0.003427246
26	0xbd886a9f	-0.06660961
27	0x3c123474	0.008923639
28	0xbd3b37d1	-0.045707528
29	0xbe1bf5fc	-0.15230554
30	0xbcd4245c	-0.025896244
31	0x3dc5779d	0.09641955
32	0x3d14438d	0.036197234
33	0x3c9dfdee	0.019286122
34	0x3d146242	0.03622652
35	0xbe11404f	-0.14184688
36	0x3b82ed10	0.003995545
37	0xbb9d3558	-0.004797619
38	0x3cd33252	0.02578083
39	0xbc41022d	-0.011780304
40	0xbde6725b	-0.1125228
41	0x3da1577f	0.07878017
42	0xba63f9be	-0.0008696577
43	0xbdb48535	-0.0881447
44	0x3e0d6a8d	0.13810177
45	0xbd98c3c8	-0.07459217
46	0x3ce2b9aa	0.027676422
47	0xbd978355	-0.073980965
48	0xbdd88bf1	-0.10573567
49	0x3d8baa0b	0.068195425
50	0xbd6decc7	-0.058087137
51	0xbcc66a88	-0.02422072
52	0xbe11196e	-0.14169857
53	0x3d94bd3b	0.07262655
54	0xbd400d36	-0.0468876
55	0x3b276b60	0.0025546178
56	0xbcc196b9	-0.02363144
57	0xbd0e3045	-0.034714002
58	0xbd3dfbaa	-0.046382584
59	0xbd100b1c	-0.035166845
60	0xbc7e1577	-0.015508047
61	0x3e18734b	0.14887731
62	0xbdc7ac88	-0.097497046
63	0x3db7b58e	0.08970176
64	0xbc581de0	-0.0131907165
65	0xbbb5a740	-0.0055436194
66	0x3d7df296	0.061998926
67	0xbdb2dbf8	-0.08733362
68	0x3cc1b8cc	0.023647688
69	0x3cb2c8e6	0.021824311
70	0x3d80ee2d	0.062954284
71	0xbdfb8860	-0.12281871
72	0x3e125244	0.14289194
73	0xbe108a5e	-0.14115283
74	0x3d484b7a	0.048900105
75	0xbc736b6b	-0.014857153
76	0x3d60fd22	0.054928906
77	0xbd36bc61	-0.044613246
78	0xbdb2197e	-0.086962685
79	0x3da17e63	0.078854345
80	0xbe0eb71c	-0.13937038
81	0xbd6d9da2	-0.05801166
82	0xbddf259f	-0.108958475
83	0xbd5db403	-0.05412675
84	0x3df3737a	0.1188726
85	0xbce92666	-0.028460693
86	0xbb897980	-0.004195392
87	0xbde0510b	-0.10952958
88	0xbd2572b5	-0.040392596
89	0x3c6ae710	0.014337316
90	0xbd79a329	-0.060946617
91	0x3db2f4e7	0.08738118
92	0x3d98a369	0.07453043
93	0xbdaeee6e	-0.085415706
94	0x3d934fe9	0.07192976
95	0x3d730292	0.059328623
96	0x3d3b3e68	0.045713812
97	0x3d9c7cff	0.076410286
98	0xbceab05c	-0.028648548
99	0xbd2a27a2	-0.041541703
100	0x3e0adb2f	0.13560174
101	0xbd8c2c6c	-0.0684441
102	0x3bb034ae	0.0053773737
103	0x3da383b0	0.07984102
104	0x3d399ea2	0.0453173
105	0x3d173a3e	0.03692078
106	0xbcb9f2dc	-0.022698812
107	0xbdc50ad7	-0.09621208
108	0xbdb9ab90	-0.09065926
109	0xbdc437a6	-0.095809266
110	0xbcaddca4	-0.021223374
111	0xbd068e65	-0.03285064
112	0xbd5ecf71	-0.05439705
113	0xbd29ad73	-0.04142518
114	0x3c082236	0.008308938
115	0xbcc9cdbc	-0.024634235
116	0xbdaeef53	-0.08541741
117	0xbd3f1758	-0.04665312
118	0xbdd799e5	-0.105274
119	0x3c100428	0.008790053
120	0xbc0695a8	-0.008214392
121	0x38d99ace	0.00010376201
122	0xbd2a5708	-0.041586906
123	0xbe03d6a2	-0.12874845
124	0xbd203231	-0.039110366
125	0xbe15383e	-0.14572236
126	0x3bcd8857	0.0062723565
127	0xbdb2b74e	-0.08726369
128	0xbceb9755	-0.028758684
129	0xbde06d8d	-0.10958395
130	0x3e0fa6f8	0.14028537
131	0x3d87e7e3	0.06636026
132	0xbd86128a	-0.06546505
133	0xbda54535	-0.08069841
134	0xbd799a5b	-0.06093822
135	0xbe39d7af	-0.18148683
136	0xbc945ee3	-0.018111652
137	0xbdd7d4ec	-0.105386585
138	0xbe375176	-0.17902169
139	0x3d19f4d5	0.037587006
140	0x3d78c0aa	0.060730614
141	0xbd74ef74	-0.059798673
142	0x3d8e4b58	0.069479644
143	0xbe2acda7	-0.16680013
144	0xbd6083ac	-0.054813072
145	0x3da2aca0	0.07943082
146	0x3dca45b9	0.0987658
147	0xbd7e9f20	-0.062163472
148	0x3d8f5d25	0.07000188
149	0xbd2150e0	-0.03938377
150	0x3d07f0f4	0.033188775
151	0x3dd1accc	0.102380365
152	0xbc3552c0	-0.011067092
153	0x3d53b27f	0.0516839
154	0x3d7b254e	0.061314873
155	0x3d92d161	0.07168842
156	0x3ca0e912	0.019642387
157	0xbbd0b0b2	-0.00636872
158	0xbe06f922	-0.13180974
159	0x3cc0dc86	0.023542654
160	0xbd6951bd	-0.056962717
161	0x3d8a1d0b	0.06743821
162	0xbe391eb2	-0.18078116
163	0x3deaf16f	0.11471831
164	0x3dc74fcb	0.09732016
165	0xbe10757b	-0.14107315
166	0xbc0c03c9	-0.008545824
167	0xbbe23874	-0.0069037024
168	0x3e0260b6	0.12732205
169	0xbdabf739	-0.08396763
170	0x3d521988	0.05129388
171	0xbccdf87e	-0.025142904
172	0xbc534704	-0.012895349
173	0x3d100c09	0.035167728
174	0xbd81366d	-0.06309209
175	0xbc0b8098	-0.008514546
176	0x3de15c2c	0.110039085
177	0xbbc56c60	-0.006024882
178	0x3d86eddd	0.065883376
179	0xbd018d10	-0.03162867
180	0x3d84d066	0.06485061
181	0xbd92dc3d	-0.07170913
182	0x3ad8f580	0.0016552657
183	0xbd28c781	-0.041205887
184	0xbd828066	-0.06372146
185	0x3da26d97	0.07931059
186	0xbd217acc	-0.03942375
187	0x3da0a583	0.07844069
188	0x3dd1aaa6	0.10237627
189	0x3b4dae7e	0.0031384523
190	0xbc869f93	-0.016433513
191	0x3caf9c55	0.02143685
192	0x3da938b9	0.08262772
193	0x3c7b9f4f	0.015357806
194	0xbc9269e4	-0.017872758
195	0x3d5e2e71	0.05424351
196	0xbdae851f	-0.085214846
197	0xbc20a05e	-0.0098038595
198	0x3d90769f	0.07053875
199	0x3c92a12c	0.017899118
200	0x3d862097	0.06549185
201	0xbd87674c	-0.06611499
202	0xbc2eaf78	-0.010661952
203	0x3bce07ac	0.0062875357
204	0xbb973b99	-0.004615259
205	0x3d1bd26b	0.038042467
206	0xbc3e3951	-0.011610345
207	0x3e009e46	0.12560377
208	0x3d86f9cd	0.065906145
209	0x3d970d2b	0.073755585
210	0xbdd0366e	-0.10166632
211	0x3dc6c3c1	0.09705306
212	0xbbd11485	-0.00638062
213	0x3ca4891c	0.02008491
214	0x3d62ad8e	0.055341296
215	0xbc9ed3e1	-0.019388141
216	0x3d6d2cf8	0.057904214
217	0xbc5b6eb0	-0.013393089
218	0xbccd72d8	-0.025079176
219	0xbcbd3de4	-0.0231008
220	0xbc13662a	-0.008996526
221	0x3ca6c454	0.020357288
222	0x3c8ac820	0.01694113
223	0xba8cde80	-0.0010747463
224	0x3d4bf720	0.049796224
225	0x3d61d09e	0.055130593
226	0xbd339569	-0.04384366
227	0xbad1c44d	-0.0016003937
228	0x3d89d29b	0.06729623
229	0x3ccdd8f0	0.025127858
230	0xbde78fe9	-0.113067456
231	0x3d4aa6db	0.049475532
232	0x3e0715c8	0.13191903
233	0x3c2d8a60	0.010592073
234	0x3d8e56db	0.0695016
235	0x3d2fb6af	0.04289883
236	0x3dac2168	0.08404809
237	0x3dab4594	0.0836288
238	0xbc380df8	-0.011233799
239	0xbc5f054b	-0.013612102
240	0x3c927974	0.017880179
241	0xbca4df88	-0.02012612
242	0xbcf69291	-0.030099185
243	0x3d1bf939	0.038079474
244	0x3d9d1843	0.07670643
245	0x3d77050d	0.06030755
246	0x3ce1d3e9	0.027566867
247	0xbdd96a06	-0.106159255
248	0x3d304dd2	0.043042965
249	0xbbc73a71	-0.006079965
250	0x3c84dd50	0.016218811
251	0x3cc5e6ba	0.02415787
252	0xbd2a919a	-0.041642763
253	0x3c93a35f	0.018022237
254	0x3da1e1e2	0.07904412
255	0xbba4a882	-0.0050249705

fc2_1.bias f4 [64]
0	0xbc5b0cb3	-0.013369727
1	0x3d116f8d	0.035506774
2	0xbc185141	-0.009296716
3	0xbd08821f	-0.03332722
4	0xbd11ae52	-0.035566635
5	0xbce22f2a	-0.02761038
6	0xbdbc8e01	-0.092067726
7	0x3e089f80	0.13342094
8	0xbddb117e	-0.10696696
9	0xbdac3df9	-0.08410258
10	0x3b57db80	0.0032937229
11	0x3d8d8fcf	0.06912195
12	0xbd6758a3	-0.056481015
13	0xbd4ac7de	-0.049507014
14	0x3ce5032e	0.027955618
15	0xbd553a4a	-0.052057542
16	0xbc8f0ff3	-0.01746366
17	0xb9039835	-0.00012549835
18	0x3d0c3aa4	0.03423561
19	0x3dc4b76d	0.09605298
20	0xbdc37a76	-0.09544842
21	0x3d939164	0.072054654
22	0x3d29a8d5	0.041420776
23	0x3da32be4	0.07967356
24	0x3daa8ff8	0.08328241
25	0xbd10c683	-0.035345566
26	0xbd7435a3	-0.059621464
27	0xbb16f740	-0.0023035556
28	0xbd9500ee	-0.07275568
29	0xbcda4124	-0.02664239
30	0xbb5b9b8f	-0.0033509468
31	0xbd9bf1d7	-0.07614487
32	0x3d1990c7	0.037491586
33	0xbdb376f0	-0.0876292
34	0x3d3e7e15	0.04650696
35	0xbd550bd8	-0.05201325
36	0x3d399919	0.04531202
37	0xbd98b98d	-0.07457266
38	0xbd0aefcf	-0.033920106
39	0x3ceb584d	0.028728629
40	0x3d214374	0.03937097
41	0x3d971ec3	0.07378914
42	0xbd1dec3a	-0.03855536
43	0xbd2e5807	-0.04256442
44	0xbdb89474	-0.0901269
45	0x3b757c0f	0.0037457978
46	0x3bb59bf1	0.0055422713
47	0xbd65dcd7	-0.056118812
48	0x3c9e351c	0.019312434
49	0xbd5f8fc2	-0.054580458
50	0xbdf8a838	-0.1214146
51	0xbc828685	-0.015933285
52	0x3ca53e41	0.020171287
53	0xbaad2d59	-0.0013212367
54	0x3c123d49	0.008925744
55	0xbc8c0f0c	-0.017097019
56	0xbcdbcbc8	-0.026830569
57	0xbd22e3ac	-0.039767906
58	0xbd060e9f	-0.032728788
59	0xbd9acd43	-0.07558682
60	0xbdb729a4	-0.08943489
61	0xbdab5ac4	-0.083669215
62	0xbdb5dbfe	-0.08879851
63	0xbd307f80	-0.043090343

fc3.weight f4 [18, 64]
0	0xbe3819c0	-0.17978573
1	0xbcdc9346	-0.026925694
2	0xbd140d9a	-0.036145784
3	0x3d057d53	0.03259022
4	0xbd9aaf62	-0.07552983
5	0xbde27ace	-0.110585794
6	0x3bca9edc	0.0061834883
7	0xbba14f09	-0.004922752
8	0xbdb2c9c6	-0.087298915
9	0x3d87013e	0.06592034
10	0xbd763e54	-0.060118034
11	0xbd539336	-0.051654063
12	0xbcd38acd	-0.025823021
13	0x3d82d48b	0.063881956
14	0xbbb04066	-0.0053787706
15	0x3ce141c8	0.027497187
16	0xbd90b620	-0.070659876
17	0xbd1d3552	-0.03838093
18	0x3d0bb4a7	0.03410783
19	0x3c5bb60d	0.0134101035
20	0x3d5103ae	0.0510289
21	0xbd20edcd	-0.039289284
22	0xbdc5c0d0	-0.09655917
23	0x3db32be8	0.08748609
24	0xbe2de129	-0.16980423
25	0x3ddaaf2b	0.10677942
26	0xbd68e352	-0.056857415
27	0x3bfd6760	0.0077332705
28	0xbe148b80	-0.1450634
29	0xbcfb7aeb	-0.03069826
30	0xbdb55d48	-0.088556826
31	0x3dc65ff9	0.09686274
32	0x3da804fc	0.08204076
33	0xbde60afc	-0.11232564
34	0x3cb4589b	0.022014907
35	0x3d2528e6	0.040322207
36	0xbda5a121	-0.080873735
37	0xbd064d51	-0.03278858
38	0x3be48b1d	0.0069745914
39	0xbc937553	-0.01800028
40	0xbd33d82f	-0.04390734
41	0xbe0ff7f9	-0.14059438
42	0xbd9f3865	-0.07774428
43	0x3df2019e	0.11816715
44	0xbc2a819e	-0.01040688
45	0xbe4c3b57	-0.19944511
46	0xbd8fef2d	-0.07028041
47	0x3cce5e68	0.0251915
48	0xbc62fb30	-0.013853833
49	0x3d0a88a5	0.03382172
50	0xbd247715	-0.040152628
51	0xbd29a6b2	-0.04141874
52	0xbd9c4c25	-0.07631711
53	0xbd640bef	-0.055675443
54	0x3d5ca5c2	0.053869016
55	0xbd47a23c	-0.048738703
56	0xbc8fda48	-0.01756014
57	0xbe0e71cd	-0.13910599
58	0x3dfcd4f2	0.123453036
59	0x3c98460a	0.018588085
60	0xbdbca30d	-0.09210787
61	0x3c001460	0.007817358
62	0xbd90c862	-0.0706947
63	0xbe27b1e1	-0.16376449
64	0x3d014c22	0.031566747
65	0xbd5c8d9c	-0.053845987
66	0x3ce8d0cc	0.028419875
67	0x3cc67113	0.02422384
68	0xbd95c973	-0.07313814
69	0xbd287718	-0.0411292
70	0xbdba9e2e	-0.09112202
71	0x3d83f438	0.064430654
72	0x3d049189	0.032365356
73	0x3be1e834	0.006894136
74	0x3ce502a0	0.027955353
75	0xbe0ddc97	-0.1385368
76	0x3d86f92d	0.06590495
77	0xbdb6d67f	-0.08927631
78	0x3d3e8cc7	0.046520974
79	0x3da12ba4	0.07869652
80	0xbcee39cf	-0.0290803
81	0xbd5bb58b	-0.05363993
82	0xbdb1e79c	-0.08686754
83	0x3daaf494	0.08347431
84	0xbd062a31	-0.03275508
85	0x3d517076	0.05113264
86	0x3e011b00	0.12607956
87	0x3c861bd1	0.016370686
88	0x3df8e34d	0.12152729
89	0x3c646d41	0.013942064
90	0x3da9ebc0	0.08296919
91	0xbbfeb8a0	-0.007773474
92	0xbd1ca561	-0.038243655
93	0xbe420c93	-0.18950109
94	0x3cc89626	0.024485659
95	0xbb02838b	-0.0019914832
96	0xbd3b1b1e	-0.045680158
97	0xbde28a32	-0.11061515
98	0x3d622e3b	0.05521987
99	0xbd46deed	-0.048552442
100	0x3d64ca40	0.055856943
101	0x3d02936a	0.031878866
102	0xbd7ece84	-0.062208667
103	0xbde9085b	-0.11378547
104	0x3c459fca	0.012062022
105	0x3c78b474	0.015179742
106	0x3dcc9f93	0.09991374
107	0xbd158e80	-0.03651285
108	0xbd3268ce	-0.04355698
109	0x3dbd5587	0.09244829
110	0xbdfd41e9	-0.12366087
111	0x3d31dacc	0.04342155
112	0xbb48c380	-0.0030634105
113	0xbe0618a5	-0.13095339
114	0xbd1d5c15	-0.038417894
115	0x3d8c7306	0.068578765
116	0xbc51c458	-0.01280316
117	0xbc761469	-0.015019515
118	0x3db8eb01	0.090291984
119	0xbdc3d92e	-0.09562908
120	0x3dcd9194	0.100375324
121	0x3de97283	0.113987945
122	0x3d458934	0.04822655
123	0xbc6d9cff	-0.014502763
124	0xbde159cd	-0.11003456
125	0xbdec3c32	-0.11534919
126	0xbdf428f1	-0.119218715
127	0x3d324add	0.043528426
128	0xbc89a0e7	-0.016800357
129	0x3dac8429	0.08423645
130	0xbcf45623	-0.02982623
131	0x3cc20c06	0.023687374
132	0x3d61a97c	0.055093274
133	0x3c1534d0	0.00910683
134	0xbd949248	-0.072544634
135	0x3dbbef8b	0.091765486
136	0xbd69b759	-0.05705962
137	0xbd5578ab	-0.05211703
138	0x3bcf5b00	0.0063279867
139	0xbdd60b4e	-0.10451375
140	0x3b19a8d4	0.0023446577
141	0x3d27b79d	0.04094659
142	0xbbbeeff9	-0.005826947
143	0x3cff1970	0.03114006
144	0xbe00bc97	-0.12571941
145	0xbdf56450	-0.11982024
146	0xbda58a7b	-0.08083054
147	0xbdba2ed2	-0.090909615
148	0x3ce3f872	0.027828429
149	0xbd7f3aaf	-0.062311824
150	0x3cd8d1d6	0.026467245
151	0xbc4b02cc	-0.012390804
152	0xba5ed1b7	-0.0008499878
153	0x3c3b09bd	0.011415896
154	0x3dd2adff	0.10287093
155	0xbdb9c886	-0.0907145
156	0xbd63d1c0	-0.055619955
157	0x3d19e4b4	0.037571624
158	0xbc2f48ad	-0.01069848
159	0xbc8270df	-0.015922962
160	0xba983df0	-0.0011615139
161	0x3da5a05c	0.08087227
162	0x3de2ca45	0.11073736
163	0x3db74c4d	0.089501
164	0x3d7357a0	0.059409738
165	0xbda1eaa7	-0.079060845
166	0x3d0fd48c	0.03511481
167	0x3d8e2665	0.06940917
168	0xbdbf7a72	-0.093495265
169	0x3ad708bc	0.0016405801
170	0xbc7d5bf0	-0.015463814
171	0xbd2e0c70	-0.04249233
172	0x3c8ef505	0.017450819
173	0xbcbd1430	-0.023080915
174	0xbd90b839	-0.07066388
175	0x3de7f6e8	0.113263905
176	0xbd239564	-0.039937392
177	0x3dd5edd5	0.104457535
178	0x3da2fc6f	0.07958304
179	0x3bd36256	0.0064509315
180	0x3c2f4658	0.010697924
181	0x3d8ee4e0	0.06977248
182	0xbd711508	-0.058857948
183	0xbdcd8718	-0.10035533
184	0xbcaec360	-0.021333396
185	0x3d3f2f70	0.0466761
186	0xbcc3dc80	-0.023908854
187	0xbd90aa30	-0.07063711
188	0xbe19c112	-0.15015057
189	0xbd3c01b8	-0.045900077
190	0xbe20fd68	-0.15721667
191	0xbc124692	-0.008927958
192	0xbdabb08a	-0.083832815
193	0x3d16a33f	0.036776777
194	0xbd06466f	-0.032782014
195	0x3ce72b3e	0.028218862
196	0x3d94236c	0.07233319
197	0x3d40ee40	0.047102213
198	0xbe1c2120	-0.15247011
199	0xbdec2a07	-0.115314536
200	0xbe5d8a7d	-0.2163486
201	0xbd955107	-0.07290845
202	0xbc990af0	-0.018681973
203	0xbe1bfe8d	-0.15233822
204	0xbdd1b8fe	-0.102403626
205	0x3bb9152b	0.0056482754
206	0xbcbb22fc	-0.02284383
207	0x3c846d10	0.016165286
208	0xbcb34004	-0.021881111
209	0x3c8e157f	0.017344235
210	0x3d43d12e	0.04780691
211	0xbc4f90ac	-0.01266877
212	0xbd68904a	-0.05677823
213	0x3d5f124b	0.054460805
214	0x3c0e71ea	0.008694151
215	0xbd0a9c31	-0.033840362
216	0xbe08b272	-0.13349321
217	0x3dd78377	0.10523122
218	0x3d49a809	0.049232516
219	0x3d549264	0.05189742
220	0xbdb00e09	-0.08596427
221	0x3d182709	0.0371466
222	0xbb2357d9	-0.0024924187
223	0x3de3ce69	0.11123354
224	0x3c22d97d	0.009939549
225	0x3d822b36	0.06355898
226	0xbdbe4212	-0.09289946
227	0x3cad6b2c	0.021169268
228	0x3c3ff4e5	0.011716102
229	0xbdfa4953	-0.12221017
230	0xbc33fc75	-0.010985483
231	0x3d322357	0.043490734
232	0xbd5d1a02	-0.05397988
233	0xbda4f925	-0.08055333
234	0xbd01bd77	-0.03167483
235	0x3cfec000	0.031097412
236	0x3d4ff980	0.05077505
237	0xbd6a6c29	-0.057232056
238	0x3daf5998	0.085620105
239	0xbca5caf8	-0.020238385
240	0x3de1e186	0.11029343
241	0xbd5dfa71	-0.054193918
242	0xbd2ee941	-0.042702917
243	0xbdb5b539	-0.08872456
244	0x3d3ef5ab	0.046621006
245	0x3da0e15b	0.07855483
246	0xbde0beea	-0.10973914
247	0x3ba1b3a0	0.004934743
248	0xbd23106c	-0.039810583
249	0xbe13a09b	-0.14416735
250	0x3d9e5bbc	0.07732341
251	0xbd5ef455	-0.054432232
252	0xbd390b92	-0.04517705
253	0xbdfdcaf2	-0.12392224
254	0xbd6eadbb	-0.05827115
255	0xbdff6004	-0.124694854

fc3.bias f4 [18]
0	0x3d2532b8	0.040331572
1	0xbd44318a	-0.047898807
2	0x3b949df3	0.0045354306
3	0x3d44fd3c	0.048093066
4	0xbd973d3f	-0.07384729
5	0x3d16cf2e	0.036818676
6	0xbd0c7afb	-0.03429697
7	0xbde68047	-0.11254936
8	0x3d8192bb	0.06326815
9	0x3d8bc7b1	0.068251975
10	0xbd560faf	-0.05226105
11	0xbcab827a	-0.02093624
12	0x3d95a7d9	0.07307405
13	0xbdc9c6bb	-0.09852358
14	0x3d12828b	0.035769027
15	0x3db8d428	0.090248406
16	0xbdec1592	-0.11527552
17	0xbcea25eb	-0.028582534
