models/2024-07-20_16-26-14/epoch_0021_loss_0.00069701/dynamics.pth (torch, 83084 bytes, 8 tensors)

fc1.weight f4 [64, 34]
0	0x3debd2f2	0.11514844
1	0x3ded635f	0.11591219
2	0xbe0abb6c	-0.13548058
3	0x3bb684b3	0.005570018
4	0xbdc630b0	-0.09677255
5	0x3de15cb6	0.11004011
6	0x3e04ce01	0.12969209
7	0xbe1ffc73	-0.15623645
8	0x3e04495f	0.12918614
9	0xbc5c29cd	-0.0134377
10	0xbd989127	-0.074495606
11	0x3d85e689	0.06538112
12	0x3ddd8dd9	0.10818071
13	0x3e0196d5	0.12655194
14	0x3d3a3466	0.045460127
15	0x3dbede7c	0.09319779
16	0xbd139bbd	-0.036037195
17	0x3ddbdaad	0.107350685
18	0xbcfecdbf	-0.031103967
19	0xbcdfc4e0	-0.027315557
20	0x3e039524	0.12849861
21	0x3da7c566	0.08191948
22	0x3dc1be66	0.09460144
23	0x3babbcac	0.0052409973
24	0x3eb1a907	0.3469927
25	0x3d45d3fa	0.04829786
26	0xbe99c53c	-0.3003329
27	0x3d83b02b	0.06430086
28	0xbd739b54	-0.059474304
29	0x3d2799be	0.040918104
30	0xbe2e25cf	-0.1700661
31	0xbde053c9	-0.10953481
32	0xbde4d1ab	-0.111728035
33	0xbe0b4d8f	-0.13603805
34	0xbcb5c7a0	-0.022189915
35	0x3d641c58	0.055691093
36	0xbdeaa426	-0.1145709
37	0x3e011e2f	0.1260917
38	0xbe08f2b0	-0.13373828
39	0xbe14084c	-0.1445629
40	0xbe0b26f1	-0.13589074
41	0xbe22f5b6	-0.15914044
42	0xbe1a7e58	-0.15087259
43	0x3e1033a1	0.14082195
44	0xbda6fa2f	-0.081531875
45	0x3e07a7fb	0.13247673
46	0x3cfa6ea0	0.030570328
47	0xbd1eb638	-0.038747996
48	0x3d263194	0.040574625
49	0xbdb8982d	-0.090134
50	0xbdb8a622	-0.09016062
51	0x3e13436f	0.14381193
52	0x3c30cdd0	0.010791257
53	0x3e10a9e1	0.14127304
54	0xbe271726	-0.16317424
55	0xbe0cd1f3	-0.13751964
56	0xbe230e7d	-0.15923496
57	0xbd3b1efc	-0.045683846
58	0xbe11b70f	-0.14229988
59	0xbda837f8	-0.082138
60	0x3dfd4e6e	0.12368475
61	0xbe2efef3	-0.17089443
62	0x3c6844e0	0.014176577
63	0x3de47162	0.111544386
64	0xbdcdca12	-0.100483075
65	0xbe0c5b49	-0.13706698
66	0xbdea588d	-0.11442671
67	0xbc7e9eb0	-0.015540764
68	0xbd8505d7	-0.064952545
69	0x3d848e02	0.06472398
70	0x3e2517ed	0.16122408
71	0x3dfe524a	0.12418039
72	0xbd07f5d8	-0.03319344
73	0xbde9f64b	-0.1142393
74	0xbd086de8	-0.03330794
75	0x3d9f4b2c	0.0777801
76	0xbe1a3fa5	-0.15063341
77	0xbdec1a98	-0.1152851
78	0xbe1a2a47	-0.1505519
79	0x3d88c2aa	0.06677754
80	0xbda00a8d	-0.078145124
81	0xbe2d2b6b	-0.16911094
82	0x3d5505d4	0.05200751
83	0x3cee2c38	0.02907382
84	0x3e228243	0.15870003
85	0xbe03e270	-0.12879348
86	0xbdee60c0	-0.11639547
87	0xbb2df300	-0.0026542544
88	0x3d902c0a	0.0703965
89	0xbdb71993	-0.08940425
90	0xbcb86b08	-0.022511974
91	0x3c5e0360	0.013550609
92	0xbded2dd4	-0.11581007
93	0x3c283340	0.010266125
94	0xbe03fd56	-0.12889609
95	0xbdaa6392	-0.08319773
96	0x3d17ee7c	0.03709267
97	0xbe2834f0	-0.16426444
98	0xbdbcc81e	-0.09217857
99	0xbd168650	-0.036749184
100	0xbe0c9d78	-0.13731945
101	0xbba0c7a0	-0.0049066097
102	0x3b347644	0.0027536312
103	0x3e60c1bd	0.21948905
104	0x3e78d23c	0.24298948
105	0xbdecaea2	-0.11556746
106	0x3e12b314	0.14326125
107	0xbc36293c	-0.0111182295
108	0xbd9d4e03	-0.07680895
109	0x3dac056c	0.08399472
110	0xbd571f8b	-0.052520316
111	0x3cd8f699	0.026484774
112	0x3dbde65b	0.092724524
113	0xbc21f845	-0.009885852
114	0xbd438ccd	-0.0477417
115	0x3c96af93	0.018394267
116	0x3e0322b1	0.12806202
117	0xbcf2a0a2	-0.029617611
118	0xbdc2b691	-0.09507478
119	0xbcd3dd13	-0.025862252
120	0xbe1533e3	-0.14570574
121	0xbd6e6b85	-0.058208007
122	0xbe23eb8e	-0.16007826
123	0x3cf2683f	0.029590724
124	0xbe1b57bd	-0.15170188
125	0xbdb8cb54	-0.09023157
126	0xbd29ff97	-0.041503515
127	0x3e42bedc	0.1901812
128	0x3de0dfc3	0.10980179
129	0x3dde6bb0	0.108603835
130	0x3c669c3f	0.014075338
131	0xbe1dda28	-0.15415251
132	0xbd2274cc	-0.039662167
133	0x3d73fafc	0.05956553
134	0xbe3a1499	-0.1817192
135	0xbe006db6	-0.12541851
136	0x3dcddbbe	0.10051678
137	0x3e0adb61	0.13560249
138	0xbd7fe7c6	-0.062476896
139	0x3e447a81	0.19187357
140	0x3d58d6a7	0.052939083
141	0xbdd11eb5	-0.10210935
142	0xbdc78a0c	-0.09743127
143	0xbd8c8e41	-0.0686307
144	0xbd0055f6	-0.03133198
145	0x3db7f975	0.08983127
146	0x3d88c581	0.06678296
147	0xbc04b3f8	-0.0080995485
148	0xbe4905f1	-0.19631173
149	0x3e14b0d4	0.1452058
150	0x3dc43946	0.095812365
151	0xbce55a45	-0.027997145
152	0x3e157874	0.1459673
153	0xbdfddcd5	-0.12395636
154	0x3db0b427	0.08628111
155	0xbc99047d	-0.018678898
156	0xbd7e03df	-0.06201541
157	0xbd8be663	-0.06831052
158	0xbd8c2f6a	-0.06844981
159	0xbceb178d	-0.028697753
160	0x3e030eed	0.12798662
161	0x3dd6ec09	0.10494239
162	0x3dd00a85	0.101582564
163	0xbb234172	-0.0024910835
164	0xbde04792	-0.10951151
165	0x3d9b1229	0.07571823
166	0xbe3601e2	-0.17774156
167	0x3ce75b7c	0.028241865
168	0xbe44b21c	-0.19208568
169	0xbdd91499	-0.10599632
170	0x3e0f975e	0.14022586
171	0x3e3c9aec	0.18418473
172	0x3e821611	0.2540746
173	0x3d13a2ac	0.036043808
174	0x3db18f5b	0.08669921
175	0xbbfb8f2c	-0.0076769795
176	0x3db2cb42	0.087301746
177	0xbd04379e	-0.032279603
178	0xbdfa3d42	-0.12218715
179	0xbe08ba71	-0.13352372
180	0xbd903d41	-0.07042933
181	0xbe294a52	-0.16532257
182	0xbe5b9e8a	-0.21447197
183	0xbce1a7ca	-0.027545828
184	0xbe5b2294	-0.2139991
185	0x3ddd1fb8	0.107970655
186	0x3b990930	0.0046702847
187	0x3dca9211	0.09891141
188	0xbe24a608	-0.16078961
189	0xbd022e35	-0.031782348
190	0xbe5a39ab	-0.21311061
191	0xbe004c1e	-0.12529036
192	0xbc166e8f	-0.009181633
193	0x3c8117f1	0.015758486
194	0xbe56f3db	-0.20991461
195	0xbe22b092	-0.15887669
196	0x3e0f0af2	0.13969019
197	0x3be2b20a	0.0069181966
198	0xbdcc14aa	-0.09964879
199	0x3df5ef65	0.120085515
200	0xbaea2634	-0.0017864169
201	0xbd4773bf	-0.04869437
202	0xbd8d6db8	-0.06905693
203	0x3da1b6c1	0.07896186
204	0x3ca3d5e0	0.019999444
205	0x3de0ec06	0.10982518
206	0x3e22f2c1	0.15912916
207	0x3e1e7a0d	0.15476246
208	0x3c106a60	0.008814424
209	0xbe066811	-0.13125636
210	0xbcb20898	-0.021732613
211	0xbdcd2b93	-0.10018077
212	0x3d60d644	0.05489184
213	0x3e0d31e7	0.13788567
214	0xbdb441c7	-0.088016085
215	0x3de7f3de	0.11325811
216	0x3d1e7ec0	0.038695097
217	0x3e2e41f5	0.17017348
218	0x3d61ad0c	0.05509667
219	0x3ddc706a	0.10763629
220	0xbe1ad53b	-0.15120403
221	0x3c44d270	0.012013063
222	0xbcad3820	-0.021144927
223	0x3e1daef3	0.15398769
224	0x3dc809b2	0.09767474
225	0xbe1c1ffe	-0.15246579
226	0x3d6a3a88	0.057184726
227	0xbd58c7fa	-0.052925088
228	0x3c09d310	0.008412138
229	0xbdd82c97	-0.1055538
230	0x3d4d04c4	0.050053373
231	0x3d714a84	0.058908954
232	0x3e211e8b	0.15734307
233	0x3d3b1a04	0.045679107
234	0x3d132334	0.035922244
235	0xbd47e0c4	-0.048798338
236	0xbe21acd6	-0.15788588
237	0x3d94116e	0.07229887
238	0xbe380c41	-0.17973424
239	0xbd3bbfc9	-0.045837197
240	0x3cd2fb3d	0.025754565
241	0xbd844d4f	-0.06460058
242	0xbe415c0f	-0.18882774
243	0xbdddb912	-0.10826315
244	0x3e0aef14	0.13567764
245	0xbe051774	-0.12997228
246	0x3d9a3678	0.0752992
247	0x3dc33235	0.095310606
248	0x3d95338d	0.07285223
249	0x3e07529a	0.13215104
250	0x3d1cc60e	0.038274817
251	0x3c4cf46a	0.012509445
252	0xbd916aa5	-0.07100419
253	0x3dbfbcfe	0.09362219
254	0xbe04559e	-0.12923285
255	0x3e0ab5b2	0.13545874

fc1.bias f4 [64]
0	0x3bf05ca3	0.007335262
1	0xbd1cdb14	-0.038294867
2	0x3d5f8e75	0.054579217
3	0x3d99f993	0.07518306
4	0x3d5eda22	0.054407246
5	0xbd2625da	-0.04056344
6	0xbdaabedf	-0.08337187
7	0xbc481e69	-0.012214282
8	0xbdbe094d	-0.09279118
9	0x3d6155fe	0.05501365
10	0xbd7888d2	-0.060677357
11	0xbb26c63f	-0.0025447754
12	0xbd9a7d10	-0.07543385
13	0x3d6d0362	0.057864554
14	0x3e005916	0.12533984
15	0xbe360bad	-0.17777891
16	0x3e176a72	0.147867
17	0xbd971f57	-0.073790245
18	0x3e1cca6f	0.15311597
19	0xbe055997	-0.13022457
20	0xbdc0733c	-0.09396979
21	0x3d5086a9	0.050909672
22	0xbd6b5d8a	-0.057462253
23	0xbcae849e	-0.021303471
24	0xbe27ff8c	-0.16406077
25	0xbd324bed	-0.04352944
26	0x3d4f6daf	0.05064171
27	0x3c9f1150	0.019417435
28	0x3d356da5	0.04429402
29	0xbe752c46	-0.2394267
30	0xbd085e56	-0.03329309
31	0xbe24e5fc	-0.16103357
32	0x3e0270f1	0.12738396
33	0xbe29ec93	-0.16594152
34	0xbd1a6bb2	-0.037700363
35	0xbd551cce	-0.052029423
36	0x3d2a4549	0.04156998
37	0xbe5b4c80	-0.21415901
38	0x3d8019df	0.062549345
39	0xbcf069d7	-0.029347343
40	0x3d16423d	0.036684263
41	0x3d876f66	0.066130444
42	0xbdbeb667	-0.09312134
43	0x3c48d5d7	0.012258015
44	0x3d86852b	0.065683685
45	0xbba76da0	-0.005109504
46	0xbdb0156b	-0.08597835
47	0xbd8a66c0	-0.06757879
48	0xbdd90fbf	-0.105987065
49	0xbc26d193	-0.010181802
50	0x3dd54056	0.10412662
51	0xbe0b0fcb	-0.13580243
52	0x3d9aace5	0.07552508
53	0xbcf4edce	-0.02989855
54	0x3ccd6405	0.025072107
55	0xbc37d84c	-0.011221003
56	0xbc156cb2	-0.009120153
57	0xbda70ca6	-0.081567094
58	0xbcc5ac0c	-0.02412989
59	0x3da3996e	0.07988249
60	0x3e110629	0.14162506
61	0xbd97197f	-0.0737791
62	0xbd03cb23	-0.03217615
63	0x3ccf157c	0.0252788

fc2.weight f4 [128, 64]
0	0xbdeeda50	-0.116627336
1	0xbcef87b8	-0.02923952
2	0x3e0b7c1b	0.13621561
3	0xbdbe59b5	-0.09294454
4	0x3d796438	0.06088659
5	0xbd3509ff	-0.044198986
6	0xbc89edc8	-0.016837016
7	0xbdeb5990	-0.11491692
8	0xbcdae0ad	-0.026718462
9	0x3d900dae	0.07033859
10	0xbdbd288d	-0.0923625
11	0x3b089878	0.0020842832
12	0x3d664e70	0.056227148
13	0xbcc8e85a	-0.024524856
14	0x3d60b992	0.054864474
15	0xbd968b1b	-0.07350751
16	0x3d654463	0.05597342
17	0xbd711e36	-0.058866702
18	0x3dc20146	0.09472899
19	0x3dab820a	0.08374412
20	0xbd45f570	-0.04832977
21	0x3dba86ff	0.0910778
22	0xbc3de600	-0.011590481
23	0x3e03aa94	0.12858039
24	0x3d763a45	0.060114164
25	0xbe11085c	-0.14163345
26	0x3d956ee4	0.07296541
27	0x3d34ab56	0.04410871
28	0x3d06f36b	0.032946985
29	0xbe0e66b5	-0.13906367
30	0xbddd4362	-0.10803868
31	0xbd9094cc	-0.07059631
32	0xbdddb897	-0.10826223
33	0xbd46a498	-0.048496813
34	0xbd9beec6	-0.07613902
35	0x3e21656a	0.15761343
36	0xbcfa776d	-0.030574525
37	0x3dc644a6	0.096810624
38	0x3dd31914	0.10307518
39	0xbe03ae9d	-0.12859578
40	0x3d805541	0.06266261
41	0x3c777e14	0.015105743
42	0x3d3c6839	0.045997832
43	0x3db35261	0.08755947
44	0x3dd7870b	0.10523804
45	0xbcd02a48	-0.025410786
46	0x39255c00	0.00015769899
47	0x3cecf708	0.028926387
48	0x3bf29bf9	0.0074038473
49	0xbc0018c5	-0.0078184055
50	0xbdaaee93	-0.08346286
51	0x3d06bbe0	0.032894015
52	0xbd59de89	-0.05319074
53	0x3e0042b3	0.12525444
54	0x3e11a2d3	0.14222269
55	0xbbabee37	-0.0052469033
56	0xbd3bb2c9	-0.0458248
57	0xbe0afa55	-0.13572057
58	0xbd59ba8e	-0.053156428
59	0x3de18cdf	0.11013197
60	0xbd11ce50	-0.035597146
61	0xbbeab440	-0.0071626008
62	0xbd86ae70	-0.0657624
63	0x3e0c3458	0.13691843
64	0x3b61609c	0.003438986
65	0xbc45a440	-0.012063086
66	0x3e3ca4a9	0.18422188
67	0x3d9e772a	0.077375725
68	0x3dc19864	0.09452894
69	0x3cb20d2f	0.021734802
70	0xbcf93800	-0.03042221
71	0xbe2b3c2d	-0.16722174
72	0xbd85bc09	-0.065300055
73	0xbd8037a3	-0.06260612
74	0x3db01e5a	0.08599539
75	0xbca6f19a	-0.020378876
76	0xba34c000	-0.00068950653
77	0xbd823bb1	-0.063590415
78	0x3e4a9dcc	0.19786757
79	0xbb28e911	-0.0025773684
80	0x3e086c85	0.13322647
81	0xbd1c32b4	-0.03813429
82	0xbd5382dc	-0.05163847
83	0xbdceb75e	-0.10093568
84	0x3d989668	0.07450563
85	0xbde3d204	-0.11124042
86	0x3de03730	0.10948026
87	0x3d875b6e	0.06609236
88	0xbe1d7305	-0.15375908
89	0xbdb5609a	-0.08856316
90	0x3d38a149	0.04507569
91	0x3dc9b2e9	0.098485775
92	0xbdc82b17	-0.09773844
93	0xbbd282c9	-0.006424282
94	0xbd8667b8	-0.065627515
95	0xbda5046a	-0.080574825
96	0x3e1ecc57	0.15507637
97	0x3d836cf4	0.064172655
98	0xbd7d6c79	-0.061871026
99	0x3d32d61c	0.04366122
100	0x3e072921	0.13199283
101	0xbd8a98c6	-0.067674205
102	0x3c807b93	0.015683925
103	0x3cbccf0c	0.023047946
104	0xbb62b087	-0.0034590082
105	0xbad67598	-0.001636195
106	0xbe08a4c2	-0.133441
107	0xbdce4b54	-0.100729614
108	0x3d1c4e63	0.038160693
109	0xbdae7618	-0.08518618
110	0x3dbd16e8	0.09232885
111	0xbccbc680	-0.024874926
112	0xbb6ee1fa	-0.003645061
113	0x3d92cba8	0.071677506
114	0xbdb43a5e	-0.08800195
115	0xbdf203f7	-0.118171625
116	0xbd78187d	-0.06057023
117	0x3c3bf905	0.011472945
118	0x3d2517b4	0.04030581
119	0xbe0331a4	-0.12811905
120	0x3d8e36bb	0.06944033
121	0xbd9aeeb3	-0.075650595
122	0x3e1f6662	0.155664
123	0x3e2dbc3a	0.16966334
124	0x3dbd21c6	0.092349574
125	0xbd8f8b6e	-0.07009016
126	0x3e4ebbb0	0.20188785
127	0x3e0f1749	0.13973726
128	0x3cedcb46	0.029027592
129	0x3d6fbcc4	0.05852963
130	0xbd773946	-0.060357355
131	0xbb6f8b8c	-0.0036551682
132	0xbcabffae	-0.020995941
133	0xbd3628bb	-0.044472437
134	0xbdbe4466	-0.0929039
135	0x3e060354	0.13087207
136	0x3e377d4a	0.17918888
137	0xbe230b7e	-0.15922353
138	0x3d39bcde	0.045346133
139	0x3e0fb81e	0.14035079
140	0x3c74a880	0.014932752
141	0xbdc1ddd9	-0.09466142
142	0xbde6c61e	-0.112682566
143	0x3db36a8d	0.08760557
144	0xbe1f74f0	-0.15571952
145	0x3a8c0c87	0.0010684886
146	0xbe504e63	-0.20342402
147	0xbd8219ae	-0.06352554
148	0xbdc13e66	-0.0943573
149	0x3b7527f9	0.0037407859
150	0xbc0f6c70	-0.008753881
151	0xbc0587a2	-0.008150013
152	0x3d5b3990	0.053521693
153	0x3df5d01b	0.120025836
154	0xbe4155a5	-0.18880327
155	0xbe3ed53d	-0.18636031
156	0xbda2f122	-0.07956149
157	0x3e4d272d	0.20034476
158	0xbdd45e55	-0.10369555
159	0x3c8f98d8	0.017528936
160	0xbd46166b	-0.048361223
161	0x3da7a0e0	0.08184981
162	0xbcf6304b	-0.030052325
163	0x3d79e6b0	0.061011016
164	0xbe2d6882	-0.16934398
165	0x3ddfc9e7	0.10927182
166	0x3cd435d7	0.02590458
167	0xbd2a17c2	-0.041526563
168	0xbe079fe2	-0.13244584
169	0x3d8d6334	0.06903687
170	0x3e216326	0.15760478
171	0x3d84a198	0.06476134
172	0xbd33a90e	-0.043862395
173	0xbde88184	-0.11352828
174	0x3c3696b0	0.011144325
175	0xbd5c139c	-0.05372964
176	0xbdc4a29f	-0.0960133
177	0xbdebcdce	-0.115138635
178	0xbdb18f2c	-0.08669886
179	0xbcd3edf2	-0.025870297
180	0x3e01a370	0.12660003
181	0xbe044e39	-0.12920465
182	0xbe18919c	-0.14899296
183	0xbdf9c32f	-0.121954314
184	0xbc23afea	-0.009990672
185	0x3d447d62	0.047971137
186	0xbddd26fb	-0.107984506
187	0xbbb1b57c	-0.005423246
188	0xbe11b355	-0.14228566
189	0xba0d7000	-0.00053954124
190	0xbe09eb83	-0.13468747
191	0xbb7e7ad3	-0.0038830533
192	0xbd2a8800	-0.041633606
193	0x3d234aa8	0.03986612
194	0x3cd997d8	0.026561663
195	0xbd22c5b8	-0.03973934
196	0x3df33f04	0.11877254
197	0xbd18e554	-0.03732808
198	0x3c1c2bf0	0.00953196
199	0xbdefdbce	-0.11711846
200	0xbd954128	-0.07287818
201	0x3de644c6	0.11243586
202	0x3dadb6d2	0.08482136
203	0xbcbc5890	-0.022991449
204	0xbdd7cc12	-0.1053697
205	0x3cb1f248	0.021721974
206	0xbd8c5f1e	-0.0685408
207	0x3de5ccf4	0.11220732
208	0xbdcb8172	-0.09936799
209	0x3dfd58d0	0.12370455
210	0x3d16a45c	0.03677784
211	0x3dcd1ff4	0.1001586
212	0xbde2f246	-0.11081366
213	0xbc22e340	-0.009941876
214	0x3dcfb994	0.10142818
215	0xbdb8380c	-0.08995065
216	0xbbf76280	-0.007549584
217	0x3d5e16b8	0.054220885
218	0x3d6d05e0	0.05786693
219	0xbdba31ae	-0.09091507
220	0xbddd90f6	-0.10818665
221	0xbce444d0	-0.027864844
222	0xbd5f5d88	-0.054532558
223	0xbc7000b0	-0.014648601
224	0x3c961300	0.018319607
225	0x3db75be0	0.08953071
226	0x3c6f6c80	0.014613271
227	0xbddb6306	-0.107122466
228	0x3dc05dca	0.09392889
229	0x3d9ada64	0.07561186
230	0xbcf6c108	-0.030121341
231	0xbc740fd0	-0.014896348
232	0x3d45c4a0	0.04828322
233	0x3d8adfcc	0.06780967
234	0x3d2375f0	0.039907396
235	0xbdf5b2be	-0.11996983
236	0xbdac16e0	-0.084028006
237	0x3dca04f6	0.098642275
238	0x3d0d0138	0.03442499
239	0xbd966902	-0.073442474
240	0xbab1d680	-0.0013567954
241	0x3d6e8194	0.058229044
242	0x3cf1aa60	0.029500186
243	0x3dd7d6be	0.10539006
244	0xbdec408e	-0.1153575
245	0x3d7e1664	0.062033072
246	0xbd8d72e8	-0.06906682
247	0x3d0d5458	0.034504265
248	0x3da27faa	0.07934506
249	0xbd8a4d5e	-0.06753038
250	0x3dd3d8fc	0.10344121
251	0xbdcaccda	-0.099023536
252	0xbde94bee	-0.113914356
253	0xbd6f6348	-0.05844429
254	0xb9551800	-0.00020322204
255	0x3b4eb080	0.0031538308

fc2.bias f4 [128]
0	0x3d373639	0.044729445
1	0x3bd5d13f	0.006525188
2	0xbc220ae7	-0.009890295
3	0x3c1c8840	0.009553969
4	0x3cdeeb10	0.027211696
5	0xbe035ea0	-0.12829065
6	0xbdb2c55e	-0.08729051
7	0xbc9a4101	-0.018829824
8	0xbd53d3e4	-0.051715747
9	0x3d51299c	0.051065072
10	0xbdf6571c	-0.120283335
11	0x3c2d3c23	0.01057342
12	0x3d2e28d4	0.042519405
13	0xbe102675	-0.1407717
14	0xbc294698	-0.010331772
15	0xbd8b277e	-0.06794642
16	0xbc83df92	-0.016097818
17	0xbdc20334	-0.09473267
18	0xbdf6f3d6	-0.12058227
19	0x3d3f5d65	0.046719927
20	0x3db9149f	0.09037136
21	0xbd410524	-0.047124043
22	0x3cb09062	0.021553222
23	0xbdc38796	-0.09547345
24	0x3d9b98ca	0.075975016
25	0xbdfaa9a6	-0.12239389
26	0xbd9a05e7	-0.07520657
27	0xbd6d202e	-0.057892017
28	0xbd8a5dc7	-0.06756168
29	0xbe06e352	-0.13172653
30	0xbd930e12	-0.07180418
31	0xbdf4a096	-0.11944692
32	0x3db1f8eb	0.086900555
33	0x3d44ea8d	0.048075248
34	0xbde4fd64	-0.11181143
35	0x3d905737	0.07047885
36	0x3c3d1edf	0.011543005
37	0xbe0df967	-0.1386467
38	0xbc9db970	-0.019253463
39	0xbe1d4550	-0.15358472
40	0xbd07df51	-0.033171955
41	0xbd834023	-0.064087175
42	0x3dc3ab42	0.09554149
43	0xbe4bd3a8	-0.19904959
44	0xbd7f8035	-0.062378127
45	0xbccf1465	-0.02527828
46	0x3ba5dc17	0.005061637
47	0xbda85286	-0.08218865
48	0xbe0d8030	-0.13818431
49	0xbd727ad9	-0.059199188
50	0xbda84335	-0.08215944
51	0xbd38913c	-0.04506038
52	0xbe02d5ad	-0.12776823
53	0x3bdac3e1	0.0066761826
54	0x3c988453	0.018617785
55	0xbb58013b	-0.0032959718
56	0xbb0c1e58	-0.002138039
57	0xbde00401	-0.10938264
58	0xbcfc6d5f	-0.030813871
59	0xbd87bb4f	-0.06627523
60	0x3cab2499	0.020891475
61	0xbd267a98	-0.04064426
62	0xbd8bc675	-0.06824962
63	0x390cd75f	0.00013431672
64	0xbe296867	-0.16543733
65	0xbd801230	-0.06253469
66	0x3ce95e37	0.028487308
67	0xbddb580b	-0.10710152
68	0xbd036894	-0.032082155
69	0xbc0c9583	-0.008580568
70	0x3b8bbb96	0.0042643053
71	0xbdc55e44	-0.0963712
72	0x3cdcfe58	0.02697675
73	0xbe1e1a95	-0.15439828
74	0xbd800f9a	-0.06252976
75	0xbdb08e82	-0.08620931
76	0xbbb99caa	-0.0056644278
77	0x3da595a9	0.08085186
78	0xbd23fdf6	-0.040037118
79	0x3cc30ee5	0.023810813
80	0x3d16f4af	0.036854442
81	0xbda6ec90	-0.081505895
82	0x3c5b6fee	0.013393385
83	0xbdb6bb8e	-0.08922492
84	0xbd8bb592	-0.06821741
85	0xbcc9e3da	-0.02464478
86	0xbe13b76d	-0.1442544
87	0xbd8a46cc	-0.06751785
88	0x3d3f0a5b	0.046640735
89	0xbcbdda0b	-0.02317526
90	0x3dc6abf6	0.09700768
91	0xbdfd3982	-0.12364484
92	0xbd92465e	-0.07142328
93	0x3dde78d9	0.108628936
94	0xbd14e2a6	-0.03634896
95	0xbd1def08	-0.038558036
96	0xbdb01672	-0.08598031
97	0x3cbecf6c	0.023292266
98	0x3d281d7c	0.041043743
99	0x3d28ff53	0.04125912
100	0xbd964319	-0.073370166
101	0xbd0b3ca8	-0.033993393
102	0xbdd0b0fc	-0.10190007
103	0xbd7a15a1	-0.061055783
104	0xbd72e100	-0.059296608
105	0xbca2ff10	-0.019897014
106	0xbe0f57b2	-0.13998297
107	0x3d23ab88	0.039958507
108	0xbd970bee	-0.07375322
109	0x3d3b7f8f	0.045775946
110	0xbd9f4197	-0.07776182
111	0xbd5586ac	-0.052130386
112	0xbd251677	-0.040304627
113	0x3d5d3d55	0.05401357
114	0x3d1148db	0.03546987
115	0xbd9f83f2	-0.077888384
116	0x3c22f368	0.009945728
117	0x3d782b7a	0.060588337
118	0xbc3df3a6	-0.011593735
119	0x3d065586	0.032796405
120	0xbdc45040	-0.09585619
121	0xbc8fd0bc	-0.017555587
122	0xbdb7bd83	-0.08971693
123	0x3dd6ba42	0.104847446
124	0x3e045a5d	0.12925096
125	0xbdc390ae	-0.0954908
126	0xbce67d18	-0.028135821
127	0x3d4f8595	0.050664503

fc2_1.weight f4 [64, 128]
0	0x3caae8de	0.020862993
1	0x3c5fb9f3	0.013655174
2	0xbd14bebd	-0.036314715
3	0x3d2d09ba	0.042245604
4	0x3dc29e88	0.09502894
5	0x3c4268f8	0.011865847
6	0x3b9f4900	0.004860997
7	0xbd9fdecf	-0.07806169
8	0xbda1c54e	-0.07898961
9	0xbd567704	-0.052359596
10	0xbd6e1221	-0.058122758
11	0x3d62952f	0.055318054
12	0xbd1f7d67	-0.038937952
13	0x3d8bd209	0.068271704
14	0x3deb1803	0.11479189
15	0xbd2a1666	-0.041525267
16	0x3d0a2469	0.03372613
17	0xbd7a9b7e	-0.061183445
18	0x3d8ac507	0.06775861
19	0x3d8ad302	0.06778528
20	0x3d75bc04	0.05999376
21	0x3dce69d4	0.10078779
22	0x3cde0ce1	0.02710575
23	0xbda49d9a	-0.080378726
24	0x3d5ef493	0.054432463
25	0xbd47bc78	-0.048763722
26	0x3d17c509	0.03705314
27	0x3c84dceb	0.016218623
28	0x3bd229ba	0.0064136656
29	0x3dece676	0.115673944
30	0x3c491367	0.012272692
31	0x3d5a51dd	0.053300727
32	0xbdb88381	-0.090094574
33	0xbcf81852	-0.030285034
34	0xbd514b9b	-0.051097494
35	0xbcff7940	-0.031185746
36	0xbd1dbd86	-0.03851082
37	0x3dd4c378	0.10388845
38	0x3cb3d193	0.021950519
39	0xbcac2ba4	-0.021016903
40	0x3d58daae	0.052942924
41	0x3d917545	0.071024455
42	0xbc6bc5f5	-0.014390458
43	0xbdd181c6	-0.102298304
44	0xbc9b568b	-0.018962165
45	0x3e0cbfa6	0.13744983
46	0xbc24db1c	-0.010062005
47	0x3cd16824	0.025562353
48	0x3d506e75	0.05088659
49	0xbdfdc924	-0.1239188
50	0x3de57309	0.11203582
51	0xbd518a59	-0.05115733
52	0x3c9e67ae	0.019336548
53	0xbd889cb9	-0.066705175
54	0xbcd9d4db	-0.026590755
55	0x3d8f21d9	0.06988878
56	0x3db1cef5	0.08682052
57	0xbd5cb86d	-0.05388682
58	0xbce804a6	-0.028322529
59	0x3cfb08b8	0.030643806
60	0xbd2e0617	-0.042486276
61	0xbbfbc9c0	-0.0076839626
62	0x3de86656	0.11347644
63	0xbcaf84a1	-0.021425547
64	0x3da53aaf	0.08067834
65	0x3d9e15c3	0.077189945
66	0x3b5c15d8	0.0033582356
67	0xbc837f83	-0.016052013
68	0xbcd2116a	-0.02564307
69	0xbd51f13e	-0.051255457
70	0x3b566610	0.0032714643
71	0x3d8a2131	0.06744612
72	0x3cc67c18	0.024229094
73	0x3cb3f18b	0.021965763
74	0xbd749342	-0.05971075
75	0xbc829f5a	-0.015945125
76	0x3e022479	0.12709226
77	0x3c946a1f	0.018117009
78	0x3d821f42	0.06353618
79	0x3d59022f	0.052980598
80	0xbc23dc3a	-0.010001237
81	0xbde6f3af	-0.11276948
82	0xbd3f4f08	-0.04670623
83	0xbdacd5f0	-0.08439243
84	0xbdb5f64f	-0.0888487
85	0xbd51cfbb	-0.051223498
86	0x3d7f1708	0.062277824
87	0x3dc03e3b	0.093868695
88	0x3d7acdfe	0.061231606
89	0xbcf149e1	-0.029454174
90	0xbbb2a33b	-0.0054515875
91	0x3c2991b8	0.010349683
92	0x3d417d5e	0.0472387
93	0x3dac30f2	0.08407773
94	0x3c9f383c	0.019435994
95	0xbd492a52	-0.049112625
96	0xbbe002e0	-0.00683628
97	0xbd4ae545	-0.049535055
98	0x3c9877ac	0.018611751
99	0x3c903d6f	0.017607419
100	0xbcc497a4	-0.02399809
101	0x3d44e545	0.04807021
102	0xbcecb768	-0.028896049
103	0xbcff7b63	-0.031186765
104	0x3a9d2d40	0.0011991635
105	0x3c1517b0	0.009099886
106	0x3da462d6	0.08026664
107	0xbdabff22	-0.08398272
108	0xbd929f9f	-0.071593516
109	0xbd45a639	-0.048254225
110	0xbd0ac0f3	-0.033875417
111	0xbd95eb05	-0.07320217
112	0xbd568206	-0.052370094
113	0xbcc713dc	-0.024301462
114	0x3db10244	0.0864301
115	0xbd989934	-0.07451096
116	0x3d52ee5a	0.05149684
117	0x3d61e26e	0.05514758
118	0x3d9c24d6	0.076242134
119	0x3db6e3ee	0.08930193
120	0xbd95b7f3	-0.07310476
121	0x3da60423	0.08106258
122	0xbd536156	-0.0516065
123	0xbdc498db	-0.09599467
124	0xbb76b72d	-0.0037645802
125	0xbb1a5766	-0.0023550629
126	0xbdb3034b	-0.087408625
127	0xbc0c9080	-0.008579373
128	0x3cf8d443	0.030374652
129	0x3d28446d	0.04108088
130	0xbb5c0319	-0.0033571182
131	0xbb7534e0	-0.003741555
132	0x3d20df55	0.039275486
133	0x3d14a2f2	0.03628821
134	0x3c8e141c	0.017343573
135	0x3d7491bd	0.0597093
136	0x3d8d3a51	0.068958886
137	0x3db5319c	0.08847353
138	0xbd887657	-0.066631965
139	0x3d2888dd	0.041146148
140	0xbd64c452	-0.05585129
141	0x3c187689	0.009305605
142	0x3d96bdfb	0.07360455
143	0x3d850bfb	0.06496426
144	0xbd262ff7	-0.040573087
145	0xbd2ccc49	-0.04218701
146	0xbcb4b237	-0.022057636
147	0x3ca45edf	0.02006477
148	0x3da34ecb	0.07974013
149	0x3d1d7c06	0.038448356
150	0x3b775b20	0.0037743524
151	0x3d5f3926	0.05449786
152	0x3d425a6e	0.04744952
153	0x3d82ec14	0.063926846
154	0xbccac7c7	-0.024753464
155	0x3d061301	0.032732967
156	0xbcdc30a1	-0.026878657
157	0x3da3b9b9	0.07994408
158	0x3bd014fb	0.0063501573
159	0x3cc5cb0f	0.024144677
160	0xbdcc3294	-0.099705845
161	0xbd18c250	-0.037294686
162	0xbd5a1fcb	-0.053252976
163	0xbc952805	-0.01820756
164	0x3cf46635	0.029833892
165	0x3d49fadd	0.049311507
166	0x3d09f1a7	0.033677723
167	0x3cd22c38	0.02565585
168	0x3c9d888c	0.01923015
169	0x3d1ed24d	0.038774777
170	0x3d807b22	0.06273486
171	0x3babadb0	0.005239211
172	0xbcc7575a	-0.024333645
173	0x3e000488	0.12501729
174	0xbc07d20d	-0.008289826
175	0xbd4a8c36	-0.04945012
176	0xbdea259b	-0.11432954
177	0x3db5051c	0.08838865
178	0x3d6195f3	0.055074643
179	0x3d225336	0.039630137
180	0xbbe62a96	-0.0070241196
181	0xbcb641a1	-0.022248091
182	0x3d8ff9c8	0.07030064
183	0x3e0d157a	0.13777724
184	0xbd16594c	-0.036706254
185	0x3c92035f	0.017823873
186	0xbcb03b2f	-0.021512596
187	0x3ca194a4	0.019724198
188	0x3c0fc5c9	0.008775183
189	0xbc76dd50	-0.015067413
190	0x3d99beba	0.07507081
191	0x3da8d0f8	0.082429826
192	0xbde9035d	-0.113775946
193	0xbc99a72c	-0.018756472
194	0x3d2d06c6	0.042242788
195	0x3d002b34	0.0312912
196	0x3c57e14c	0.013176274
197	0x3cf0bf12	0.029387984
198	0x3da1eac2	0.079061046
199	0x3db38fe1	0.08767677
200	0x3ce69ad2	0.028149996
201	0x3c3e6695	0.011621137
202	0x3d1fabce	0.038982205
203	0xbdc93cc8	-0.09826046
204	0x3dfcda77	0.12346356
205	0xbbec6484	-0.007214131
206	0x3e091b5b	0.13389342
207	0x3c209f48	0.009803601
208	0x3da12383	0.078681014
209	0xbdc27b4f	-0.094961755
210	0x3dc78c7d	0.09743593
211	0x3ca877cf	0.020564942
212	0xbd6f4df1	-0.05842394
213	0xbd994310	-0.07483494
214	0x3b52a324	0.0032140696
215	0x3d7df2e9	0.061999235
216	0xbd00e70d	-0.031470347
217	0xbcafbe38	-0.021453008
218	0xbd6adf34	-0.05734177
219	0x3ca6cb80	0.020360708
220	0xbd970ab1	-0.07375086
221	0xbd1ca863	-0.038246524
222	0xbd1fd4f6	-0.039021455
223	0x3cc65fb4	0.024215557
224	0xbd06b29d	-0.032885183
225	0x3de297a0	0.110640764
226	0xbd87382d	-0.066025116
227	0xbc4e2348	-0.012581654
228	0x3e07f27d	0.13276096
229	0x3d65f95b	0.056146007
230	0x3d828f95	0.06375042
231	0xbc6129fd	-0.013742921
232	0x3d0fce02	0.035108574
233	0xbd29331b	-0.041308504
234	0x3e091ae9	0.13389172
235	0x3da7503a	0.08169599
236	0xbd86d2a1	-0.06583143
237	0xbbfca07f	-0.0077095623
238	0x3d4403dd	0.047855247
239	0x3ce02218	0.027360007
240	0x3c05a120	0.008156091
241	0x3de264be	0.11054371
242	0xbb88a518	-0.0041700713
243	0x3d4362c2	0.047701605
244	0x3d96d851	0.07365478
245	0x3d1a1df6	0.03762623
246	0x3c0a7250	0.008450106
247	0x3d9d1999	0.07670898
248	0xbd1347db	-0.0359572
249	0xbcb0b406	-0.021570217
250	0x3ccc50bd	0.024940843
251	0x3c8b954f	0.01703897
252	0x3d592ff6	0.053024255
253	0xbdc3c576	-0.09559147
254	0x3c8b7303	0.017022615
255	0x3dc29940	0.09501886

fc2_1.bias f4 [64]
0	0x3c004491	0.0078288475
1	0x3db2510c	0.08706865
2	0x3b420951	0.0029607604
3	0xbddbc2fe	-0.10730551
4	0x3da5efdf	0.081023924
5	0xbdaad56a	-0.08341487
6	0xbc28ded0	-0.010307029
7	0xbdee434a	-0.11633928
8	0xbdeac89c	-0.114640445
9	0xbd2b3026	-0.041793965
10	0xbdad64a5	-0.08466462
11	0xbd7ce90c	-0.06174569
12	0x3d96bb84	0.073599845
13	0x3b181fe0	0.0023212358
14	0xbd8f757e	-0.07004832
15	0x3dd7cd4d	0.10537205
16	0xbc9c4815	-0.01907734
17	0x3d8415bb	0.06449457
18	0xbb9d3a7d	-0.004798232
19	0x3cd2f35f	0.025750814
20	0x3d01258b	0.031529944
21	0xbd40ab9d	-0.047038663
22	0xbcf1cb24	-0.02951581
23	0xbde8490d	-0.11342058
24	0xbdd862a5	-0.1056569
25	0xbd742bbd	-0.059612025
26	0x3d79c0bb	0.060974818
27	0xbcb305eb	-0.021853408
28	0xbd61bab3	-0.05510969
29	0xbd7c1bfe	-0.061550133
30	0x3daf0312	0.085455075
31	0xbd7d3860	-0.06182134
32	0xbd860b3f	-0.06545114
33	0xbded47df	-0.11585974
34	0xbe0a7e9b	-0.13524859
35	0xbdb3b7e7	-0.08775311
36	0x3c765a13	0.015036124
37	0xbd33b6c8	-0.043875486
38	0xbdb4fff5	-0.088378824
39	0xbd33c5f5	-0.04388996
40	0xbd9dbe37	-0.07702296
41	0x3d920679	0.07130141
42	0xbcf26ad1	-0.02959195
43	0xbdaf2a90	-0.0855304
44	0xbd4d9cee	-0.050198488
45	0x3dd6b58e	0.104838476
46	0xbde373fb	-0.11106106
47	0xbc922972	-0.017842028
48	0x3d767333	0.060168456
49	0x3d65a404	0.05606462
50	0x3d4fada0	0.05070269
51	0x3cdfcdcc	0.027319811
52	0x3b74b9c2	0.0037342166
53	0xbd531a84	-0.05153896
54	0x3ccdd391	0.025125297
55	0x3bb201ac	0.005432328
56	0xbce7155a	-0.028208423
57	0xbccfdac8	-0.025372878
58	0xbd23ca77	-0.039988007
59	0xbcb36d96	-0.02190284
60	0xbdff727c	-0.12473008
61	0xbd991bc3	-0.07475998
62	0xbcd2de96	-0.025740903
63	0xbd5340e8	-0.05157557

fc3.weight f4 [18, 64]
0	0x3dcf6284	0.10126212
1	0xbd922622	-0.071361795
2	0x3daf57b5	0.08561651
3	0xbd8a8533	-0.06763687
4	0x3d3019da	0.042993404
5	0x3d602da4	0.054731026
6	0xbc8f0473	-0.017458176
7	0x3c759983	0.014990213
8	0x3db98828	0.09059173
9	0x3daada1a	0.08342381
10	0x3e2f1336	0.17097172
11	0x3db62ce2	0.088952795
12	0x3db10f42	0.08645488
13	0xbd3c32ec	-0.045947
14	0x3bb057c0	0.0053815544
15	0x3bccaa6b	0.0062459013
16	0xbb3d1f61	-0.0028857815
17	0x3e0cc176	0.13745674
18	0xbc965c2e	-0.018354502
19	0xbd5d4ef2	-0.054030366
20	0xbcbdb5d7	-0.023157997
21	0xbd31501c	-0.04328929
22	0x3de9b7dc	0.114120215
23	0x3c994634	0.018710233
24	0x3da9d8f7	0.08293336
25	0x3cc25309	0.023721235
26	0x3de06693	0.109570645
27	0xbdee9c26	-0.11650877
28	0x3dc10ac2	0.0942588
29	0x3d33b09a	0.043869592
30	0x3d88e068	0.06683427
31	0xbb8072cc	-0.003919935
32	0xbcf24f7c	-0.029578917
33	0xbd2cb084	-0.042160526
34	0x3d38ac95	0.045086462
35	0xbd42cf09	-0.047560725
36	0x3d17f377	0.03709742
37	0x3db5fc62	0.08886029
38	0xbcc04325	-0.023469517
39	0x3d71ef5c	0.05906616
40	0xbdca0416	-0.098640606
41	0x3e0c6dec	0.13713807
42	0xbc94b722	-0.01815373
43	0x3e161dbe	0.14659783
44	0x3d0c09d0	0.034189045
45	0x3e361aea	0.17783704
46	0xbe2430f0	-0.16034293
47	0x3db4996f	0.08818328
48	0xbd04f857	-0.032463398
49	0x3d113118	0.03544721
50	0x3bc0c127	0.0058824006
51	0x3cf219e1	0.029553356
52	0xbd03c245	-0.03216769
53	0x3e0f061c	0.13967174
54	0xbda06ba7	-0.07833033
55	0xbd94c4ef	-0.072641246
56	0x3c8c0968	0.017094329
57	0xbd3a8bfd	-0.04554366
58	0x3d8e3c8d	0.06945143
59	0x3dae1450	0.08499968
60	0x3d5303ef	0.051517423
61	0xbda6d8d6	-0.08146827
62	0xbd7066eb	-0.0586919
63	0xbd6aa93e	-0.05729031
64	0x3c7e080b	0.015504847
65	0xbe15ea4d	-0.1464016
66	0xbcb98020	-0.022644103
67	0x3c03369f	0.008008628
68	0x3d76cdbb	0.060254794
69	0xbcff9eb0	-0.031203598
70	0xbe3cc8f5	-0.18436034
71	0xbc2911ce	-0.010319186
72	0xbe1563bd	-0.14588828
73	0xbd3080b8	-0.043091506
74	0xbd401ded	-0.04690354
75	0xbbe0c880	-0.006859839
76	0xbd2a5c59	-0.041591976
77	0x3d778570	0.06042999
78	0xbca9b1c8	-0.020714656
79	0xbca21dd3	-0.019789612
80	0xbd9b9a88	-0.07597834
81	0xbdd40c8b	-0.10353955
82	0xbd002f52	-0.03129513
83	0xbda992d8	-0.08279961
84	0x3d7574d8	0.059925884
85	0x3ddf5b90	0.10906136
86	0x3d766749	0.060157094
87	0x3d557b06	0.052119277
88	0x3d12b1da	0.035814144
89	0x3d2bad25	0.04191317
90	0xbc8148e6	-0.015781831
91	0x3dab71d1	0.08371318
92	0x3d397b78	0.045283765
93	0x3e22144f	0.1582806
94	0xbdba270c	-0.09089479
95	0x3d9bb834	0.07603493
96	0xbdb16525	-0.0866187
97	0x3d3a6677	0.045507874
98	0xbda40e83	-0.080105804
99	0xbd50794b	-0.050896924
100	0xbd32df42	-0.043669946
101	0xbe18b159	-0.14911403
102	0x3c3469fe	0.011011599
103	0x3d762310	0.060092032
104	0xbdd8e78e	-0.105910406
105	0xbd9a30ce	-0.0752884
106	0xbccbd01f	-0.024879513
107	0xbd6a28ac	-0.057167694
108	0x3c3b9560	0.011449188
109	0x3c2afd88	0.010436423
110	0x3c1781c7	0.00924725
111	0xbe2f0caa	-0.17094675
112	0xbcf384ca	-0.029726405
113	0xbb4bacb8	-0.003107829
114	0xbd65333e	-0.05595707
115	0xbc9738f3	-0.018459773
116	0x3d78b649	0.060720716
117	0xbd0cb792	-0.034354754
118	0xbe1142ed	-0.14185686
119	0xbd564464	-0.052311316
120	0xbd7cfe58	-0.061766
121	0x3d1896eb	0.0372533
122	0xbdc2b178	-0.09506506
123	0xbe2fe88d	-0.17178555
124	0xbd85694d	-0.06514225
125	0xba911500	-0.001106888
126	0x3e1b712c	0.1517989
127	0xbd5fe2ae	-0.054659538
128	0x3d17a126	0.037018918
129	0x3dbb0a18	0.091327846
130	0x3dcb476c	0.09925732
131	0x3cee9c40	0.02912724
132	0xbdc27b0b	-0.09496125
133	0xbc25c160	-0.010116905
134	0xbd8209b2	-0.063495055
135	0xbe138b9d	-0.14408727
136	0x3d9e03fb	0.07715603
137	0x3d6b4f40	0.057448626
138	0xbc91dd3f	-0.017805694
139	0xbdd88be8	-0.1057356
140	0x3bc073cc	0.005873179
141	0x3dc6075a	0.09669371
142	0x3c39f750	0.011350468
143	0xbcf6a91e	-0.030109938
144	0x3e2eedcc	0.170829
145	0xbc7ee2be	-0.015556989
146	0x3e3ac354	0.18238574
147	0xbd284a58	-0.041086525
148	0x3d20809c	0.03918515
149	0xbbd33920	-0.006446019
150	0x3de8bcc0	0.11364126
151	0x3d4f37c7	0.050590303
152	0xbbdf8c1b	-0.006822122
153	0xbd57ac7c	-0.05265473
154	0x3d86eb8f	0.06587898
155	0xbdc2033f	-0.094732754
156	0x3be23c9a	0.006904197
157	0x3d83aa40	0.06428957
158	0x3d30aa26	0.043131016
159	0xbe3747de	-0.17898509
160	0x3dcb0fa9	0.09915096
161	0x3e1ad0eb	0.15118758
162	0x3c7c484a	0.015398094
163	0x3c1a5939	0.009420686
164	0x3d39960c	0.04530911
165	0xbe0c546d	-0.13704081
166	0xbd0b0643	-0.03394152
167	0xbd0f4a14	-0.034982756
168	0xbddfcfec	-0.1092833
169	0xbc83cf78	-0.01609014
170	0x3dd8d782	0.1058798
171	0x3dac654f	0.084177606
172	0xbdd5eab0	-0.10445154
173	0xbd1cbedc	-0.038267955
174	0xbe17349c	-0.14766163
175	0x3c8602d6	0.016358774
176	0xbca1c13a	-0.019745458
177	0xbd063063	-0.03276099
178	0xbd2d66b3	-0.04233427
179	0x3c199763	0.009374472
180	0x3d164449	0.036686216
181	0xbcfbead4	-0.030751623
182	0x3d370d88	0.04469064
183	0x3b76cee3	0.0037659935
184	0x3db6c09c	0.08923456
185	0xbc9e4836	-0.019321542
186	0x3e126301	0.1429558
187	0x3defd4e8	0.117105305
188	0xbcc55287	-0.024087204
189	0xbd775950	-0.06038791
190	0xbd4d3c87	-0.05010655
191	0x3d73cff9	0.05952451
192	0xbd7cbe78	-0.061705083
193	0x3d9cd7c2	0.0765834
194	0x3cbf28f0	0.02333495
195	0x3e06db4e	0.13169596
196	0xbc0b3868	-0.008497335
197	0x3dff45d8	0.124644935
198	0x3d496169	0.049165163
199	0x3cb3856f	0.021914212
200	0xbd2ea930	-0.04264182
201	0x3d495267	0.04915085
202	0xbdfcbf34	-0.123411566
203	0x3dab51f0	0.08365238
204	0xbc9ac124	-0.018890925
205	0xbd6c0208	-0.057619125
206	0x3df37020	0.118866205
207	0x3ca1b514	0.019739665
208	0xbd35e882	-0.04441119
209	0x3d1f2ee8	0.038863093
210	0xbd3d0981	-0.04615164
211	0xbc47da0a	-0.012197981
212	0x3c131a18	0.008978389
213	0x3d79e650	0.06101066
214	0x3b823ce8	0.0039745457
215	0x3e1fd4f9	0.15608586
216	0xbd2989b3	-0.041391086
217	0xbd1e671b	-0.038672548
218	0x3d82e1dd	0.06390736
219	0xbd61eca3	-0.055157315
220	0x3c835add	0.016034538
221	0xbe344ad7	-0.17606674
222	0xbd53da0a	-0.05172161
223	0xbc195ccb	-0.0093605025
224	0xbc8a442f	-0.016878216
225	0xbac7acd3	-0.0015234001
226	0xba7e4769	-0.0009699972
227	0x3cd15ba6	0.025556397
228	0xbe34f4af	-0.17671464
229	0x3d5b3d5c	0.053525314
230	0xbdbfa709	-0.09358031
231	0xbdc8b5a0	-0.09800267
232	0x3dd860de	0.10565351
233	0xbdc63bd7	-0.09679382
234	0x3c0103dd	0.007874456
235	0xbd5886a4	-0.05286278
236	0xbd4ae5ac	-0.04953544
237	0x3c5a35b8	0.013318472
238	0x3ccd12e4	0.025033422
239	0x3c001328	0.007817067
240	0xbdc9924b	-0.09842356
241	0xbc16b241	-0.0091977725
242	0xbd81e2d4	-0.06342092
243	0xbdb32fbc	-0.08749339
244	0x3dbf4ec0	0.09341192
245	0xbdaf9640	-0.0857358
246	0x3dee26fb	0.11628529
247	0xbd96ee7b	-0.07369705
248	0x3dd42c54	0.103600174
249	0x3da2e2b6	0.07953398
250	0xbdf5aa27	-0.119953446
251	0xbe17a23d	-0.14807983
252	0xbd1f572b	-0.03890149
253	0x3dc7746c	0.097390026
254	0xbd662a57	-0.056192722
255	0xbd89a6fd	-0.067213036

fc3.bias f4 [18]
0	0xbd367d88	-0.04455331
1	0x3d101860	0.035179496
2	0xbbc7e885	-0.0061007165
3	0xba6fb2f6	-0.0009143794
4	0xbcb4e4c9	-0.02208175
5	0x3cfed17f	0.031105755
6	0x3d0fbc97	0.035091963
7	0x3ae359b4	0.0017345459
8	0xbd15bd6c	-0.0365576
9	0x3d0e5450	0.034748375
10	0xbda580fd	-0.08081243
11	0x3ba73b3d	0.0051034973
12	0x3d8bde42	0.06829502
13	0x3c836223	0.016038006
14	0x3d0455df	0.032308456
15	0xbd0a632d	-0.033785988
16	0xbda2c5e6	-0.079479024
17	0x3d9b8464	0.07593611
