models/2024-07-20_16-15-34/epoch_0038_loss_0.00033105/dynamics.pth (torch, 83084 bytes, 8 tensors)

fc1.weight f4 [64, 34]
000000 2e e4 f0 3d 30 6b 67 3c 1c 44 0e bd c2 21 d8 3b
       0.11762272 0.014124677 -0.034732923 0.006595821
000010 ab e9 32 3d 4b 20 f3 3d 09 ae 23 bd 54 e0 20 bd
       0.043679874 0.11871394 -0.039960895 -0.039276436
000020 ef 2c 62 bd 0e 93 6d bd 92 c6 06 bc c8 21 dc 3d
       -0.055218633 -0.05800157 -0.008226054 0.10748631
000030 4e 20 8d 3d 36 b2 92 bc c1 ce c2 bd c0 0f 9b 3c
       0.06890927 -0.017907243 -0.095120914 0.018928409
000040 00 67 8d bd a7 83 d1 3d 3f 0d 98 bd 18 aa af 3d
       -0.06904411 0.10230189 -0.074244015 0.08577365
000050 04 e7 55 bd d8 0e 1d 3e d9 67 16 bd bc d4 34 3e
       -0.052222267 0.15337694 -0.03672013 0.17659277
000060 e6 68 5c 3e c6 07 8e 3d 9d 47 82 bd 7c 4f 87 3d
       0.2152439 0.069350764 -0.063613154 0.06606957
000070 33 4b 1e 3e 18 88 42 3d f5 e8 0d 3e dc 63 ee bd
       0.15458374 0.04749307 0.13858397 -0.116401404
000080 21 21 6a bd 17 2a d5 bc 90 15 f4 bd 4e 4f 22 be
       -0.0571605 -0.026021047 -0.11918175 -0.15850565
000090 94 39 87 bd d2 73 d5 3d 49 e1 2e 3e b4 43 19 bd
       -0.06602779 0.104224816 0.17078127 -0.037418082
0000a0 bf 6d 1d 3e 81 34 26 3e 62 18 c6 3d 9a 4b 4b bd
       0.15373896 0.16230966 0.096726194 -0.049632646
0000b0 88 ca bf 3c 40 a1 be bb 58 2a c6 3c a6 e6 f6 bd
       0.023412004 -0.0058175623 0.024190113 -0.120557114
0000c0 88 33 b4 bd 64 44 22 be 28 3f 06 bd 20 a9 e5 bb
       -0.08798891 -0.15846401 -0.032775074 -0.0070086867
0000d0 96 76 23 be da 3d 17 be 24 d0 b6 bd 4b cf c6 bd
       -0.15963206 -0.14769688 -0.089264184 -0.09707507
0000e0 b1 9c af bd bb 15 a0 bd c6 0b a5 3d e2 04 f7 3d
       -0.085748084 -0.07816645 0.08058886 0.12061478
0000f0 2c 5d 2c bd 79 6b 2a 3e 5a 31 1b be fe c8 a0 3d
       -0.042081043 0.1664256 -0.15155545 0.07850836
000100 10 41 7b bc 14 a6 9e 3d a2 25 a4 3d 90 a0 25 3d
       -0.015335336 0.07746521 0.080149904 0.040436327
000110 e2 32 93 3d 56 8f ec 3d 89 5b 25 3e be 10 b7 3d
       0.071874395 0.11550777 0.16148199 0.0893874
000120 b7 81 10 be 36 1c 55 be 71 58 2d 3d d1 87 e2 3c
       -0.14111982 -0.20811543 0.042320672 0.027652653
000130 ef 18 39 3c e8 53 5c be e8 d0 07 3e 9e e9 80 bb
       0.011297449 -0.21516383 0.13263285 -0.0039340993
000140 1e 10 f4 bd be 29 a8 bd 77 6e db 3c bc 0e 5a be
       -0.119171366 -0.08211087 0.026786072 -0.21294683
000150 b6 56 d6 3d 41 90 54 be ad 44 2e bd ea 6d 9c 3d
       0.104657575 -0.20758153 -0.042545963 0.07638152
000160 ad 6d 89 bd aa 8b 76 3d a6 91 18 be 5b 6b 57 3e
       -0.06710372 0.060191788 -0.1489931 0.21037047
000170 c9 d1 57 3d 42 5e d1 bd 54 cc 15 3e a0 e4 1c bc
       0.0526903 -0.102230564 0.14628726 -0.009575993
000180 ca 7d 1b be c0 43 ff bd bf d6 e1 bd f7 be d4 bd
       -0.15184703 -0.12464094 -0.11027288 -0.10387986
000190 92 ab 4a be f8 c5 21 be e2 96 13 be 21 99 5b 3e
       -0.19792011 -0.15798175 -0.14413026 0.21445133
0001a0 7c ec 2f 3d 67 d2 9c bd 21 b2 d9 bd 16 c5 8b 3d
       0.04295014 -0.076573186 -0.106296785 0.068247005
0001b0 8d 20 a2 3d ea ab 05 bd 99 0a 87 bd 1b f1 ab 3d
       0.07916365 -0.032634653 -0.06593818 0.083955966
0001c0 ed a6 25 bd b8 6a f3 bc bd 0e 55 be 43 91 e6 bc
       -0.040442396 -0.029713973 -0.20806403 -0.028145438
0001d0 5a 91 98 3c 3c c4 a2 3d ce 38 13 3d be 53 19 bd
       0.018623997 0.07947585 0.035942845 -0.03743338
0001e0 42 9c c4 bd a6 88 90 bc 29 49 0c bd 5d f5 bd bd
       -0.09600116 -0.017643284 -0.03424946 -0.09275315
0001f0 8c b9 15 3d 13 9d 3c 3e fc 7d 1a 3e e7 be 9a 3d
       0.036553904 0.18419294 0.15087122 0.07555943
000200 e9 f9 30 bd 13 3c d3 3d 66 8c 27 be 73 d3 88 3c
       -0.043207083 0.103141926 -0.16362152 0.01670239
000210 35 be 2b 3d 64 9c 31 be ed be 31 be 48 8d 56 3a
       0.041929442 -0.17344815 -0.17357989 0.00081845047
000220 25 c5 98 3d 9b 02 e4 3d 50 d0 78 3d 20 49 89 bb
       0.07459477 0.111333095 0.060745537 -0.0041896254
000230 74 8b cb bd 6e d8 0a be b2 bb 81 bc 1e da 73 bd
       -0.09938708 -0.13559124 -0.01583657 -0.059534185
000240 c9 92 3b bd cc c8 aa bd bf c6 5c bd ed ca b8 3c
       -0.045794282 -0.0833908 -0.053900477 0.0225577
000250 a7 17 bd bd e7 7e a2 3c 0e a1 b8 bd 01 6b 1c bd
       -0.09233027 0.019835902 -0.09015094 -0.038187984
000260 99 12 81 bd 62 a2 03 3d 04 7f 43 3e a1 c5 24 bd
       -0.06302375 0.032137282 0.19091421 -0.040227536
000270 ef 2e cc bd 16 6f 43 be 70 60 8d 3b 16 5f 89 bc
       -0.099698894 -0.19085345 0.0043144748 -0.016768973
000280 65 75 af bd 78 10 fd bd c2 b7 7b bd 20 ba 08 be
       -0.08567313 -0.12356657 -0.061454542 -0.13352251
000290 8e 02 cd 3d ff 43 06 3d 58 fc f6 bd b6 0e 2b 3c
       0.10010253 0.03277969 -0.120598495 0.010440519
0002a0 27 45 44 3d 27 28 4a be 90 6c 7d 3d 20 cd 91 3b
       0.04791751 -0.1974188 0.06187111 0.0044495016
0002b0 cb c8 2e 3e e1 9d d7 bd d8 34 91 bd c8 57 da bd
       0.17068784 -0.1052816 -0.07090157 -0.10661274
0002c0 06 74 d8 3d 10 17 68 3d 96 60 ec 3d 1f 3b 25 3e
       0.10569005 0.05666262 0.1154186 0.16135834
0002d0 f9 dc 0a 3e 40 e5 9a bd 2c 1e 7a 3d be b9 70 bd
       0.13560857 -0.07563257 0.06106393 -0.058770888
0002e0 b7 17 0b 3e a6 16 a5 3d 0e f1 f8 3d 88 08 05 bd
       0.13583265 0.080609605 0.121553525 -0.03247884
0002f0 60 d2 c3 bb 50 cc 62 bc 19 78 f6 bd c1 bb c7 bd
       -0.0059760064 -0.013842657 -0.120346256 -0.09752608
000300 d5 b7 22 be d0 dc c3 3c 76 36 d9 3d b1 69 24 3e
       -0.15890439 0.023909003 0.10606091 0.16055943
000310 98 26 d0 bc 6b 9c 20 3e 0e af cb 3d 5b 70 1e 3e
       -0.025409028 0.15684669 0.099454984 0.15472548
000320 6e c5 b9 3d b7 ec 88 bd 9b e2 28 3e a1 fc 0b 3e
       0.0907086 -0.06685775 0.16492693 0.13670589
000330 bf 0c aa bd 30 7f 04 be 3d 4b c0 3d c7 e2 0f 3e
       -0.083032124 -0.12939143 0.093893506 0.14051352
000340 86 68 7e be b1 81 1b 3d e3 e7 91 3d 88 22 a9 bd
       -0.2484456 0.03796548 0.07124307 -0.082585394
000350 36 d2 42 bd bf a7 d3 3c 5e 13 3c 3c 84 3c 5d bd
       -0.047563754 0.025836824 0.011479227 -0.05401279
000360 aa 1e 90 3c 3b 2b 10 3d dd dc 80 3d d7 48 9d 3c
       0.017592747 0.035197478 0.06292126 0.019199772
000370 9c dc c3 3d 64 bd 16 3e a9 11 4c be cd 4c 3f 3e
       0.09563562 0.14720684 -0.19928612 0.18681641
000380 8d a4 f3 bd 7f 9a bc bc 7b ac d5 3d 31 b3 2a 3d
       -0.1189662 -0.023022888 0.10433289 0.041674796
000390 45 38 06 3e 22 6a 07 3d f6 13 03 3e 08 f1 2c be
       0.13107403 0.0330602 0.12800583 -0.16888821
0003a0 d6 9e 9d bd 12 a1 30 3d ff 20 58 3d c9 59 fd 3d
       -0.07696311 0.04312236 0.052765843 0.12370641
0003b0 1f 12 a4 bd 5c 86 fb bd 90 0d 52 be fa 49 06 3e
       -0.08011269 -0.122814864 -0.20512986 0.13114157
0003c0 70 ae 1b be 9e a3 a7 3d 26 eb ac bd 87 06 e2 3d
       -0.15203261 0.081855044 -0.084432885 0.11036401
0003d0 db e5 3f be cc c6 8d bc c5 ef ab 3d 70 9b 38 be
       -0.18740027 -0.017306708 0.08395342 -0.18028045
0003e0 77 1f 19 bd d8 60 5b 3d 32 21 05 be 9f 6d 16 3e
       -0.037383523 0.053559154 -0.13000944 0.14690255
0003f0 36 16 e2 b8 e1 d9 24 be 3a 1d 37 3e 15 87 43 be
       -0.00010780657 -0.16098739 0.17882243 -0.19094498

fc1.bias f4 [64]
000000 d2 9e 07 bc 78 97 38 bd 42 27 2e be 55 df 11 be
       -0.008277612 -0.045066327 -0.17007163 -0.1424535
000010 65 31 37 3e 10 f4 1c bc 77 02 e9 3d b2 1c 3d be
       0.17889936 -0.009579673 0.11377423 -0.18467978
000020 5d a4 11 3d 17 86 cb 3b 92 fc 58 be d1 64 9a bd
       0.03555714 0.006211053 -0.21190098 -0.075387605
000030 0d 7c 0d bd 04 ff 06 be a9 94 e9 3d 01 16 a9 3b
       -0.034542132 -0.13183218 0.11405308 0.005160094
000040 50 53 ef 3d 3c af b1 bd 4a 52 ac bd 6a 2d 2d be
       0.116858125 -0.086760014 -0.08414133 -0.16911855
000050 d6 ad 08 be e0 a8 a2 bd 67 13 01 be 15 bd 86 bd
       -0.13347563 -0.079423666 -0.12605058 -0.06579033
000060 3e 19 c3 bd 52 b5 81 bd 23 66 b2 3d a2 eb 0d be
       -0.09526299 -0.06333412 0.08710887 -0.13859418
000070 38 07 17 be 65 22 e2 bd 9f cb ba bd 2b 77 95 3d
       -0.14748847 -0.110417165 -0.09120869 0.0729812
000080 70 22 85 3d 38 9f 9f 3c 06 e8 e6 bd 98 92 f1 3b
       0.06500709 0.019485101 -0.11274724 0.0073722117
000090 cb ce f9 3d d1 d3 81 bb f2 ac 03 be 3a 0d 22 be
       0.12197646 -0.003962018 -0.12858942 -0.15825358
0000a0 57 af 49 3d d9 fd 10 bd 34 05 2e be c1 ee c5 bd
       0.049239483 -0.035398338 -0.16994172 -0.09664679
0000b0 88 be 38 be 4f c4 3f be dc fe 61 3c 93 d9 a9 3d
       -0.18041432 -0.1872723 0.013793673 0.08293452
0000c0 43 5a c0 3d c7 41 12 3d 20 18 30 bd 6f d4 fe 3c
       0.09392216 0.03570726 -0.042991757 0.031107156
0000d0 a7 42 26 3e ce 23 81 bd ce 54 b0 bd 4d 8e 1f be
       0.16236363 -0.06305657 -0.08609925 -0.15581627
0000e0 28 63 86 3d d2 2d d6 3d 9e d9 0d 3e 90 c1 1e be
       0.06561881 0.10457958 0.13852546 -0.15503526
0000f0 f2 37 b0 3c 14 69 84 bd db 8e 63 3d 24 85 f7 3d
       0.021511052 -0.064653546 0.05555616 0.120859414

fc2.weight f4 [128, 64]
000000 86 3e 5a bd 0c 1e 3e 3d 83 bc b9 3a 40 ef d7 3d
       -0.053282283 0.046415374 0.0014170561 0.1054368
000010 cf 06 db bc b8 94 65 3d 04 58 82 3c 62 22 b6 3c
       -0.026736645 0.056050032 0.01591111 0.022233192
000020 ba bc 1c bd d9 19 9d 3c 00 a6 13 3e 0d 13 d3 3d
       -0.03826592 0.019177364 0.14418793 0.10306368
000030 cd 68 77 ba 34 97 4c 3d 81 9a 09 3d f5 0f b0 bd
       -0.0009437919 0.049948886 0.033594612 -0.085967936
000040 34 a4 79 bd 1a 13 26 3b d4 98 f9 3d 95 16 06 3d
       -0.060947612 0.0025340975 0.12187353 0.03273638
000050 ce 33 04 3d f2 d5 5b 3d b8 3c 6c 3d 7c d4 c0 bd
       0.032275967 0.05367083 0.057675093 -0.09415528
000060 b4 88 63 3d 6b 63 b2 3d 21 9d 2e be b4 d8 4c bd
       0.055550292 0.08710369 -0.17052127 -0.05001135
000070 bc 17 95 bd 06 33 9e 3d 95 5e 1c 3e 88 12 88 bd
       -0.072799176 0.07724576 0.15270455 -0.066441596
000080 ea 59 a1 3c ac 4b 8e bd c2 b9 f9 bd e6 b5 74 3d
       0.019696195 -0.06948027 -0.121936336 0.059743784
000090 43 93 ca 3c 2e e9 dc 3c 90 c7 18 3d 62 f3 63 bd
       0.024728423 0.026966657 0.037299693 -0.05565203
0000a0 aa e0 b1 bd ce 06 f4 bd 1d cb 8e bd 96 9d 86 3d
       -0.086854294 -0.119153604 -0.069723345 0.06573026
0000b0 77 b5 b4 3d 9c b8 83 3d 41 10 64 3b 77 fa 98 bd
       0.08823674 0.06431696 0.0034799727 -0.074696474
0000c0 d5 37 03 be 3a ba 74 bd ca fc 9c bd 0d 25 29 3d
       -0.12814267 -0.059747912 -0.07665403 0.0412951
0000d0 5b 9c cc bd 50 3c bf 3c e2 f0 c1 3d c0 96 35 bb
       -0.0999076 0.023344189 0.09469773 -0.0027708262
0000e0 ae 73 1f be 1f 91 b4 bc 02 a2 b3 bd 00 4a d6 3d
       -0.15571472 -0.022041855 -0.08771135 0.10463333
0000f0 c8 06 27 3c 91 f0 3b 3c 2c d9 91 bc 14 c3 7f bd
       0.010194488 0.01147093 -0.017803751 -0.0624419
000100 1e 3b 16 3c 7a 43 a3 3d 8b e6 83 3d 75 57 e5 3d
       0.009169368 0.079718545 0.06440457 0.11198322
000110 fa d3 58 be 20 72 17 3c 9e c8 df 3d 51 de aa 3d
       -0.21174613 0.009243518 0.109269366 0.08343185
000120 d2 e5 c0 bd fa 0b 99 bd a0 fc 0a 3e 62 5c 3e 3d
       -0.09418835 -0.074729875 0.13572931 0.046474822
000130 e3 32 44 bd 0a 3f 83 3d 22 b7 f5 bd 6f 4e 02 3e
       -0.04790009 0.06408508 -0.119978204 0.12725233
000140 e4 4c ed bc c3 ad db bd 2f 7c b5 bc 09 e7 bf 3b
       -0.028967328 -0.10726502 -0.022153942 0.005856399
000150 c5 f6 88 3c 04 ec 33 bc 88 24 fd 3d b4 aa cd 3d
       0.016719231 -0.0109815635 0.123604834 0.10042325
000160 70 f8 6b bc d7 d6 5c bd 87 b8 f5 bd cc a0 23 3d
       -0.014402494 -0.053915825 -0.119980864 0.03994827
000170 b9 ce 0c bd 6b a1 c1 3d 1c cf 15 3c b2 a9 eb 3b
       -0.034376834 0.09454616 0.009143617 0.00719186
000180 b6 de e1 3d a6 3a eb 3d 5c 3a 94 bd df 9a ce bd
       0.11028807 0.11485796 -0.07237694 -0.10088133
000190 90 53 19 3b 74 60 42 be 92 18 b0 bd 8c ad 63 3d
       0.0023395754 -0.18982106 -0.085984364 0.05558543
0001a0 05 38 df bd 5d 82 25 be 7a be bc bd 54 b3 5e bd
       -0.10899357 -0.16163011 -0.09216018 -0.05437024
0001b0 f3 4e b0 bd 93 44 8b 3d 0e aa 81 bd fa 37 de 3d
       -0.08608808 0.06800189 -0.063312635 0.108505204
0001c0 12 b1 be bd be 27 6d be b8 63 48 3d 3f 73 bf 3c
       -0.09311117 -0.23159692 0.048923224 0.023370383
0001d0 4b a6 45 be 90 6c 59 bd ac 38 ef 3d 2a b9 a2 3d
       -0.19301717 -0.05308205 0.11680731 0.079454735
0001e0 0c fc dc bd 81 0e ff 3d 03 ad 02 be 30 98 47 3c
       -0.107902616 0.12453938 -0.12761311 0.01218228
0001f0 a1 40 32 bd ae df f1 bd 9e 89 18 bc c8 cf cf bd
       -0.043518666 -0.11810242 -0.009310154 -0.10147053
000200 4a b4 a7 3d 54 32 3b 3d 78 3e b4 bd e8 a5 de bd
       0.08188684 0.045702294 -0.088009775 -0.10871488
000210 80 f1 15 bb 0c df 14 3d c4 6f 22 3d 80 84 2e bd
       -0.002287954 0.036345527 0.03965737 -0.04260683
000220 64 e5 39 bd 2c 5b c2 bd b6 e1 eb bd 44 e2 f1 bd
       -0.04538478 -0.09490046 -0.1151766 -0.11810735
000230 d8 a8 4c 3d c0 2c 35 3d 36 a3 97 bd b6 92 8f 3d
       0.04996571 0.04423213 -0.07404177 0.07010405
000240 48 fc e2 bc 20 b7 ad bc ac d1 59 bd 04 91 7b 3d
       -0.027708188 -0.021205485 -0.053178474 0.061417595
000250 4c b9 6a 3d 80 b7 de 3d 60 d9 bb 3c f8 bf bf 3d
       0.05730562 0.108748436 0.0229308 0.09362787
000260 e0 ae 79 3d 80 21 f1 3a 84 40 c7 3d 40 f8 19 bd
       0.06095779 0.0018396825 0.09729102 -0.037590265
000270 20 c2 e4 bb d2 52 bc bd 28 a4 64 bd 8e 6c ad bd
       -0.0069811493 -0.09195484 -0.055820614 -0.08467971
000280 a0 39 00 bd d8 7c 0a 3d 88 08 eb bc 2e b2 ab bd
       -0.031304955 0.033810467 -0.028690591 -0.083835945
000290 14 33 52 bd 48 d6 bd bc cc 48 f0 3d 66 b4 dc bd
       -0.051318243 -0.023173466 0.11732635 -0.10776596
0002a0 88 1e 2e 3d c2 aa 8e 3d 8c 89 c4 3d c0 1b dd 3b
       0.042509586 0.06966163 0.095965475 0.006747693
0002b0 b0 00 79 3c 72 e3 c7 3d c4 5f b8 3d e8 10 a9 bd
       0.015197918 0.097601786 0.09002641 -0.08255178
0002c0 38 d9 21 bd c8 ba f3 3c 00 70 55 38 64 57 9c bd
       -0.039513797 0.02975215 5.0887465e-05 -0.07633856
0002d0 d6 5b 84 bd 60 3b cf bb 44 f0 36 3d dc c9 39 bd
       -0.06462829 -0.0063242167 0.04466273 -0.045358524
0002e0 0e b4 ef 3d c0 ab 29 3b a4 bc ce bd 20 cd ce 3b
       0.117042646 0.0025889724 -0.10094574 0.006311074
0002f0 a0 1e bf bd 60 32 16 3d 34 80 50 bd d0 86 09 bc
       -0.09332013 0.036669135 -0.050903514 -0.008393958
000300 24 42 16 bd a6 36 b5 bd 50 53 80 bc c6 4b de 3d
       -0.03668417 -0.08848314 -0.015664726 0.108542964
000310 f8 ce 5f 3d a8 f8 9f 3c 5e 16 a4 bd e0 e8 87 3d
       0.05464074 0.019527748 -0.08012079 0.06636214
000320 fc f5 09 bd 58 c4 e2 3c 94 71 05 bd a4 57 2c 3d
       -0.033681855 0.027681515 -0.03257902 0.042075768
000330 ca 27 c6 bd ae 19 97 bd a2 3c b9 bd 6c 2d 88 bd
       -0.09675558 -0.07377945 -0.09044768 -0.066492885
000340 e8 a3 f5 3d 22 71 dc 3d 00 12 fb bc d0 7c f6 bc
       0.11994153 0.10763766 -0.030648232 -0.030088812
000350 90 a3 f5 3c 08 d3 7a 3d ac c9 f5 bd c6 d5 84 3d
       0.02998522 0.06123641 -0.120013565 0.064860865
000360 60 b7 88 bc b4 15 41 3d e8 d6 e1 3c ee 03 a2 bd
       -0.016689003 0.04713984 0.027568296 -0.07910906
000370 f0 c6 fa 3c 90 74 11 3d d4 a4 fc 3d 80 0b d3 bb
       0.030612439 0.035511553 0.12336126 -0.00644058
000380 da 3f df 3d 34 cc 4b bd 80 17 2d bd c8 74 a4 bd
       0.109008506 -0.04975529 -0.04225874 -0.08030087
000390 f2 58 a0 bd e6 1a af bd 6e 6b b5 bd 80 13 5b 3d
       -0.07829465 -0.08550052 -0.08858381 0.053485394
0003a0 00 bb 77 bb 54 20 b5 3d fa 3f aa 3d c6 50 98 bd
       -0.003780067 0.08844057 0.08312984 -0.07437281
0003b0 48 35 e1 bd 34 5a 4a 3d 7e c8 ff bd 00 70 9b bc
       -0.10996491 0.04940243 -0.12489413 -0.018974304
0003c0 e0 40 8b bc 6a a4 ad bd f0 51 34 3c 90 e0 15 bd
       -0.016998708 -0.08478625 0.011005864 -0.036591113
0003d0 a0 ec 15 3c 66 6f fe bd f0 df 7e 3c 38 e0 50 3d
       0.009150654 -0.12423591 0.015556321 0.05099508
0003e0 26 3d bf bd 82 7b e9 bd 70 3a 02 bc 96 5e 88 3d
       -0.09337835 -0.1140051 -0.007948503 0.06658666
0003f0 80 29 b2 3d 76 e6 b7 bd 38 b8 6e bd f6 0d db 3d
       0.08699322 -0.08979504 -0.058281153 0.10696022

fc2.bias f4 [128]
000000 1c 5a 7e 3d 38 73 ce 3c c0 5d 25 3d 00 5c 6b bc
       0.062097654 0.025201425 0.04037261 -0.014365196
000010 40 8c 48 3b 1a 4e 08 3b 2a 3f 97 3d 60 cf 05 3e
       0.0030601174 0.0020798505 0.073850945 0.13067389
000020 da 53 a0 bd 78 96 e1 3b 12 cd e4 bd f9 6d 28 3c
       -0.078284934 0.0068843924 -0.111719266 0.010280126
000030 99 20 b6 bd 95 67 e2 3b 0a dd fd 3c 1d de e3 3d
       -0.08892936 0.0069093206 0.030989189 0.11126349
000040 fc 9e 21 be 09 b7 df 3c 09 4e 80 3d e8 99 9a bd
       -0.15783304 0.027308958 0.06264884 -0.075488865
000050 6b ce 22 bd 8b 1a 09 3d 9c 52 87 3d 62 35 38 bd
       -0.039747637 0.03347258 0.06607553 -0.044972785
000060 63 f7 29 3d bd 9f 83 bd 37 0f d7 3c 5a c6 83 bd
       0.041495692 -0.06426952 0.026252372 -0.06434317
000070 89 29 2f be e0 27 91 bc d7 fa 17 be f8 a9 b9 bc
       -0.17105688 -0.01771921 -0.14841782 -0.022664055
000080 6a b9 ac bd b6 bc c7 3d 56 70 11 bc 8b 14 da 3d
       -0.084338024 0.09752791 -0.008876881 0.106484495
000090 39 69 d6 bd 24 1e 5c bd cb 5c 8d 3c 40 de 16 bd
       -0.104692884 -0.05373968 0.017256161 -0.036833048
0000a0 35 b8 76 bd b8 06 8f bd 92 de b1 bd 1c 14 c5 bd
       -0.060234267 -0.069837034 -0.0868503 -0.09622976
0000b0 04 ef 6d bd 78 cd ef 3c 00 63 91 bc 0c fa 1d bd
       -0.05808927 0.02927278 -0.017747402 -0.03856854
0000c0 92 d8 0a bd 28 48 bd bc e8 99 bc bd 2e bd 18 ba
       -0.033897944 -0.023105696 -0.09209043 -0.000582653
0000d0 e2 3d 59 3d 72 fb c0 bc 19 a4 c0 bd b7 68 1b be
       0.05303753 -0.023557398 -0.09406299 -0.15176664
0000e0 8f 77 04 3d 2b 16 d6 bd 00 9d c0 3a c8 cd 71 bd
       0.032340582 -0.10453447 0.0014695227 -0.05903414
0000f0 14 c8 77 bd 6d ae ad bc 9b 0c 19 be 3d e2 21 3c
       -0.060493544 -0.021201337 -0.14946215 0.0098806
000100 0b 8c 75 bb aa 05 4a bd 5c 67 cc 3d 09 e3 69 bc
       -0.0037467505 -0.049321808 0.09980652 -0.014275321
000110 28 43 be bd 9e bd 12 3d 86 58 fb bd ac 24 c2 bc
       -0.09290153 0.035825364 -0.12272744 -0.023699127
000120 80 1b c4 bd e4 62 46 bd b8 4e dd 3c 0c f2 22 be
       -0.09575558 -0.048434153 0.027015075 -0.15912646
000130 b4 89 d6 bd b9 54 37 bd 0f 78 e2 3b 04 d5 80 3a
       -0.104754835 -0.044758532 0.0069112848 0.0009829109
000140 7d 45 ba 3d dc 46 61 bd da 2a a5 bd dc d5 bc 3d
       0.09095285 -0.054999217 -0.08064814 0.09220478
000150 ab 99 1c 3d 83 2f bf bd 29 65 5f 3c 05 3b 08 3e
       0.038232487 -0.09335234 0.013634958 0.13303764
000160 d2 42 ec bd 94 4a a5 b9 7b 77 f2 3c 6f e2 9e bd
       -0.115361825 -0.00031526817 0.029597988 -0.077580325
000170 45 cc fb bb 1a 30 29 3c 41 b0 c3 3c 3b ad 63 bd
       -0.007684263 0.01032641 0.023887755 -0.055585127
000180 da 07 cc bd ec f2 9d bd 10 87 a9 bd ef 0b cd bd
       -0.09962435 -0.07712349 -0.08277714 -0.10012042
000190 90 2b e7 bc 30 ef 70 3d 4e 03 48 3d 88 5a 9d 3d
       -0.028219014 0.058821857 0.048831277 0.07683283
0001a0 c4 a8 d1 bd c4 4f f7 bd 08 40 41 bd 28 48 df bd
       -0.102372676 -0.12075761 -0.047180206 -0.109024346
0001b0 83 43 dd bd af c5 bc 3c 1f ac a9 bc e8 1e 53 bd
       -0.108038925 0.023043482 -0.020711957 -0.051543146
0001c0 e5 4f b5 bd 20 f5 ff bc e0 3f 19 bd 95 4e ca 3d
       -0.08853129 -0.031244814 -0.03741443 0.098782696
0001d0 2f 8e 33 be b6 44 7c bd 03 be 96 bc 4c 0b 18 3e
       -0.17534707 -0.061588965 -0.018401152 0.1484806
0001e0 de 2f 12 3c 78 ec a4 3d ca e3 d6 bc 6f e5 db 3c
       0.008922545 0.08052915 -0.026231665 0.0268428
0001f0 95 c0 fb 3d 9f c4 17 3d 6e f1 47 bd 25 82 01 bd
       0.122925915 0.037052747 -0.04881423 -0.031618256

fc2_1.weight f4 [64, 128]
000000 ef 40 94 bc 54 46 c0 bd 10 c7 d4 bb fb d7 88 3d
       -0.018097369 -0.09388414 -0.0064934567 0.0668182
000010 24 10 ac 3c bc 3f 81 bd 49 6d 12 be b4 cc 0e bd
       0.02100379 -0.063109845 -0.14299501 -0.03486319
000020 28 4a 3d bc 09 c8 b4 bc 20 21 41 3b 60 e4 d0 3c
       -0.011553325 -0.02206804 0.0029469207 0.025499523
000030 8b 6f 09 bd 9c b0 fe bd 64 cb dc bd b3 91 17 bd
       -0.03355364 -0.12436029 -0.10780981 -0.037004184
000040 63 fb 9a 3d b7 a6 c6 bd 06 c1 dc bd ca ac a4 bd
       0.075674795 -0.09699767 -0.10779004 -0.080407694
000050 bf 6b 9e bd 34 05 b1 bd 1a 26 ab 3b 12 8a 91 bb
       -0.07735395 -0.086435705 0.005223048 -0.004441508
000060 71 d0 c5 bb f8 67 ba 3c 01 03 0a 3c 60 1a 83 3c
       -0.006036811 0.022754654 0.008423568 0.016003788
000070 30 ca 8c 3c f0 66 1b bd 45 4d 28 bd e9 70 60 bd
       0.017186254 -0.037939966 -0.041089315 -0.05479518
000080 e0 3a 63 3b 3b 06 0c be f6 06 67 bd 66 01 90 bc
       0.0034672543 -0.13674252 -0.056403123 -0.017578792
000090 be 7c 8a bd 78 f0 9a 3c 79 b4 13 be 1f 44 0f be
       -0.06762074 0.018913493 -0.14424314 -0.1399083
0000a0 dc a2 9e bc c4 07 d2 bc a5 80 e1 bd d0 6b 14 be
       -0.019364767 -0.025638469 -0.11010865 -0.14494252
0000b0 77 be 9b bd 67 8c 64 bd ba 1d 94 bd 67 d6 56 bd
       -0.07604688 -0.05579796 -0.072322324 -0.052450564
0000c0 aa f9 a3 bd 66 e9 61 3d 50 f3 db 3c 3a e6 04 be
       -0.08006604 0.055154227 0.026849419 -0.1297845
0000d0 9d 72 dc bd 10 7d fd 3c c0 40 e4 bd ff a1 b1 3b
       -0.10764048 0.030943424 -0.111451626 0.005420923
0000e0 27 3a 17 be 99 4f 49 3c 22 2d 60 3d f0 37 82 bb
       -0.14768277 0.012287044 0.054730542 -0.0039739534
0000f0 05 01 58 3c 45 a7 45 bd e8 57 75 bc 34 91 b7 3b
       0.013183837 -0.048255224 -0.014974572 0.0056020264
000100 39 28 c1 bd 9b d7 48 bb c3 bf 0c be cb e4 89 bc
       -0.094315 -0.003064609 -0.13745026 -0.01683273
000110 60 1c 7e 3c f0 84 80 3b ac 3e b1 3c 7e 3b d3 bd
       0.015509695 0.0039220974 0.02163633 -0.103140816
000120 9e 4d 80 bd 4a b9 42 3d fd be 05 be e1 6f dd bc
       -0.06264804 0.047539987 -0.13061137 -0.027030887
000130 5b f0 06 3b e0 4e f0 bd 2f 2e 9f 3c f8 44 a0 3c
       0.002059004 -0.11733794 0.019431202 0.019564137
000140 ed af 0e be a5 75 4a bd 4a 12 3e 3d b1 06 09 be
       -0.13934298 -0.0494286 0.04640416 -0.13381459
000150 84 82 44 bd ae 68 c5 bd 1d f6 1c bb 5f fa 25 bd
       -0.047976032 -0.09639107 -0.0023950406 -0.040521976
000160 fb c1 c2 bc ac fb 1f bd 69 8f bb bd 22 ee f9 bd
       -0.023774138 -0.039058372 -0.09158213 -0.12203623
000170 9e 22 27 bd ad 8a ba bd 5c d5 4a bd 48 7e ef bd
       -0.040804498 -0.091084816 -0.04951988 -0.11694008
000180 4d ed 58 3c b9 1d 00 be 8c 99 90 3c 02 74 97 bd
       0.013240171 -0.12511338 0.017651342 -0.073951736
000190 ce 54 05 be 57 d1 05 be 6e 55 d8 3c 86 45 c1 bd
       -0.13020632 -0.13068138 0.026407924 -0.09437089
0001a0 e5 7b 9f 3d 8e 6d 77 3d 0d 2f 8e bd 3d 48 90 3d
       0.07787303 0.060407214 -0.06942568 0.07045028
0001b0 e9 45 34 bd 46 60 a3 bd 4e fc 0f be 90 b3 c4 3b
       -0.044011984 -0.07977347 -0.1406109 0.006002851
0001c0 b1 e2 53 bd 5d 1c ab 3d ac 14 97 3c cd 1f 39 3c
       -0.05172986 0.08355019 0.018442474 0.011299086
0001d0 42 71 95 bd af 56 78 3b 69 60 ff bc 9d 7e 8c bd
       -0.07296993 0.0037893464 -0.031173902 -0.06860087
0001e0 2e 6a 46 3d 21 5d 80 bc 73 ee a4 bc 56 a1 f2 bd
       0.048441105 -0.015669407 -0.020133233 -0.11847179
0001f0 fa bf c5 3c 5a ec a8 bd df f4 88 3c d8 77 db 3c
       0.024139393 -0.082482055 0.016718326 0.026790544
000200 ef 57 3a bd 52 b5 c4 bb 03 5c b1 bd 0d 32 b0 3d
       -0.045494016 -0.0060030604 -0.08660128 0.086032964
000210 76 48 59 3d 5e 05 99 3b 05 e1 8c bd 36 ad 5a 3c
       0.05304762 0.0046698293 -0.068788566 0.013346961
000220 12 eb fc bc 15 c2 95 bd 60 49 6a 3c 40 a5 f2 bc
       -0.030873809 -0.07312409 0.0142997205 -0.029619813
000230 8b 3b a4 3d 26 c6 4b bc 55 bd ee 3d 01 75 f4 bc
       0.080191694 -0.012437379 0.11657206 -0.029840948
000240 b7 f2 84 bd 70 38 85 3d 77 a7 13 be 70 16 88 bb
       -0.06491607 0.06504905 -0.14419352 -0.0041530654
000250 50 a0 98 3d 1b e0 17 be 25 7f 8d 3d 4f d1 10 3e
       0.07452452 -0.14831583 0.069090165 0.14142345
000260 e8 c9 df 3a 5f 5f bf bb fe 65 91 3c 90 2e cc bb
       0.0017073723 -0.0058402265 0.017748829 -0.0062311366
000270 40 38 64 3c 78 1a 07 bd 17 9b f8 bc 7f 89 a4 3d
       0.013929427 -0.032984227 -0.03034739 0.08034038
000280 e0 6b 9b 3c e8 ec d2 3d 48 02 6f bd ed 94 e1 3d
       0.018972337 0.102990925 -0.058351785 0.110147335
000290 3b 94 ab 3d 40 4d 0e 3c d9 a9 f0 bc ef 37 18 bd
       0.08377882 0.00868541 -0.029377865 -0.037162717
0002a0 47 c9 c9 3d 4d 39 a3 3d 1b 96 33 bb d7 b7 ee bb
       0.09852844 0.07969914 -0.0027402702 -0.007285099
0002b0 b0 9a c1 bc 0f 20 75 3d f7 26 80 3d 49 51 2a 3d
       -0.023633331 0.059845027 0.06257432 0.041581426
0002c0 67 4d 42 3d 06 5d aa bd 37 88 aa 3d 0a 09 b6 3c
       0.047437098 -0.08318524 0.08326762 0.022221107
0002d0 3e c0 b0 bc 3e 1a 36 3d d7 14 41 bd 35 2a 8c 3c
       -0.021576043 0.04445862 -0.047139015 0.01710997
0002e0 23 7a c2 3d c0 74 ea 3d 40 33 b0 bb a3 59 ab 3d
       0.09495952 0.114480495 -0.005377203 0.08366706
0002f0 1f b5 74 3d 13 7e 22 bc e6 93 a4 bd d6 cf 57 3d
       0.059743043 -0.009917754 -0.08036022 0.052688442
000300 dc 46 35 3d 09 95 90 bd 46 9c af 3c e3 59 b1 bc
       0.04425703 -0.07059676 0.021436822 -0.021649307
000310 26 d3 31 bd 9e ea 84 3d 10 a9 7a bc e1 b8 06 3e
       -0.043414257 0.06490062 -0.015299097 0.13156463
000320 e0 dc 6f bc d4 bc e5 3c ad 72 b0 3d 9d 21 12 3e
       -0.014640063 0.028044142 0.08615623 0.14270635
000330 09 35 b7 bc 24 10 f5 bd 20 5c d5 3d 77 47 12 be
       -0.022364156 -0.11965969 0.10417962 -0.14285074
000340 76 2f bd 3c 98 66 c5 bc 8a e2 3b bd d2 1e 7f 3d
       0.02309392 -0.024096772 -0.04587034 0.062285252
000350 5c 6b 70 bd 35 26 00 3e 44 d3 06 3e b0 36 de bd
       -0.058696136 0.12514575 0.13166529 -0.108502746
000360 6e 33 94 3d 4e 73 76 3c 2d cc 0f be fb 7a 0e 3d
       0.07236372 0.015042139 -0.1404273 0.034785252
000370 52 f9 bb 3d 00 2e fb 3b c3 e0 bf 3d f9 40 25 bd
       0.091784135 0.0076653957 0.09369042 -0.040345166
000380 4e 33 55 3d 5b a0 98 3c b0 46 40 3c a7 b3 d1 3d
       0.05205088 0.018631151 0.011735603 0.10239344
000390 ea e7 0e bb cb 93 02 be 20 33 5e 3c 1e c7 a2 3c
       -0.0021805712 -0.12751691 0.013561994 0.019870337
0003a0 80 7b ff bb 5e 38 14 3d 2d 65 84 3d 44 46 f9 3c
       -0.007796705 0.03618657 0.0646461 0.030429013
0003b0 cd c2 1f 3d c6 44 5a 3d 17 4a cb 3d 24 e1 d5 3c
       0.039004136 0.053288244 0.09926241 0.026108332
0003c0 ed bf 14 3e be 37 94 bd b4 9c 8d bc e8 4f ce bd
       0.14526339 -0.072371945 -0.017286636 -0.10073835
0003d0 bd 87 d0 bc 91 58 a7 3d 60 81 01 3e 8e 81 31 3d
       -0.02545535 0.081711896 0.12647009 0.043336444
0003e0 64 8c a2 bd 89 db 2f be 09 78 26 bc 5b c4 9b 3d
       -0.07936934 -0.1717359 -0.010160455 0.07605811
0003f0 57 d6 00 be 15 44 46 bd 6c 0e 01 3d 88 31 0b be
       -0.12581764 -0.04840477 0.031507894 -0.13593113

fc2_1.bias f4 [64]
000000 f3 b2 98 bc f1 43 f0 bc 05 b3 67 3d ea 9d 6a 3d
       -0.018640017 -0.029329272 0.05656721 0.057279505
000010 d6 66 f6 bc c9 6f 37 3d 8f d0 0b 3d a6 31 07 bd
       -0.030078333 0.04478434 0.034134444 -0.033006333
000020 4c 8f a6 bd b5 0b 30 bc e0 50 8f bd 6a 90 b4 bc
       -0.081328005 -0.010744979 -0.069978476 -0.022041518
000030 18 74 1a bc 8d 5b c7 3c 0e 6a 7c bd d1 0d e4 bd
       -0.009427093 0.024335647 -0.06162458 -0.11135448
000040 fb e2 48 bd b0 d7 7e bd 7a 7c f8 bd bb d0 52 3d
       -0.04904459 -0.062217414 -0.12133117 0.051468592
000050 6c 8a d1 bd 73 37 bf 3d 04 61 c0 bc ec d8 ee 3b
       -0.1023148 0.09336748 -0.02348376 0.0072890427
000060 ce f8 41 bd a2 01 85 bd b6 40 8e 3d 57 2c a5 3d
       -0.04735642 -0.06494452 0.069459364 0.08065098
000070 38 19 b9 bd 9e 9f 8f 3d 4d 2b e4 bd b9 a8 ac bd
       -0.09038013 0.070128664 -0.111410715 -0.08430619
000080 fd 27 de 3d a7 db 80 bd cd 5c 35 bd 28 b7 dc bc
       0.10847471 -0.06291895 -0.044277955 -0.026942804
000090 f0 c3 af bd 71 20 d6 bd c7 7b 5a bd 5c 77 f9 bd
       -0.08582294 -0.104554065 -0.0533407 -0.12180969
0000a0 75 81 bb bd 4a 9b 6f 3d 49 a0 2e bd 4e fc 0d 3d
       -0.09155551 0.058497705 -0.04263333 0.034664445
0000b0 b4 32 c8 bd 86 2c aa bc 3d e3 fc 3b 61 71 cf 3d
       -0.09775296 -0.020773184 0.0077175186 0.10129047
0000c0 39 ec 59 bc ac b7 c5 3d 5e 8c 4f bd 1b 83 c8 bd
       -0.013300949 0.09654173 -0.050670974 -0.097906314
0000d0 f0 21 77 bd 53 16 bc bc 30 08 19 bd 8d fc 88 3c
       -0.0603351 -0.022959864 -0.037361324 0.016721988
0000e0 c0 bf a3 bd 8f 99 49 3d 71 b8 ed bd 90 c1 b2 bd
       -0.07995558 0.04921871 -0.11607445 -0.08728325
0000f0 45 a5 6d bd f0 11 de 3c f6 03 a8 bd 2e fb ea bd
       -0.05801894 0.027108163 -0.082038805 -0.1147369

fc3.weight f4 [18, 64]
000000 0a 3a 10 3e 6d 23 05 3d 81 4f ba bc 14 5f 93 3d
       0.1408464 0.032504488 -0.022742989 0.07195869
000010 2f 9f 51 bd 9f bb fd 3c 96 d8 13 bd e2 21 88 3d
       -0.0511772 0.030973254 -0.036095224 0.06647088
000020 02 63 fb bd e2 82 28 3e f3 5e 3d bd 5a 81 1a 3e
       -0.122747436 0.16456178 -0.04623313 0.15088406
000030 dc 84 e0 3d 45 36 74 3d 50 14 69 bd 65 50 10 be
       0.10962841 0.059622068 -0.056904137 -0.14093168
000040 b8 d6 aa 3c 81 35 2f 3c b0 cc 38 bc 55 fe 81 3c
       0.020854339 0.010693909 -0.01127927 0.015868345
000050 5c 55 92 bd 0b 77 d5 3d 50 e9 74 3c c1 7b ca bd
       -0.07145187 0.10423096 0.014948204 -0.098868854
000060 64 83 2d 3d 6a 81 c2 3d f8 1e 18 3e 93 eb 92 3d
       0.042361632 0.0949734 0.14855564 0.071738385
000070 00 20 00 3e cc ae 03 3d c0 0c 8a bd d4 37 32 3e
       0.12512207 0.03214912 -0.06740713 0.17404109
000080 fc 6a 91 3c 6a 38 a4 bd 44 6f cc 39 a2 e5 b4 bc
       0.01775121 -0.08018573 0.00038992811 -0.022082154
000090 55 df 86 3d bb 29 21 be 3a 6c 23 be 7b eb a8 3d
       0.06585566 -0.15738575 -0.15959254 0.08248039
0000a0 58 f1 5b 3d e5 5a 96 3d ac 2b c2 bd 1d 90 39 bd
       0.05369696 0.073415555 -0.09480986 -0.045303453
0000b0 1c e0 0c 3e e4 9d 2a bc 7b 85 7e 3d d8 c5 d7 bd
       0.13757366 -0.010413621 0.062139016 -0.105357826
0000c0 18 30 31 3d bb 1a 9c bd 30 16 0e bc 7e bc 36 3e
       0.043258756 -0.07622286 -0.008672282 0.17845342
0000d0 f4 e4 80 bd 70 18 f3 3c a6 d3 97 3d 60 8d 5e bd
       -0.06293669 0.029674739 0.074134156 -0.054334044
0000e0 df 64 97 3c 6a 06 61 bd 56 b1 4c bc e8 58 37 3d
       0.018480716 -0.054937758 -0.012493452 0.044762522
0000f0 23 94 cb 3d 0b 15 71 3d 30 7a b9 bd 51 0b fe 3c
       0.09940364 0.05885796 -0.090565085 0.031011255
000100 fb cd 7a 3d f7 e0 34 3d 85 20 9f 3b 8b 41 1f 3e
       0.061231595 0.044159856 0.0048561716 0.15552346
000110 c3 12 ac 3c f2 83 86 bd 32 1c 6e bd cc 11 e8 bd
       0.02100504 -0.06568135 -0.058132358 -0.113315195
000120 78 05 31 bd 38 1d 6d 3c 0c 37 0b 3e 02 ca 2c 3d
       -0.043218106 0.014472298 0.13595217 0.042184837
000130 d4 59 eb bd 62 84 02 bb d0 18 c2 bd 3b 68 f0 3c
       -0.11491743 -0.0019915332 -0.09477389 0.029346576
000140 c4 7d 00 bd c3 4c 3b bc cb a1 4f bd 93 f4 4f 3d
       -0.03136994 -0.011431876 -0.050691407 0.050770354
000150 6f e8 81 bd 6c 38 73 3a 00 40 a3 3b 2c 46 63 3d
       -0.06343161 0.0009278122 0.0049819946 0.055486843
000160 78 04 13 bd 5d 0a df 3d 1a 88 40 3d 59 5b 24 3e
       -0.035892934 0.108906485 0.047004797 0.16050471
000170 c4 ff bb bd d7 65 94 bd c7 dc b7 3c 3a 4d e2 3b
       -0.09179643 -0.07245987 0.022444142 0.006906179
000180 dc 52 2d 3c ec 06 f9 3d a5 cf 1c 3d 15 0d 81 3a
       0.010578837 0.12159523 0.038283963 0.0009845818
000190 fc 14 f2 3c 8c 56 53 3d 5d 00 c7 bd 3e fd c3 bc
       0.029551022 0.05159621 -0.09716866 -0.023924466
0001a0 8c 9d 55 3d 82 e5 ee 3d 84 02 83 bd 4b 30 00 3e
       0.0521522 0.11664869 -0.06396964 0.12518422
0001b0 10 ff 9d 3d 46 9f a1 3d 4b 67 c6 3d dd c4 99 bd
       0.07714665 0.07891707 0.0968767 -0.07508252
0001c0 86 c0 6f 3d eb 31 33 bd b2 97 a4 bd bf a7 c8 3c
       0.058533214 -0.043748777 -0.08036746 0.02449405
0001d0 d0 3a ff 3d 43 70 ec bc 0d 81 c7 3d ff 60 bd 3d
       0.124623895 -0.028862124 0.09741411 0.09247016
0001e0 93 ac d1 3d 6c eb 84 3d d4 e0 d0 bc 2b ae 05 3b
       0.10237994 0.06490216 -0.025497831 0.0020398002
0001f0 3f d2 09 3c 39 08 a3 3d 20 2b d1 3d 1b a3 34 bd
       0.008411943 0.07960553 0.102133036 -0.044100862
000200 06 6c 7f bd df 76 11 bd 83 fa c0 bd 55 12 33 3e
       -0.06235888 -0.035513755 -0.09422781 0.17487462
000210 e1 80 03 bd 99 8a 37 bd b2 dc 10 bd 66 b8 fb 3d
       -0.03210533 -0.04480991 -0.03536672 0.122910306
000220 8e bf 87 bd 05 41 95 3d d7 c9 44 3d ad 2e cf 3d
       -0.06628333 0.07287792 0.048044052 0.101163246
000230 3a 5e a5 3d d4 ba 1c 3e 20 bf 92 bc 43 61 cf 3d
       0.08074613 0.15305644 -0.017913401 0.10125973
000240 98 94 f0 bd 08 2f 25 bd b0 a1 d8 3d 72 5f 6d bd
       -0.11747092 -0.040328056 0.105777144 -0.057952352
000250 d3 5b 91 bd 85 47 6e 3d 10 1b d0 3c 95 49 ba 3d
       -0.07097592 0.058173675 0.02540353 0.09096066
000260 28 a0 d8 3d fd be 65 bd 52 48 86 3d 16 2a ca ba
       0.105774224 -0.056090344 0.06556763 -0.001542392
000270 14 c8 3a be 05 5a f4 bc 69 19 c8 3c fd ae dd 3d
       -0.18240386 -0.02982808 0.024426179 0.10824392
000280 f8 c2 0e 3e f2 0e da 3d 9a c1 15 bc 6a 0a f9 bc
       0.13941562 0.10647382 -0.0091403965 -0.030400474
000290 1e 0e fa 3d ee b4 2e 3e dd 61 c2 3d 2a d7 9f 3d
       0.12209724 0.17061207 0.09491322 0.07804711
0002a0 41 f8 02 be 9f 00 6c bc c4 45 22 3d 16 6c a8 3d
       -0.12790014 -0.014404445 0.039617315 0.08223741
0002b0 c3 c4 c7 3d 8b 16 84 3d 31 34 aa bc ed 6b e0 3d
       0.09754326 0.06449612 -0.02077684 0.10958085
0002c0 f8 18 6b 3d a7 ae 36 3b b4 49 d5 3d 39 e3 d7 3d
       0.05739686 0.0027875097 0.104144484 0.10541386
0002d0 6c 7b 77 bd d5 9b 48 bd 57 d5 a8 bc e3 75 b3 3d
       -0.06042044 -0.048976738 -0.02060954 0.087627195
0002e0 d2 90 31 bc a6 b2 03 3d 2a 88 2c 3b 54 f7 29 3e
       -0.0108377505 0.032152794 0.0026326277 0.16598254
0002f0 00 a9 1b 3e 98 3e ce 3c 58 f1 fd bc d9 ef 4f 3d
       0.15201187 0.025176331 -0.03099887 0.050765846
000300 16 a3 11 3e 53 6e 76 bd 29 57 95 3d 62 d6 91 bd
       0.14222369 -0.060163807 0.07292015 -0.071209684
000310 86 ef d2 bd ba 09 4c b8 df 61 f3 bc 6c 2b eb 3d
       -0.10299592 -4.864645e-05 -0.029709755 0.114828914
000320 a0 06 bd 3c 18 fa cf bb f0 bd 09 3e dd 0b 8b bb
       0.023074448 -0.006346952 0.13451362 -0.0042433576
000330 7a 46 a8 bd ad 15 55 bd b8 8b c8 3c 9e cb a9 bd
       -0.08216567 -0.052022625 0.024480686 -0.0829079
000340 c0 8f 59 bc 63 e7 a6 ba 34 5a 2b bd b5 a0 b9 3d
       -0.013278902 -0.0012733754 -0.04183407 0.090638556
000350 c0 3b 2c bc f0 12 cd 3d a6 1f 8a bd 79 43 48 3d
       -0.010512292 0.10013378 -0.06744318 0.048892472
000360 62 6f dc bd f9 1f 07 bd 7e 5a ae 3d 54 14 77 3d
       -0.10763432 -0.032989476 0.08513354 0.06032212
000370 51 15 34 3d da 73 f4 ba 9c d7 0a 3e a2 7d 1c 3e
       0.04396564 -0.0018650249 0.13558811 0.152823
000380 bc c7 4e bd 9c 49 83 3d ed bf 09 3e 74 80 9f 3d
       -0.05048345 0.06410524 0.1345212 0.07788172
000390 e4 a6 90 3c b2 79 e1 3d b6 ff 56 3d c3 2c 49 3d
       0.017657705 0.1100954 0.05248996 0.049114954
0003a0 da 00 8b bc b9 d9 8f bd 1c 33 b5 3d c0 c8 0a bd
       -0.01696818 -0.07023949 0.08847639 -0.033882856
0003b0 aa 89 63 bc 05 67 f5 3c 4c 8e b3 3d e1 97 66 bd
       -0.013887802 0.02995635 0.08767375 -0.056297187
0003c0 3d 7d c3 3d d3 aa 55 bd d2 b6 ae bd a6 21 d7 3b
       0.09545372 -0.052164864 -0.08530964 0.0065652905
0003d0 f4 fe 7f bc 67 76 75 3d ad 8c 89 3c c5 2a cb 3c
       -0.01562475 0.05992737 0.016790712 0.024800668
0003e0 e7 e9 4f 3c f4 54 95 3d 62 05 5d 3c b2 14 04 bd
       0.012690044 0.07291594 0.013490053 -0.0322463
0003f0 ee 93 24 3d 4b fb 93 3d 48 4d d9 bd 48 2d c9 3d
       0.04018014 0.07225665 -0.10610443 0.0982309

fc3.bias f4 [18]
000000 54 dd e1 bc 97 99 13 bd e5 bd c1 bc 2a e0 29 bc
       -0.027571358 -0.036035147 -0.02365012 -0.010368386
000010 72 f5 ae 3c d3 3c bd 3b 6c ed 1e bb 6e 6d 11 bc
       0.021357272 0.005775073 -0.0024250401 -0.008876188
000020 a1 86 69 bc 31 86 e7 3c ca 6d 5a bc 00 3a 6d bc
       -0.014253289 0.02826223 -0.01333184 -0.01447916
000030 4e 25 a7 3c 0e a3 23 bd 8d 97 0b 3c 38 5e b0 3c
       0.02040353 -0.039950423 0.008520019 0.021529302
000040 49 1a 9e bc 7f c7 eb 3b
       -0.019299643 0.0071954126
