models/2024-07-15_15-03-29/epoch_0025_loss_0.00021491/dynamics.pth (torch, 83084 bytes, 8 tensors)

fc1.weight f4 [64, 34]
00000000: d2f2 8b3d c4d7 fcbd 3055 8f3d ebec b13d
00000010: d5cb 29be 0ed6 19be ed08 723d 2ef4 ef3d
00000020: f5d3 2cba 603f 38bd 1880 21be 2ed7 0e3e
00000030: 85c1 c73d 55de 5b3d 4d1a 65bd 4213 f3bd
00000040: 9c6d 86bd ef42 e23c 26dc 30be 0f05 273e
00000050: a231 47bd 5302 6cba 5d40 82bd 8c98 6c3c
00000060: af96 923e 2829 d4bd 14a3 77bd 7683 2a3e
00000070: a0e3 013e a8d0 95bd 7b3a 7dbd a421 963c
00000080: f4ef f3bd 12b7 2fbe 402e 3d3d a4f3 2e3d
00000090: 5250 873d 2449 303e d33d 153c 7f38 b6bd
000000a0: d0ff 27be a003 1dbd e2d7 f1bb b339 903d
000000b0: 5769 98bd 05f6 53be a956 98bd 2982 673d
000000c0: b624 0cbe 9864 1abe 506f 683e 992d 9fbd
000000d0: 5d2c b3bd 7ed9 5dbc 7920 7a3b d62c fbbd
000000e0: bfc1 5cbc 4e18 913d 6c8b 923c 7096 0a3e
000000f0: 2119 4cbe 41b8 d43d 53c4 22be 9f99 de3d
00000100: 1c19 59be 4fa7 e13d bf18 833d 56c1 6c3d
00000110: 2c29 94bd f65d 05be 682d aabc 883e d8bc
00000120: 060d c3bd ea2a a53d 2220 e03d 40bc b53c
00000130: a001 84bc c572 013e b296 b23d 0d92 05be
00000140: 407d 293c e222 c63d f253 27be 1b96 1e3e
00000150: e0d0 573d 85ee 15be 6a2d 05be 807e 9fba
00000160: eeea 20be 309c 123c 3a27 bd3d db49 99bd
00000170: b007 793d 70f5 1cbd 9043 54bc 8fc9 b6bd
00000180: 4207 e63d aa63 ca3d cce1 03bd 40dc d63b
00000190: 3044 433d 88f1 f3bc 6f2e 3abe e3bc edbd
000001a0: 3482 ecbc a473 3f3d 208e e83c d16f 113e
000001b0: 3582 e3bc ee20 04be 4326 643d 4bb0 093d
000001c0: 9508 0e3d a1e1 023e 4dcc 82bd 97dd b93d
000001d0: a958 b23d 37df 293e cd5e 23be f1d6 ae3d
000001e0: fe15 033e c5ee e73d 0f8b 793c e06a 493d
000001f0: 889d e43d 1042 713d 5462 aabe 2f7a 293e
00000200: c33c 06bf f166 143e 4260 7f3c 5613 dbbc
00000210: 529c 82bc 16fa d23d 2468 e1bd 8307 243e
00000220: 008f c0ba bbe6 203e 72e6 973d b022 7d3d
00000230: bb90 183e 7060 a2bd e0a7 9ebb 1612 893d
00000240: 3e01 c73d bbc6 163e f5b3 dbbd a731 ecbd
00000250: 71a2 2c3e 3e58 e73d 7cb1 4f3d c5c6 293e
00000260: 20e7 233c d0d5 04be 8241 1ebe 1ad2 bd3d
00000270: b603 babd 77f1 86bd a83b 013d 2316 293e
00000280: 011c 133e 60fe 093c 7e59 e13d 4256 f23d
00000290: 6099 643c 885f da3c 9274 e73d 7bea 023e
000002a0: 0615 4bbd 68a0 94bd 90c2 bbbd 040e 05be
000002b0: 60be 8bbb d76d 82bd 1097 b7bc e080 ad3b
000002c0: e270 e23d 12ad 26be 0dd2 253e 2be3 063e
000002d0: 9860 8b3c 4a86 d0bd 806f ef3b 8e73 dabd
000002e0: 70b0 2a3c d01f e3bc 66e2 bd3d fee3 de3d
000002f0: a312 ccbd da7e bf3d 7d21 bfbd 3af5 16be
00000300: a426 4f3d 8e85 8fbd 14ed 6b3d 7359 fabd
00000310: d55a d9bd d86e 213d 52c5 cb3d 3e3b 883d
00000320: 60ee b3bc ab65 8dbd 3a79 25be 046c 533d
00000330: e79f 363e a274 233b 4876 46be 6e49 96bc
00000340: 84dc 313d b8e0 2bbe eef2 18bd cbda 6f3a
00000350: 0764 7b3d 10d1 e13d b5e6 d23d 01aa 7d3c
00000360: ff50 2bbe 7f6d 32bd c730 5bbe acc6 433d
00000370: 4619 7e3d 7b7f 52be cc73 6a3e d817 f13d
00000380: d852 dfbc 38a8 ae3b b610 6ebe 40dd b5bb
00000390: 5079 63bd 66d2 89bd bda6 41bd 333c 073e
000003a0: f3a3 19be 2748 e6bd 50b2 71be caf0 673c
000003b0: e760 2dbe 1828 2bbd 16a7 86bd 86ff c03d
000003c0: f08f 803c 607a 823b a6ac b93d e05c 843d
000003d0: 5ec8 a93d 0038 e838 42a3 b93d a0f6 25bd
000003e0: 6a05 ebbd ff48 d9bd 68c4 0abd f188 1a3e
000003f0: 7008 bfbd 03e6 233e 242f 023d bb34 2b3e
0.06833424 -0.123458415 0.0699867 0.08687767 -0.16581662 -0.15023062 0.059090544 0.117164955
-0.00065928634 -0.044982314 -0.1577152 0.13949272 0.09753708 0.05367883 -0.055933286 -0.118689075
-0.06563875 0.027619807 -0.1727148 0.16310523 -0.048631318 -0.0009003032 -0.063599326 0.014440667
0.28630587 -0.103594124 -0.060458258 0.16651711 0.12684488 -0.07315189 -0.06182335 0.018326588
-0.11911002 -0.1715968 0.046186686 0.042712823 0.06607117 0.17215401 0.009108978 -0.088974945
-0.16406178 -0.038333535 -0.0073804716 0.07042255 -0.07441967 -0.20699318 -0.07438404 0.056520615
-0.13685879 -0.15077436 0.22698712 -0.07772369 -0.08748696 -0.013540624 0.0038166328 -0.12264411
-0.013473927 0.07084714 0.017888747 0.1353395 -0.19931461 0.10386706 -0.15895204 0.10869145
-0.21200985 0.1101824 0.06401204 0.057801567 -0.072344154 -0.13024125 -0.020773605 -0.026397005
-0.095239684 0.08064826 0.10943629 0.022184491 -0.016114056 0.12641437 0.08720149 -0.13043995
0.010344803 0.09674622 -0.16340616 0.15486948 0.052689433 -0.14641769 -0.13005605 -0.0012168437
-0.15714619 0.008948371 0.092359975 -0.0748479 0.060798347 -0.038320005 -0.012955561 -0.08925163
0.11231853 0.09882291 -0.03219776 0.0065570176 0.04767245 -0.029778257 -0.18181776 -0.11608293
-0.02887068 0.046741143 0.028388083 0.14202811 -0.027772048 -0.12903187 0.05570055 0.03361539
0.034676153 0.12781383 -0.063866235 0.09075468 0.08708317 0.16589056 -0.15954132 0.085370906
0.12801358 0.113248385 0.015230908 0.04917419 0.11162859 0.058900893 -0.33278143 0.16550516
-0.52436465 0.14492394 0.0155869145 -0.026742619 -0.01594368 0.10301606 -0.110061914 0.1601849
-0.0014691055 0.15713017 0.07417001 0.06180066 0.1489896 -0.0792855 -0.0048417896 0.06692903
0.09717034 0.14724247 -0.107276835 -0.11532908 0.16858841 0.11296128 0.05070637 0.16579731
0.010003835 -0.12972188 -0.15454677 0.09268589 -0.09082739 -0.065890245 0.031551033 0.1651235
0.14366151 0.008422464 0.110033974 0.118328586 0.013952583 0.026656881 0.11301531 0.1278476
-0.049580596 -0.072571576 -0.09167969 -0.12993628 -0.004264638 -0.063686065 -0.0224109 0.005294904
0.11056687 -0.16276959 0.1619341 0.13172595 0.017013833 -0.101818636 0.007306993 -0.106665716
0.010418043 -0.02772513 0.09271698 0.1088333 -0.09964492 0.09350367 -0.09332559 -0.14741984
0.05057396 -0.070078954 0.057599142 -0.12224092 -0.10613028 0.03941235 0.09949745 0.066519246
-0.021964252 -0.06904157 -0.16159526 0.051616684 0.17834435 0.0024941345 -0.19381058 -0.01834556
0.04342319 -0.16784942 -0.03734105 0.0009149729 0.06137469 0.11026204 0.1029791 0.015482427
-0.16730116 -0.043561455 -0.21405326 0.04779689 0.06203582 -0.20556442 0.22895736 0.11772126
-0.027261183 0.005330112 -0.23248562 -0.0055500567 -0.055535614 -0.067295834 -0.047278155 0.13206558
-0.15003948 -0.11244231 -0.23603177 0.01415653 -0.16931497 -0.041786283 -0.06574838 0.09423737
0.015693635 0.0039818734 0.09066133 0.06463027 0.0829017 0.00011073053 0.09064342 -0.040518403
-0.11475642 -0.10609626 -0.033878714 0.15091302 -0.09327781 0.16005711 0.031783238 0.16719334

fc1.bias f4 [64]
00000000: 6a89 233c 3232 633e 7018 e6bc 9ad9 e7ba
00000010: 008f 3cbd 6be0 14be 7bbb 41be 76dd 9abb
00000020: 0bc2 d13d 39a5 fbbd 074f 3e3b 459b 74bd
00000030: cc6f 77bd cb9e 803d 07ad b6bd 6ba1 ef3d
00000040: 4287 10be f04e 953d ba31 cfbc 1d29 c4bd
00000050: 1058 63bd 571e bbbd 0949 a8bd aeb7 8bbd
00000060: 4134 a0bc 16cd 17bd d84e 01bd 3115 2c3e
00000070: fa1e 543d 8d99 d23d 8086 c0bb f715 20bd
00000080: 2d6d b0bd 843d e53d 712d 52bd c022 82bc
00000090: 560e 06be d392 5abd f354 7ebd c968 36bc
000000a0: a42c 923d ecdb 26be bdfb 1cbe 7d81 0c3e
000000b0: 3ad6 0dbe abae 213e e5f6 103e 6035 2dbe
000000c0: b0bb c0bd e089 81bb cc60 523d c478 d13c
000000d0: aa20 b73d 481b 25be 910a 483c 9689 04be
000000e0: 8f7e 5dbd 6d29 21bd f5b6 43bd c76b 0a3d
000000f0: a8de e9bc 0ad8 9abb a63c dabd 4f95 e8bd
0.0099814925 0.22187117 -0.028087825 -0.0017688752 -0.046034813 -0.14538734 -0.18919174 -0.004726107
0.10242089 -0.12287373 0.0029038803 -0.05971839 -0.060409352 0.06280287 -0.08919721 0.1170071
-0.14114097 0.07290447 -0.025292266 -0.09578154 -0.055503905 -0.09136646 -0.08217055 -0.068221435
-0.019556167 -0.03706082 -0.031569332 0.16804959 0.051787354 0.10283194 -0.0058754086 -0.039083447
-0.08614574 0.11193374 -0.051312868 -0.01588571 -0.13091406 -0.05336268 -0.062092733 -0.011133381
0.07137421 -0.16294831 -0.15330406 0.13721271 -0.13851252 0.15789287 0.14156683 -0.16914892
-0.094107985 -0.0039532036 0.051361844 0.02557028 0.08941777 -0.16123688 0.0122095505 -0.1294311
-0.054075774 -0.039346147 -0.047781903 0.03379419 -0.028548554 -0.004725461 -0.10656099 -0.11356603

fc2.weight f4 [128, 64]
00000000: 7c41 fdbc 24a8 a6bd 6c55 c5bd 905b 933c
00000010: de4f a7bd ecae 24bd 77f5 47be d08e abbd
00000020: a20d 15be e411 3e3d b357 c3bd 588d 90bc
00000030: f47e 2ebd f04a 8d3c 30a4 f4bd f0ff ca3d
00000040: ac62 6bbd a8db 133d ed96 3fbd bee4 d0bd
00000050: a230 d03d a182 65bd 601c 0abe a4ae 0a3d
00000060: c323 073c c656 c33a 42ed edbd e81a 9a3d
00000070: f8c6 8aba 0bcd fabc 5c28 fcbd c325 b5bd
00000080: c23e f7bc 64bf b43c 307b 3e3d 082c 6c3d
00000090: 9f27 2bbe e8a5 b43b 7025 c43c b234 22bd
000000a0: 74eb b5bd 544d 9ebd e8ef 85bd 5831 ff3c
000000b0: efd9 52bd 8045 e53d 2cb3 233d 5877 d0bc
000000c0: 40d9 14be 6cc8 c1bd 8d16 d7bd 3599 ce3c
000000d0: 2300 94bd 9e3e 7bbd ba11 acbd 792c 6bbd
000000e0: 122a a6bd 1763 3f3d ec22 00be b972 babd
000000f0: a01a c6bb 3c17 9abd 4351 0dbe a8ce b83b
00000100: e89f 9dbd 20cf 293d 0088 be3b fed1 80bd
00000110: b477 ab3d d45c b13d f0d6 c4bd b058 9fbc
00000120: bcdc b7bd e4ce e43d f4d7 583d fe67 c6bd
00000130: d4e1 0b3d 2a23 b43d d66f bdbd 14bb 6c3d
00000140: 0c4f 15bd 8084 623d 7a1b 923d 1429 80bd
00000150: 143e 6f3d 5caf 293d 5065 3ebd f465 263d
00000160: 5686 e83d 464b febd e0d7 23bc 9055 833d
00000170: 5a55 dfbd 0cb4 aebd 80d3 993c c032 6f3b
00000180: b8db 753d 984c 8abd 7829 27bd 5875 cfbd
00000190: b0bc 78bd 0003 ce3d 60be 0d3c fe81 fabd
000001a0: 82b7 fa3d 1405 febd 704c 4c3c c684 8abd
000001b0: fc64 22bd 302a 5dbd e043 a63b 72d3 bbbd
000001c0: 4811 78bd 5045 5abc 8275 f5bd 36f5 853d
000001d0: 5045 e4bc 0e0a ec3d 248b c03d 6059 b7bd
000001e0: 1e79 ccbd cc63 5fbd f029 0ebc 7280 b23d
000001f0: b633 a9bd b8a6 dc3c e0e2 e2bb dcf1 1c3d
00000200: 042a 1bbd 406b a03c 685d 533d e031 543c
00000210: c2ac f43d eced 16bd 7e11 b23d 109a 473c
00000220: fa5c aebd 94dd 7bbd 48d8 81bc 1cfc a03d
00000230: ec95 393d d050 c83c 84ce dabd a2e6 bcbd
00000240: 0e60 fb3d 2816 fc3c 9eaf c1bd 8a55 9abd
00000250: e235 b03d 2eb6 d9bd 00ab dbbb f0b1 eb3d
00000260: 00cd da3d 1007 bfbc 5895 f13c c00a 783c
00000270: e8e5 263d 90cc 63bd 0679 edbd 807a 3dbb
00000280: 90fc 17bd dc33 1cbd a641 f3bd 0022 f23b
00000290: 60c4 cb3d 0adc febd 701d 4b3d f6c5 d63d
000002a0: ec3e 59bd f0de 32bc 22f6 b63d b801 d33c
000002b0: 64de 93bd f4ea 653d 1e10 d73d 08a8 d33d
000002c0: 504a c2bd 209f af3c 80f7 603c 3ec5 bfbd
000002d0: e8f0 5d3d 54e6 34bd f8eb f93c 6207 f3bd
000002e0: c8ec 9bbd 5065 dcbd 5461 f8bd d003 13bd
000002f0: 44fd 06bd 78d5 a4bc b478 033d 4825 d53c
00000300: 4ff3 2cbe 2b83 38bd 0815 f7bc 9aee b9bd
00000310: d0ba a53c a0f3 b63c 6478 7e3d 30cc 853d
00000320: 2e87 97bc 84ed 1d3d fdf9 edba 605c fabc
00000330: a442 dc3d 1864 da3d 31f6 cdbd c85e 35bd
00000340: 8029 3e3b fc4e f9bd 6d7d 31be 7de7 c0bd
00000350: c0a7 323d e1a4 00be 27e5 8abd 9480 46bd
00000360: 184b 19be 07ad f1bc 9097 43bd a0f4 74bc
00000370: ff44 893c 8eda 573d 6804 8c3c f05b e73a
00000380: 27ce debd 9791 bdbd 120d a43c d843 b33c
00000390: da2e 93bd afcc d43c 759c 06bc c10b 0bbd
000003a0: deff abbd 80af fdba 385a c5bc c85c 2bbd
000003b0: 9780 69bd a6d0 df3d d053 c8bd b8ac cebc
000003c0: f30d b0bd 3247 d13d 492f 01be 1291 c4bd
000003d0: 9173 3cbd 7887 60bd 431a 1e3d 5c51 6dbd
000003e0: 681c 51bd d9bb 063d c4f1 31be 727c e2bd
000003f0: 70e3 b33c c80e 8dbd 2ee7 863d d3ed 1ebe
-0.030915014 -0.08137539 -0.096354336 0.017987996 -0.0816953 -0.04020588 -0.19527231 -0.08376849
-0.14555982 0.04640378 -0.09538212 -0.017645523 -0.04260154 0.017247647 -0.11945379 0.099120975
-0.057467148 0.036098152 -0.046774793 -0.10199879 0.10165526 -0.05603278 -0.13487387 0.033857957
0.008248272 0.001490318 -0.11617519 0.07524663 -0.0010587862 -0.03061535 -0.123123854 -0.08845093
-0.030181292 0.022063918 0.0465042 0.05765918 -0.16714333 0.0055129416 0.023943633 -0.039601035
-0.088828 -0.07729593 -0.06539899 0.031151459 -0.05147737 0.11194897 0.039965793 -0.025447533
-0.14536 -0.094620556 -0.10502348 0.02521954 -0.072265886 -0.061339013 -0.084018186 -0.05741546
-0.08113493 0.04672536 -0.12513322 -0.09103913 -0.0060456544 -0.07523963 -0.1380053 0.0056398697
-0.07696515 0.041457295 0.0058145523 -0.06290053 0.08372441 0.08660284 -0.096113086 -0.01945147
-0.089776486 0.11172274 0.052940324 -0.09687804 0.034150913 0.087957695 -0.09249847 0.0577956
-0.036452338 0.055302143 0.07134147 -0.06257835 0.05840881 0.041427 -0.046483338 0.040624574
0.113537475 -0.12416701 -0.010000199 0.06412804 -0.109049514 -0.08530435 0.018777609 0.0036498755
0.060023993 -0.0675289 -0.040811032 -0.101298034 -0.06072682 0.10059166 0.008651346 -0.12231825
0.122420326 -0.12403312 0.012469396 -0.06763606 -0.039647087 -0.05399531 0.0050740093 -0.09171189
-0.060563356 -0.013322189 -0.119853035 0.06540911 -0.027865082 0.11525355 0.09401539 -0.08952594
-0.09984039 -0.054538533 -0.008676991 0.08715905 -0.08261816 0.026934966 -0.0069240183 0.038316593
-0.037881866 0.01958239 0.05160275 0.012951344 0.119470134 -0.036847994 0.086947426 0.012182727
-0.085138276 -0.06149061 -0.015850201 0.07860586 0.045308992 0.024452597 -0.10683921 -0.09223677
0.1227418 0.030772284 -0.094573244 -0.075358465 0.08604027 -0.10630451 -0.0067037344 0.11508548
0.10683632 -0.023318797 0.029490158 0.015139282 0.0407466 -0.055615008 -0.11595349 -0.0028912127
-0.037106097 -0.038135394 -0.11877756 0.007389307 0.09949565 -0.12444313 0.04958862 0.10486977
-0.053038523 -0.01091741 0.08933665 0.025757656 -0.07220152 0.056132272 0.10501121 0.10334784
-0.0948683 0.021438181 0.013730884 -0.09363793 0.054184824 -0.04416497 0.030508026 -0.118666425
-0.07613522 -0.10761511 -0.12127939 -0.035892308 -0.032956377 -0.020121321 0.032097533 0.026018754
-0.1688969 -0.045046967 -0.030161396 -0.09078713 0.02023068 0.022332966 0.062126532 0.06533086
-0.018497076 0.03855659 -0.0018156167 -0.030561626 0.10754898 0.106636226 -0.10056723 -0.044279844
0.0029016435 -0.12173268 -0.17333002 -0.09419153 0.04361701 -0.12562896 -0.067819886 -0.048462465
-0.14970052 -0.029501451 -0.047751963 -0.014950901 0.016756533 0.052698664 0.017091945 0.0017651301
-0.10879164 -0.09256285 0.020025764 0.021882936 -0.071866706 0.025976507 -0.008216013 -0.033946756
-0.08398412 -0.0019354671 -0.024090871 -0.04183653 -0.0570074 0.109284684 -0.09781611 -0.025228843
-0.085964106 0.102186576 -0.12615694 -0.095979825 -0.04600865 -0.054816693 0.038599264 -0.05793892
-0.05105248 0.03289399 -0.17377383 -0.11058892 0.021959037 -0.06887585 0.06587063 -0.1552041

fc2.bias f4 [128]
00000000: 778c 33be e84e a6bc 145a 3abd f953 8ebd
00000010: 3d5c a53d cddb a8bd d75b 523d d649 a7bd
00000020: 850c bfbd e51b efbd 9d3c b13d ee62 eabd
00000030: a72c b5bd d13a 0c3d 990b 24be 386e 6dbd
00000040: 1491 69bd fd51 01be 903a d9bd d0e9 a2bd
00000050: 70e4 6dbc 1f20 acbc 5408 f03c 28d8 0abd
00000060: 707f d0bd 2231 adbd 60f9 e13c 3e08 293d
00000070: 10b5 fdbd 12cc 30bc c3fb 0ebe a67f 553d
00000080: 322e fcbd 8dd7 253c d261 d33c 7f41 b03d
00000090: 0170 2f3d a949 573d feea d63d 446c f5bd
000000a0: fce0 363e 16dd bdbd ed76 d4bd fec4 7fbd
000000b0: bb0b c7bc 5a21 a33d 4e4b c739 c062 583b
000000c0: 4805 b43c da4a e2bd cbf9 eabd 07d8 cd3b
000000d0: 26b2 2c3d 542e febd 6901 ec3d 6af8 88bd
000000e0: 7945 583d 9d32 a5bc 89f6 863c 38df 91bd
000000f0: c415 2c3e 898f a7bd ff6e 58bd 53da 0dbe
00000100: 9346 983b d075 56bd 48e2 99bc 5673 98bd
00000110: 68a2 c2bd ee68 9cbd 5453 523d 86ef fa3d
00000120: 6ac5 bf3d 6dc8 3bbe 9e22 c23d 6317 e3bd
00000130: fcc1 923d 560b 84bd 3266 d2bd 9c68 70bd
00000140: d9ff 22be 5e3f cabd 74b9 e0bd c51c 45be
00000150: dbe7 8abd 3a41 d5bd 98de 60bd c1bb 22bc
00000160: 510d edbd 3e56 9f3d 10e8 edbd 50f6 67bd
00000170: ee77 14be cf81 4b3d ed48 d43b 00fb 333d
00000180: 909a 31bd b029 d53d 05cd ad3d 5e62 e8bd
00000190: 6245 e63c 08a0 c1bd b897 33bd 358a 0abd
000001a0: c837 c43c 795f 4abd 1849 e03c 89fe 803c
000001b0: ac96 0c3d 18b5 f63d 54e8 62bd 2f3f 6eba
000001c0: 7a1a b1bc 1f43 213d dfe9 08be 0257 a3bd
000001d0: 02ec 9d3c 089e 2f3c 34db c2bc b58e f6bb
000001e0: e0c1 4cbc ae9f 29bd 66a3 09bd 9c3c 7dbd
000001f0: 9a04 f8bd 1c22 033d 199c 383d 99e9 e9bb
-0.17534052 -0.020301297 -0.04549606 -0.0694961 0.08074234 -0.08245049 0.051357117 -0.0816838
-0.0932856 -0.11675242 0.08654139 -0.114446506 -0.088464074 0.03423578 -0.16020049 -0.05796644
-0.057023123 -0.12628932 -0.10606873 -0.079547524 -0.014519796 -0.02101141 0.029300846 -0.03389755
-0.10180557 -0.08456637 0.027584732 0.041267626 -0.123880506 -0.010790842 -0.13963227 0.05212369
-0.123134986 0.010122192 0.02580348 0.086062424 0.042831425 0.052560482 0.1049404 -0.11983541
0.17859262 -0.092706844 -0.10374246 -0.062443726 -0.024297586 0.07965346 0.00038012344 0.0033017844
0.021975175 -0.11049433 -0.114734255 0.006281856 0.042162083 -0.1241118 0.115237065 -0.06688006
0.05280063 -0.020165736 0.016474979 -0.07122654 0.16805178 -0.08181674 -0.05284023 -0.13852815
0.004647085 -0.05235845 -0.018784657 -0.074438736 -0.09503633 -0.07637201 0.051349 0.12252717
0.093638256 -0.18338175 0.09479259 -0.11088445 0.07165906 -0.06447475 -0.102733985 -0.058693513
-0.1591791 -0.098753676 -0.109728724 -0.19249256 -0.06782504 -0.104128316 -0.054899782 -0.009932459
-0.115748055 0.07780121 -0.11616528 -0.056631386 -0.14498875 0.049684342 0.00647842 0.043940544
-0.043360293 0.10408342 0.0848637 -0.11346887 0.028109256 -0.09454352 -0.043845862 -0.03382321
0.02395238 -0.049407456 0.027378604 0.015746372 0.03432338 0.1204626 -0.055397347 -0.00090883946
-0.02161907 0.039370652 -0.13370465 -0.0797558 0.019277576 0.01071883 -0.023786165 -0.007524336
-0.012497395 -0.041412048 -0.033603095 -0.06182538 -0.12110253 0.03201495 0.04507074 -0.0071384427

fc2_1.weight f4 [64, 128]
00000000: 1899 36bd 805f b6bb 58d7 dabc e804 20bd
00000010: a744 923d 1051 afbd 842d 97bd 709a a4bb
00000020: 88cd 46bc 6cc5 c5bc d685 603d fc74 b53c
00000030: a5e7 a53d fa17 2a3d a46d 91bd e546 9abd
00000040: 6e6f 393d cebf 513d c139 52bd 0553 3dbd
00000050: d235 3e3d d2d0 5c3d 6aa2 b2bd bcbd 013d
00000060: e808 86bd 4cdd 9ebc 96d2 a9bd 882d 74bc
00000070: 9296 f0bc ac8d e63c 1066 33bc 04c5 a43c
00000080: 0094 89bc 0e69 473d 789c e4bc 1022 ff3b
00000090: 468d 5ebd 60b9 97bc 0780 9d3d 3077 eabb
000000a0: 72aa ffbc 82ca 053d d85f 3dbc 14ee 6bbd
000000b0: 099c 14bd ec6b bebc c053 50bb c001 9c3a
000000c0: 98e2 f7bc 2028 09bd 6500 8a3d cfca 61bd
000000d0: a811 33bd 00a4 5239 25ef aa3d 7d64 b23d
000000e0: 5e33 a8bd e8bd fc3c 88a1 073d 3055 a83c
000000f0: ae07 abbd 0063 a539 7885 93bc cdc4 98bd
00000100: 1013 d23b 8048 29bc e215 eebc b018 58bd
00000110: a8bf f2bc a66d 483d fc16 80bd 5e8b 573d
00000120: 770a 9abd 80c5 64ba e641 423d 82a6 633d
00000130: 6062 3abc 39eb aebd 64e5 e33c f419 91bc
00000140: 9a0c 353d 987e 9ebd bca0 09bd 3683 713d
00000150: 567e 533d 2010 ba3b 667b 5c3d c022 583c
00000160: 2023 87bd d4f9 a9bc cd3f 12bd 2a93 2dbd
00000170: 59ca a4bd 1823 863c 7842 3b3c be95 3e3d
00000180: 6032 cfbc e0ec e5bb 9f91 b23d 06e2 323d
00000190: ed43 843d e03e 44bd 9057 b23b f43e 97bc
000001a0: 20de 8dbd ea6c 433d be67 5f3d b817 6c3c
000001b0: 6cfc a5bd 98c8 4fbd ce56 71bd 88c9 b5bc
000001c0: 43be 1fbd 0e69 623d 6c71 70bd 1736 16bd
000001d0: d09e 033d 691d 9bbd 83ec 933d d91a 983d
000001e0: d40e b6bc db17 883d 4009 c43c a8cf 3c3c
000001f0: 3cfa b5bc c810 6ebc 0091 9c3c e915 24bd
00000200: f3d3 013d 40a7 05bd f3d3 a5bd d22a 31bd
00000210: 6c8a c93d c6d0 04be 0edb 3bbc cf9f 01bd
00000220: 48e2 91ba e09b b7bc bf5f 36bd cd13 783d
00000230: e2b1 943d fded 58bd 5c45 af3d 3867 b93c
00000240: cbee a1bd 114e c93d b04e d2bd 9713 713c
00000250: 3086 e8bb 56c2 843a 5f01 33bd 2fcc 7bbd
00000260: 7d15 063d f877 d6bc 5421 67bc 8f90 15be
00000270: ca1b 74bd 1929 24bd d4be 103d 5c63 adbc
00000280: 122d d4bc da53 76bd 037d b03d aa55 cfbd
00000290: db29 fabd 3b81 443d 1c99 16be 4e8c 1c3c
000002a0: 811c cabd 636e 9a3d 10c0 713d ca8d 17bd
000002b0: 22af c9bd 030d 503d bc88 71bd aa89 193d
000002c0: e105 e8bd ce56 53bd 0d63 043e fd55 43bc
000002d0: f8f5 3f3d 79be 763d e38d fabc fa6c e8bc
000002e0: 139e bc3d 1a6c 55bd 090c 43bd 90b3 ea3c
000002f0: 7a75 22be 749b d63d f477 65bc 59df e13d
00000300: 7312 01bd 6b48 a5bd eb9e 06be 8cc1 99bc
00000310: 81c8 853d 526b 6e3a 6022 aa3d bafa 82bd
00000320: 386f cd3d 74e6 693d 30c6 0bbe 5876 613d
00000330: abf9 bcbd f67f a6bd 8f7f adbd 687d 0cbd
00000340: 244c 15be afd4 943d f83a 833c e459 d93d
00000350: 136f d2bd 995b d53d 4bb9 1abd a178 febd
00000360: 78b4 023d 21bf 6a3b 9986 cdbb ed07 e03d
00000370: 8727 e6bc e1b2 9cbd 63c2 1fbe 6d45 b03d
00000380: 80ee ba3c 8d5c 84bd 379e 953c 7dd7 a63d
00000390: 6b63 003d 42e8 68bd d698 413d 3197 d6bc
000003a0: b9aa 04be 194f a03d 1299 193d d344 5abd
000003b0: c03c 14bc bdf9 63bd 5849 62bd c599 88bd
000003c0: b468 4cbc 1242 9dbd d1f4 17bc b042 1dbc
000003d0: da85 f0bd 24f3 be3c f92c eabc 4d66 a73d
000003e0: 0e37 513d b14f acbd 71b7 933d 286e f3bc
000003f0: f207 5c3d 9f19 65bd bd6b 8b3d 92df 1e3d
-0.044579595 -0.0055655837 -0.026714012 -0.03906718 0.07142001 -0.08560383 -0.07381728 -0.005023293
-0.012133963 -0.02414199 0.054815136 0.022150509 0.08100823 0.041526772 -0.071009904 -0.07533053
0.045272283 0.05120831 -0.05132461 -0.04622175 0.046438046 0.053910084 -0.08722384 0.031675085
-0.065446675 -0.019392632 -0.08292119 -0.014903434 -0.029368673 0.028143726 -0.010949627 0.020113476
-0.016794205 0.048684172 -0.027906641 0.007786043 -0.054333948 -0.01852101 0.07690435 -0.0071553215
-0.031209204 0.03266383 -0.011558495 -0.057600096 -0.03628162 -0.02324482 -0.00317882 0.0011902377
-0.030259416 -0.03348553 0.067383565 -0.055125054 -0.04371801 0.00020088255 0.083463944 0.08710573
-0.082129225 0.030852273 0.033113033 0.020548433 -0.08351074 0.00031545013 -0.018007979 -0.07459412
0.006410964 -0.010332227 -0.029063169 -0.05275792 -0.029632404 0.048932694 -0.06254384 0.052623145
-0.07521527 -0.00087269396 0.047426127 0.055578716 -0.0113759935 -0.08540959 0.027819343 -0.01771257
0.04420147 -0.077389896 -0.033600554 0.058963023 0.051634155 0.005678192 0.05382862 0.013191879
-0.065984964 -0.02074901 -0.035705376 -0.042376675 -0.08046407 0.016374156 0.011429422 0.046529524
-0.025292575 -0.007016763 0.08719181 0.043672584 0.06458268 -0.047911525 0.005442567 -0.018462636
-0.069271326 0.04771129 0.054542296 0.014409952 -0.08104786 -0.05072841 -0.058920674 -0.022190824
-0.038999807 0.05527597 -0.058701918 -0.036672678 0.032133877 -0.07573969 0.072228454 0.07426996
-0.022223867 0.06645175 0.023930192 0.0115241185 -0.022214048 -0.014530368 0.01911211 -0.040059958
0.03169627 -0.032630205 -0.08097067 -0.043253727 0.09840855 -0.12970266 -0.011465801 -0.031646546
-0.0011130059 -0.022413194 -0.044524904 0.06056576 0.07260491 -0.05296134 0.08558151 0.022632226
-0.07906874 0.09829343 -0.10268915 0.014714143 -0.0070960745 0.0010128717 -0.04370248 -0.06147402
0.032735337 -0.026180252 -0.014107067 -0.14605926 -0.059596814 -0.040078256 0.035338238 -0.021165542
-0.025900397 -0.06013856 0.08617594 -0.10123761 -0.122150145 0.047974806 -0.14706844 0.009554936
-0.09868718 0.07540586 0.059021056 -0.037000455 -0.09847857 0.05079366 -0.05896829 0.037484802
-0.11329246 -0.051596455 0.1292841 -0.011922357 0.046865433 0.060240243 -0.030585235 -0.028372277
0.09209838 -0.052105047 -0.0476189 0.028650075 -0.15865126 0.10478869 -0.01400565 0.11028928
-0.031511735 -0.08070453 -0.1314656 -0.018769048 0.06532384 0.00090949715 0.08307338 -0.063954785
0.10030979 0.057104543 -0.13649821 0.055044502 -0.09227308 -0.08129875 -0.084715955 -0.034299284
-0.14579827 0.07267129 0.01601933 0.106128484 -0.10275092 0.104178615 -0.037774365 -0.12425352
0.03191039 0.0035819488 -0.006272149 0.10939012 -0.02809502 -0.07651306 -0.15601496 0.08606992
0.022818804 -0.06462965 0.01826392 0.0814657 0.031344812 -0.056862123 0.047264896 -0.02619514
-0.1295575 0.07827587 0.037499495 -0.053288292 -0.009047687 -0.05565809 -0.055245727 -0.06669954
-0.012476135 -0.076786175 -0.009274677 -0.009598419 -0.1174428 0.023309298 -0.028585898 0.08173809
0.051077895 -0.084136374 0.07212723 -0.029715613 0.053718515 -0.055932637 0.06807659 0.038787432

fc2_1.bias f4 [64]
00000000: 7608 88bd e13d 07ba 4f6b d7bc 0070 65bc
00000010: 3ab1 c9bc 4c2a 3e3d e54c 42bd 287e 82bc
00000020: a83c bfbd 54d4 603d 9d98 09be 9784 89bd
00000030: d5aa 7a3d 5430 6dbd fbb8 603d 6042 fa3c
00000040: 11ad 78bd 4889 b3bd 5146 5abd 7675 09bd
00000050: 777a 223c 7338 42bd 180c e73c e2e2 253b
00000060: 8743 a23c 17ed 1abd 409d 523d 24ed abbd
00000070: 31ea 3b3c 7716 c5bd c140 89bd 50d2 b1bc
00000080: f0a3 8cbc cb74 2b3d bc7b 6d3d b245 723d
00000090: a14d c83d 11db 00be 432f 0ebe 8dec 11bd
000000a0: 2811 aabd a8f0 b0bc 7130 d13c b15d 553d
000000b0: 691a b8bd 1682 07be c2ac adbd 2ad6 b4bc
000000c0: 082c a2bd ff70 e33d 55a9 40bd 743a 153d
000000d0: c1b6 7cbd 9aa9 f4bd bc86 213c 9c63 3abd
000000e0: 8fc3 8a3c 3529 a6bd e2fd fabc 137c a3bd
000000f0: 7a9d 253d 0d98 d03d c182 10bd 4007 b4bd
-0.06642239 -0.0005159062 -0.026296286 -0.014003754 -0.024620641 0.046427056 -0.047436614 -0.015929297
-0.09337741 0.054889992 -0.13437124 -0.06714743 0.061198074 -0.057907417 0.05486391 0.030549228
-0.060711924 -0.08766419 -0.053289715 -0.033559285 0.009916893 -0.047417115 0.028204009 0.0025312235
0.01980759 -0.037823763 0.051419497 -0.0839484 0.01146941 -0.096234255 -0.06701804 -0.02170673
-0.017168015 0.04185943 0.05797933 0.059148498 0.097804315 -0.12583567 -0.13885216 -0.035625983
-0.083040535 -0.021599129 0.025535794 0.052091304 -0.08989412 -0.13233218 -0.084802166 -0.022074778
-0.079185545 0.11105537 -0.047036488 0.0364327 -0.061697725 -0.119464114 0.009858783 -0.04550515
0.016938953 -0.08113328 -0.030638639 -0.0798265 0.040433384 0.101852514 -0.035280947 -0.08790445

fc3.weight f4 [18, 64]
00000000: 001f 833d 06dd 663d 0313 ffbd a42a c03d
00000010: 629c aabd 17c6 2fbc 696a fc3a 90df fdbd
00000020: 095a a3bd fcdb 993d 6ee2 723d 9157 ebbd
00000030: 315b 603d 1a20 93bd 013a c33c 6fe3 fd3b
00000040: 126e b3bd 74de 05be 3253 f83d afb4 b33c
00000050: e304 9cbd b3a3 bcbd d4a6 573d 5bb5 ce3c
00000060: 13be 1d3d 2471 c0bd f158 4d3d f681 9e3d
00000070: 2db1 233d 8db6 eebb 83a7 22be 5b59 bfbd
00000080: e1d1 8bbd 9695 39bd 41a6 e8bd 8c6a 52bd
00000090: b14e 3cbd 29fb 47bd 2d53 54bc 02e5 8dbd
000000a0: 8654 b63d e095 b8bb 3839 e5bd f6d1 b8bb
000000b0: adc4 a93d 0893 c8bd dc2d 3cbe b565 12be
000000c0: d49a 98bd 12e0 1dbd bf8b 1f3d 926c 0bbd
000000d0: 23e1 07be ef61 0cbe e1d4 08be b82d 44bd
000000e0: d573 6cbc f055 233c fa39 f0bd f0a5 a1bd
000000f0: cedc d2bd e0e3 78bd 8029 9a3c 6afc 403d
00000100: 4052 20bb 2b5b e0bd 4d05 da3d 2cba 643d
00000110: 766c 26bb af94 f7bd d4be ba3d 806b 37bd
00000120: d77a be3d 2482 72bd 16d2 74bd c03d 83bd
00000130: d8d1 03ba 0a96 d03d ef0e b13d 5043 1ebd
00000140: dafb 973d e8bf 01bd e0a1 b6bd 575f 64bd
00000150: 11fc 22bd f660 843d 3018 fa3d 09b4 c1bd
00000160: 2863 8a3c 7de1 833d cdb7 c13d 52ed 913d
00000170: 056f e5bc 520e 12be a6c8 393e 7751 f03c
00000180: 03fd cf3a ee47 863d fae7 2d3d 3d95 9e3d
00000190: e4f6 813d 4bd5 0ebd b1a2 b5bd dd27 31be
000001a0: 9725 b03d 008a e03a f37c 46bb b15d 3a3b
000001b0: 3d43 413c c7ae 1dbd 5f1c 90bc 5558 043e
000001c0: fe89 85bc a119 74bc 7afb 063d af16 03be
000001d0: b78d b0bc 612c 3b3d 2d1e d5bd fe61 9bbd
000001e0: f19f 0a3d e0ff b7bc e414 823d 9a92 8f3d
000001f0: 9404 cdbd b97d 823b 442b 15bd 3424 983d
00000200: 60f3 be3c 7d81 c2bd af0a a83c 462d a0bd
00000210: ac33 85bd b64b 8d3d 5a39 84bc 00c4 d6b9
00000220: 1ac4 ce3d baae a9bd 0991 523b 3594 953d
00000230: 03d0 c3bc c6e5 ca3d d778 2e3c ce00 93bc
00000240: c2d8 c13d c79b a6bd babd 8bbd 7812 033d
00000250: f921 7d3d 72a4 7cbd ec44 733d 2e6e 34bd
00000260: 5d30 b5bd 2294 113d 8842 dcbd 88a3 a1bc
00000270: f205 4f3d da41 86bc 483c 133d c1de bf3d
00000280: 944e cc3d d18b 793d c42c f8bc 3b10 9dbd
00000290: 9d3f a9bd cf88 ccbc 8a6e 79bd 508d 25be
000002a0: ab44 303d e0f3 47bd ceb2 38bd 8e45 9abd
000002b0: 25ad 2e3e 1da4 123e be88 543d d48d 5fbd
000002c0: 0790 15bd 1b2a 183d 0409 173d f0fc 2e3d
000002d0: 73f9 733c f4a7 35be 62d1 aa3d 58f9 853d
000002e0: ef70 733c 26bd 983d 7d75 1b3d 77a3 8fbb
000002f0: e0e8 f73c 06cc 0dbe 7454 973d d682 3a3d
00000300: c2f1 b4bd a1d9 6ebd 4330 793d ec09 21bd
00000310: 5956 d73d bc71 ec3c 0d62 01bd 96ba f03d
00000320: 6671 ec3d e668 093d 57a9 ed3d bc38 f0bd
00000330: 9e54 5bbd 1e8c 903d 0f61 c43d 44b9 063e
00000340: 60ef a83d 8c02 3fbd d2af cfbd 2309 c93d
00000350: 6dc3 e03b dea5 a7bc 123b aebd b887 a7bd
00000360: 2bcd b73d 468b 3ebb 2a90 5e3d 9e0f ce3d
00000370: e639 333e 3f2b 633c 4f26 443c 2070 8b3d
00000380: 6ecf b23c 4c27 a1bd 9e38 d6bd 6b6d 88bd
00000390: 48e0 103e 5b40 1d3e bf9a 2c3e 0fab 393d
000003a0: b170 c8bb c6f9 d3bd 5634 c63c 6b61 b23d
000003b0: e78f d93c 65f2 63bd d87d 9e3d 8ab0 7a3c
000003c0: df6f 943c 70c5 ae3d cefb 0ebd 370a b9bc
000003d0: d3cd df3d 3f40 f03d 1cb0 10be bc21 b43d
000003e0: 4eb6 73bd 2423 83bd 8916 233c 95cd a0bd
000003f0: b6b1 98bd d95f 823d 0c18 0e3d d357 e9bc
0.06402397 0.056363128 -0.12454798 0.09383133 -0.08330609 -0.010728381 0.0019257787 -0.12396157
-0.07976157 0.07512662 0.05929797 -0.11491311 0.054774467 -0.07183857 0.02383137 0.0077480595
-0.087612286 -0.1307314 0.12125243 0.021936743 -0.076181196 -0.09210911 0.052649334 0.025232961
0.038511347 -0.0939658 0.05013365 0.07739632 0.03996389 -0.0072849453 -0.15884213 -0.09343215
-0.068271406 -0.045308672 -0.113598354 -0.051371142 -0.045973483 -0.04882351 -0.012959284 -0.069284454
0.0890284 -0.005633101 -0.11192554 -0.0056402637 0.08289466 -0.09793669 -0.18376869 -0.1429661
-0.07451406 -0.03854377 0.03895163 -0.034039088 -0.13269477 -0.13709234 -0.13362457 -0.047895163
-0.014431913 0.00996922 -0.11729808 -0.07892978 -0.102960214 -0.060764194 0.018818617 0.04711572
-0.0024463087 -0.10954889 0.10645542 0.05584161 -0.0025394238 -0.12088906 0.09118429 -0.044780254
0.093007736 -0.059206143 -0.059770666 -0.06408262 -0.00050285226 0.10184868 0.086454265 -0.038638413
0.07421084 -0.031677157 -0.08917594 -0.055754986 -0.03979117 0.06463806 0.12211645 -0.09458167
0.016892985 0.06439493 0.09458885 0.071253434 -0.02800704 -0.14263275 0.18142948 0.02933572
0.001586825 0.06556688 0.04245756 0.07743309 0.06345919 -0.03487138 -0.088689215 -0.17300363
0.0860092 0.0017130971 -0.0030286878 0.0028437192 0.011795816 -0.03849676 -0.017591653 0.12924321
-0.016301151 -0.0148986885 0.03295467 -0.12801622 -0.02155195 0.04569662 -0.10406146 -0.0758705
0.03384394 -0.022460878 0.06351641 0.07010384 -0.10010639 0.0039822725 -0.036418214 0.0742878
0.02330941 -0.09497354 0.020512907 -0.07821135 -0.06503996 0.06899206 -0.016140629 -0.00040963292
0.10095997 -0.082852796 0.0032129905 0.07303659 -0.023902899 0.09907107 0.010648928 -0.01794472
0.094651714 -0.08135181 -0.06823297 0.032000035 0.061799977 -0.061680265 0.0593919 -0.044050388
-0.08847115 0.03554166 -0.10754877 -0.019731298 0.05054278 -0.016388822 0.03594616 0.09368659
0.09975925 0.060924355 -0.030294783 -0.07669111 -0.082640864 -0.02496758 -0.060896434 -0.16167188
0.043034237 -0.04881656 -0.045092396 -0.07532798 0.17058237 0.14320417 0.05188822 -0.054578617
-0.03651431 0.03714953 0.036873832 0.04272169 0.014891016 -0.1773985 0.08340718 0.06541699
0.014858468 0.07457952 0.037953842 -0.0043835 0.03026241 -0.1384736 0.07389155 0.04553493
-0.08835174 -0.058313016 0.06083704 -0.039316103 0.105145164 0.028862827 -0.03158765 0.117543384
0.115450665 0.033547305 0.11604565 -0.11729571 -0.053547494 0.07057975 0.09588825 0.1315661
0.08248782 -0.04663329 -0.10140957 0.09816196 0.006859234 -0.020464834 -0.085073605 -0.08180183
0.089746796 -0.0029074713 0.054336704 0.100615725 0.17502555 0.013865291 0.011972024 0.068084955
0.021827426 -0.078688234 -0.104600176 -0.06661495 0.14148057 0.15356581 0.16855906 0.04532915
-0.0061169495 -0.10350375 0.024194878 0.08709987 0.026557876 -0.055651087 0.077388465 0.015300879
0.01811975 0.08533752 -0.03490811 -0.022587879 0.1092793 0.11731004 -0.1412968 0.08795497
-0.05950003 -0.06403187 0.009954103 -0.07851712 -0.07455771 0.06365938 0.0346909 -0.02848426

fc3.bias f4 [18]
00000000: 3978 a33c 8771 08bc 378d 313d ec9e 10bd
00000010: b71d 28bb ebcc 8b3b 3f4c 463d aa8a a1bc
00000020: 9aae 7e3c b318 3c3d dd15 60bd 2fc0 1d3d
00000030: b36a 4c3b 5e00 50bd 9d7e b4bc 50d0 973d
00000040: 798b 76bd b565 183d
0.019954788 -0.008327848 0.043347564 -0.03530781 -0.0025652477 0.0042663715 0.048412558 -0.01971944
0.015544558 0.045921993 -0.05470835 0.03851336 0.0031191527 -0.0507816 -0.02203303 0.07412779
-0.060191605 0.03720637
