models/2024-07-20_16-34-18/epoch_0038_loss_0.00049434/dynamics.pth (torch, 83084 bytes, 8 tensors)

fc1.weight f4 [64, 34]
0.2332897 -0.1138957 0.038225133 -0.13181116 0.06851711 0.018883366 -0.15471773 0.001910687
-0.16244803 0.043894745 0.16911392 -0.058128815 -0.12407819 -0.15240133 0.113223106 0.06506069
-0.11998641 -0.09939865 0.082642004 -0.09222656 0.07905018 -0.049697854 0.12839046 -0.09875295
0.14005752 0.017079417 0.14163254 0.13133214 0.08819633 -0.14138563 -0.052191086 0.1611217
0.016776808 0.13537522 0.05586533 -0.06764138 -0.025812674 -0.11909027 0.008413153 -0.072503336
0.032492235 -0.07627858 -0.10131489 -0.024595138 0.094345145 0.016783258 0.06780061 -0.10059461
-0.08285221 0.08516438 0.21222606 -0.14239427 0.15166652 -0.010101264 -0.14621574 0.08086076
-0.04475451 -0.052559536 0.056590725 -0.05744368 0.10177935 -0.2419093 -0.2297621 -0.041997094
-0.21368365 -0.02207469 0.043970138 -0.13387951 -0.07614662 0.079463646 0.19481257 -0.012435227
-0.080455884 0.12485697 -0.14969468 -0.022038609 -0.21744601 0.13094948 -0.033392597 -0.055584952
-0.038120475 -0.09422871 -0.1941418 0.105973765 0.006416572 -0.18958858 -0.0032218634 0.0031059408
0.08305419 -0.119006 0.017257353 0.04490549 0.13266172 0.09176573 -0.00949425 -0.082205206
-0.20960803 -0.04864269 -0.019455763 -0.22753106 -0.22320014 -0.03573309 0.097778395 -0.0028006285
0.08166869 0.108354226 -0.07224288 0.15819763 0.15231694 0.15128626 -0.0038634837 -0.065869756
-0.095277525 0.11805521 0.026036695 -0.010447115 -0.018088311 0.034746498 0.032291412 0.009015247
0.115453675 -0.086163 -0.091615744 -0.119684756 0.15823849 0.10901041 0.1598369 0.032776788
0.070652574 0.16506849 -0.11544395 -0.013233036 0.014054164 -0.031468198 -0.0058559477 0.07047805
0.14323168 0.12969123 -0.06944357 -0.10084721 -0.077160425 0.17001759 -0.034396157 0.16426839
0.13800742 0.11347155 -0.06917702 0.12800638 -0.023954034 0.045971572 0.13502528 -0.02498798
-0.036891133 -0.02117519 -0.043810487 -0.0868017 -0.13570991 -0.16501835 -0.12633932 -0.08150905
0.06349334 0.031211331 -0.099921495 0.14474784 -0.08901583 -0.08065116 -0.085234076 0.029929012
0.07196063 0.113047674 -0.16290009 -0.10045686 0.09985031 0.106631175 0.04114695 -0.13233292
-0.119059086 -0.03579332 -0.11792521 0.07799694 0.13044162 0.019557476 0.0021850169 -0.05918619
0.10161407 0.093676075 -0.11454809 0.14716001 0.14309348 0.02689898 -0.12572114 -0.15739176
0.052678257 0.04677193 -0.038525 0.026420116 -0.017649353 -0.12354214 0.053875133 -0.05520881
0.10775153 0.017019555 0.08510439 -0.08888118 0.2772889 0.021850053 0.068354145 0.10324771
0.05199218 -0.07632942 -0.08866277 0.046057325 -0.010474853 -0.111661464 -0.119784094 0.115071855
0.17568763 -0.08304261 0.04094056 0.15420958 -0.061691243 0.064478174 0.08266193 -0.09372017
0.033622958 0.14954865 0.14185852 0.07235049 0.21021713 0.072126485 -0.26418233 0.07282027
-0.09761119 -0.17308842 -0.08533048 -0.110207886 -0.14900309 -0.11954898 -0.14018093 -0.12462036
-0.05379133 0.02622138 -0.048874065 -0.1619912 -0.06254845 0.13804005 -0.16214885 -0.06550221
-0.11427659 -0.08555944 0.042464077 -0.0165689 0.13799752 -0.057760924 -0.056974232 0.06455818
00000000: 7fe3 6e3e 2642 e9bd f591 1c3d 81f9 06be
00000010: b352 8c3d 4ab1 9a3c 536e 1ebe 0470 fa3a
00000020: c758 26be faca 333d 332c 2d3e 7b18 6ebd
00000030: b51c febd 180f 1cbe 84e1 e73d 8a3e 853d
00000040: 6fbb f5bd 8591 cbbd 3640 a93d 47e1 bcbd
00000050: 10e5 a13d fa8f 4bbd ca78 033e fd3e cabd
00000060: 3d6b 0f3e 22ea 8b3c 1f08 113e ef7b 063e
00000070: 47a0 b43d 65c7 10be 52c6 55bd 16fd 243e
00000080: 846f 893c cd9f 0a3e 0bd3 643d 9087 8abd
00000090: 1a75 d3bc 99e5 f3bd 52d7 093c a17c 94bd
000000a0: 9416 053d f237 9cbd 2e7e cfbd be7b c9bc
000000b0: 0738 c13d 0b7d 893c 0cdb 8a3d 8c04 cebd
000000c0: 6bae a9bd aa6a ae3d ca51 593e cecf 11be
000000d0: 784e 1b3e c67f 25bc 94b9 15be 539a a53d
000000e0: 8150 37bd ab48 57bd adcb 673d 104a 6bbd
000000f0: b171 d03d 12b7 77be c246 6bbe 2505 2cbd
00000100: e3cf 5abe fbd5 b4bc 081a 343d b617 09be
00000110: c2f2 9bbd d6bd a23d f27c 473e 1fbd 4bbc
00000120: 0ec6 a4bd 03b5 ff3d 9049 19be 508a b4bc
00000130: 2baa 5ebe 9f17 063e adc6 08bd 0cad 63bd
00000140: 3724 1cbd fbfa c0bd 1ccd 46be c608 d93d
00000150: 1b42 d23b 8223 42be e625 53bb 0a8d 4b3b
00000160: 5118 aa3d 6bb9 f3bd 4b5f 8d3c d2ee 373d
00000170: 79d8 073e acef bb3d c58d 1bbc 345b a8bd
00000180: 7da3 56be 8f3d 47bd b161 9fbc e7fd 68be
00000190: 948e 64be dc5c 12bd 0a40 c83d c08a 37bb
000001a0: ea41 a73d d2e8 dd3d 13f4 93bd 8ffe 213e
000001b0: f9f8 1b3e c9ea 1a3e 8032 7dbb b9e6 86bd
000001c0: dd20 c3bd eec6 f13d e84a d53c 602a 2bbc
000001d0: f02d 94bc 5852 0e3d 0044 043d b0b4 133c
000001e0: fa72 ec3d 3a76 b0bd 09a1 bbbd 481d f5bd
000001f0: 4509 223e da40 df3d 49ac 233e f440 063d
00000200: 4cb2 903d b707 293e e16d ecbd 60cf 58bc
00000210: 7043 663c cce4 00bd 40e3 bfbb cc56 903d
00000220: 53ab 123e c7cd 043e 6e38 8ebd fb88 cebd
00000230: 4906 9ebd 1719 2e3e fce2 0cbd f935 283e
00000240: d151 0d3e c663 e83d aeac 8dbd 1b14 033e
00000250: 403b c4bc b04c 3c3d 1144 0a3e 98b3 ccbc
00000260: 281b 17bd 9877 adbc a072 33bd 17c5 b1bd
00000270: 8af7 0abe 92fa 28be 185f 01be 38ee a6bd
00000280: cc08 823d e8ae ff3c a4a3 ccbd c738 143e
00000290: ee4d b6bd 6f2c a5bd 348f aebd b02d f53c
000002a0: 1860 933d 8a85 e73d 48cf 26be 54bc cdbd
000002b0: 527e cc3d 7261 da3d b489 283d 4882 07be
000002c0: 40d5 f3bd 049c 12bd c682 f1bd dcbc 9f3d
000002d0: 7d92 053e 0037 a03c 8032 0f3b 386d 72bd
000002e0: 0a1b d03d 3ed9 bf3d 3098 eabd 1db1 163e
000002f0: 1987 123e 405b dc3c 0bbd 00be 4e2b 21be
00000300: 28c5 573d ec93 3f3d 64cc 1dbd 006f d83c
00000310: 6095 90bc a903 fdbd 2cac 5c3d a222 62bd
00000320: d6ac dc3d 986c 8b3c 364b ae3d 5607 b6bd
00000330: d0f8 8d3e e2fe b23c 42fd 8b3d 8973 d33d
00000340: c1f5 543d 9952 9cbd d494 b5bd 9ba6 3c3d
00000350: b89e 2bbc c4ae e4bd 5d51 f5bd cbaa eb3d
00000360: 75e7 333e 3e12 aabd 4ab1 273d 1ee9 1d3e
00000370: f5af 7cbd 220d 843d a84a a93d 5cf0 bfbd
00000380: 3ab8 093d 4823 193e 5c43 113e 7e2c 943d
00000390: 2943 573e 0db7 933d e842 87be cb22 953d
000003a0: 60e8 c7bd 173e 31be bfc1 aebd acb4 e1bd
000003b0: 4494 18be 18d6 f4bd 978b 0fbe f638 ffbd
000003c0: 4c54 5cbd 38ce d63c 2c30 48bd 05e1 25be
000003d0: 6719 80bd 5f5a 0d3e 590a 26be 0626 86bd
000003e0: d809 eabd ca39 afbd d0ee 2d3d 80bb 87bc
000003f0: 394f 0d3e b896 6cbd d05d 69bd 1437 843d

fc1.bias f4 [64]
-0.04170268 -0.05454585 0.040430922 -0.0022395551 0.046106257 -0.048159577 -0.144607 -0.00794463
-0.15053645 -0.069964044 -0.10548637 -0.04010972 -0.0143741295 -0.0807411 -0.043890733 -0.13789898
-0.0008117169 -0.010818053 0.24168132 -0.043693744 -0.030212501 -0.16219704 -0.113549754 -0.010259628
-0.08723573 -0.018553723 -0.110370144 -0.089151986 -0.051564842 0.01766489 -0.056038283 0.05059656
-0.14554594 -0.027885428 -0.03296882 -0.13313887 0.026963197 0.1794823 0.13177542 -0.013638963
-0.016192582 0.036692202 -0.19744095 -0.027055662 -0.068299286 -0.058925908 -0.0122204125 0.022873338
0.119022936 -0.022866637 -0.008974859 -0.13762042 -0.018156925 -0.08207442 -0.13036321 0.13859358
-0.025893273 -0.22560409 -0.012326816 -0.041845687 -0.034355223 -0.03521781 -0.10866733 -0.1633383
00000000: 6ed0 2abd 786b 5fbd e59a 253d 80c5 12bb
00000010: ead9 3c3d fa42 45bd db13 14be 322a 02bc
00000020: 3a26 1abe 4f49 8fbd 3d09 d8bd 174a 24bd
00000030: 7881 6bbc 975b a5bd c5c6 33bd 6435 0dbe
00000040: 66c9 54ba 343e 31bc 4f7b 773e 36f8 32bd
00000050: 3580 f7bc fb16 26be c68c e8bd 0018 28bc
00000060: a5a8 b2bd fafd 97bc be09 e2bd 5195 b6bd
00000070: a835 53bd f6b5 903c 6688 65bd 573e 4f3d
00000080: ff09 15be fb6f e4bc 500a 07bd 8e55 08be
00000090: ece1 dc3c 35ca 373e 23f0 063e f575 5fbc
000000a0: 4ea6 84bc 904a 163d f62d 4abe d6a3 ddbc
000000b0: 7fe0 8bbd 4b5c 71bd 2038 48bc de60 bb3c
000000c0: 4cc2 f33d d052 bbbc 490b 13bc 5eec 0cbe
000000d0: d5bd 94bc a216 a8bd ef7d 05be 7aeb 0d3e
000000e0: 211e d4bc c204 67be 6af6 49bc 6266 2bbd
000000f0: 10b8 0cbd 8d40 10bd fa8c debd 2842 27be

fc2.weight f4 [128, 64]
-0.1403983 -0.0021994526 -0.17213677 0.014842346 -0.22410735 0.034476757 -0.048086394 -0.059901964
-0.0674254 -0.23633735 0.05820094 -0.053639572 0.01192632 -0.1100103 -0.069056034 0.031300567
-0.11549099 -0.17588986 -0.05389872 0.02317633 -0.046608876 -0.066738695 0.08880356 0.12041725
0.03400011 -0.07536892 -0.023035645 0.061209768 -0.0004092731 -0.03029154 -0.11430273 -0.05598462
-0.08810857 -0.03727123 -0.08591436 -0.07498256 -0.06071823 -0.22896443 -0.0414738 -0.070393115
-0.039905813 -0.21512936 0.06327104 -0.1393956 0.0028806329 -0.045947563 -0.08885963 -0.20793161
-0.019240037 -0.081039906 0.028427944 -0.10029197 -0.02126337 0.11749153 -0.07229085 -0.02071141
-0.027278326 0.029352255 -0.06861609 -0.035579868 0.03722935 -0.18491273 0.04662022 -0.061181456
-0.041017022 0.09050141 -0.16092195 0.014453679 -0.05295345 -0.067159384 -0.06707886 -0.09060042
-0.08854346 0.025451003 0.05126603 0.011976019 -0.055354908 -0.030004948 -0.07828389 -0.037912324
-0.06699132 -0.17301285 -0.0053939386 -0.15794405 -0.037946314 -0.021020547 0.060533762 0.04217577
-0.105480745 -0.085475564 0.10393402 0.03732881 -0.0020853577 -0.020401105 -0.08430439 -0.0055257515
-0.03412105 -0.0008113504 -0.0015308708 -0.044555366 -0.12483899 0.010901776 -0.056328613 -0.0020378144
0.009341513 -0.023543071 0.08701536 0.0010713671 0.006279111 -0.061134696 -0.09773521 -0.07761529
-0.16629745 0.014824867 -0.08764523 -0.07552041 -0.05864408 0.03566435 0.06575869 0.034330472
-0.120350406 -0.0960684 0.052568804 -0.03234157 -0.017622277 -0.11932954 -0.008483157 -0.0324616
-0.12164956 -0.03189786 0.042190906 0.11886363 -0.16371125 0.022240639 0.062371206 -0.08560803
-0.039483562 -0.029085947 -0.017959729 0.023472944 -0.0043963203 0.042238344 -0.013959292 0.03710873
-0.10370379 0.055085327 -0.15197065 -0.008854467 0.024986701 0.040616676 0.08233398 -0.0869938
-0.064242 -0.023946963 -0.07507573 0.06529872 -0.0048777503 -0.16930947 -0.11626158 -0.058586646
0.07543513 -0.033018053 -0.032729536 -0.09312099 -0.14104111 0.002172406 -0.14557742 -0.03834003
-0.16941494 -0.17061524 -0.07730339 -0.1510217 0.09337041 0.0497622 -0.06672233 -0.0020414558
-0.08908601 0.08259131 -0.001952374 0.08696212 -0.091836095 0.0049431026 -0.007811002 0.048603665
-0.06587543 -0.04923957 -0.08385938 -0.17048773 -0.0041563767 0.052880347 0.11819857 -0.04360625
0.042817976 0.035765607 -0.007757611 -0.1138342 -0.02370599 0.052997828 -0.121464945 0.028153002
-0.04520972 0.04145907 0.072546914 -0.015143851 0.02350498 -0.15647182 -0.17908612 -0.10377957
-0.0020898124 -0.050464213 -0.00022643805 -0.026306417 -0.13482426 0.09842421 -0.08847833 0.026446208
-0.033639066 -0.091410205 -0.013762936 -0.10635267 0.04686149 0.007238604 -0.14897975 -0.15216053
0.04699695 -0.039651576 -0.030274719 -0.100250944 -0.024416223 -0.03883651 -0.07764545 0.009843677
-0.0515451 -0.020050347 -0.03367433 -0.07795534 0.028951585 -0.03082891 0.06929661 0.056563348
-0.036267728 -0.06233391 -0.0041195014 0.08687559 -0.14787199 0.01445815 0.032819826 0.04884904
-0.105376706 0.10418615 -0.1335923 -0.008754243 -0.1739741 0.016489252 0.117885366 -0.03602937
00000000: 92c4 0fbe b124 10bb 9f44 30be 502d 733c
00000010: 667c 65be 8037 0d3d 3df6 44bd c35b 75bd
00000020: 5416 8abd 6b02 72be 1c64 6e3d 2bb5 5bbd
00000030: 9d66 433c 154d e1bd 406d 8dbd 0635 003d
00000040: 8a86 ecbd 791c 34be e7c4 5cbd 49dc bd3c
00000050: f3e8 3ebd 4cae 88bd a4de b53d 529d f63d
00000060: b343 0b3d 055b 9abd 40b5 bcbc 18b7 7a3d
00000070: b593 d6b9 f725 f8bc 8d17 eabd 2150 65bd
00000080: 4472 b4bd b8a9 18bd def3 afbd 7590 99bd
00000090: aeb3 78bd a775 6abe 6ee0 29bd 442a 90bd
000000a0: 4774 23bd df4a 5cbe 3f94 813d b8bd 0ebe
000000b0: 00c9 3c3b 8333 3cbd 0afc b5bd 06ec 54be
000000c0: 489d 9dbc 40f8 a5bd b8e1 e83c e065 cdbd
000000d0: 8530 aebc 669f f03d 3a0d 94bd faaa a9bc
000000e0: cc76 dfbc 2474 f03c 9886 8cbd 32bc 11bd
000000f0: ce7d 183d c359 3dbe d8f4 3e3d 6899 7abd
00000100: 7701 28bd ce58 b93d b9c8 24be 20cf 6c3c
00000110: b7e5 58bd dc8a 89bd a460 89bd b78c b9bd
00000120: 4656 b5bd 9f7e d03c 54fc 513d 1037 443c
00000130: d4bb 62bd f0cc f5bc 4e53 a0bd f449 1bbd
00000140: bf32 89bd 482a 31be a3bf b0bb 16bc 21be
00000150: 986d 1bbd 4833 acbc 40f2 773d 80c0 2c3d
00000160: 4a06 d8bd d00d afbd 5cdb d43d 18e6 183d
00000170: 7faa 08bb 3820 a7bc c8a7 acbd 5d11 b5bb
00000180: 84c2 0bbd ceb0 54ba 80a7 c8ba b07f 36bd
00000190: 96ab ffbd 5d9d 323c d5b8 66bd da8c 05bb
000001a0: 250d 193c 66dd c0bc 1c35 b23d 1d6d 8c3a
000001b0: 00c1 cd3b 6068 7abd 6629 c8bd c4f4 9ebd
000001c0: e149 2abe 00e4 723c 587f b3bd 72aa 9abd
000001d0: c634 70bd c814 123d 7eac 863d 1c9e 0c3d
000001e0: 467a f6bd 82bf c4bd 6352 573d 9878 04bd
000001f0: 985c 90bc 0c63 f4bd f0fc 0abc 74f6 04bd
00000200: 6823 f9bd 55a7 02bd 5fd0 2c3d c66e f33d
00000210: eca3 27be 0032 b63c f378 7f3d 4353 afbd
00000220: 84b9 21bd a745 eebc 4820 93bc 554a c03c
00000230: 020f 90bb 1d02 2d3d 84b5 64bc 53ff 173d
00000240: a762 d4bd 27a1 613d 329e 1bbe 5412 11bc
00000250: e9b0 cc3c ac5d 263d b89e a83d ce29 b2bd
00000260: 4f91 83bd 6c2c c4bc 4ec1 99bd 56bb 853d
00000270: 89d5 9fbb 765f 2dbe 8d1a eebd 8df8 6fbd
00000280: bc7d 9a3d f03d 07bd 680f 06bd 38b6 bebd
00000290: 156d 10be ed5e 0e3b 3f12 15be 6f0a 1dbd
000002a0: 1c7b 2dbe c3b5 2ebe 3d51 9ebd 6fa5 1abe
000002b0: fc38 bf3d 73d3 4b3d b8a5 88bd f2c9 05bb
000002c0: ba72 b6bd a225 a93d cde6 ffba 3219 b23d
000002d0: 9014 bcbd c0f9 a13b 6ff3 ffbb a314 473d
000002e0: b3e9 86bd 6eaf 49bd 77be abbd 5694 2ebe
000002f0: 3732 88bb 1099 583d 1812 f23d 789c 32bd
00000300: e761 2f3d f57e 123d 8f33 febb e821 e9bd
00000310: 1033 c2bc 4014 593d 9dc2 f8bd 20a1 e63c
00000320: d42d 39bd fcd0 293d 7a93 943d ea1d 78bc
00000330: 848d c03c 263a 20be 5a62 37be 628a d4bd
00000340: 3cf5 08bb 90b3 4ebd 0070 6db9 8e80 d7bc
00000350: 5f0f 0abe a292 c93d 2034 b5bd b8a5 d83c
00000360: 1ec9 09bd 4635 bbbd f07d 61bc 6ecf d9bd
00000370: d5f1 3f3d d031 ed3b 268e 18be f8cf 1bbe
00000380: e07f 403d b169 22bd b002 f8bc 5e50 cdbd
00000390: 8804 c8bc 0813 1fbd 9404 9fbd 6047 213c
000003a0: f420 53bd a040 a4bc 18ee 09bd 0da7 9fbd
000003b0: e02b ed3c e98c fcbc 62eb 8d3d f8ae 673d
000003c0: 788d 14bd d851 7fbd e2fc 86bb d4eb b13d
000003d0: c16b 17be e0e1 6c3c 156e 063d ee15 483d
000003e0: becf d7bd 8c5f d53d 6bcc 08be f56d 0fbc
000003f0: 4426 32be 7814 873c e26d f13d 8893 13bd

fc2.bias f4 [128]
-0.022005111 -0.054681405 -0.029729994 -0.06252772 -0.045868993 0.0123644825 -0.09461552 0.078572094
0.002448178 -0.0014262899 0.028041864 -0.02629227 -0.083847985 -0.014479607 -0.13737358 0.04987303
-0.11062914 -0.118714936 -0.11888293 0.02068977 -0.12072842 -0.10012228 -0.112782404 0.022781873
0.002812382 -0.09021649 0.05746579 -0.2007733 -0.12879914 0.1115088 -0.08451037 0.024722723
-0.03769967 0.09389399 0.0358249 -0.060600255 -0.15528636 0.10351919 0.051568028 -0.18986547
0.056108784 -0.1452264 -0.040731713 -0.070177935 -0.087467246 -0.013410807 0.024455637 -0.08138115
0.055251352 -0.07990205 -0.056010105 -0.11548132 -0.006725147 -0.036701053 -0.07099061 -0.17239773
0.048891976 -0.14375487 -0.031975567 -0.11513898 -0.119343325 -0.09454962 -0.053606763 -0.036405843
-0.17033334 -0.19194852 -0.0702101 -0.01070066 0.059599787 -0.087837435 -0.097470924 -0.023325307
0.033867043 0.09281436 -0.09880239 0.024059458 -0.11095278 0.090532556 -0.006434551 -0.091521256
-0.033835653 -0.042435158 -0.06881053 0.073016495 -0.07251842 -0.11403909 -0.108050525 0.060833275
-0.052666128 -0.088685855 -0.12090731 -0.120201185 0.012644377 -0.02806975 -0.07359418 -0.06067179
0.017613523 -0.12291071 0.091264695 -0.09358365 -0.01637241 -0.036889344 0.05390854 0.01327414
-0.07009699 -0.049106315 0.09329692 0.012033306 0.04398729 0.030928057 -0.07460174 -0.026959825
-0.049491346 -0.07696466 -0.0032078098 0.008733501 -0.104263976 -0.040380776 -0.1451513 -0.06616157
-0.11289026 0.027651837 -0.06497064 0.05897495 -0.05044657 -0.08348829 0.01272312 -0.17960007
00000000: 1044 b4bc 9cf9 5fbd 518c f3bc 890e 80bd
00000010: 20e1 3bbd 6694 4a3c c8c5 c1bd 68ea a03d
00000020: 9c71 203b 59f2 baba 0db8 e53c e362 d7bc
00000030: 7eb8 abbd e03b 6dbc a9ab 0cbe aa47 4c3d
00000040: 8891 e2bd d120 f3bd e578 f3bd 987d a93c
00000050: 7640 f7bd e90c cdbd 76fa e6bd 0da1 ba3c
00000060: f14f 383b 6cc3 b8bd 4061 6b3d 8497 4dbe
00000070: ece3 03be ba5e e43d c613 adbd 4f87 ca3c
00000080: f86a 1abd 7e4b c03d 21bd 123d f937 78bd
00000090: 6303 1fbe de01 d43d ff38 533d 186c 42be
000000a0: 53d2 653d 3bb6 14be 4cd6 26bd 73b9 8fbd
000000b0: 0722 b3bd 00b9 5bbc 3057 c83c 29ab a6bd
000000c0: 3e4f 623d b0a3 a3bd da6a 65bd 7881 ecbd
000000d0: 9f5e dcbb d853 16bd 8663 91bd 0889 30be
000000e0: f442 483d 7a34 13be d0f8 02bd fccd ebbd
000000f0: 466a f4bd 3ba3 c1bd c492 5bbd 4b1e 15bd
00000100: dd6b 2ebe 278e 44be 50ca 8fbd d251 2fbc
00000110: e81e 743d 1de4 b3bd d69e c7bd b714 bfbc
00000120: 2bb8 0a3d 7515 be3d e858 cabd 5718 c53c
00000130: 363b e3bd 2269 b93d edd8 d2bb 7f6f bbbd
00000140: 4197 0abd 7dd0 2dbd 89ec 8cbd ac89 953d
00000150: 8a84 94bd 548d e9bd 9849 ddbd 502c 793d
00000160: 70b8 57bd eea0 b5bd 409e f7bd 0a2c f6bd
00000170: 5c2a 4f3c 88f2 e5bc 8cb8 96bd fc82 78bd
00000180: 3c4a 903c 9cb8 fbbd fce8 ba3d c9a8 bfbd
00000190: 6f1f 86bc 4819 17bd 34cf 5c3d c77b 593c
000001a0: 038f 8fbd b423 49bd 7512 bf3d 5827 453c
000001b0: 042c 343d d65c fd3c ccc8 98bd dada dcbc
000001c0: 70b7 4abd a69f 9dbd 1e3a 52bb f516 0f3c
000001d0: 5a88 d5bd 5066 25bd 8ba2 14be b87f 87bd
000001e0: 0233 e7bd 1b86 e23c 540f 85bd b88f 713d
000001f0: 10a1 4ebd e9fb aabd a274 503c 15e9 37be

fc2_1.weight f4 [64, 128]
-0.036491808 0.022365091 -0.13104917 0.0408962 0.060032107 0.058530368 -0.041219026 -0.020281576
-0.008603672 -0.067984454 0.10681182 0.0046882033 0.027727306 -0.060630023 -0.060372088 -0.0364017
0.047149606 -0.12973137 -0.01811907 -0.07181358 -0.051963154 -0.03922641 0.07484255 -0.037170067
0.13773519 -0.003427246 -0.06660961 0.008923639 -0.045707528 -0.15230554 -0.025896244 0.09641955
0.036197234 0.019286122 0.03622652 -0.14184688 0.003995545 -0.004797619 0.02578083 -0.011780304
-0.1125228 0.07878017 -0.0008696577 -0.0881447 0.13810177 -0.07459217 0.027676422 -0.073980965
-0.10573567 0.068195425 -0.058087137 -0.02422072 -0.14169857 0.07262655 -0.0468876 0.0025546178
-0.02363144 -0.034714002 -0.046382584 -0.035166845 -0.015508047 0.14887731 -0.097497046 0.08970176
-0.0131907165 -0.0055436194 0.061998926 -0.08733362 0.023647688 0.021824311 0.062954284 -0.12281871
0.14289194 -0.14115283 0.048900105 -0.014857153 0.054928906 -0.044613246 -0.086962685 0.078854345
-0.13937038 -0.05801166 -0.108958475 -0.05412675 0.1188726 -0.028460693 -0.004195392 -0.10952958
-0.040392596 0.014337316 -0.060946617 0.08738118 0.07453043 -0.085415706 0.07192976 0.059328623
0.045713812 0.076410286 -0.028648548 -0.041541703 0.13560174 -0.0684441 0.0053773737 0.07984102
0.0453173 0.03692078 -0.022698812 -0.09621208 -0.09065926 -0.095809266 -0.021223374 -0.03285064
-0.05439705 -0.04142518 0.008308938 -0.024634235 -0.08541741 -0.04665312 -0.105274 0.008790053
-0.008214392 0.00010376201 -0.041586906 -0.12874845 -0.039110366 -0.14572236 0.0062723565 -0.08726369
-0.028758684 -0.10958395 0.14028537 0.06636026 -0.06546505 -0.08069841 -0.06093822 -0.18148683
-0.01807938 -0.105386585 -0.17902169 0.037601344 0.060730614 -0.059798673 0.069479644 -0.16680013
-0.054813072 0.07943082 0.0987658 -0.062163472 0.07000188 -0.03937127 0.033188775 0.10242463
-0.011067092 0.051710416 0.0613452 0.07168842 0.019642387 -0.0063193846 -0.13180974 0.023542654
-0.056962717 0.067482874 -0.18078116 0.11477319 0.09732016 -0.14107315 -0.008545824 -0.0069037024
0.12738134 -0.08396763 0.05130652 -0.02512734 -0.012895349 0.035230365 -0.06309209 -0.008509084
0.1100957 -0.006024882 0.065883376 -0.03162867 0.06492068 -0.07170913 0.0016552657 -0.041205887
-0.06372146 0.07931059 -0.03942375 0.07844069 0.10237627 0.0031384523 -0.016433513 0.02143685
0.08262772 0.015357806 -0.017872758 0.05424351 -0.085214846 -0.0098038595 0.07053875 0.01796228
0.06554733 -0.06611499 -0.010661952 0.0063159387 -0.004615259 0.038054984 -0.011610345 0.12560377
0.06592133 0.07385375 -0.1016276 0.09709752 -0.00638062 0.02008491 0.055341296 -0.019330852
0.057904214 -0.013393089 -0.025079176 -0.0231008 -0.008996526 0.020357288 0.01694113 -0.0010747463
0.049871854 0.055130593 -0.04384366 -0.0015640769 0.06729623 0.025127858 -0.113067456 0.049475532
0.13191903 0.010592073 0.069555305 0.04289883 0.08413297 0.08366369 -0.011233799 -0.013589941
0.017880179 -0.02012612 -0.030099185 0.038079474 0.07670643 0.060382146 0.027566867 -0.10614344
0.043042965 -0.006079965 0.016218811 0.024222212 -0.041642763 0.018022237 0.079074666 -0.0050249705
00000000: 6f78 15bd ff36 b73c c131 06be c682 273d
00000010: 3ae4 753d 8abd 6f3d 48d5 28bd 8c25 a6bc
00000020: 6af6 0cbc 6f3b 8bbd 28c0 da3d 809f 993b
00000030: 6024 e33c 3057 78bd b948 77bd f319 15bd
00000040: f21f 413d 4dd8 04be 726e 94bc 0013 93bd
00000050: 51d7 54bd dfab 20bd 0d47 993d a43f 18bd
00000060: 740a 0d3e a59b 60bb 9f6a 88bd 7434 123c
00000070: d137 3bbd fcf5 1bbe 5c24 d4bc 9d77 c53d
00000080: 8d43 143d eefd 9d3c 4262 143d 4f40 11be
00000090: 10ed 823b 5835 9dbb 5232 d33c 2d02 41bc
000000a0: 5b72 e6bd 7f57 a13d bef9 63ba 3585 b4bd
000000b0: 8d6a 0d3e c8c3 98bd aab9 e23c 5583 97bd
000000c0: f18b d8bd 0baa 8b3d c7ec 6dbd 886a c6bc
000000d0: 6e19 11be 3bbd 943d 360d 40bd 606b 273b
000000e0: b996 c1bc 4530 0ebd aafb 3dbd 1c0b 10bd
000000f0: 7715 7ebc 4b73 183e 88ac c7bd 8eb5 b73d
00000100: e01d 58bc 40a7 b5bb 96f2 7d3d f8db b2bd
00000110: ccb8 c13c e6c8 b23c 2dee 803d 6088 fbbd
00000120: 4452 123e 5e8a 10be 7a4b 483d 6b6b 73bc
00000130: 22fd 603d 61bc 36bd 7e19 b2bd 637e a13d
00000140: 1cb7 0ebe a29d 6dbd 9f25 dfbd 03b4 5dbd
00000150: 7a73 f33d 6626 e9bc 8079 89bb 0b51 e0bd
00000160: b572 25bd 10e7 6a3c 29a3 79bd e7f4 b23d
00000170: 69a3 983d 6eee aebd e94f 933d 9202 733d
00000180: 683e 3b3d ff7c 9c3d 5cb0 eabc a227 2abd
00000190: 2fdb 0a3e 6c2c 8cbd ae34 b03b b083 a33d
000001a0: a29e 393d 3e3a 173d dcf2 b9bc d70a c5bd
000001b0: 90ab b9bd a637 c4bd a4dc adbc 658e 06bd
000001c0: 71cf 5ebd 73ad 29bd 3622 083c bccd c9bc
000001d0: 53ef aebd 5817 3fbd e599 d7bd 2804 103c
000001e0: a895 06bc ce9a d938 0857 2abd a2d6 03be
000001f0: 3132 20bd 3e38 15be 5788 cd3b 4eb7 b2bd
00000200: 5597 ebbc 8d6d e0bd f8a6 0f3e e3e7 873d
00000210: 8a12 86bd 3545 a5bd 5b9a 79bd afd7 39be
00000220: 351b 94bc ecd4 d7bd 7651 37be de03 1a3d
00000230: aac0 783d 74ef 74bd 584b 8e3d a7cd 2abe
00000240: ac83 60bd a0ac a23d b945 ca3d 209f 7ebd
00000250: 255d 8f3d c543 21bd f4f0 073d 01c4 d13d
00000260: c052 35bc 4dce 533d 1b45 7b3d 61d1 923d
00000270: 12e9 a03c d712 cfbb 22f9 06be 86dc c03c
00000280: bd51 69bd 7634 8a3d b21e 39be 350e eb3d
00000290: cb4f c73d 7b75 10be c903 0cbc 7438 e2bb
000002a0: 4170 023e 39f7 abbd c926 523d dad7 cdbc
000002b0: 0447 53bc b74d 103d 6d36 81bd af69 0bbc
000002c0: db79 e13d 606c c5bb dded 863d 108d 01bd
000002d0: 22f5 843d 3ddc 92bd 80f5 d83a 81c7 28bd
000002e0: 6680 82bd 976d a23d cc7a 21bd 83a5 a03d
000002f0: a6aa d13d 7eae 4d3b 939f 86bc 559c af3c
00000300: b938 a93d 4f9f 7b3c e469 92bc 712e 5e3d
00000310: 1f85 aebd 5ea0 20bc 9f76 903d a225 933c
00000320: ae3d 863d 4c67 87bd 78af 2ebc eff5 ce3b
00000330: 993b 97bb 8bdf 1b3d 5139 3ebc 469e 003e
00000340: c301 873d a340 973d 2222 d0bd 11db c63d
00000350: 8514 d1bb 1c89 a43c 8ead 623d bc5b 9ebc
00000360: f82c 6d3d b06e 5bbc d872 cdbc e43d bdbc
00000370: 2a66 13bc 54c4 a63c 20c8 8a3c 80de 8cba
00000380: 6e46 4c3d 9ed0 613d 6995 33bd b601 cdba
00000390: 9bd2 893d f0d8 cd3c e98f e7bd dba6 4a3d
000003a0: c815 073e 608a 2d3c 0373 8e3d afb6 2f3d
000003b0: e84d ac3d de57 ab3d f80d 38bc 58a8 5ebc
000003c0: 7479 923c 88df a4bc 9192 f6bc 39f9 1b3d
000003d0: 4318 9d3d 4553 773d e9d3 e13c bb61 d9bd
000003e0: d24d 303d 713a c7bb 50dd 843c a96d c63c
000003f0: 9a91 2abd 5fa3 933c e6f1 a13d 82a8 a4bb

fc2_1.bias f4 [64]
-0.013369727 0.035669953 -0.009206225 -0.03332722 -0.035462737 -0.02761038 -0.092067726 0.13347541
-0.10696696 -0.08410258 0.0032937229 0.06903496 -0.05649733 -0.049423255 0.027955618 -0.052057542
-0.01737899 -0.00012549835 0.03430615 0.09610324 -0.09544842 0.07207625 0.04139197 0.07962148
0.08325622 -0.035345566 -0.05955426 -0.0023035556 -0.07275568 -0.02664239 -0.0033509468 -0.07614487
0.037491586 -0.0876292 0.046515714 -0.05201325 0.04526298 -0.07457266 -0.033920106 0.028822396
0.039470278 0.07378093 -0.03855536 -0.04256442 -0.0901269 0.0037997488 0.0057121706 -0.056118812
0.019312434 -0.054580458 -0.1214146 -0.015933285 0.020261085 -0.0011781614 0.008825503 -0.017097019
-0.026830569 -0.039767906 -0.032728788 -0.07558682 -0.08943489 -0.083669215 -0.08879851 -0.043090343
00000000: b30c 5bbc a81a 123d b5d5 16bc 1f82 08bd
00000010: 6041 11bd 2a2f e2bc 018e bcbd c7ad 083e
00000020: 7e11 dbbd f93d acbd 80db 573b 3362 8d3d
00000030: bf69 67bd 0a70 4abd 2e03 e53c 4a3a 55bd
00000040: 625e 8ebc 3598 03b9 9b84 0c3d c7d1 c43d
00000050: 767a c3bd b79c 933d a08a 293d 9610 a33d
00000060: 3d82 aa3d 83c6 10bd 2bef 73bd 40f7 16bb
00000070: ee00 95bd 2441 dabc 8f9b 5bbb d7f1 9bbd
00000080: c790 193d f076 b3bd 4387 3e3d d80b 55bd
00000090: ad65 393d 8db9 98bd cfef 0abd f21c ec3c
000000a0: 96ab 213d 751a 973d 3aec 1dbd 0758 2ebd
000000b0: 7494 b8bd 3505 793b 292d bb3b d7dc 65bd
000000c0: 1c35 9e3c c28f 5fbd 38a8 f8bd 8586 82bc
000000d0: 93fa a53c 896c 9aba d898 103c 0c0f 8cbc
000000e0: c8cb dbbc ace3 22bd 9f0e 06bd 43cd 9abd
000000f0: a429 b7bd c45a abbd fedb b5bd 807f 30bd

fc3.weight f4 [18, 64]
-0.17978573 -0.02696404 -0.03615718 0.03259022 -0.07555563 -0.110585794 0.0061834883 -0.00493349
-0.087298915 0.06592034 -0.060118034 -0.05166097 -0.025841435 0.06387028 -0.0053787706 0.027497187
-0.070687406 -0.03838093 0.034080733 0.013403296 0.0510289 -0.039296776 -0.09656164 0.08741929
-0.16981035 0.10677942 -0.05687243 0.0077332705 -0.1450634 -0.03069826 -0.088556826 0.09686274
0.08204076 -0.11232564 0.02197655 0.040322207 -0.08087583 -0.03278858 0.0069745914 -0.018011801
-0.043939114 -0.14059755 -0.07774428 0.11816715 -0.01040688 -0.19944665 -0.07030076 0.0251915
-0.013853833 0.03382172 -0.040152628 -0.04141874 -0.07634432 -0.05569928 0.05382925 -0.048738703
-0.01756014 -0.13910599 0.123453036 0.018588085 -0.09210787 0.007817358 -0.0706947 -0.16376449
0.031566747 -0.053921778 0.02838982 0.02422384 -0.07319029 -0.0411292 -0.09112202 0.064419374
0.032365356 0.006894136 0.027955353 -0.13854481 0.06585788 -0.089304395 0.046520974 0.07869652
-0.029141605 -0.05363993 -0.08691773 0.08346715 -0.03275508 0.051124755 0.12607695 0.016240496
0.12152087 0.013942064 0.082934715 -0.007773474 -0.038243655 -0.18950109 0.024485659 -0.0019914832
-0.045680158 -0.11061515 0.055129718 -0.048552442 0.05585474 0.031878866 -0.062208667 -0.113803856
0.011988771 0.015176374 0.09991374 -0.03651285 -0.04355698 0.09244665 -0.12370479 0.04342155
-0.0030634105 -0.13095339 -0.038417894 0.068578765 -0.012865151 -0.015072566 0.09021492 -0.09562908
0.100375324 0.113987945 0.04822655 -0.014502763 -0.11003456 -0.11534919 -0.119218715 0.043528426
-0.016800357 0.084271185 -0.029810531 0.023687374 0.055116672 0.00910683 -0.072544634 0.091764286
-0.05705962 -0.05211703 0.0063279867 -0.10451394 0.0023691615 0.040960494 -0.005826947 0.03114006
-0.12568986 -0.11982024 -0.08080935 -0.09091039 0.027828429 -0.062312666 0.026466971 -0.012335314
-0.00085067033 0.011415896 0.10288794 -0.0907145 -0.055619955 0.037571624 -0.01069848 -0.015922962
-0.0011615139 0.08087227 0.11078273 0.089501 0.059409495 -0.079060845 0.03511481 0.06941582
-0.093458764 0.0016402225 -0.015463814 -0.04249233 0.017450819 -0.023081096 -0.07064274 0.113263905
-0.039937392 0.104457535 0.07958304 0.0064509315 0.010728551 0.06979802 -0.058825336 -0.10035533
-0.021333396 0.0466761 -0.023908854 -0.07063711 -0.15015057 -0.045900077 -0.15721667 -0.008927958
-0.083832815 0.036821507 -0.032761168 0.028218862 0.07236365 0.047102213 -0.15247011 -0.11531083
-0.2163486 -0.07290845 -0.018681973 -0.1523372 -0.10237091 0.005666789 -0.02284383 0.016165286
-0.021842293 0.017344235 0.047833886 -0.012666417 -0.05677823 0.054463394 0.00869501 -0.033766247
-0.13349108 0.10523122 0.049255073 0.05189742 -0.08596427 0.0371466 -0.0024924187 0.11123354
0.009939549 0.06355898 -0.092839904 0.021169268 0.011716823 -0.12221017 -0.010985483 0.043499522
-0.0539318 -0.08055221 -0.03167483 0.031097412 0.05077505 -0.05723151 0.08564781 -0.020238385
0.11029343 -0.054193918 -0.042702917 -0.08872456 0.04666114 0.0785884 -0.10969707 0.004934743
-0.039810583 -0.14416735 0.07732341 -0.054432232 -0.04517705 -0.12392224 -0.05827115 -0.124694854
00000000: c019 38be b1e3 dcbc 8d19 14bd 537d 053d
00000010: e9bc 9abd ce7a e2bd dc9e ca3b 1da9 a1bb
00000020: c6c9 b2bd 3e01 873d 543e 76bd 749a 53bd
00000030: 6bb1 d3bc 6cce 823d 6640 b0bb c841 e13c
00000040: 8fc4 90bd 5235 1dbd 3d98 0b3d 7f99 5b3c
00000050: ae03 513d a8f5 20bd 1cc2 c5bd e208 b33d
00000060: c4e2 2dbe 2baf da3d 11f3 68bd 6067 fd3b
00000070: 808b 14be eb7a fbbc 485d b5bd f95f c63d
00000080: fc04 a83d fc0a e6bd 2a08 b43c e628 253d
00000090: 3aa2 a5bd 514d 06bd 1d8b e43b 7c8d 93bc
000000a0: 80f9 33bd cef8 0fbe 6538 9fbd 9e01 f23d
000000b0: 9e81 2abc be3b 4cbe d8f9 8fbd 685e ce3c
000000c0: 30fb 62bc a588 0a3d 1577 24bd b2a6 29bd
000000d0: 695a 9cbd ee24 64bd 0f7c 5c3d 3ca2 47bd
000000e0: 48da 8fbc cd71 0ebe f2d4 fc3d 0a46 983c
000000f0: 0da3 bcbd 6014 003c 62c8 90bd e1b1 27be
00000100: 224c 013d 15dd 5cbd c591 e83c 1371 c63c
00000110: cae4 95bd 1877 28bd 2e9e babd 4eee 833d
00000120: 8991 043d 34e8 e13b a002 e53c b1de 0dbe
00000130: 7fe0 863d 39e5 b6bd c78c 3e3d a42b a13d
00000140: 60ba eebc 8bb5 5bbd ec01 b2bd d3f0 aa3d
00000150: 312a 06bd 3168 513d 511a 013e ca0a 853c
00000160: efdf f83d 416d 643c add9 a93d a0b8 febb
00000170: 61a5 1cbd 930c 42be 2696 c83c 8b83 02bb
00000180: 1e1b 3bbd 328a e2bd b3cf 613d edde 46bd
00000190: f1c7 643d 6a93 023d 84ce 7ebd ff11 e9bd
000001a0: 8d6c 443c 54a6 783c 939f cc3d 808e 15bd
000001b0: ce68 32bd ab54 bd3d f058 fdbd ccda 313d
000001c0: 80c3 48bb a518 06be 155c 1dbd 0673 8c3d
000001d0: 5bc8 52bc edf2 76bc 9ac2 b83d 2ed9 c3bd
000001e0: 9491 cd3d 8372 e93d 3489 453d ff9c 6dbc
000001f0: cd59 e1bd 323c ecbd f128 f4bd dd4a 323d
00000200: e7a0 89bc 5f96 ac3d 3735 f4bc 060c c23c
00000210: 05c2 613d d034 153c 4892 94bd eaee bb3d
00000220: 59b7 69bd ab78 55bd 005b cf3b 680b d6bd
00000230: ef43 1b3b 31c6 273d f9ef bebb 7019 ff3c
00000240: d8b4 00be 5064 f5bd 5f7f a5bd 3a2f babd
00000250: 72f8 e33c 913b 7fbd 43d1 d83c 0f1a 4abc
00000260: 85ff 5eba bd09 3b3c eab6 d23d 86c8 b9bd
00000270: c0d1 63bd b4e4 193d ad48 2fbc df70 82bc
00000280: f03d 98ba 5ca0 a53d 0ee2 e23d 4d4c b73d
00000290: 5f57 733d a7ea a1bd 8cd4 0f3d e229 8e3d
000002a0: 4f67 bfbd bcfc d63a f05b 7dbc 700c 2ebd
000002b0: 05f5 8e3c 9114 bdbc 24ad 90bd e8f6 e73d
000002c0: 6495 23bd d5ed d53d 6ffc a23d 5662 d33b
000002d0: cec6 2f3c 44f2 8e3d d6f2 70bd 1887 cdbd
000002e0: 60c3 aebc 702f 3f3d 80dc c3bc 30aa 90bd
000002f0: 12c1 19be b801 3cbd 68fd 20be 9246 12bc
00000300: 8ab0 abbd 26d2 163d 9330 06bd 3e2b e73c
00000310: 6533 943d 40ee 403d 2021 1cbe 1628 ecbd
00000320: 7d8a 5dbe 0751 95bd f00a 99bc 48fe 1bbe
00000330: d7a7 d1bd 79b0 b93b fc22 bbbc 106d 843c
00000340: 9cee b2bc 7f15 8e3c 77ed 433d ce86 4fbc
00000350: 4a90 68bd 0215 5f3d 8475 0e3c 7a4e 0abd
00000360: e3b1 08be 7783 d73d b0bf 493d 6492 543d
00000370: 090e b0bd 0927 183d d957 23bb 69ce e33d
00000380: 7dd9 223c 362b 823d d922 bebd 2c6b ad3c
00000390: ebf7 3f3c 5349 fabd 75fc 33bc 8e2c 323d
000003a0: 97e7 5cbd 8ff8 a4bd 77bd 01bd 00c0 fe3c
000003b0: 80f9 4f3d 966b 6abd 1e68 af3d f8ca a5bc
000003c0: 86e1 e13d 71fa 5dbd 41e9 2ebd 39b5 b5bd
000003d0: c01f 3f3d f4f2 a03d dca8 e0bd a0b3 a13b
000003e0: 6c10 23bd 9ba0 13be bc5b 9e3d 55f4 5ebd
000003f0: 920b 39bd f2ca fdbd bbad 6ebd 0460 ffbd

fc3.bias f4 [18]
0.040200464 -0.048111904 0.004604489 0.048208635 -0.07377306 0.036356054 -0.034341425 -0.11275759
0.06335019 0.068464465 -0.052397408 -0.020942612 0.07362815 -0.09837549 0.035907328 0.090396285
-0.1151926 -0.02865738
00000000: 3ea9 243d fd10 45bd 41e1 963b 6b76 453d
00000010: 5516 97bd 16ea 143d 98a9 0cbd 74ed e6bd
00000020: bfbd 813d 1937 8c3d aa9e 56bd d78f abbc
00000030: 5bca 963d 1779 c9bd 9013 133d b021 b93d
00000040: 19ea ebbd e2c2 eabc
