models/2024-07-20_16-15-34/epoch_0009_loss_0.00037528/dynamics.pth (torch, 83084 bytes, 8 tensors)

fc1.weight f4 [64, 34]
00000000: c3e3 a23d 010d d53d 3b33 ecbc 640e 4d3c
00000010: 5931 1dbd 6d92 a83d 5d39 26bd cbcc 31bd
00000020: e861 60bd 00da 0cbd 6edf 1dbc 5cec d43d
00000030: 620a 833d cd9f 92bc e3b2 c4bd d0b1 9f3c
00000040: ba6a 8fbd 454e cc3d fc00 14bd 5188 d83d
00000050: 4a20 65bd 4f33 233e ba80 27bd 2fd9 0c3e
00000060: a861 293e 5073 70b9 b62a 943c 7d81 313d
00000070: 5c2e 1c3e 517e 523d 1ef3 163e 073e fabd
00000080: 9949 23bd 2e2e 8bbc 9015 f4bd 4e4f 22be
00000090: 9439 87bd d273 d53d 49e1 2e3e b443 19bd
000000a0: bf6d 1d3e 8134 263e 6218 c63d 9a4b 4bbd
000000b0: 88ca bf3c 40a1 bebb 582a c63c a6e6 f6bd
000000c0: 8833 b4bd 6444 22be 283f 06bd 20a9 e5bb
000000d0: 9676 23be da3d 17be 24d0 b6bd 4bcf c6bd
000000e0: b19c afbd bb15 a0bd c60b a53d e204 f73d
000000f0: 2c5d 2cbd 796b 2a3e 5a31 1bbe fec8 a03d
00000100: 1041 7bbc 14a6 9e3d a225 a43d 90a0 253d
00000110: e232 933d 568f ec3d 895b 253e 9af8 b63d
00000120: 6576 10be fe0f 55be 6e89 2d3d aa25 e23c
00000130: 0bdd 393c ef47 5cbe a8c4 073e 14c2 7ebb
00000140: 98f7 f3bd 4642 a8bd 87d0 db3c 8002 5abe
00000150: 2e3e d63d 0384 54be e272 2ebd c655 9c3d
00000160: 2755 89bd c6bc 763d 6985 18be 295f 573e
00000170: 45a5 573d d945 d1bd 37c0 153e 5ea5 1dbc
00000180: 9071 1bbe 392b ffbd 39be e1bd 6ea6 d4bd
00000190: 579f 4abe bab9 21be 3b8b 13be 1d8d 5b3e
000001a0: e31a 303d bfea 9cbd b4a1 d9bd 9cdd 8b3d
000001b0: 1339 a23d fddc 05bd 11f2 86bd 8a09 ac3d
000001c0: 00d8 25bd 8108 f3bc 7c02 55be 7af3 e6bc
000001d0: 8af3 983c c5dc a23d bb07 133d ab22 19bd
000001e0: 0084 c4bd 57ea 90bc 1618 0cbd d3dc bdbd
000001f0: 9fea 153d d990 3c3e f371 1a3e 5bd7 9a3d
00000200: 5bc9 30bd 4154 d33d 2880 27be aa35 893c
00000210: 48ef 2b3d 2390 31be afb2 31be e3d3 623a
00000220: 1790 983d 5787 e43d ed92 783d c69e 94bb
00000230: 72fe cabd c97a 0abe a4b0 7dbc 864d 75bd
00000240: 0c22 3abd 4f09 aabd 5b38 5ebd 8ea8 bb3c
00000250: f860 bcbd 489d 9f3c e8e8 b7bd 16fa 1abd
00000260: 70cb 81bd a111 053d f44b 433e d557 25bd
00000270: 397f cbbd 6c13 43be 626f 993b 238a 8bbc
00000280: 4cf8 aebd 1c57 fdbd 8a08 7dbd 68d7 08be
00000290: 53a6 cd3d 4eaf 073d e856 f6bd 0cd0 303c
000002a0: 1986 453d 9fcc 49be 906c 7d3d 20cd 913b
000002b0: cbc8 2e3e e19d d7bd d834 91bd c857 dabd
000002c0: 0674 d83d 1017 683d 9660 ec3d 1f3b 253e
000002d0: f9dc 0a3e 40e5 9abd 2c1e 7a3d beb9 70bd
000002e0: b717 0b3e a616 a53d 0ef1 f83d 8808 05bd
000002f0: 60d2 c3bb 50cc 62bc 1978 f6bd c1bb c7bd
00000300: d5b7 22be d0dc c33c 7636 d93d b169 243e
00000310: 9826 d0bc 6b9c 203e 0eaf cb3d 5b70 1e3e
00000320: 6ec5 b93d b7ec 88bd 9be2 283e a1fc 0b3e
00000330: 4073 25bd 9179 433d 5910 d33d e34d 163e
00000340: de38 6bbe 8a5d fcb9 aa53 903d 88d7 acbd
00000350: dccd 41bd f6f2 c0bc b319 343c ecc2 5bbd
00000360: 9aa2 b13c ae4b 0a3d fcce 813d 8fd4 a93c
00000370: ea37 c33d f71c 173e 86cb dcbd a7a7 2e3e
00000380: bced f6bd fa7f afbc 462f da3d 21b3 cf3c
00000390: 0147 553d c0c8 cb3c 3e8c 1f3e 9f4a 24be
000003a0: 8db3 9cbd fad5 2d3d 26fb 593d d786 003e
000003b0: 5bda 8abd 745f f3bd 85dd 51be eb32 063e
000003c0: c17d 1bbe cc8d a73d 5ecc acbd 471f e23d
000003d0: a1d9 3fbe 1226 8ebc 3708 ac3d 7892 38be
000003e0: c04e 19bd aa91 5b3d 4115 05be a561 163e
000003f0: 4a3c 80b8 71cd 24be 5711 373e e67a 43be
0.07953598 0.10402871 -0.028833022 0.012515638 -0.03837714 0.082310535 -0.04058205 -0.043408196
-0.05478087 -0.03438759 -0.009635789 0.103966445 0.06398465 -0.017898465 -0.096044324 0.019493967
-0.07002778 0.09975866 -0.03613375 0.10572875 -0.055938996 0.15937541 -0.040894248 0.13754724
0.16541159 -0.00022931141 0.018086772 0.04333638 0.1525206 0.051389996 0.1474118 -0.12218862
-0.03986511 -0.016989794 -0.11918175 -0.15850565 -0.06602779 0.104224816 0.17078127 -0.037418082
0.15373896 0.16230966 0.096726194 -0.049632646 0.023412004 -0.0058175623 0.024190113 -0.120557114
-0.08798891 -0.15846401 -0.032775074 -0.0070086867 -0.15963206 -0.14769688 -0.089264184 -0.09707507
-0.085748084 -0.07816645 0.08058886 0.12061478 -0.042081043 0.1664256 -0.15155545 0.07850836
-0.015335336 0.07746521 0.080149904 0.040436327 0.071874395 0.11550777 0.16148199 0.08934136
-0.14107664 -0.20806882 0.04236739 0.02760585 0.011344205 -0.21511815 0.13258612 -0.0038873004
-0.11912459 -0.08215766 0.026832832 -0.21290016 0.104610786 -0.20753483 -0.04259003 0.076335475
-0.06705695 0.060238622 -0.14894642 0.21032394 0.052647848 -0.102184005 0.14624105 -0.009621946
-0.1518004 -0.12459416 -0.1102261 -0.103833064 -0.19787346 -0.15793505 -0.14408581 0.21440549
0.04299439 -0.07661962 -0.106265455 0.06829378 0.07921042 -0.032681454 -0.06589139 0.08400257
-0.040489197 -0.02966714 -0.20801729 -0.02819227 0.018670816 0.07952265 0.035896044 -0.037386578
-0.095954895 -0.017689867 -0.034202658 -0.092706345 0.036600705 0.1841463 0.1508253 0.07560607
-0.043160778 0.103188045 -0.16357481 0.016749222 0.041976243 -0.1734014 -0.17353319 0.00086527894
0.07449358 0.111586265 0.060686994 -0.004535529 -0.09911813 -0.13523401 -0.015484009 -0.059888385
-0.045442626 -0.08302557 -0.054252964 0.022907522 -0.09198183 0.019484177 -0.0897997 -0.037836157
-0.06337631 0.032487515 0.19071943 -0.040366966 -0.09936375 -0.19050378 0.0046824673 -0.017033642
-0.085434526 -0.123701304 -0.06177572 -0.13363421 0.100414895 0.033126168 -0.12028295 0.01079179
0.04822359 -0.19706963 0.06187111 0.0044495016 0.17068784 -0.1052816 -0.07090157 -0.10661274
0.10569005 0.05666262 0.1154186 0.16135834 0.13560857 -0.07563257 0.06106393 -0.058770888
0.13583265 0.080609605 0.121553525 -0.03247884 -0.0059760064 -0.013842657 -0.120346256 -0.09752608
-0.15890439 0.023909003 0.10606091 0.16055943 -0.025409028 0.15684669 0.099454984 0.15472548
0.0907086 -0.06685775 0.16492693 0.13670589 -0.040393114 0.047723357 0.103058524 0.14678149
-0.22970912 -0.00048134878 0.07047208 -0.08439547 -0.047315463 -0.023553353 0.010992455 -0.05365269
0.02168398 0.03376358 0.06338307 0.020731239 0.09532149 0.14757143 -0.107810065 0.17056142
-0.12057063 -0.021423329 0.10653548 0.02535397 0.052069668 0.024875998 0.15580842 -0.1604409
-0.07651434 0.042440392 0.05321803 0.12551437 -0.06779929 -0.118834406 -0.20494659 0.13105361
-0.1518469 0.081813425 -0.084374174 0.11041122 -0.18735363 -0.017352138 0.08400004 -0.18024623
-0.037428617 0.053605713 -0.12996389 0.14685686 -6.114745e-05 -0.16093995 0.17877708 -0.19089851

fc1.bias f4 [64]
00000000: 6800 fdbb 7897 38bd 011b 2ebe 14d3 11be
00000010: 3959 383e 10f4 1cbc b0fb ea3d a610 3dbe
00000020: fb9f 143d 5948 ed3b aaf0 58be 9f39 9abd
00000030: 5a3a 0dbd 04ff 06be 9496 ea3d da64 bf3a
00000040: 018e f13d 728f b1bd dfc5 a7bd 211b 2dbe
00000050: 7013 0dbe 7492 a2bd 6713 01be 15bd 86bd
00000060: 3e19 c3bd d29c 81bd 12c9 b63d a2eb 0dbe
00000070: 9264 12be fab7 e2bd cdb3 babd 8444 943d
00000080: 77d3 843d 9085 a33c 06e8 e6bd e565 0a3c
00000090: 72bd f83d e804 31bb f2ac 03be bca9 21be
000000a0: 6e27 4e3d e1f8 32bd 78f7 2cbe 37d6 c5bd
000000b0: edb0 38be 0eb8 3fbe e899 543c dacd a93d
000000c0: 26db c03d 5c2f 303d 2018 30bd f24e 003d
000000d0: fa0f 253e ce23 81bd b2bc 9fbd 4d8e 1fbe
000000e0: 1ba2 843d 8296 d43d 304f 133e 90c1 1ebe
000000f0: 1389 bb3c 3606 84bd 572e 6c3d 5a46 f93d
-0.0077209957 -0.045066327 -0.17002489 -0.14240676 0.18002786 -0.009579673 0.11473787 -0.18463382
0.03628538 0.0072412905 -0.21185556 -0.075305216 -0.034479477 -0.13183218 0.11454502 0.00146022
0.11794663 -0.08669938 -0.08192038 -0.1690488 -0.13776946 -0.0793809 -0.12605058 -0.06579033
-0.09526299 -0.06328739 0.0892507 -0.13859418 -0.14296177 -0.11070247 -0.091163255 0.07239631
0.06485646 0.019961149 -0.11274724 0.008447145 0.12145509 -0.002701098 -0.12858942 -0.15787405
0.05033057 -0.04369438 -0.16891277 -0.09659999 -0.18036242 -0.18722555 0.012976147 0.08291216
0.09416799 0.043013915 -0.042991757 0.031325288 0.16119376 -0.06305657 -0.07799663 -0.15581627
0.06476232 0.103802696 0.14385676 -0.15503526 0.02289251 -0.06446497 0.05766138 0.121716216

fc2.weight f4 [128, 64]
00000000: 8935 6dbd 0c1e 3e3d fda3 b33a ccd6 d73d
00000010: f943 dabc b894 653d 04c5 803c 5d5e b63c
00000020: 0e9c 1cbd f05e 9d3c a198 133e 000f d33d
00000030: a465 62ba 3497 4c3d c618 0a3d f370 89bd
00000040: a523 79bd c54d 293b b3a6 ed3d 72e2 053d
00000050: ae81 8c3d b7a9 5b3d b83c 6c3d 7cd4 c0bd
00000060: b488 633d 904b b23d 6a7b 2ebe b4d8 4cbd
00000070: d589 6dbd 2711 983d 5552 1c3e 93d8 87bd
00000080: e9b9 c03c 8248 8ebd c2b9 f9bd d308 743d
00000090: dd03 f43c 1fe7 dd3c 90c7 183d 1db2 02bd
000000a0: edc6 b1bd f4ea 75bd ddb9 9fbd 2985 863d
000000b0: 08c8 b43d fea5 833d 6420 bb3a 5623 aabd
000000c0: e732 03be 3943 74bd cafc 9cbd 15fd 183d
000000d0: 4060 ccbd 503c bf3c a079 8b3d c096 35bb
000000e0: 335f 1fbe 9d2a fdbc 6065 b3bd 004a d63d
000000f0: 9312 363b 949b 3d3c 30eb 90bc 6846 7fbd
00000100: ba72 013c 7a43 a33d 4ace 833d f63e e53d
00000110: dccb 58be 2072 173c a3e0 df3d 63ed aa3d
00000120: 91dd c0bd 03fb 98bd aaed 0a3e 7d92 3e3d
00000130: 0318 44bd 0a3f 833d 427b f5bd 1581 133e
00000140: 265e ecbc 1f93 dbbd b5c3 6abc b60f be3b
00000150: f1d7 423d 31a2 34bc 8824 fd3d b4aa cd3d
00000160: 70f8 6bbc 5306 5dbd 667c f5bd cca0 233d
00000170: 3246 a1bc a3a6 c43d 4106 153c c54f ef3b
00000180: 800b e93d c436 eb3d 5c3a 94bd 161e cbbd
00000190: e799 ee3b 7a42 42be 9218 b0bd d159 a13d
000001a0: c52f dfbd e0eb f0bd dc95 b8bd 3be4 5ebd
000001b0: fd3e b0bd 952d 8b3d 9d9a 80bd 8e5c d23d
000001c0: 36af bebd e909 6dbe b863 483d cb31 b03c
000001d0: 3688 45be 906c 59bd 8f27 da3d 2ab9 a23d
000001e0: 51d2 dcbd baa7 f83d 428f 02be 3098 473c
000001f0: 4391 29bd 39a4 f1bd 8aab 16bc 1a94 cfbd
00000200: 4ab4 a73d 5432 3b3d 783e b4bd e8a5 debd
00000210: 80f1 15bb 0cdf 143d c46f 223d 8084 2ebd
00000220: 64e5 39bd 2c5b c2bd b6e1 ebbd 44e2 f1bd
00000230: d8a8 4c3d c02c 353d 36a3 97bd b692 8f3d
00000240: 48fc e2bc 20b7 adbc acd1 59bd 0491 7b3d
00000250: 4cb9 6a3d 80b7 de3d 60d9 bb3c f8bf bf3d
00000260: e0ae 793d 8021 f13a 8440 c73d 40f8 19bd
00000270: 20c2 e4bb d252 bcbd 28a4 64bd 8e6c adbd
00000280: a039 00bd d87c 0a3d 8808 ebbc 2eb2 abbd
00000290: 1433 52bd 48d6 bdbc cc48 f03d 66b4 dcbd
000002a0: 881e 2e3d c2aa 8e3d 8c89 c43d c01b dd3b
000002b0: b000 793c 72e3 c73d c45f b83d e810 a9bd
000002c0: 38d9 21bd c8ba f33c 0070 5538 6457 9cbd
000002d0: d65b 84bd 603b cfbb 44f0 363d dcc9 39bd
000002e0: 0eb4 ef3d c0ab 293b a4bc cebd 20cd ce3b
000002f0: a01e bfbd 6032 163d 3480 50bd d086 09bc
00000300: 2442 16bd a636 b5bd 5053 80bc c64b de3d
00000310: f8ce 5f3d a8f8 9f3c 5e16 a4bd e0e8 873d
00000320: fcf5 09bd 58c4 e23c 9471 05bd a457 2c3d
00000330: ca27 c6bd ae19 97bd a23c b9bd 6c2d 88bd
00000340: e8a3 f53d 2271 dc3d 0012 fbbc d07c f6bc
00000350: 90a3 f53c 08d3 7a3d acc9 f5bd c6d5 843d
00000360: 60b7 88bc b415 413d e8d6 e13c ee03 a2bd
00000370: f0c6 fa3c 9074 113d d4a4 fc3d 800b d3bb
00000380: da3f df3d 34cc 4bbd 8017 2dbd c874 a4bd
00000390: f258 a0bd e61a afbd 6e6b b5bd 8013 5b3d
000003a0: 00bb 77bb 5420 b53d fa3f aa3d c650 98bd
000003b0: 4835 e1bd 345a 4a3d 7ec8 ffbd 0070 9bbc
000003c0: e040 8bbc 6aa4 adbd f051 343c 90e0 15bd
000003d0: a0ec 153c 666f febd f0df 7e3c 38e0 503d
000003e0: 263d bfbd 827b e9bd 703a 02bc 965e 883d
000003f0: 8029 b23d 76e6 b7bd 38b8 6ebd f60d db3d
-0.057912383 0.046415374 0.0013705489 0.10539016 -0.02664374 0.056050032 0.015718944 0.022261793
-0.038234763 0.019210309 0.14413692 0.103055954 -0.00086363615 0.049948886 0.033715032 -0.067109965
-0.06082501 0.0025833708 0.11604061 0.03268666 0.06860672 0.05362865 0.057675093 -0.09415528
0.055550292 0.08705819 -0.17039266 -0.05001135 -0.057992775 0.074251465 0.15265782 -0.06633105
0.023526149 -0.069474235 -0.121936336 0.059578728 0.029786998 0.027087746 0.037299693 -0.031908143
-0.0868052 -0.060038522 -0.077991225 0.06568367 0.088272154 0.06428145 0.0014276621 -0.08307521
-0.12812386 -0.05963442 -0.07665403 0.037350733 -0.09979296 0.023344189 0.068103075 -0.0027708262
-0.1556366 -0.030904109 -0.0875957 0.10463333 0.0027782067 0.011572737 -0.017690271 -0.062323004
0.007900888 0.079718545 0.06435831 0.111936495 -0.21171516 0.009243518 0.10931518 0.08346059
-0.094172604 -0.07469752 0.13567224 0.04652642 -0.04787446 0.06408508 -0.119864 0.1440471
-0.028853487 -0.107214205 -0.014328887 0.0058002127 0.04756922 -0.011024998 0.123604834 0.10042325
-0.014402494 -0.05396111 -0.11986618 0.03994827 -0.019686792 0.09602096 0.009095729 0.0073032104
0.113791466 0.11485055 -0.07237694 -0.09917848 0.00728153 -0.18970671 -0.085984364 0.07878459
-0.10897783 -0.117637396 -0.090129584 -0.054416876 -0.08605764 0.067958035 -0.0627949 0.1027156
-0.093107626 -0.23148312 0.048923224 0.021508118 -0.19290242 -0.05308205 0.106520765 0.079454735
-0.10782302 0.12141366 -0.12749961 0.01218228 -0.041398298 -0.11798901 -0.009196172 -0.1013567
0.08188684 0.045702294 -0.088009775 -0.10871488 -0.002287954 0.036345527 0.03965737 -0.04260683
-0.04538478 -0.09490046 -0.1151766 -0.11810735 0.04996571 0.04423213 -0.07404177 0.07010405
-0.027708188 -0.021205485 -0.053178474 0.061417595 0.05730562 0.108748436 0.0229308 0.09362787
0.06095779 0.0018396825 0.09729102 -0.037590265 -0.0069811493 -0.09195484 -0.055820614 -0.08467971
-0.031304955 0.033810467 -0.028690591 -0.083835945 -0.051318243 -0.023173466 0.11732635 -0.10776596
0.042509586 0.06966163 0.095965475 0.006747693 0.015197918 0.097601786 0.09002641 -0.08255178
-0.039513797 0.02975215 5.0887465e-05 -0.07633856 -0.06462829 -0.0063242167 0.04466273 -0.045358524
0.117042646 0.0025889724 -0.10094574 0.006311074 -0.09332013 0.036669135 -0.050903514 -0.008393958
-0.03668417 -0.08848314 -0.015664726 0.108542964 0.05464074 0.019527748 -0.08012079 0.06636214
-0.033681855 0.027681515 -0.03257902 0.042075768 -0.09675558 -0.07377945 -0.09044768 -0.066492885
0.11994153 0.10763766 -0.030648232 -0.030088812 0.02998522 0.06123641 -0.120013565 0.064860865
-0.016689003 0.04713984 0.027568296 -0.07910906 0.030612439 0.035511553 0.12336126 -0.00644058
0.109008506 -0.04975529 -0.04225874 -0.08030087 -0.07829465 -0.08550052 -0.08858381 0.053485394
-0.003780067 0.08844057 0.08312984 -0.07437281 -0.10996491 0.04940243 -0.12489413 -0.018974304
-0.016998708 -0.08478625 0.011005864 -0.036591113 0.009150654 -0.12423591 0.015556321 0.05099508
-0.09337835 -0.1140051 -0.007948503 0.06658666 0.08699322 -0.08979504 -0.058281153 0.10696022

fc2.bias f4 [128]
00000000: bb79 803d 5881 bb3c c05d 253d 005c 6bbc
00000010: 408c 483b f2ca b3bb 9db9 983d 0d5f 093e
00000020: da53 a0bd 2afd ea3a 12cd e4bd 5cb5 2a3c
00000030: 2446 bdbd 1f40 e53b efd1 e03c 4482 ee3d
00000040: 144b 21be 5f72 003d 458a 793d e899 9abd
00000050: fd3d 2cbd f391 093d 883d 7f3d 4504 38bd
00000060: 83ef 2a3d b09b 8ebd 8dbd d73c 5ac6 83bd
00000070: 30f6 2cbe e6cc 90bc 9dee 17be f8a9 b9bc
00000080: 6ab9 acbd 582f c03d 9073 11bc 31c2 d23d
00000090: b050 d6bd 241e 5cbd 4c88 8e3c b99c 11bd
000000a0: dc87 76bd b806 8fbd 58c6 b1bd 19d2 c4bd
000000b0: 04ef 6dbd 138b ce3c 0063 91bc fbc3 33bd
000000c0: de30 24bd 5d83 b0bc e899 bcbd aa21 92bb
000000d0: 6b13 563d 0e9f bbbc ea69 c0bd 755c 1bbe
000000e0: 878f d33c a1fd d5bd 009d c03a c8cd 71bd
000000f0: 738e 77bd c46d dbbc 9cd1 18be 2507 233c
00000100: 18e6 ceba 7f2f 6abd acaf b83d aa05 aebc
00000110: 2843 bebd 53e8 143d 8658 fbbd 23cd c1bc
00000120: 801b c4bd e462 46bd cd8f de3c cae5 22be
00000130: 2a71 d6bd 6bd0 28bd 0493 6ebb c1f7 15bc
00000140: 879b b03d dc46 61bd da2a a5bd 2cb3 c03d
00000150: 75c9 023d 3c85 bdbd 7cf9 603c 1d72 0a3e
00000160: 482a ecbd 8929 77bc 1ef5 003d a1c9 9ebd
00000170: 5241 36bc 55f7 2a3c 2d0e c43c 287c 63bd
00000180: e470 debd 6235 b0bd 1087 a9bd 66f3 ccbd
00000190: d12d e6bc 3e9d 713d a935 483d 20a4 9c3d
000001a0: c4a8 d1bd c44f f7bd 088e 5fbd 2848 dfbd
000001b0: cbcc dbbd e617 be3c 1b03 00bd e81e 53bd
000001c0: 3c3d b5bd 20f5 ffbc c70e 19bd 92cc cb3d
000001d0: ee81 33be 9913 7cbd 9c09 96bc 2aa6 173e
000001e0: 3115 6f3c 6078 a83d a281 d6bc 3cec dc3c
000001f0: 8ae7 043e e9db 183d 73ec 3dbd eb2e 01bd
0.06273218 0.022888824 0.04037261 -0.014365196 0.0030601174 -0.0054868395 0.07457278 0.13415165
-0.078284934 0.0017928232 -0.111719266 0.010419216 -0.09241894 0.006996169 0.027443854 0.1164594
-0.15751296 0.031359073 0.06092288 -0.075488865 -0.042051304 0.033586454 0.06231454 -0.044925947
0.041732322 -0.06963289 0.026335502 -0.06434317 -0.16890788 -0.017675828 -0.14837117 -0.022664055
-0.084338024 0.0938403 -0.00887765 0.10290945 -0.10464609 -0.05373968 0.017398976 -0.035549853
-0.06018816 -0.069837034 -0.08680409 -0.096103854 -0.05808927 0.0252128 -0.017747402 -0.043888073
-0.040085666 -0.021547014 -0.09209043 -0.0044595795 0.052264612 -0.022902992 -0.093952015 -0.15171988
0.025825275 -0.104487665 0.0014695227 -0.05903414 -0.060438585 -0.026785739 -0.1492371 0.009950434
-0.0015785126 -0.057174202 0.09017882 -0.021242935 -0.09290153 0.036354374 -0.12272744 -0.023657387
-0.09575558 -0.048434153 0.027168179 -0.1590797 -0.10470803 -0.041214388 -0.0036403546 -0.009153307
0.086234145 -0.054999217 -0.08064814 0.09409174 0.031930406 -0.09253928 0.013731357 0.13520093
-0.11531502 -0.015085586 0.031483762 -0.077533014 -0.011123972 0.010434945 0.02393254 -0.055538327
-0.10861376 -0.08603932 -0.08277714 -0.10007362 -0.028098019 0.05898785 0.0488793 0.07648492
-0.102372676 -0.12075761 -0.05457881 -0.109024346 -0.107324205 0.023204755 -0.03125296 -0.051543146
-0.0884957 -0.031244814 -0.03736761 0.09951128 -0.17530033 -0.061542127 -0.018315129 0.1480948
0.014592455 0.08226085 -0.02618486 0.026968114 0.1297895 0.037319098 -0.046368074 -0.031538885

fc2_1.weight f4 [64, 128]
00000000: b1de 93bc ca2d c0bd 10c7 d4bb fbd7 883d
00000010: 2410 ac3c 3227 81bd 0861 12be a19b 0ebd
00000020: 284a 3dbc d265 b4bc 2021 413b 2144 d13c
00000030: 713e 09bd 1b98 febd dab2 dcbd a460 17bd
00000040: 63fb 9a3d 2d8e c6bd 7ea8 dcbd caac a4bd
00000050: 3553 9ebd afec b0bd 07af ac3b 7c01 90bb
00000060: 5748 c4bb 35ca ba3c 7bc7 0a3c 601a 833c
00000070: 30ca 8c3c dd35 1bbd 172b 28bd e970 60bd
00000080: e03a 633b f9f9 0bbe f606 67bd 289f 8fbc
00000090: 3964 8abd 78f0 9a3c 38a8 13be de37 0fbe
000000a0: a740 9ebc c407 d2bc 1c68 e1bd 8f5f 14be
000000b0: 77be 9bbd 555b 64bd ba1d 94bd 56a5 56bd
000000c0: 20e1 a3bd 66e9 613d 50f3 db3c f9d9 04be
000000d0: 145a dcbd 107d fd3c 3628 e4bd 782a b33b
000000e0: e52d 17be 0914 4a3c 222d 603d f037 82bb
000000f0: 7bc5 583c 2b76 45bd e857 75bc ff19 b93b
00000100: af0f c1bd dac5 45bb 81b3 0cbe 8c82 89bc
00000110: 601c 7e3c da0d 823b ac3e b13c f422 d3bd
00000120: 9e4d 80bd 4ab9 423d bbb2 05be f20d ddbc
00000130: 0e02 0a3b 5636 f0bd 6e90 9f3c f844 a03c
00000140: aba3 0ebe a575 4abd 4a12 3e3d 70fa 08be
00000150: 6a51 44bd 2450 c5bd 3ce4 19bb 4cc9 25bd
00000160: c35f c2bc 8fca 1fbd e076 bbbd 98d5 f9bd
00000170: 8bf1 26bd 2372 babd 42a4 4abd eb65 efbd
00000180: c7b1 593c 7811 00be 8c99 903c 7a5b 97bd
00000190: 8c48 05be 16c5 05be a2b7 d83c 092d c1bd
000001a0: e57b 9f3d 8e6d 773d 8416 8ebd 3d48 903d
000001b0: e945 34bd bc47 a3bd 0df0 0fbe 90b3 c43b
000001c0: 97b1 53bd 5d1c ab3d c476 973c 3ce4 393c
000001d0: b958 95bd 7b68 7b3b 2afe febc 1366 8cbd
000001e0: 2e6a 463d c8f5 7fbc 4f8c a4bc cd88 f2bd
000001f0: 3022 c63c d1d3 a8bd 1d57 893c 10da db3c
00000200: 3e1e 30bd 525e ccbb 035c b1bd 0d32 b03d
00000210: 7648 593d 11af b93b 52b4 8cbd 17dc 5b3c
00000220: 12eb fcbc 47ee 7fbd 6049 6a3c 34dd f1bc
00000230: ac79 b63d ab40 4abc d7d1 e63d 93b5 f3bc
00000240: bd62 84bd 1d35 893d 608e 13be 7016 88bb
00000250: 845e a43d c7c6 17be 3dc3 8b3d 89c5 103e
00000260: 35bd d93a 98ed 02bc 1595 913c 902e ccbb
00000270: b217 873c 781a 07bd c5be f8bc 7f89 a43d
00000280: e06b 9b3c 863b cc3d 4802 6fbd 9e10 d73d
00000290: bc7b ab3d 404d 0e3c aa51 f0bc 1dad 99bc
000002a0: 1eb0 c93d 4d39 a33d a7a7 36bb 5c8b efbb
000002b0: b09a c1bc 9d1d 753d f726 803d 337c 513d
000002c0: 7428 3a3d 40fd a9bd 3788 aa3d 163e 183d
000002d0: 8908 98bb 3e1a 363d 1d03 41bd 26c8 8b3c
000002e0: 4048 c43d 375c ea3d 4033 b0bb a359 ab3d
000002f0: 5383 743d eed2 53bc 9720 a4bd d6cf 573d
00000300: e907 353d 76fd 88bd b814 913c 284d c8bc
00000310: 26d3 31bd cd55 b73d 10a9 7abc a5a9 063e
00000320: e0dc 6fbc d4bc e53c 3972 b03d 6615 123e
00000330: 4097 b7bc cceb f4bd 0443 d73d c716 12be
00000340: 7dae b53c 9866 c5bc 8ae2 3bbd 1de4 873d
00000350: 8147 5abd e220 003e 7cca 063e 9203 debd
00000360: e51a 943d 1142 ae3c 32b4 0fbe 0176 0e3d
00000370: 6206 bc3d 529f fc3b 7fc4 bf3d f940 25bd
00000380: 0b61 4c3d 82da b13c b046 403c 219b d13d
00000390: af3c 13bb 547b 02be 2033 5e3c 3a75 a23c
000003a0: 807b ffbb 5e38 143d b689 993d 4446 f93c
000003b0: eeb7 213d 954a 5a3d d47a bb3d 24e1 d53c
000003c0: 28b1 143e be37 94bd b49c 8dbc 461f cebd
000003d0: f0e9 d0bc 0740 a73d 8b7d 013e 256d 313d
000003e0: 6925 a2bd eac1 2fbe 393c 27bc a3d4 9b3d
000003f0: f2bc 00be 2a5c 46bd ef5a 2b3d 501a 0bbe
-0.018050523 -0.093837336 -0.0064934567 0.0668182 0.02100379 -0.06306304 -0.14294827 -0.034816388
-0.011553325 -0.022021208 0.0029469207 0.025545182 -0.033506814 -0.124313556 -0.10776301 -0.036957398
0.075674795 -0.09695087 -0.10774325 -0.080407694 -0.07730714 -0.08638894 0.0052698883 -0.004394708
-0.005990069 0.022801498 0.008470411 0.016003788 0.017186254 -0.037893165 -0.04105672 -0.05479518
0.0034672543 -0.13669576 -0.056403123 -0.017531946 -0.06757397 0.018913493 -0.14419639 -0.13986155
-0.019317938 -0.025638469 -0.110061854 -0.14489578 -0.07604688 -0.055751164 -0.072322324 -0.05240377
-0.080019236 0.055154227 0.026849419 -0.12973775 -0.107593685 0.030943424 -0.11140482 0.005467709
-0.14763601 0.012333878 0.054730542 -0.0039739534 0.013230677 -0.048208397 -0.014974572 0.005648851
-0.094268195 -0.0030177743 -0.1374035 -0.016785882 0.015509695 0.0039689364 0.02163633 -0.10309401
-0.06264804 0.047539987 -0.13056462 -0.026984189 0.0021058354 -0.11729114 0.01947805 0.019564137
-0.13929622 -0.0494286 0.04640416 -0.13376784 -0.047929205 -0.09634426 -0.0023481986 -0.040475175
-0.023727303 -0.039011534 -0.09153533 -0.12198943 -0.040757697 -0.09103801 -0.049473055 -0.11689361
0.013287014 -0.12506664 0.017651342 -0.07390495 -0.13015956 -0.13063464 0.02645475 -0.09432418
0.07787303 0.060407214 -0.06937888 0.07045028 -0.044011984 -0.079726666 -0.14056416 0.006002851
-0.051683035 0.08355019 0.018489249 0.011345919 -0.07292313 0.0038361836 -0.031127054 -0.068554066
0.048441105 -0.015622564 -0.020086436 -0.11842499 0.024186224 -0.08243526 0.016765172 0.026837379
-0.04299759 -0.00623683 -0.08660128 0.086032964 0.05304762 0.0056666215 -0.06870331 0.013419173
-0.030873809 -0.0624831 0.0142997205 -0.029524423 0.08909926 -0.01234452 0.112704925 -0.029749667
-0.06464145 0.06699584 -0.1440978 -0.0041530654 0.0802584 -0.14821921 0.06824348 0.14137854
0.0016612174 -0.007991217 0.017771283 -0.0062311366 0.016490791 -0.032984227 -0.030364404 0.08034038
0.018972337 0.09972291 -0.058351785 0.10501216 0.0837321 0.00868541 -0.029335815 -0.018759305
0.09848045 0.07969914 -0.0027870925 -0.007310314 -0.023633331 0.059842695 0.06257432 0.051143836
0.045448735 -0.08300257 0.08326762 0.037168585 -0.0046396893 0.04445862 -0.04712211 0.017063212
0.09584093 0.1144337 -0.005377203 0.08366706 0.059695553 -0.0129287075 -0.080140285 0.052688442
0.044196997 -0.06688969 0.017710075 -0.024450853 -0.043414257 0.08951912 -0.015299097 0.13150652
-0.014640063 0.028044142 0.08615536 0.14265975 -0.022410989 -0.11959037 0.10510829 -0.14266501
0.022177929 -0.024096772 -0.04587034 0.06635306 -0.053290848 0.12512544 0.13163179 -0.10840525
0.07231692 0.021271737 -0.14033583 0.034780506 0.09180905 0.007709422 0.093636505 -0.040345166
0.049897235 0.021710638 0.011735603 0.102346666 -0.002246659 -0.12742358 0.013561994 0.019831289
-0.007796705 0.03618657 0.074969694 0.030429013 0.03948205 0.053293783 0.09154287 0.026108332
0.14520705 -0.072371945 -0.017286636 -0.10064559 -0.025502175 0.08166509 0.12645547 0.04331698
-0.07917292 -0.17163816 -0.010207229 0.076089166 -0.12572077 -0.04842774 0.041834768 -0.13584256

fc2_1.bias f4 [64]
00000000: b350 98bc 60cc 2dbd 1f64 253d 65a1 7e3d
00000010: ae1d f7bc 3d18 023d 1955 bf3c a631 07bd
00000020: 4c8f a6bd 3547 2fbc 5638 8fbd 2b2e b4bc
00000030: 1874 1abc cdbd c73c 0e6a 7cbd fcdc e3bd
00000040: fbe2 48bd 94a6 7ebd eeb4 f7bd 1a5d 093d
00000050: 9d51 d1bd acf6 ab3d 0461 c0bc 87aa f23b
00000060: cef8 41bd 18e9 84bd 5746 763d abf2 933d
00000070: 1bf9 b8bd 4d08 783d 2bfb e3bd 2f90 acbd
00000080: 03de c83d a7db 80bd b32b 35bd e954 dcbc
00000090: 66ab afbd e707 d6bd 70f4 59bd d25e f9bd
000000a0: 4e4e bbbd 8b1d 403d 49a0 2ebd 0253 1c3d
000000b0: 2a1a c8bd 48ca a9bc d340 003c 7045 c43d
000000c0: bd27 59bc 4a1f a73d 5e8c 4fbd 916a c8bd
000000d0: d3f0 76bd 14b4 bbbc 2e6a 56bd cb5e 893c
000000e0: 81a4 a3bd 2e92 123d a0ec a2bd d2a4 b2bd
000000f0: 2874 6dbd ec06 c83c f603 a8bd d8cc eabd
-0.018593168 -0.042431235 0.040378686 0.062165637 -0.03016552 0.031761397 0.023356007 -0.033006333
-0.081328005 -0.010698129 -0.06993167 -0.02199467 -0.009427093 0.024382496 -0.06162458 -0.11126134
-0.04904459 -0.06217058 -0.120950565 0.033536054 -0.102206446 0.08396658 -0.02348376 0.0074055823
-0.04735642 -0.064897716 0.060125675 0.072240196 -0.09031888 0.06055479 -0.11131891 -0.08425938
0.098079704 -0.06291895 -0.044231128 -0.026895957 -0.085776135 -0.10450726 -0.05321163 -0.12176289
-0.09145795 0.046903174 -0.04263333 0.0381651 -0.097706154 -0.020726338 0.007827955 0.09583557
-0.013254103 0.08160265 -0.050670974 -0.09785951 -0.06028826 -0.022913016 -0.052347355 0.016768834
-0.07990361 0.03578394 -0.07955289 -0.08722843 -0.057972103 0.024417363 -0.082038805 -0.11464852

fc3.weight f4 [18, 64]
00000000: cd2d 103e 6d6b 073d 4948 bdbc 5857 9b3d
00000010: a34e 52bd ed2e f93c 4e05 15bd e221 883d
00000020: 0263 fbbd a176 283e 0490 3dbd 2075 1a3e
00000030: dc84 e03d 2f05 743d 5014 69bd 6f39 10be
00000040: b8d6 aa3c 3083 2e3c 2e12 2fbc d4ba 763c
00000050: ba8c 92bd 7e33 d33d 50e9 743c b471 cabd
00000060: 6483 2d3d fd68 c23d 42e6 213e e3e5 993d
00000070: d714 003e 6842 043d 674c 89bd c02b 323e
00000080: d896 823c 6a38 a4bd b946 b439 cd47 b5bc
00000090: 15f6 863d 7f20 21be a81c 23be 78d3 a83d
000000a0: bf8c 5b3d cd69 983d ac2b c2bd 997c 38bd
000000b0: dbd3 0c3e 4662 2bbc 3b6c 7e3d 58cc d8bd
000000c0: 05ff 303d 8b53 9ebd 3016 0ebc 57b0 363e
000000d0: 36fd 80bd 3db6 f23c d270 963d 73be 5ebd
000000e0: e5d1 973c 4d25 64bd 38be 4ebc 0f5a 373d
000000f0: ed7b cb3d 1458 743d 307a b9bd 77c5 fe3c
00000100: e29c 7a3d d40f 3d3d 1d9a 063b d98f 1f3e
00000110: ce7c 683c df86 8cbd 65b1 81bd cc11 e8bd
00000120: 7805 31bd bd58 6c3c cb2a 0b3e f398 2c3d
00000130: d459 ebbd 3d96 05bb d018 c2bd 6ef8 f03c
00000140: c47d 00bd 7210 3cbc c44a 4ebd 3154 883d
00000150: bf19 82bd a6b2 ab3b 0040 a33b 306d 633d
00000160: 7804 13bd d3f1 de3d 3354 423d 1593 253e
00000170: 1dc9 bbbd e181 9fbd 3510 b63c 7fc4 e03b
00000180: e2d3 323c ec06 f93d 929e 1c3d fed2 753a
00000190: 45b3 f13c 7f27 533d b520 c7bd 6a5f c4bc
000001a0: d702 563d 13ac ec3d 8402 83bd 4cd6 f73d
000001b0: 86e6 9d3d bc86 a13d d13a c63d 4843 9dbd
000001c0: 6c8f 6f3d 0a3a 3dbd b297 a4bd 8745 c83c
000001d0: 4722 ff3d 80d2 ecbc d755 d43d 7548 bd3d
000001e0: 5591 d13d 76a4 8b3d 0f56 14bd 9d96 013b
000001f0: d80d 093c b1fb 9c3d 202b d13d cbcb 34bd
00000200: 209d 7fbd b96c 16bd b95c c3bd 347c 323e
00000210: 854c 03bd 4349 3bbd 1d0a 12bd 66b8 fb3d
00000220: 8ebf 87bd 7b28 953d bb98 443d 2616 cf3d
00000230: 3a5e a53d 92ae 1c3e 20bf 92bc 425b cf3d
00000240: 9894 f0bd 0a60 25bd e5e0 d73d 9858 7dbd
00000250: 1226 91bd 2c3b 663d 101b d03c d458 ba3d
00000260: 28a0 d83d 17f0 65bd 8897 7b3d 03f4 8cbb
00000270: 0aa7 3abe 244d f6bc ae3b c63c 7396 dd3d
00000280: e3ac 0d3e f20e da3d 0d86 16bc a86c f9bc
00000290: a7f5 f93d f2a8 2e3e 1320 c13d a1be 9f3d
000002a0: 30df 02be fdd5 81bc c445 223d 8ae5 a83d
000002b0: 39ac c73d 01fe 833d ccc6 aabc eeb2 df3d
000002c0: dee7 6a3d 013f 1f3b b449 d53d afca d73d
000002d0: 86ac 77bd eecc 48bd 464b bebc 595d b33d
000002e0: fc6a 32bc 79b7 f93c 7874 cd3b 28e8 293e
000002f0: bf9c 1b3e a2d3 cc3c 58f1 fdbc 6390 4f3d
00000300: d596 113e 4c04 6cbd a77c 963d 9029 8cbd
00000310: 0046 d3bd 9848 c6b8 c2c9 f5bc 6c2b eb3d
00000320: a006 bd3c 0483 d1bb afb1 093e 3394 8cbb
00000330: 7a46 a8bd c946 55bd b88b c83c 45a9 a9bd
00000340: c08f 59bc d406 adba 855c 2abd 31ff c43d
00000350: 63f3 2dbc a3eb ce3d a61f 8abd f890 483d
00000360: 626f dcbd 1251 07bd f329 c83d 00a4 8a3d
00000370: 95c6 333d c46d d8ba 76a0 0a3e 6171 1c3e
00000380: 69c0 58bd 9c49 833d acb3 093e ea67 9f3d
00000390: 1845 903c 1162 e13d 220c 563d b1fb 483d
000003a0: 5437 8abc d261 89bd 1c33 b53d 62f5 0abd
000003b0: 174e 64bc cd04 f53c aa6d b33d 308e 6abd
000003c0: b364 c33d 4b2d 5fbd d2b6 aebd c998 d53b
000003d0: b661 80bc 5445 753d 66d5 973c 88c8 ca3c
000003e0: c30f 4f3c 2513 973d 32ca 293c b150 04bd
000003f0: db62 243d 0755 953d 484d d9bd 163f c93d
0.14079972 0.033061434 -0.023105757 0.07585019 -0.051344525 0.030417884 -0.036382012 0.06647088
-0.122747436 0.16451503 -0.046279922 0.15083742 0.10962841 0.059575256 -0.056904137 -0.14084409
0.020854339 0.010651395 -0.010685487 0.015059192 -0.07155748 0.10312556 0.014948204 -0.098849684
0.042361632 0.09492681 0.15810493 0.075145505 0.1250795 0.032289892 -0.06704026 0.17399502
0.015941069 -0.08018573 0.00034384968 -0.022128964 0.06589905 -0.15735053 -0.159289 0.082434595
0.053601023 0.07442055 -0.09480986 -0.0450407 0.13752691 -0.010460442 0.062114935 -0.105858505
0.043211956 -0.07730778 -0.008672282 0.17840706 -0.06298296 0.029627914 0.073457375 -0.054380845
0.018532703 -0.055699635 -0.012618594 0.04476362 0.09935746 0.05965431 -0.090565085 0.031100018
0.06118477 0.046157673 0.0020538636 0.15582217 0.014189912 -0.06861662 -0.063326634 -0.113315195
-0.043218106 0.014425454 0.13590543 0.04213805 -0.11491743 -0.0020383738 -0.09477389 0.029415336
-0.03136994 -0.01147853 -0.05036427 0.06656683 -0.06352567 0.0052398024 0.0049819946 0.05552405
-0.035892934 0.10885968 0.04744358 0.16169389 -0.09169219 -0.07788444 0.022224525 0.0068593617
0.010914775 0.12159523 0.038237162 0.00093774486 0.029504428 0.05155134 -0.09723035 -0.023971278
0.052248802 0.11556258 -0.06396964 0.12101421 0.077099845 0.07887027 0.09679187 -0.076788485
0.058486387 -0.04619793 -0.08036746 0.024447216 0.1245771 -0.028908968 0.10367935 0.09242336
0.10232798 0.06818478 -0.036214884 0.001977361 0.008365117 0.07665194 0.102133036 -0.044139665
-0.062405705 -0.03672478 -0.0953917 0.17430192 -0.032055397 -0.045724165 -0.035654176 0.122910306
-0.06628333 0.07283112 0.047997218 0.10111646 0.08074613 0.15300968 -0.017913401 0.10124828
-0.11747092 -0.040374793 0.10540942 -0.061852068 -0.070873395 0.056208774 0.02540353 0.09098974
0.105774224 -0.05613717 0.06142381 -0.0043015494 -0.18227783 -0.03006608 0.02419838 0.108197115
0.13835482 0.10647382 -0.009187234 -0.03044732 0.122050576 0.17056635 0.09429946 0.078000315
-0.12780452 -0.015849108 0.039617315 0.08246906 0.09749646 0.06444932 -0.020846747 0.109228
0.057350032 0.0024299028 0.104144484 0.10536706 -0.060467266 -0.04902356 -0.023229253 0.08758039
-0.010889765 0.030482994 0.0062699877 0.16592467 0.15196513 0.025003258 -0.03099887 0.050674807
0.14217694 -0.057621285 0.07347994 -0.06843865 -0.10316086 -9.4548974e-05 -0.030003432 0.114828914
0.023074448 -0.006393792 0.13446687 -0.0042901277 -0.08216567 -0.05206946 0.024480686 -0.08284239
-0.013278902 -0.0013200887 -0.04159214 0.096189864 -0.01061711 0.10103538 -0.06744318 0.048966378
-0.10763432 -0.0330363 0.09773626 0.06769562 0.043890554 -0.0016512205 0.13537773 0.15277626
-0.05291787 0.06410524 0.13447446 0.07783492 0.017611071 0.11005033 0.052257665 0.049068157
-0.016872086 -0.06708111 0.08847639 -0.03392542 -0.013934634 0.029909516 0.08761151 -0.057264507
0.09540691 -0.054486554 -0.08530964 0.0065184576 -0.015671592 0.05988057 0.018534373 0.024753824
0.012638035 0.073766984 0.0103631485 -0.032303516 0.04013334 0.07291608 -0.10610443 0.09826486

fc3.bias f4 [18]
00000000: 5404 cfbc 4c95 0abd b3c4 ddbc 601a bbbb
00000010: 1397 aa3c 1a9e f13a c20a f5b9 e5dd d7bb
00000020: c3ec 96bc 8bb8 883c 8d52 11bc b4fc 83bc
00000030: ae70 5d3c bff7 f8bc 3e21 ba3b 994c 113c
00000040: 08c5 8fbc 9280 523b
-0.025270618 -0.033833787 -0.027071333 -0.0057099313 0.02082399 0.0018433959 -0.00046738057 -0.006587731
-0.018423444 0.01668956 -0.008869779 -0.01611171 0.013515634 -0.030391572 0.0056802323 0.00886836
-0.017550007 0.003212009
