models/2024-07-20_16-26-14/epoch_0008_loss_0.00045940/dynamics.pth (torch, 83084 bytes, 8 tensors)

fc1.weight f4 [64, 34]
000000 10 6f d6 3d 92 e1 ee 3c 76 40 fb bd 61 16 3d b9
       0.10470402 0.029160295 -0.12268154 -0.00018032781
000010 f3 26 e3 bd a0 d4 0e 3e 93 af 06 3e 2f 74 1f be
       -0.11091413 0.13948298 0.13152914 -0.15571664
000020 65 39 05 3e 1b a2 71 3c 32 d4 99 bd 45 cd 87 3d
       0.13010176 0.014748122 -0.07511176 0.06630949
000030 1f ad d8 3d 29 b4 01 3e 50 66 3d 3d 6c ac be 3d
       0.10579895 0.12666382 0.04624015 0.093102306
000040 da df 16 bd 5b af dd 3d 90 99 24 bd 50 68 a9 bc
       -0.036834575 0.10824462 -0.04018551 -0.020679623
000050 fb 3e 06 3e c3 cf ad 3d 5a 4e f4 3d 49 c0 9d bc
       0.13109963 0.08486893 0.11929007 -0.019256728
000060 14 21 a1 3e 30 e2 47 3d cb 3b 37 be 04 4a ce 3d
       0.3147055 0.048799694 -0.17893903 0.10072711
000070 c9 da 21 bd 3a 99 05 3d 60 c6 1d be 23 25 f0 bd
       -0.03951529 0.03261683 -0.15407705 -0.11725833
000080 a8 e9 e8 bd 06 ad 0c be a0 c7 b5 bc 58 1c 64 3d
       -0.113726914 -0.13737878 -0.022189915 0.055691093
000090 26 a4 ea bd 2f 1e 01 3e b0 f2 08 be 4c 08 14 be
       -0.1145709 0.1260917 -0.13373828 -0.1445629
0000a0 f1 26 0b be b6 f5 22 be 58 7e 1a be a1 33 10 3e
       -0.13589074 -0.15914044 -0.15087259 0.14082195
0000b0 2f fa a6 bd fb a7 07 3e a0 6e fa 3c 38 b6 1e bd
       -0.081531875 0.13247673 0.030570328 -0.038747996
0000c0 94 31 26 3d 2d 98 b8 bd 22 a6 b8 bd 6f 43 13 3e
       0.040574625 -0.090134 -0.09016062 0.14381193
0000d0 d0 cd 30 3c e1 a9 10 3e 26 17 27 be f3 d1 0c be
       0.010791257 0.14127304 -0.16317424 -0.13751964
0000e0 7d 0e 23 be fc 1e 3b bd 0f b7 11 be f8 37 a8 bd
       -0.15923496 -0.045683846 -0.14229988 -0.082138
0000f0 6e 4e fd 3d f3 fe 2e be e0 44 68 3c 62 71 e4 3d
       0.12368475 -0.17089443 0.014176577 0.111544386
000100 12 ca cd bd 49 5b 0c be 8d 58 ea bd b0 9e 7e bc
       -0.100483075 -0.13706698 -0.11442671 -0.015540764
000110 d7 05 85 bd 02 8e 84 3d ed 17 25 3e 4a 52 fe 3d
       -0.064952545 0.06472398 0.16122408 0.12418039
000120 d8 f5 07 bd 4b f6 e9 bd e8 6d 08 bd 2c 4b 9f 3d
       -0.03319344 -0.1142393 -0.03330794 0.0777801
000130 a5 3f 1a be 98 1a ec bd 47 2a 1a be aa c2 88 3d
       -0.15063341 -0.1152851 -0.1505519 0.06677754
000140 8d 0a a0 bd 6b 2b 2d be d4 05 55 3d 38 2c ee 3c
       -0.078145124 -0.16911094 0.05200751 0.02907382
000150 43 82 22 3e 70 e2 03 be c0 60 ee bd 00 f3 2d bb
       0.15870003 -0.12879348 -0.11639547 -0.0026542544
000160 0a 2c 90 3d 93 19 b7 bd 08 6b b8 bc 60 03 5e 3c
       0.0703965 -0.08940425 -0.022511974 0.013550609
000170 d4 2d ed bd 40 33 28 3c 56 fd 03 be 92 63 aa bd
       -0.11581007 0.010266125 -0.12889609 -0.08319773
000180 7c ee 17 3d f0 34 28 be 1e c8 bc bd 50 86 16 bd
       0.03709267 -0.16426444 -0.09217857 -0.036749184
000190 78 9d 0c be a0 c7 a0 bb e9 ff 03 3b 52 2f 60 3e
       -0.13731945 -0.0049066097 0.0020141548 0.21893051
0001a0 4e 59 78 3e c0 8e ed bd 8d 5e 12 3e cd 37 2c bc
       0.24252817 -0.11599493 0.14293881 -0.010511351
0001b0 f4 8a 9c bd 21 4a ab 3d ba a3 55 bd 51 41 de 3c
       -0.07643691 0.08363748 -0.052158095 0.027130755
0001c0 29 25 bd 3d 58 1f 1c bc c1 4e 42 bd a9 cd 93 3c
       0.09235603 -0.009528957 -0.047438387 0.018042402
0001d0 d9 80 03 3e 18 cb ef bc 1f 78 c3 bd 7b ee d0 bc
       0.1284212 -0.029271647 -0.09544396 -0.025504341
0001e0 c8 c4 14 be c9 0e 70 bd d1 88 23 be ea 4c f5 3c
       -0.14528191 -0.05860785 -0.1597016 0.029943902
0001f0 32 f4 1a be ae 74 b9 bd 5e df 25 bd bc 50 42 3e
       -0.15132216 -0.09055458 -0.040496223 0.1897611
000200 7c 9c e1 3d 8a 2d de 3d 42 06 6c 3c 88 7b 1d be
       0.11016175 0.1084853 0.014405789 -0.15379155
000210 3b 9f 20 bd 5f 74 75 3d ce b5 39 be f9 10 00 be
       -0.039214354 0.059925433 -0.18135759 -0.12506475
000220 be db cd 3d 61 db 0a 3e c6 e7 7f bd 82 60 44 3e
       0.10051678 0.13560249 -0.062476896 0.1917744
000230 aa 31 59 3d 15 e9 d0 bd 4b 54 c7 bd 36 c4 8c bd
       0.05302588 -0.10200707 -0.097328745 -0.06873362
000240 77 d4 ff bc 9e 2c b8 3d 81 8f 88 3d 2e 04 03 bc
       -0.03122924 0.08992885 0.06667996 -0.007996602
000250 fd ea 48 be dd 95 14 3e 1d 6f c4 3d 73 82 e4 bc
       -0.19620891 0.14510293 0.09591506 -0.027894234
000260 7b 5d 15 3e e0 a6 fd bd c7 7e b0 3d 5a 6a 98 bc
       0.14586441 -0.123853445 0.08617931 -0.0186054
000270 fe 97 7d bd 52 b0 8b bd 82 f9 8b bd 35 ee eb bc
       -0.06191253 -0.0682074 -0.06834699 -0.02880011
000280 04 f5 02 3e 56 1c d7 3d a6 3f d0 3d 67 de 1c bb
       0.12788779 0.105034515 0.1016839 -0.0023936273
000290 dd 11 e0 bd 1e 48 9b 3d ee e6 35 be 81 33 e8 3c
       -0.10940907 0.07582115 -0.17763874 0.028344871
0002a0 33 97 44 be a4 de d8 bd 1a 17 0f 3e 89 5b 3c 3e
       -0.19198303 -0.1058934 0.13973656 0.18394293
0002b0 95 e7 81 3e ba 95 11 3d 06 fa b1 3d 95 56 eb bb
       0.25371996 0.03554318 0.08690266 -0.0071819522
0002c0 d4 ce b3 3d 53 3f 06 bd 10 3a f9 bd 86 40 08 be
       0.08779684 -0.032775234 -0.12169278 -0.13305864
0002d0 18 42 91 bd 39 c8 28 be e3 1d 5b be 24 b7 e5 bc
       -0.070926845 -0.16482629 -0.2139812 -0.02804143
0002e0 bb a0 5a be 1e 22 de 3d 68 bc 88 3b 11 96 cb 3d
       -0.21350376 0.10846351 0.0041728504 0.09940732
0002f0 57 94 24 be 54 e8 01 bd 9d b6 59 be db 93 ff bd
       -0.16072212 -0.031715706 -0.21261068 -0.12479373
000300 08 39 0e bc 3e f4 7a 3c da 89 56 be 47 e6 22 be
       -0.0086805895 0.015317021 -0.20951024 -0.15908156
000310 69 f0 0e 3e 2c ad e7 3b 68 17 cb bd c8 de f6 3d
       0.13958897 0.0070702042 -0.09916574 0.12054211
000320 0a 35 a7 ba a4 70 45 bd 4c 7c 8c bd 57 b7 a2 3d
       -0.0012756896 -0.048203126 -0.06859645 0.079451256
000330 e0 d5 a3 3c 06 ec e0 3d c1 f2 22 3e 0d 7a 1e 3e
       0.019999444 0.10982518 0.15912916 0.15476246
000340 60 6a 10 3c 11 68 06 be 98 08 b2 bc 93 2b cd bd
       0.008814424 -0.13125636 -0.021732613 -0.10018077
000350 44 d6 60 3d e7 31 0d 3e c7 41 b4 bd de f3 e7 3d
       0.05489184 0.13788567 -0.088016085 0.11325811
000360 c0 7e 1e 3d f5 41 2e 3e 0c ad 61 3d 6a 70 dc 3d
       0.038695097 0.17017348 0.05509667 0.10763629
000370 3b d5 1a be 70 d2 44 3c 20 38 ad bc f3 ae 1d 3e
       -0.15120403 0.012013063 -0.021144927 0.15398769
000380 b2 09 c8 3d fe 1f 1c be 88 3a 6a 3d fa c7 58 bd
       0.09767474 -0.15246579 0.057184726 -0.052925088
000390 10 d3 09 3c 97 2c d8 bd c4 04 4d 3d 84 4a 71 3d
       0.008412138 -0.1055538 0.050053373 0.058908954
0003a0 8b 1e 21 3e 04 1a 3b 3d 34 23 13 3d c4 e0 47 bd
       0.15734307 0.045679107 0.035922244 -0.048798338
0003b0 d6 ac 21 be 6e 11 94 3d a8 f4 ff bd 1a 6b 9e bd
       -0.15788588 0.07229887 -0.12497836 -0.07735272
0003c0 7b 5d df 3d 4d 5e 69 bd 7e 3f 1b be 2c 92 cb bd
       0.10906502 -0.056974698 -0.15160939 -0.099399894
0003d0 b4 5b 05 3e f9 2e fb bd 5e 7d 8d 3d 52 1a ac 3d
       0.13023263 -0.12264819 0.069086775 0.08403458
0003e0 c7 64 a3 3d c4 40 02 3e 4e 00 0c 3d cc 40 98 3c
       0.07978206 0.12720019 0.034179978 0.018585585
0003f0 d2 13 9d bd 4c 11 b4 3d 13 1e fb bd a4 4c 05 3e
       -0.07669796 0.087923616 -0.122615956 0.13017517

fc1.bias f4 [64]
000000 2e 87 4a 3c 14 db 1c bd dc ce 27 3d 43 87 a2 3d
       0.012361331 -0.038294867 0.04096876 0.079359554
000010 d4 56 13 3d 10 ad 24 bd df be aa bd a1 87 93 bc
       0.035971478 -0.040204108 -0.08337187 -0.018009009
000020 1a da bd bd 37 ea 06 3d 39 87 77 bd bd d6 9d bb
       -0.09270115 0.03293821 -0.060431693 -0.0048168586
000030 10 7d 9a bd 30 ef 83 3d 00 42 c2 3d 5b 1b 3a be
       -0.07543385 0.06442106 0.09485245 -0.18174498
000040 5b 7b fd 3d 2c 82 96 bd ec 1b f3 3d 97 59 05 be
       0.12377044 -0.07349047 0.1187056 -0.13022457
000050 3c 73 c0 bd ee 6e 88 3d 8a 5d 6b bd 08 47 aa bc
       -0.09396979 0.06661783 -0.057462253 -0.020785823
000060 ba da 27 be ae 15 2e bd 01 fb 28 3d 57 6d fa 3b
       -0.16392031 -0.042501144 0.041255 0.007642429
000070 7a cc 23 3d 95 01 75 be f6 b5 f3 bc fc e5 24 be
       0.039989926 -0.23926385 -0.029749852 -0.16103357
000080 ed bb e2 3d 93 ec 29 be 7c d3 2d bd be b0 54 bd
       0.11071 -0.16594152 -0.042438015 -0.051926367
000090 b3 f7 ae 3c 79 31 5b be b7 d9 15 3d 07 b4 db bc
       0.021358347 -0.21405591 0.036584582 -0.026819242
0000a0 d6 72 80 3c c5 f2 92 3d 69 7a be bd 73 96 7f 3c
       0.015679758 0.07175211 -0.09300692 0.015599835
0000b0 65 55 4b 3d a0 6d a7 bb 6b 15 b0 bd c0 66 8a bd
       0.049641985 -0.005109504 -0.08597835 -0.06757879
0000c0 e4 cb e5 bd 55 de 39 bc 81 ec ee 3d b7 3a 0e be
       -0.1122053 -0.011344512 0.11666203 -0.13889585
0000d0 5a 4b aa 3d f4 e5 ed bc dd 63 6a 3c ae c8 48 bb
       0.083151534 -0.029040314 0.014306036 -0.0030637193
0000e0 19 bc a3 bb 79 73 a4 bd 20 06 c2 bc e5 88 6d 3d
       -0.004996788 -0.08029837 -0.023684561 0.05799188
0000f0 2d 0d f3 3d 7f 19 97 bd 15 4a fd bc 1c 4f 84 3c
       0.118677475 -0.0737791 -0.030919114 0.016151004

fc2.weight f4 [128, 64]
000000 45 02 f5 bd b8 87 ef bc 4d 19 09 3e bb ce cc bd
       -0.119633235 -0.02923952 0.13388558 -0.10000368
000010 88 54 74 3d ce d0 34 bd c8 ed 89 bc b3 1d eb bd
       0.059650928 -0.044144444 -0.016837016 -0.11480274
000020 af e1 da bc 30 75 83 3d 17 34 bd bd ef 00 d1 3a
       -0.026718942 0.06418836 -0.09238451 0.0015945713
000030 70 4e 66 3d 08 32 ff bc f8 6b 3b 3d 2a 4f 96 bd
       0.056227148 -0.031151786 0.045757264 -0.07339318
000040 ef 39 39 3d a9 ef 70 bd 19 06 a8 3d 0a 82 ab 3d
       0.045221265 -0.058822308 0.08204288 0.08374412
000050 70 f5 45 bd 75 80 ad 3d 00 e6 3d bc 1b b4 03 3e
       -0.04832977 0.08471767 -0.011590481 0.12861674
000060 de ae 76 3d 82 ea 10 be f4 eb 8e 3d 0d 0e 3c 3d
       0.06022536 -0.14151958 0.06978598 0.045911837
000070 9f 1c d3 3c c0 48 0e be 3f 06 dd bd cc 94 90 bd
       0.025770484 -0.1389494 -0.10792207 -0.07059631
000080 dc 11 08 be 98 a4 46 bd 0a b1 9b bd d5 4a 21 3e
       -0.13288063 -0.048496813 -0.07602127 0.15751202
000090 48 98 19 bd a6 44 c6 3d 00 4a cf 3d bf 91 03 be
       -0.037498742 0.096810624 0.10121536 -0.12848566
0000a0 5e b6 5e 3d f8 fe c4 3b e7 98 3c 3d 7f 31 b0 3d
       0.054373138 0.00601184 0.046044257 0.08603191
0000b0 8e 4e cd 3d 48 2a d0 bc 00 5c 25 39 08 f7 ec 3c
       0.10024749 -0.025410786 0.00015769899 0.028926387
0000c0 ad 5c f6 3b e9 b0 fc bb de 77 be bd f4 33 07 3d
       0.007518372 -0.007711519 -0.093002066 0.03300853
0000d0 eb 4b 77 bd 49 5e 00 3e 5b db 10 3e c4 d4 a7 bb
       -0.060375135 0.12535967 0.14146177 -0.005121799
0000e0 3e 37 3b bd 57 dc 0a be c9 c4 59 bd 10 52 d5 3d
       -0.04570698 -0.13560615 -0.053166185 0.10416043
0000f0 a5 75 34 bd 40 b4 ea bb 88 b1 86 bd 96 bc 0b 3e
       -0.044057507 -0.0071626008 -0.0657683 0.13646159
000100 49 c5 48 3b 40 a4 45 bc b9 2d 3b 3e 9e 9a 9a 3d
       0.003063517 -0.012063086 0.1827916 0.07549022
000110 a9 c4 bf 3d 49 04 b3 3c 00 38 f9 bc 72 1b 2b be
       0.09363682 0.02185263 -0.03042221 -0.16709688
000120 33 82 85 bd a7 96 87 bd e3 34 b0 3d a8 9e a6 bc
       -0.06518974 -0.066205315 0.08603837 -0.020339325
000130 00 c0 34 ba 80 e3 84 bd 2e 59 44 3e 64 65 20 bb
       -0.00068950653 -0.06488705 0.19174644 -0.0024474496
000140 18 32 02 3e 99 c6 1b bd 2b 11 75 bd 5e b7 ce bd
       0.12714422 -0.038031194 -0.059830826 -0.10093568
000150 68 96 98 3d 35 5a e8 bd 30 37 e0 3d 99 16 87 3d
       0.07450563 -0.113453306 0.10948026 0.06596107
000160 aa 53 1d be 25 1d b5 bd bc 57 30 3d 55 73 cb 3d
       -0.15363947 -0.088434495 0.04305242 0.09934107
000170 6c 7a ca bd d2 ab ce bb 3b 29 86 bd 6a 04 a5 bd
       -0.09886631 -0.0063071037 -0.06550833 -0.080574825
000180 4a a6 0f 3e f4 6c 83 3d c8 eb 7c bd 02 72 32 3d
       0.14028278 0.064172655 -0.061748296 0.043565758
000190 2c fc 03 3e c6 98 8a bd 8f d4 68 3c a8 c5 bd 3c
       0.12889165 -0.067674205 0.014210834 0.023165539
0001a0 b2 d4 17 bc b9 d6 4d bb e9 89 08 be 68 ec ce bd
       -0.009267019 -0.0031408502 -0.13333859 -0.10103685
0001b0 2d 3e 0e 3d 18 76 ae bd e8 16 bd 3d 80 c6 cb bc
       0.034727264 -0.08518618 0.09232885 -0.024874926
0001c0 60 92 66 bb 80 09 93 3d 2c 80 b9 bd 12 c2 f1 bd
       -0.003518246 0.07179546 -0.0905765 -0.11804594
0001d0 41 22 7e bd 9d 5c 3a 3c 01 d3 22 3d 21 13 03 be
       -0.062044386 0.01137462 0.03975201 -0.12800266
0001e0 00 70 8e 3d 22 ad 9a bd 18 49 1f 3e 58 85 29 3e
       0.06954956 -0.07552554 0.15555227 0.16554773
0001f0 d8 f1 b2 3d 6e 8b 8f bd 25 af 4e 3e f5 b3 0e 3e
       0.08737534 -0.07009016 0.20184 0.13935836
000200 7e 24 19 3d c4 bc 6f 3d 9a 71 76 bd bb 0e 6d bb
       0.037388317 0.05852963 -0.060166933 -0.003617211
000210 66 6b aa bc aa 01 36 bd 66 44 be bd e3 be 0b 3e
       -0.020803165 -0.04443518 -0.0929039 0.13647036
000220 06 62 37 3e 94 d9 22 be b5 09 3a 3d c7 d4 14 3e
       0.17908487 -0.15903312 0.045419414 0.14534293
000230 80 a8 74 3c 18 e9 a2 bd ca 63 e6 bd 18 62 eb 3d
       0.014932752 -0.07954615 -0.11249502 0.11493319
000240 08 43 1f be 6a 7c 97 3a 42 1d 50 be ae 19 82 bd
       -0.15552914 0.0011557464 -0.20323661 -0.06352554
000250 66 3e c1 bd 7d 89 f9 bb 70 6c 0f bc 42 66 02 bc
       -0.0943573 -0.007615267 -0.008753881 -0.0079589505
000260 49 e1 5a 3d 35 7d ec 3d bf 23 41 be 6a c3 3e be
       0.053437505 0.11547319 -0.18861292 -0.18629232
000270 b2 37 8c bd 24 00 4d 3e 5c ae bb bd d8 98 8f 3c
       -0.068465605 0.20019585 -0.09164116 0.017528936
000280 87 53 45 bd e0 a0 a7 3d d9 60 e0 bc 6b 51 7a 3d
       -0.04817536 0.08184981 -0.02738993 0.061112802
000290 aa 38 2d be 03 94 df 3d c3 bf d5 3c d8 d7 dd bc
       -0.16916147 0.10916903 0.026092416 -0.027080461
0002a0 d6 70 07 be 53 51 92 3d 06 4c 21 3e ed d3 84 3d
       -0.13226637 0.071444176 0.15751657 0.06485734
0002b0 d8 e4 32 bd 84 81 e8 bd b0 96 36 3c 9c 13 5c bd
       -0.043675274 -0.11352828 0.011144325 -0.05372964
0002c0 56 dd b7 bd 2a d0 c9 bd 19 8c aa bd 0c 79 98 bc
       -0.08977763 -0.09854157 -0.08327503 -0.018612407
0002d0 7c e6 08 3e 23 1c 04 be 9d 5f 18 be 84 67 d4 bd
       0.13369173 -0.12901358 -0.14880224 -0.103713065
0002e0 84 0b f8 ba d9 de 76 3d 7d c2 dc bd d2 82 ab bb
       -0.001892433 0.060271118 -0.10779283 -0.005234101
0002f0 72 81 11 be 00 70 0d ba 5c ba 09 be 63 fe 71 bb
       -0.14209536 -0.00053954124 -0.13449997 -0.0036925308
000300 00 88 2a bd a8 4a 23 3d d8 97 d9 3c b8 c5 22 bd
       -0.041633606 0.03986612 0.026561663 -0.03973934
000310 04 3f f3 3d 54 e5 18 bd f0 2b 1c 3c ce db ef bd
       0.11877254 -0.03732808 0.00953196 -0.11711846
000320 28 41 95 bd c6 44 e6 3d d2 b6 ad 3d 90 58 bc bc
       -0.07287818 0.11243586 0.08482136 -0.022991449
000330 12 cc d7 bd 48 f2 b1 3c 1e 5f 8c bd f4 cc e5 3d
       -0.1053697 0.021721974 -0.0685408 0.11220732
000340 72 81 cb bd d0 58 fd 3d 5c a4 16 3d f4 1f cd 3d
       -0.09936799 0.12370455 0.03677784 0.1001586
000350 46 f2 e2 bd 40 e3 22 bc 94 b9 cf 3d 0c 38 b8 bd
       -0.11081366 -0.009941876 0.10142818 -0.08995065
000360 80 62 f7 bb b8 16 5e 3d e0 05 6d 3d ae 31 ba bd
       -0.007549584 0.054220885 0.05786693 -0.09091507
000370 f6 90 dd bd d0 44 e4 bc 88 5d 5f bd b0 00 70 bc
       -0.10818665 -0.027864844 -0.054532558 -0.014648601
000380 00 13 96 3c e0 5b b7 3d 80 6c 6f 3c 06 63 db bd
       0.018319607 0.08953071 0.014613271 -0.107122466
000390 ca 5d c0 3d 64 da 9a 3d 08 c1 f6 bc d0 0f 74 bc
       0.09392889 0.07561186 -0.030121341 -0.014896348
0003a0 a0 c4 45 3d cc df 8a 3d f0 75 23 3d be b2 f5 bd
       0.04828322 0.06780967 0.039907396 -0.11996983
0003b0 e0 16 ac bd f6 04 ca 3d 38 01 0d 3d 02 69 96 bd
       -0.084028006 0.098642275 0.03442499 -0.073442474
0003c0 80 d6 b1 ba 94 81 6e 3d 60 aa f1 3c be d6 d7 3d
       -0.0013567954 0.058229044 0.029500186 0.10539006
0003d0 8e 40 ec bd 64 16 7e 3d e8 72 8d bd 58 54 0d 3d
       -0.1153575 0.062033072 -0.06906682 0.034504265
0003e0 aa 7f a2 3d 5e 4d 8a bd fc d8 d3 3d da cc ca bd
       0.07934506 -0.06753038 0.10344121 -0.099023536
0003f0 ee 4b e9 bd 48 63 6f bd 00 18 55 b9 80 b0 4e 3b
       -0.113914356 -0.05844429 -0.00020322204 0.0031538308

fc2.bias f4 [128]
000000 83 b3 01 3d 13 11 3b 39 00 72 57 bc 40 88 1c 3c
       0.031665336 0.0001784007 -0.013149738 0.009553969
000010 73 f3 07 3d 58 f9 3c bd 5e c5 b2 bd 34 17 e1 bc
       0.033191156 -0.04613623 -0.08729051 -0.027476884
000020 e4 d3 53 bd b5 4a 52 3d 1c 57 f6 bd c2 a4 2f 3c
       -0.051715747 0.051340777 -0.120283335 0.010720434
000030 bb 4a 58 3d 6f 0b 10 be 6a 06 27 bc 7e 27 8b bd
       0.052805644 -0.14066862 -0.0101944 -0.06794642
000040 f5 88 e3 bc 9d 0e bf bd c3 bd f6 bd ac 5d 42 3d
       -0.027775267 -0.09328959 -0.12047913 0.047452614
000050 3f e0 a8 3d cf be 40 bd 54 87 d9 bb 96 87 c3 bd
       0.082458965 -0.04705697 -0.006638447 -0.09547345
000060 d2 21 9d 3d c0 e4 9d bc 0b a8 bb bd e8 8a 6a bd
       0.07672466 -0.019274116 -0.09162911 -0.057261378
000070 b4 27 8a bd 4b c8 06 be 01 d8 92 bd 83 6a f4 bd
       -0.06745854 -0.13162343 -0.07170106 -0.11934378
000080 8d c1 8c 3d 43 ac 45 3d e0 b7 e4 bd c2 5c 52 3d
       0.068728544 0.048259985 -0.11167884 0.051357992
000090 58 9a 3f 3c 60 de 0d be 07 10 9d bc 4a 2a 1d be
       0.011694513 -0.1385436 -0.019172681 -0.15348163
0000a0 09 74 07 bd e1 cf 82 bd 4d 97 03 3e fc 09 db bd
       -0.033069644 -0.06387306 0.12850685 -0.10695264
0000b0 fd 92 7e bd 05 3c ce bc 83 be 5f bc 59 59 a7 bd
       -0.062151898 -0.025175104 -0.013656261 -0.081713386
0000c0 a3 5e 0d be 58 3e 71 bd 2d 07 a8 bd 3c 91 38 bd
       -0.13805632 -0.058897346 -0.08204494 -0.04506038
0000d0 20 c1 02 be 5a 21 de 3b 82 3b ee 3b 9c 3e 51 bb
       -0.12768984 0.006778878 0.0072702775 -0.0031928187
0000e0 89 dc f7 ba 4f 9a df bd c6 d4 f1 bc 01 a0 85 bd
       -0.0018910329 -0.10918104 -0.029520404 -0.06524659
0000f0 f3 fc ab 3c 98 7a 26 bd 88 6b 8b bd e0 03 79 39
       0.020994639 -0.04064426 -0.06807619 0.00023747934
000100 c4 2a 29 be 30 12 80 bd 92 4c eb 3c fc 21 db bd
       -0.1652022 -0.06253469 0.028723035 -0.106998414
000110 1c 83 02 bd 1d e5 0a bc 8a c6 92 3b 44 5e c5 bd
       -0.031863317 -0.008477476 0.004479234 -0.0963712
000120 1e 5f de 3c 47 e2 1d be 9a 0f 80 bd 04 2e cb bd
       0.027144965 -0.15418349 -0.06252976 -0.09920886
000130 42 3b b6 bb 20 ac 95 3d b5 b7 23 bd fe 2f c4 3c
       -0.0055612633 0.07308221 -0.03997012 0.023948666
000140 62 b3 17 3d 3d 89 a5 bd 98 20 5d 3c 7d 85 b6 bd
       0.037036307 -0.08082817 0.0134965405 -0.089121796
000150 85 2e 88 bd a5 4b 18 bd cd a6 13 be 68 60 bc bd
       -0.06649498 -0.037181515 -0.14419098 -0.091980755
000160 24 ff 3f 3d 67 2a bb bc ad 6b b5 3d 82 39 fd bd
       0.04687418 -0.022847367 0.08858428 -0.12364484
000170 5e 46 92 bd 4e 9f bf 3d 4e 51 4d bd 08 ef 1d bd
       -0.07142328 0.09356557 -0.050126366 -0.038558036
000180 72 16 b0 bd a6 5c c0 3c 7c 1d 28 3d 2d f3 d2 3c
       -0.08598031 0.023481678 0.041043743 0.02575072
000190 11 07 96 bd 28 5e 0a bd fc b0 d0 bd e1 78 85 bd
       -0.073255666 -0.0337812 -0.10190007 -0.065171964
0001a0 00 e1 72 bd 10 ff a2 bc eb 32 0f be 78 56 24 3d
       -0.059296608 -0.019897014 -0.13984267 0.040121526
0001b0 cd fa 91 bd 5c 63 3c 3d a8 e7 9e bd ac 86 55 bd
       -0.071279146 0.045993194 -0.07759029 -0.052130386
0001c0 65 87 24 bd 81 9e 5d 3d 90 1a 80 3c f2 83 9f bd
       -0.040168185 0.05410624 0.015637666 -0.077888384
0001d0 48 c7 92 3b e2 54 2f 3d de 9b 02 bd 23 14 07 3d
       0.0044793226 0.04280556 -0.031886928 0.03297819
0001e0 75 d1 c3 bd b7 68 8e bc 40 c3 b3 bd 33 e2 b4 3d
       -0.09561435 -0.017383916 -0.08777475 0.088322066
0001f0 d7 66 c9 3d dd 50 c3 bd 6c 69 e5 bc b4 3d 5e 3d
       0.09834068 -0.09536908 -0.02800437 0.054258063

fc2_1.weight f4 [64, 128]
000000 cd d5 ac 3c 1c e7 60 3c b3 26 f2 bc ba 09 2d 3d
       0.021098042 0.013726976 -0.029559469 0.042245604
000010 66 b8 c2 3d f8 68 42 3c 00 49 9f 3b a2 45 8a bd
       0.095078275 0.011865847 0.004860997 -0.06751563
000020 4e c5 a1 bd 7f 68 56 bd 21 12 6e bd b2 45 62 3d
       -0.07898961 -0.05234575 -0.058122758 0.055242248
000030 1b 63 1f bd 09 d2 8b 3d d5 dc ea 3d 66 16 2a bd
       -0.038912874 0.068271704 0.114679016 -0.041525267
000040 09 77 69 3d 80 01 78 bd 91 8f 8a 3d 0d f4 8a 3d
       0.056998286 -0.060548306 0.06765664 0.0678483
000050 84 45 76 3d ea 32 ce 3d ae 40 02 3d 9a 9d a4 bd
       0.06012489 0.10068305 0.031799965 -0.080378726
000060 9e 99 66 3d f4 2e 53 bd 5f 06 30 3d 86 0a 84 3c
       0.056298845 -0.05155845 0.042974826 0.0161183
000070 de c8 ce 3b 6c b0 ec 3d fc 62 47 3c cd e5 59 3d
       0.0063105663 0.11557087 0.012169596 0.05319767
000080 df 1f b8 bd d5 d7 f9 bc c5 ef 50 bd 39 3a ae bc
       -0.08990454 -0.030498425 -0.051009912 -0.021267997
000090 9b 00 1e bd 74 8d d4 3d 02 e4 b2 3c c8 03 ad bc
       -0.038574796 0.103785425 0.021837238 -0.021119967
0000a0 6b 5d 58 3d bc 45 91 3d f1 33 55 bd 80 eb 4c ba
       0.052823465 0.07093379 -0.05205149 -0.00078170747
0000b0 35 69 99 bc a1 a4 0c 3e a6 34 8c bb c2 7f d2 3c
       -0.018726924 0.13734676 -0.004278737 0.025695685
0000c0 e4 5d 50 3d 1b 80 fd bd 04 37 e5 3d 59 8a 51 bd
       0.05087079 -0.1237795 0.11192134 -0.05115733
0000d0 f7 8e 9d 3c b9 9c 88 bd d8 50 82 bc d9 21 8f 3d
       0.01923321 -0.066705175 -0.01590769 0.06988878
0000e0 6b e2 b1 3d 8a 58 5c bd f0 ee e5 bc b8 08 fb 3c
       0.08685764 -0.053795375 -0.028068036 0.030643806
0000f0 17 06 2e bd c0 c9 fb bb e3 1e e8 3d c8 5c b0 bc
       -0.042486276 -0.0076839626 0.11334016 -0.021528617
000100 e6 10 a5 3d c3 15 9e 3d e5 71 a3 3b 77 56 84 bc
       0.08059864 0.077189945 0.0049879425 -0.01615451
000110 89 87 d1 bc 3e f1 51 bd 9e e6 54 3b 31 21 8a 3d
       -0.025577324 -0.051255457 0.0032486091 0.06744612
000120 1b e2 c7 3c 5a 67 b2 3c 42 93 74 bd a6 a8 29 3c
       0.024399808 0.021777797 -0.05971075 0.01035515
000130 80 09 02 3e 78 26 95 3c f8 e3 81 3d 12 42 59 3d
       0.12698936 0.01820682 0.0634231 0.053041525
000140 50 97 20 bc d3 db e5 bd 08 4f 3f bd f0 d5 ac bd
       -0.009801701 -0.11223569 -0.04670623 -0.08439243
000150 34 25 97 bd db e4 9f bc 27 a8 7e 3d a5 52 d8 3d
       -0.07380143 -0.019518306 0.06217208 0.10562638
000160 73 ed 7a 3d a1 93 f0 bc c5 00 c6 bb b8 91 29 3c
       0.061261605 -0.02936727 -0.006042572 0.010349683
000170 5e 7d 41 3d 10 b6 af 3d e4 77 af 3c 52 2a 49 bd
       0.0472387 0.085796475 0.021419473 -0.049112625
000180 e0 02 e0 bb ea 79 4a bd ac 77 98 3c 78 98 f8 3c
       -0.00683628 -0.049432673 0.018611751 0.03034614
000190 b8 87 c5 bc a9 41 45 3d 68 b7 ec bc 67 2a 72 bb
       -0.024112567 0.04815832 -0.028896049 -0.0036951543
0001a0 40 2d 9d 3a b0 17 15 3c 07 23 a4 3d b0 af ab bd
       0.0011991635 0.009099886 0.080144934 -0.08383119
0001b0 57 19 32 bd 6f 88 45 bd f6 69 0a bd 05 eb 95 bd
       -0.043481197 -0.048225816 -0.03379246 -0.07320217
0001c0 27 8d 56 bd 5f 03 c8 bc 0b 66 b3 3d 34 99 98 bd
       -0.052380707 -0.02441567 0.087596975 -0.07451096
0001d0 77 a5 53 3d 33 c6 6c 3d d8 e6 b0 3d e0 ee b6 3d
       0.05167147 0.057806205 0.0863778 0.089322805
0001e0 7f bd 95 bd 75 47 a6 3d 56 61 53 bd e5 f8 c3 bd
       -0.07311534 0.08119098 -0.0516065 -0.09568957
0001f0 30 51 70 bb 04 ee 17 bb aa d4 b2 bd 8e c9 0b bc
       -0.0036669485 -0.002318264 -0.08731969 -0.008531941
000200 d8 eb 13 3d 89 ad 45 3d a8 5f 40 bc e0 34 75 bb
       0.03611359 0.0482612 -0.011741556 -0.003741555
000210 b7 b3 24 3d cc 80 15 3d 1c 14 8e 3c 35 9b 5b 3d
       0.040210452 0.036499783 0.017343573 0.053614814
000220 51 3a 8d 3d 86 54 b5 3d 57 76 88 bd f7 0c 28 3d
       0.068958886 0.08854012 -0.066631965 0.04102799
000230 58 d1 4c bd 81 c6 16 3c f5 84 96 3d fb 0b 85 3d
       -0.050004333 0.0092026 0.07349578 0.06496426
000240 6c 27 bc bc 35 78 28 bd 08 8a b5 bc 75 c6 a3 3c
       -0.022968017 -0.041130263 -0.022160545 0.019992093
000250 ca 7e ae 3d 7a 0f 1d 3d ba bf 19 3c 26 39 5f 3d
       0.08520277 0.038344838 0.00938409 0.05449786
000260 dc d8 36 3d 00 85 fc ba 9e dc 6e bd ce 23 06 3d
       0.044640407 -0.0019265711 -0.058315866 0.03274899
000270 d5 08 dd bc bb 83 a3 3d 08 b5 cc 3b 31 f3 c4 3c
       -0.02698175 0.0798411 0.0062471665 0.024041744
000280 a7 1c b9 bd 14 7a 18 bd 29 fe 59 bd a2 24 75 bb
       -0.09038668 -0.037225798 -0.0532209 -0.0037405868
000290 cf 8a f3 3c 0c 8f 49 3d 34 85 09 3d 5e 54 d1 3c
       0.029729275 0.049208686 0.033574298 0.025552925
0002a0 cd 9a 9c 3c cb 65 1e 3d 5c 49 85 3d 3e 38 63 3d
       0.019116784 0.038671296 0.06508133 0.05547356
0002b0 a1 8a c9 bc 0b d3 ff 3d c9 54 75 3b 07 ba 49 bd
       -0.024602236 0.12491425 0.003743457 -0.049249675
0002c0 e0 d8 e9 bd 1f c3 b4 3d 7e 20 61 3d 36 53 22 3d
       -0.11418319 0.08826279 0.054962628 0.039630137
0002d0 2d 8b e9 bb b8 19 b7 bc 01 c4 85 3d 80 fa 0c 3e
       -0.0071271867 -0.02235113 0.065315254 0.13767433
0002e0 45 48 16 bd c3 6e 92 3c 28 7d af bc 06 e3 a7 3c
       -0.036690015 0.01787508 -0.021421984 0.020493995
0002f0 70 15 0e 3c 50 dd 76 bc a2 7d 99 3d ea 9a a8 3d
       0.008672103 -0.015067413 0.07494666 0.082326725
000300 8b 01 e9 bd 2c a7 99 bc 22 bf a9 3c 17 81 ff 3c
       -0.113772474 -0.018756472 0.020721022 0.031189485
000310 e3 e6 58 3c de e6 ef 3c c5 b6 a1 3d e1 8f b3 3d
       0.013238641 0.02928489 0.07896189 0.08767677
000320 0d 17 e7 3c 98 29 3b 3c ce ab 1f 3d b8 a7 a6 bd
       0.028209234 0.011423491 0.038982205 -0.081374586
000330 8f a4 fc 3d 30 ce b1 b9 1a fe 08 3e f7 71 21 3c
       0.123360746 -0.00033913692 0.13378182 0.0098538315
000340 c1 4a a1 3d 0d 5f c1 bd 74 56 c7 3d c1 9f a7 3c
       0.07875586 -0.094419576 0.097332865 0.020461919
000350 ed 80 26 bd 5f 96 6c bd f0 f7 4b 3b 39 f4 96 3d
       -0.040650297 -0.057760593 0.0031123124 0.073708005
000360 f7 be 00 bd 5b 95 af bc eb 53 63 bd 80 cb a6 3c
       -0.03143212 -0.021433523 -0.055499952 0.020360708
000370 b1 0a 97 bd 5a 78 27 bd a8 5b 21 bd b4 5f c6 3c
       -0.07375086 -0.04088626 -0.03939405 0.024215557
000380 9d b2 06 bd 98 69 e2 3d 2d 38 87 bd 3a f9 0a 3b
       -0.032885183 0.11055297 -0.066025116 0.002120568
000390 3a d5 07 3e fe 1f 66 3d 95 8f 82 3d 2b 8c e1 3b
       0.13264933 0.056182854 0.06375042 0.0068831644
0003a0 02 ce 0f 3d 1b 33 29 bd 75 00 09 3e c9 37 a7 3d
       0.035108574 -0.041308504 0.1337908 0.08164937
0003b0 77 e1 fb bc 7c 86 fa bb 67 5f 44 3d 18 22 e0 3c
       -0.030747158 -0.0076454263 0.047942545 0.027360007
0003c0 e7 cc 03 3c 1f 26 e2 3d a8 58 10 bb c2 62 43 3d
       0.008044458 0.11042427 -0.00220255 0.047701605
0003d0 f9 e2 9c 3d 37 3b 2f 3d 73 4a 03 3c 10 4b 9d 3d
       0.07660479 0.04278108 0.008013356 0.07680333
0003e0 20 d6 12 bd 39 63 b0 bc 62 72 cc 3c 5f 26 e7 3c
       -0.035848737 -0.021531688 0.024956886 0.028216539
0003f0 71 50 82 3d 5d 7d c3 bd 83 12 8c 3c 35 ed c2 3d
       0.06362999 -0.095453955 0.01709867 0.095179

fc2_1.bias f4 [64]
000000 5c 07 9f bc 47 4e b5 3d 42 cc 48 3b 33 25 d9 bd
       -0.019412689 0.08852821 0.0030639325 -0.10602798
000010 f4 0c 9b 3d 6a d5 aa bd 0f 2e 27 bc a8 d4 ed bd
       0.0757083 -0.08341487 -0.010203852 -0.116128266
000020 89 92 ea bd d1 4e 2a bd 92 2e ad bd 0c e9 7c bd
       -0.114537306 -0.04157907 -0.08456148 -0.06174569
000030 c7 37 87 3d e0 1f 18 3b 7e 75 8f bd 46 ab 89 3d
       0.066024356 0.0023212358 -0.07004832 0.06722121
000040 b6 6f 9b bc d6 ba 93 3d 31 d9 99 bb 7c bf af 3c
       -0.018974166 0.072133705 -0.0046950807 0.021453612
000050 81 da ea 3c 9d ab 40 bd 96 e6 f0 bc f4 5f e6 bd
       0.028668644 -0.047038663 -0.029406827 -0.1124877
000060 94 2c d8 bd 90 bf 73 bd cf 06 5f 3d c8 66 77 bd
       -0.105553776 -0.05950886 0.054449853 -0.060400754
000070 b4 15 8b bd 6b 13 7a bd ff f6 8e 3d d2 d0 7a bd
       -0.06791249 -0.061053675 0.069807045 -0.061234303
000080 2c d5 85 bd ce 11 ed bd 9c 63 0a be 20 77 ba bd
       -0.065348 -0.115756616 -0.1351456 -0.091047525
000090 66 0a 78 3c 23 17 2d bd f3 7e b4 bd f5 c5 33 bd
       0.015139198 -0.042258393 -0.08813276 -0.04388996
0000a0 37 be 9d bd 68 99 81 3d 80 bf 46 bd 36 e2 ae bd
       -0.07702296 0.06328088 -0.048522472 -0.0853924
0000b0 ee 9c 4d bd a7 12 bb 3d d5 c8 e2 bd 11 51 91 bc
       -0.050198488 0.09134417 -0.11073462 -0.01773885
0000c0 49 17 80 3d 78 ee f9 3c 57 3d 05 3d 2e a6 e0 3c
       0.06254441 0.030509219 0.0325292 0.02742299
0000d0 f9 c5 0a bd 57 ae 52 bd c0 4a 60 3b 7a 46 e9 bc
       -0.033880208 -0.051435795 0.0034224242 -0.028475989
0000e0 5a 15 e7 bc bb c8 ce bc 57 5e 23 bd 45 95 b2 bc
       -0.028208423 -0.0252422 -0.03988489 -0.021799693
0000f0 6b 3c ff bd c3 1b 99 bd ef 44 d0 bc bb d4 52 bd
       -0.12462696 -0.07475998 -0.025423495 -0.051472407

fc3.weight f4 [18, 64]
000000 a5 d4 da 3d 22 0d 8b bd a2 21 af 3d ae 66 88 bd
       0.1068509 -0.06789614 0.08551337 -0.066602096
000010 7e d3 3a 3d a4 2d 60 3d cf dc 8f bc 59 d0 78 3c
       0.04561185 0.054731026 -0.017561344 0.015186393
000020 28 52 b9 3d e3 6c aa 3d 46 f8 2e 3e e2 2c b6 3d
       0.09048873 0.0832155 0.17086896 0.088952795
000030 91 c0 ae 3d ec 32 3c bd c0 57 b0 3b 01 6c 91 ba
       0.08532823 -0.045947 0.0053815544 -0.001109481
000040 27 e2 43 bb 22 23 0f 3e 8a 34 97 bc dc 17 5a bd
       -0.0029889436 0.13978246 -0.01845767 -0.05324541
000050 52 a4 c5 bc 1c 50 31 bd c9 81 e9 3d ed ae a0 3c
       -0.024126206 -0.04328929 0.11401708 0.019614661
000060 ec a2 a9 3d bb 7a c1 3c 19 19 ec 3d 85 96 ec bd
       0.08283028 0.023618093 0.115282245 -0.11552147
000070 48 5c d8 3d 81 09 32 3d ca 49 93 3d 54 ba 45 bb
       0.10564476 0.043466095 0.071918085 -0.0030170875
000080 d0 27 f3 bc 40 1c 2d bd c1 40 38 3d 26 88 57 bd
       -0.02968207 -0.04226327 0.04498363 -0.052620076
000090 4e 87 17 3d 0c 54 b4 3d 9b 52 bf bc 5c ef 71 3d
       0.03699427 0.08805093 -0.023354819 0.05906616
0000a0 16 04 ca bd aa a8 0a 3e ea 55 a2 bc b5 f4 15 3e
       -0.098640606 0.13540903 -0.019816358 0.1464413
0000b0 d0 09 0c 3d 1d 94 3a 3e d9 e3 23 be 5c 63 b4 3d
       0.034189045 0.18220563 -0.16004886 0.08808014
0000c0 9c 43 ff bc e9 ef 13 3d 26 66 77 3b 82 41 f1 3c
       -0.031160168 0.036117468 0.0037750094 0.029450182
0000d0 0e e7 0f bd 18 eb 0e 3e f8 fc a7 bd b4 51 99 bd
       -0.03513246 0.13956869 -0.08202547 -0.07486287
0000e0 68 09 8c 3c 7a fa 3a bd 81 06 8e 3d b0 de ad 3d
       0.017094329 -0.04564903 0.06934834 0.0848974
0000f0 d8 97 52 3d d6 d8 a6 bd 92 18 71 bd 65 15 6b bd
       0.05141434 -0.08146827 -0.058861323 -0.05739345
000100 09 49 88 3c 15 a0 18 be c4 a7 b8 bc 2d a2 df 3b
       0.016636388 -0.14904816 -0.022540934 0.006824753
000110 aa 58 75 3d b0 9e ff bc ee ad 3c be 8d dd 2c bc
       0.05989901 -0.031203598 -0.18425724 -0.010550869
000120 bf 48 15 be da f5 30 bd fd b1 3f bd 80 c8 e0 bb
       -0.14578532 -0.043203212 -0.046800602 -0.006859839
000130 94 00 29 bd 70 85 77 3d c8 b1 a9 bc 16 65 94 bc
       -0.041260317 0.06042999 -0.020714656 -0.018114608
000140 75 64 9b bd d7 d1 e2 bd 54 86 ff bc 57 9b b5 bd
       -0.0758752 -0.1107518 -0.031191982 -0.08867519
000150 f9 5b 6f 3d 90 5b df 3d 7e d3 76 3d ce 32 59 3d
       0.05843732 0.10906136 0.06026029 0.053026967
000160 f8 1d 13 3d 48 19 2c 3d f0 6c 6d bc f4 9b a6 3d
       0.035917252 0.042016298 -0.014491305 0.081352144
000170 4c 73 31 3d db 99 21 3e 99 c6 cf bd fc 66 9a 3d
       0.043322846 0.15781347 -0.10145301 0.07539174
000180 14 2f b1 bd 5c d2 3a 3d 8b d8 a3 bd 09 de 60 bd
       -0.086515576 0.04561077 -0.08000287 -0.05489925
000190 1b 73 32 bd 4c d9 17 be 6d d8 30 3c 10 23 76 3d
       -0.043566804 -0.14828986 0.010793787 0.060092032
0001a0 8e e7 d8 bd 7f 2a 9a bd eb d6 e5 bc 47 8a 69 bd
       -0.105910406 -0.07527637 -0.028056582 -0.057016637
0001b0 60 95 3b 3c 20 ed 00 3b 53 a2 1c 3c a3 f1 2e be
       0.011449188 0.0019672588 0.0095601855 -0.17084365
0001c0 b3 aa 0d bd 20 a0 70 3a a0 14 62 bd 94 60 96 bc
       -0.03458662 0.0009179134 -0.05519545 -0.018356599
0001d0 dd c7 7c 3d 7b 4b 0c bd 02 be 11 be 08 96 55 bd
       0.061714042 -0.03425167 -0.14232638 -0.052145034
0001e0 58 fe 7c bd d9 17 19 3d 6e 7b c2 bd a6 cd 2f be
       -0.061766 0.03737626 -0.094961986 -0.17168292
0001f0 3e 33 85 bd 00 15 91 ba 2b 4a 1b 3e 87 76 5f bd
       -0.06503914 -0.001106888 0.15165012 -0.054556396
000200 78 92 13 3d 04 b9 b9 3d 5b 11 cb 3d 44 46 f5 3c
       0.036028355 0.09068492 0.0991542 0.029940732
000210 aa 42 c5 bd 60 c1 25 bc c3 3f 82 bd 05 5e 13 be
       -0.09631856 -0.010116905 -0.06359818 -0.14391334
000220 03 ce 9d 3d a3 73 6a 3d a8 b4 92 bc e8 8b d8 bd
       0.07705309 0.057239186 -0.01790841 -0.1057356
000230 1b 32 c9 3b 5a 07 c6 3d 50 f7 39 3c ca cb f8 bc
       0.0061400062 0.09669371 0.011350468 -0.030370612
000240 c6 d2 2e 3e df 73 86 bc 4f a8 3a 3e b5 2e 24 bd
       0.17072591 -0.016412674 0.18228267 -0.040083606
000250 d7 9d 1f 3d 20 39 d3 bb af 86 e8 3d bd 95 4b 3d
       0.038968887 -0.006446019 0.11353814 0.04970335
000260 d7 ec e2 bb 97 18 58 bd c8 be 8a 3d 11 1e c2 bd
       -0.006925206 -0.052757826 0.0677467 -0.09478391
000270 c1 dd ec 3b d3 d9 82 3d 1a d7 37 3d d4 43 36 be
       0.0072285836 0.06389203 0.04488287 -0.17799312
000280 9a d9 ca 3d 07 b6 1a 3e 48 99 7a 3c cd d3 58 3c
       0.099047855 0.151085 0.015295334 0.013234091
000290 ec 29 39 3d 55 b6 08 be dc c6 0a bd 14 4a 0f bd
       0.045205995 -0.13350804 -0.033881053 -0.034982756
0002a0 ec cf df bd e3 ff 89 bc a7 d2 dd 3d 81 6e ac 3d
       -0.1092833 -0.01684565 0.10831194 0.084195144
0002b0 b0 ea d5 bd 6e ca 17 bd 40 ea 16 be 7b 2a 85 3c
       -0.10445154 -0.037058286 -0.14737797 0.016255608
0002c0 0b 93 9a bc d4 30 07 bd 41 43 2b bd ab e6 17 3c
       -0.018868944 -0.03300555 -0.041812185 0.009271304
0002d0 7e 92 16 3d f6 c2 fc bc 5f 21 38 3d 13 49 59 3b
       0.0367608 -0.030854683 0.0449537 0.0033155128
0002e0 9c c0 b6 3d 71 b2 9e bc 06 48 12 3e 5c 9f ef 3d
       0.08923456 -0.019372197 0.14285287 0.11700317
0002f0 b9 2a c6 bc 50 59 77 bd 2f e0 4d bd d9 63 73 3d
       -0.024190294 -0.06038791 -0.050262626 0.059421394
000300 7b ea 7c bd d6 26 a4 3d 49 00 c0 3c 32 9e 05 3e
       -0.061747056 0.0801522 0.023437636 0.13048628
000310 17 d1 04 bc d8 45 ff 3d 49 cd 49 3d af 41 b5 3c
       -0.0081064915 0.124644935 0.04926804 0.022126047
000320 43 3e 2e bd 4a 2c 4a 3d cd 8a fc bd f0 51 ab 3d
       -0.042539846 0.049358644 -0.12331162 0.08365238
000330 f5 6d 9a bc 08 02 6c bd 20 70 f3 3d 3b b4 95 3c
       -0.01885126 -0.057619125 0.118866205 0.018274417
000340 90 7c 35 bd 7e 83 3b 3d d7 9d 3c bd 29 b4 4f bc
       -0.044308245 0.045779698 -0.046048965 -0.012677231
000350 c6 15 fc 3b 50 e6 79 3d 20 9a 85 3b 19 e7 1e 3e
       0.0076930253 0.06101066 0.004077211 0.15517844
000360 23 1e 29 bd 72 fb 1d bd e1 60 80 3d e4 59 5f bd
       -0.041288506 -0.038569875 0.06268478 -0.054529086
000370 60 7a 96 3c 78 d0 33 be 88 eb 49 bd ef bc 27 bc
       0.0183689 -0.17559993 -0.049296886 -0.010237916
000380 b7 6c 89 bc dc af ba ba 71 e4 63 ba 95 d4 e3 3c
       -0.016775472 -0.0014243084 -0.0008693403 0.027811328
000390 db d9 34 be d3 a4 59 3d f5 44 bf bd a0 b5 c8 bd
       -0.1766123 0.053135704 -0.093393244 -0.09800267
0003a0 de 60 d8 3d 17 e6 c7 bd 4c fa 1c 3c 6e 0a 59 bd
       0.10565351 -0.09760683 0.00958116 -0.052988462
0003b0 ac e5 4a bd 70 5d 84 3c a3 30 cf 3c 27 c3 01 3c
       -0.04953544 0.016157836 0.025291746 0.007920063
0003c0 f7 27 ca bd c4 2b 38 bc 29 be 8d bd b8 f9 b2 bd
       -0.09870904 -0.011240903 -0.06921036 -0.08739036
0003d0 dd 75 c2 3d a3 61 af bd 03 65 ee 3d 60 ce 97 bd
       0.09495137 -0.085635446 0.1164036 -0.0741241
0003e0 54 2c d4 3d 6d a4 a2 3d a2 75 f5 bd ae 88 17 be
       0.103600174 0.07941518 -0.11985327 -0.14798233
0003f0 9b eb 1e bd 6c 74 c7 3d 53 25 65 bd 43 71 89 bd
       -0.03879891 0.097390026 -0.0559438 -0.06711056

fc3.bias f4 [18]
000000 f2 79 40 bd e5 25 19 3d 63 48 b1 bb 3f bb 05 ba
       -0.046991296 0.037389655 -0.0054102405 -0.0005101449
000010 a2 a6 8c bc af 04 ee 3c da 71 f0 3c 8a 79 a5 3c
       -0.0171693 0.029054968 0.029351164 0.020199556
000020 82 d6 29 bd 7f bc b3 3c de 61 8a bd 63 c0 ff bb
       -0.041464336 0.021940468 -0.06756948 -0.0078049167
000030 95 a9 82 3d 61 1f 01 3d 47 17 94 3c 37 50 44 bd
       0.063800015 0.031524066 0.018077506 -0.04792806
000040 02 10 7a bd 52 81 6b 3d
       -0.061050422 0.057496376
