models/2024-07-20_16-26-14/epoch_0033_loss_0.00056626/dynamics.pth (torch, 83084 bytes, 8 tensors)

fc1.weight f4 [64, 34]
0.11514806 0.11591167 -0.13548058 0.0055632005 -0.09677194 0.110075764 0.12973495 -0.15634385
0.12924506 -0.013429991 -0.074646994 0.065494284 0.108259805 0.12643273 0.04551947 0.093292415
-0.03618725 0.107464485 -0.031108957 -0.027317552 0.1286045 0.08282632 0.09469385 0.0052117603
0.34698904 0.048301257 -0.30033034 0.06430349 -0.059432678 0.041013934 -0.16996188 -0.1093886
-0.11167503 -0.13592234 -0.022189915 0.055691093 -0.1145709 0.1260917 -0.13373828 -0.1445629
-0.13589074 -0.15914044 -0.15087259 0.14082195 -0.081531875 0.13247673 0.030570328 -0.038747996
0.040574625 -0.090134 -0.09016062 0.14381193 0.010791257 0.14127304 -0.16317424 -0.13751964
-0.15923496 -0.045683846 -0.14229988 -0.082138 0.12368475 -0.17089443 0.014176577 0.111544386
-0.100483075 -0.13706698 -0.11442671 -0.015540764 -0.064952545 0.06472398 0.16122408 0.12418039
-0.03319344 -0.1142393 -0.03330794 0.0777801 -0.15063341 -0.1152851 -0.1505519 0.06677754
-0.078145124 -0.16911094 0.05200751 0.02907382 0.15870003 -0.12879348 -0.11639547 -0.0026542544
0.0703965 -0.08940425 -0.022511974 0.013550609 -0.11581007 0.010266125 -0.12889609 -0.08319773
0.03709267 -0.16426444 -0.09217857 -0.036749184 -0.13731945 -0.0049066097 0.0027536312 0.21948905
0.24298948 -0.11556746 0.14326125 -0.0111182295 -0.07680895 0.08399472 -0.052520316 0.026484774
0.092724524 -0.009885852 -0.0477417 0.018394267 0.12806202 -0.029617611 -0.09507478 -0.025862252
-0.14570574 -0.058208007 -0.16007826 0.029590724 -0.15170188 -0.09023157 -0.041503515 0.1901812
0.10980179 0.108603835 0.014075338 -0.15415251 -0.039662167 0.05956553 -0.1817192 -0.12541851
0.10051678 0.13560249 -0.062476896 0.19187357 0.052939083 -0.10210935 -0.09743127 -0.0686307
-0.03133198 0.08983127 0.06678296 -0.0080995485 -0.19631173 0.1452058 0.095812365 -0.027997145
0.1459673 -0.12395636 0.08628111 -0.018678898 -0.06201541 -0.06831052 -0.06844981 -0.028697753
0.12798662 0.10494239 0.101582564 -0.0024910835 -0.10951151 0.07571823 -0.17774156 0.028241865
-0.19208568 -0.10599632 0.14022586 0.18418473 0.2540746 0.036043808 0.08669921 -0.0076769795
0.087301746 -0.032279603 -0.12218715 -0.13352372 -0.07042933 -0.16532257 -0.21447197 -0.027545828
-0.2139991 0.107970655 0.0046702847 0.09891141 -0.16078961 -0.031782348 -0.21311061 -0.12529036
-0.009181633 0.015758486 -0.20991461 -0.15887669 0.13969019 0.0069181966 -0.09964879 0.120085515
-0.0017864169 -0.04869437 -0.06905693 0.07896186 0.019999444 0.10982518 0.15912916 0.15476246
0.008814424 -0.13125636 -0.021732613 -0.10018077 0.05489184 0.13788567 -0.088016085 0.11325811
0.038695097 0.17017348 0.05509667 0.10763629 -0.15120403 0.012013063 -0.021144927 0.15398769
0.09767474 -0.15246579 0.057184726 -0.052925088 0.008412138 -0.1055538 0.050053373 0.058908954
0.15734307 0.045679107 0.035922244 -0.048798338 -0.15788588 0.07229887 -0.17973526 -0.045838684
0.025754374 -0.064617105 -0.18882641 -0.10817507 0.13578054 -0.13022965 0.0754405 0.09533023
0.07248884 0.13242215 0.03846298 0.012224116 -0.07086201 0.09384856 -0.12959293 0.13573132
00000000: bfd2 eb3d 1963 ed3d 6cbb 0abe 824b b63b
00000010: 5e30 c6bd 676f e13d 3dd9 043e 9a18 20be
00000020: d158 043e 7709 5cbc 86e0 98bd de21 863d
00000030: 51b7 dd3d 9577 013e a072 3a3d 1810 bf3d
00000040: 1539 14bd 5716 dc3d 36d8 febc 0fc9 dfbc
00000050: e6b0 033e d8a0 a93d d9ee c13d 6ac7 aa3b
00000060: 8ca8 b13e 8ad7 453d e6c4 99be 8cb1 833d
00000070: ae6f 73bd 3afe 273d 7d0a 2ebe 2107 e0bd
00000080: e1b5 e4bd 3a2f 0bbe a0c7 b5bc 581c 643d
00000090: 26a4 eabd 2f1e 013e b0f2 08be 4c08 14be
000000a0: f126 0bbe b6f5 22be 587e 1abe a133 103e
000000b0: 2ffa a6bd fba7 073e a06e fa3c 38b6 1ebd
000000c0: 9431 263d 2d98 b8bd 22a6 b8bd 6f43 133e
000000d0: d0cd 303c e1a9 103e 2617 27be f3d1 0cbe
000000e0: 7d0e 23be fc1e 3bbd 0fb7 11be f837 a8bd
000000f0: 6e4e fd3d f3fe 2ebe e044 683c 6271 e43d
00000100: 12ca cdbd 495b 0cbe 8d58 eabd b09e 7ebc
00000110: d705 85bd 028e 843d ed17 253e 4a52 fe3d
00000120: d8f5 07bd 4bf6 e9bd e86d 08bd 2c4b 9f3d
00000130: a53f 1abe 981a ecbd 472a 1abe aac2 883d
00000140: 8d0a a0bd 6b2b 2dbe d405 553d 382c ee3c
00000150: 4382 223e 70e2 03be c060 eebd 00f3 2dbb
00000160: 0a2c 903d 9319 b7bd 086b b8bc 6003 5e3c
00000170: d42d edbd 4033 283c 56fd 03be 9263 aabd
00000180: 7cee 173d f034 28be 1ec8 bcbd 5086 16bd
00000190: 789d 0cbe a0c7 a0bb 4476 343b bdc1 603e
000001a0: 3cd2 783e a2ae ecbd 14b3 123e 3c29 36bc
000001b0: 034e 9dbd 6c05 ac3d 8b1f 57bd 99f6 d83c
000001c0: 5be6 bd3d 45f8 21bc cd8c 43bd 93af 963c
000001d0: b122 033e a2a0 f2bc 91b6 c2bd 13dd d3bc
000001e0: e333 15be 856b 6ebd 8eeb 23be 3f68 f23c
000001f0: bd57 1bbe 54cb b8bd 97ff 29bd dcbe 423e
00000200: c3df e03d b06b de3d 3f9c 663c 28da 1dbe
00000210: cc74 22bd fcfa 733d 9914 3abe b66d 00be
00000220: bedb cd3d 61db 0a3e c6e7 7fbd 817a 443e
00000230: a7d6 583d b51e d1bd 0c8a c7bd 418e 8cbd
00000240: f655 00bd 75f9 b73d 81c5 883d f8b3 04bc
00000250: f105 49be d4b0 143e 4639 c43d 455a e5bc
00000260: 7478 153e d5dc fdbd 27b4 b03d 7d04 99bc
00000270: df03 7ebd 63e6 8bbd 6a2f 8cbd 8d17 ebbc
00000280: ed0e 033e 09ec d63d 850a d03d 7241 23bb
00000290: 9247 e0bd 2912 9b3d e201 36be 7c5b e73c
000002a0: 1cb2 44be 9914 d9bd 5e97 0f3e ec9a 3c3e
000002b0: 1116 823e aca2 133d 5b8f b13d 2c8f fbbb
000002c0: 42cb b23d 9e37 04bd 423d fabd 71ba 08be
000002d0: 413d 90bd 524a 29be 8a9e 5bbe caa7 e1bc
000002e0: 9422 5bbe b81f dd3d 3009 993b 1192 ca3d
000002f0: 08a6 24be 352e 02bd ab39 5abe 1e4c 00be
00000300: 8f6e 16bc f117 813c dbf3 56be 92b0 22be
00000310: f20a 0f3e 0ab2 e23b aa14 ccbd 65ef f53d
00000320: 3426 eaba bf73 47bd b86d 8dbd c1b6 a13d
00000330: e0d5 a33c 06ec e03d c1f2 223e 0d7a 1e3e
00000340: 606a 103c 1168 06be 9808 b2bc 932b cdbd
00000350: 44d6 603d e731 0d3e c741 b4bd def3 e73d
00000360: c07e 1e3d f541 2e3e 0cad 613d 6a70 dc3d
00000370: 3bd5 1abe 70d2 443c 2038 adbc f3ae 1d3e
00000380: b209 c83d fe1f 1cbe 883a 6a3d fac7 58bd
00000390: 10d3 093c 972c d8bd c404 4d3d 844a 713d
000003a0: 8b1e 213e 041a 3b3d 3423 133d c4e0 47bd
000003b0: d6ac 21be 6e11 943d 850c 38be 58c1 3bbd
000003c0: d6fa d23c f955 84bd b65b 41be e48a ddbd
000003d0: 0e0a 0b3e ec5a 05be 8d80 9a3d 7f3c c33d
000003e0: 0775 943d ac99 073e 5c8b 1d3d a947 483c
000003f0: 1a20 91bd ac33 c03d 02b4 04be 27fd 0a3e

fc1.bias f4 [64]
0.0075654956 -0.038294867 0.0545571 0.07518098 0.054377377 -0.04056344 -0.08337187 -0.011706765
-0.09279118 0.05500553 -0.060677357 -0.0020142142 -0.07543385 0.057988267 0.12532894 -0.17772709
0.14785014 -0.073790245 0.15310444 -0.13022457 -0.09396979 0.050910443 -0.057462253 -0.021303471
-0.16406077 -0.043516494 0.05062 0.019402923 0.044718377 -0.2394267 -0.03311087 -0.16103357
0.12738116 -0.16594152 -0.037290026 -0.052029423 0.041559618 -0.21415901 0.0625262 -0.02922414
0.03668061 0.06656167 -0.09312134 0.012250559 0.06567435 -0.005109504 -0.08597835 -0.06757879
-0.10546395 -0.009927967 0.104213215 -0.13545947 0.07562101 -0.02989855 0.025051048 -0.011139358
-0.008986165 -0.08149556 -0.02412989 0.07986877 0.14160372 -0.0737791 -0.03217615 0.025255274
00000000: fae7 f73b 14db 1cbd 4477 5f3d 7cf8 993d
00000010: d0ba 5e3d da25 26bd dfbe aabd bbcd 3fbc
00000020: 4d09 bebd 7b4d 613d d288 78bd e800 04bb
00000030: 107d 9abd 1b85 6d3d 3b56 003e 17fe 35be
00000040: 0766 173e 571f 97bd 69c7 1c3e 9759 05be
00000050: 3c73 c0bd 7887 503d 8a5d 6bbd 9e84 aebc
00000060: 8cff 27be 5a3e 32bd eb56 4f3d e1f2 9e3c
00000070: 9e2a 373d 462c 75be 439f 07bd fce5 24be
00000080: 3570 023e 93ec 29be 6dbd 18bd ce1c 55bd
00000090: 6b3a 2a3d 804c 5bbe bd0d 803d 7767 efbc
000000a0: 683e 163d 7c51 883d 67b6 bebd 92b6 483c
000000b0: 4680 863d a06d a7bb 6b15 b0bd c066 8abd
000000c0: 7cfd d7bd e9a8 22bc bd6d d53d e3b5 0abe
000000d0: 30df 9a3d ceed f4bc db37 cd3c db81 36bc
000000e0: b53a 13bc 25e7 a6bd 0cac c5bc 3d92 a33d
000000f0: 9100 113e 7f19 97bd 23cb 03bd 26e4 ce3c

fc2.weight f4 [128, 64]
-0.116627336 -0.02923952 0.13621418 -0.09294626 0.06088537 -0.044198986 -0.016837016 -0.11491692
-0.026718462 0.07033736 -0.0923625 0.0020842832 0.056227148 -0.024526164 0.054861665 -0.07350751
0.055970103 -0.058866702 0.09472551 0.08374412 -0.04832977 0.09107665 -0.011590481 0.12858039
0.060114164 -0.14163345 0.07296429 0.0441083 0.032945983 -0.13906367 -0.10803868 -0.07059631
-0.108265124 -0.048496813 -0.07613902 0.15761343 -0.030575462 0.096810624 0.10307375 -0.12859578
0.062661834 0.015104247 0.045997832 0.08755941 0.10523656 -0.025410786 0.00015769899 0.028926387
0.0074038473 -0.0078184055 -0.08346522 0.032894015 -0.053192466 0.12525444 0.14222252 -0.0052469033
-0.0458248 -0.13572057 -0.053156428 0.11013017 -0.035600327 -0.0071626008 -0.0657624 0.13691823
0.003438798 -0.012063086 0.18422045 0.07737384 0.09452755 0.021734802 -0.03042221 -0.16722174
-0.065300055 -0.06260753 0.08599539 -0.020378876 -0.00068950653 -0.06359189 0.19786435 -0.0025773684
0.13322279 -0.03813429 -0.051642325 -0.10093568 0.07450563 -0.111241706 0.10948026 0.06609236
-0.15375908 -0.08856316 0.04507441 0.098485075 -0.097739555 -0.006424282 -0.065627515 -0.080574825
0.1550731 0.064172655 -0.061871026 0.04366122 0.13199142 -0.067674205 0.015682353 0.023047946
-0.0034599314 -0.0016378645 -0.133441 -0.100729756 0.03815904 -0.08518618 0.09232885 -0.024874926
-0.003645061 0.071677506 -0.08800457 -0.118171625 -0.060572118 0.011472945 0.040305175 -0.12811905
0.06944033 -0.075650595 0.155664 0.1696614 0.09234599 -0.07009016 0.20188785 0.13973688
0.029037986 0.05852963 -0.060357355 -0.0036551682 -0.020995941 -0.044472437 -0.0929039 0.13089792
0.17918888 -0.15922353 0.045346133 0.140372 0.014932752 -0.09466109 -0.112682566 0.08760526
-0.15571952 0.0010684886 -0.20342402 -0.06352554 -0.0943573 0.0037506523 -0.008753881 -0.008150013
0.053521693 0.12002583 -0.18880327 -0.18636031 -0.07954954 0.20034476 -0.10368883 0.017528936
-0.048361223 0.08184981 -0.030033495 0.061011016 -0.16934398 0.10927182 0.02590458 -0.041521188
-0.13244584 0.06905509 0.15760478 0.06476134 -0.043862395 -0.11352828 0.011144325 -0.05372964
-0.09599335 -0.11512916 -0.0866936 -0.025852803 0.1266029 -0.12920465 -0.14899296 -0.12195193
-0.009985133 0.047974203 -0.107984506 -0.005423246 -0.14228566 -0.00053954124 -0.13468747 -0.0038830533
-0.041633606 0.03986612 0.026561663 -0.03973934 0.11877254 -0.03732808 0.00953196 -0.11711846
-0.07287818 0.11243586 0.08482136 -0.022991449 -0.1053697 0.021721974 -0.0685408 0.11220732
-0.09936799 0.12370455 0.03677784 0.1001586 -0.11081366 -0.009941876 0.10142818 -0.08995065
-0.007549584 0.054220885 0.05786693 -0.09091507 -0.10818665 -0.027864844 -0.054532558 -0.014648601
0.018319607 0.08953071 0.014613271 -0.107122466 0.09392889 0.07561186 -0.030121341 -0.014896348
0.04828322 0.06780967 0.039907396 -0.11996983 -0.084028006 0.098642275 0.03442499 -0.073442474
-0.0013567954 0.058229044 0.029500186 0.10539006 -0.1153575 0.062033072 -0.06906682 0.034504265
0.07934506 -0.06753038 0.10344121 -0.099023536 -0.113914356 -0.05844429 -0.00020322204 0.0031538308
00000000: 50da eebd b887 efbc bb7b 0b3e 9c5a bebd
00000010: f062 793d ff09 35bd c8ed 89bc 9059 ebbd
00000020: ade0 dabc 090d 903d 8d28 bdbd 7898 083b
00000030: 704e 663d 18eb c8bc a0b6 603d 1b8b 96bd
00000040: e840 653d 361e 71bd 73ff c13d 0a82 ab3d
00000050: 70f5 45bd 6586 ba3d 00e6 3dbc 94aa 033e
00000060: 453a 763d 5c08 11be 4d6e 953d e8aa 343d
00000070: 5ef2 063d b566 0ebe 6243 ddbd cc94 90bd
00000080: 1bba ddbd 98a4 46bd c6ee 9bbd 6a65 213e
00000090: 6479 fabc a644 c63d 5518 d33d 9dae 03be
000000a0: d954 803d ce77 773c 3968 3c3d 5952 b33d
000000b0: 4486 d73d 482a d0bc 005c 2539 08f7 ec3c
000000c0: f99b f23b c518 00bc d0ef aabd e0bb 063d
000000d0: 58e0 59bd b342 003e c8a2 113e 37ee abbb
000000e0: c9b2 3bbd 55fa 0abe 8eba 59bd ed8b e13d
000000f0: a6d1 11bd 40b4 eabb 70ae 86bd 4b34 0c3e
00000100: 755d 613b 40a4 45bc 49a4 3c3e 2d76 9e3d
00000110: a997 c13d 2f0d b23c 0038 f9bc 2d3c 2bbe
00000120: 09bc 85bd 6038 80bd 5a1e b03d 9af1 a6bc
00000130: 00c0 34ba 773c 82bd f49c 4a3e 11e9 28bb
00000140: 8e6b 083e b432 1cbd e786 53bd 5eb7 cebd
00000150: 6896 983d b1d2 e3bd 3037 e03d 6e5b 873d
00000160: 0573 1dbe 9a60 b5bd f29f 383d 8bb2 c93d
00000170: ad2b c8bd c982 d2bb b867 86bd 6a04 a5bd
00000180: 7ccb 1e3e f46c 833d 796c 7dbd 1cd6 323d
00000190: c228 073e c698 8abd 4778 803c 0ccf bc3c
000001a0: 04c0 62bb 9dad d6ba c2a4 08be 674b cebd
000001b0: a74c 1c3d 1876 aebd e816 bd3d 80c6 cbbc
000001c0: fae1 6ebb a8cb 923d bd3b b4bd f703 f2bd
000001d0: 781a 78bd 05f9 3b3c 0a17 253d a431 03be
000001e0: bb36 8e3d b3ee 9abd 6266 1f3e b8bb 2d3e
000001f0: e51f bd3d 6e8b 8fbd b0bb 4e3e 2f17 0f3e
00000200: 12e1 ed3c c4bc 6f3d 4639 77bd 8c8b 6fbb
00000210: aeff abbc bb28 36bd 6644 bebd 1b0a 063e
00000220: 4a7d 373e 7e0b 23be debc 393d adbd 0f3e
00000230: 80a8 743c acdd c1bd 1ec6 e6bd 636a b33d
00000240: f074 1fbe 870c 8c3a 634e 50be ae19 82bd
00000250: 663e c1bd 81cd 753b 706c 0fbc a287 05bc
00000260: 9039 5b3d 1ad0 f53d a555 41be 3dd5 3ebe
00000270: dfea a2bd 2d27 4d3e cf5a d4bd d898 8f3c
00000280: 6b16 46bd e0a0 a73d ce08 f6bc b0e6 793d
00000290: 8268 2dbe e7c9 df3d d735 d43c 1f12 2abd
000002a0: e29f 07be c16c 8d3d 2663 213e 98a1 843d
000002b0: 0ea9 33bd 8481 e8bd b096 363c 9c13 5cbd
000002c0: 2998 c4bd d6c8 ebbd 6a8c b1bd 42c9 d3bc
000002d0: 31a4 013e 394e 04be 9c91 18be efc1 f9bd
000002e0: af98 23bc 9980 443d fb26 ddbd 7cb5 b1bb
000002f0: 55b3 11be 0070 0dba 83eb 09be d37a 7ebb
00000300: 0088 2abd a84a 233d d897 d93c b8c5 22bd
00000310: 043f f33d 54e5 18bd f02b 1c3c cedb efbd
00000320: 2841 95bd c644 e63d d2b6 ad3d 9058 bcbc
00000330: 12cc d7bd 48f2 b13c 1e5f 8cbd f4cc e53d
00000340: 7281 cbbd d058 fd3d 5ca4 163d f41f cd3d
00000350: 46f2 e2bd 40e3 22bc 94b9 cf3d 0c38 b8bd
00000360: 8062 f7bb b816 5e3d e005 6d3d ae31 babd
00000370: f690 ddbd d044 e4bc 885d 5fbd b000 70bc
00000380: 0013 963c e05b b73d 806c 6f3c 0663 dbbd
00000390: ca5d c03d 64da 9a3d 08c1 f6bc d00f 74bc
000003a0: a0c4 453d ccdf 8a3d f075 233d beb2 f5bd
000003b0: e016 acbd f604 ca3d 3801 0d3d 0269 96bd
000003c0: 80d6 b1ba 9481 6e3d 60aa f13c bed6 d73d
000003d0: 8e40 ecbd 6416 7e3d e872 8dbd 5854 0d3d
000003e0: aa7f a23d 5e4d 8abd fcd8 d33d dacc cabd
000003f0: ee4b e9bd 4863 6fbd 0018 55b9 80b0 4e3b

fc2.bias f4 [128]
0.044706944 0.0065000155 -0.0098695755 0.009553969 0.027211696 -0.12829065 -0.08729051 -0.018823456
-0.051715747 0.051065072 -0.120283335 0.01057342 0.042505946 -0.1407717 -0.010331772 -0.06794642
-0.015916152 -0.09473267 -0.12058227 0.046719927 0.09036111 -0.047124043 0.022093568 -0.09547345
0.076216035 -0.12239389 -0.07519155 -0.057892017 -0.06756168 -0.13172653 -0.07180418 -0.11944692
0.08688282 0.048075248 -0.11181143 0.07082843 0.011543005 -0.1386467 -0.019253463 -0.15358472
-0.033171955 -0.064087175 0.09549411 -0.19904959 -0.062378127 -0.02527828 0.005627737 -0.08218865
-0.13818431 -0.059199188 -0.08215944 -0.04506038 -0.12776823 0.0066761826 0.0186847 -0.0032959718
-0.002138039 -0.10938264 -0.030813871 -0.06627523 0.020891475 -0.04064426 -0.06824962 0.00013431672
-0.16543733 -0.06253469 0.028504917 -0.10710152 -0.032082155 -0.008580568 0.0042643053 -0.0963712
0.02697675 -0.15439828 -0.06252976 -0.08613496 -0.0056644278 0.08081834 -0.040037118 0.023810813
0.036854442 -0.081505895 0.013393385 -0.08922492 -0.06816995 -0.024469405 -0.1442544 -0.06705267
0.046640735 -0.02317526 0.09742373 -0.12364484 -0.07142328 0.10900674 -0.03590774 -0.038558036
-0.08598031 0.023292266 0.041043743 0.04160955 -0.073370166 -0.033993393 -0.10190007 -0.061068006
-0.059296608 -0.019897014 -0.13998297 0.039958507 -0.07373612 0.045775946 -0.07776182 -0.052130386
-0.040304627 0.05401357 0.035899214 -0.077888384 0.009914885 0.06101146 -0.011209546 0.032796405
-0.09585619 -0.017555587 -0.08971693 0.104823016 0.12921494 -0.0954908 -0.028135821 0.050664503
00000000: a11e 373d 15fe d43b 00b4 21bc 4088 1c3c
00000010: 10eb de3c a05e 03be 5ec5 b2bd a633 9abc
00000020: e4d3 53bd 9c29 513d 1c57 f6bd 233c 2d3c
00000030: b71a 2e3d 7526 10be 9846 29bc 7e27 8bbd
00000040: 9762 82bc 3403 c2bd d6f3 f6bd 655d 3f3d
00000050: 3f0f b93d 2405 41bd 92fd b43c 9687 c3bd
00000060: 2717 9c3d a6a9 fabd 07fe 99bd 2e20 6dbd
00000070: c75d 8abd 52e3 06be 120e 93bd 96a0 f4bd
00000080: 9fef b13d 8dea 443d 64fd e4bd 7f0e 913d
00000090: df1e 3d3c 67f9 0dbe 70b9 9dbc 5045 1dbe
000000a0: 51df 07bd 2340 83bd 6a92 c33d a8d3 4bbe
000000b0: 3580 7fbd 6514 cfbc e168 b83b 8652 a8bd
000000c0: 3080 0dbe d97a 72bd 3543 a8bd 3c91 38bd
000000d0: add5 02be e1c3 da3b a810 993c 3b01 58bb
000000e0: 581e 0cbb 0104 e0bd 5f6d fcbc 4fbb 87bd
000000f0: 9924 ab3c 987a 26bd 75c6 8bbd 5fd7 0c39
00000100: 6768 29be 3012 80bd 2583 e93c 0b58 dbbd
00000110: 9468 03bd 8395 0cbc 96bb 8b3b 445e c5bd
00000120: 58fe dc3c 951a 1ebe 9a0f 80bd 8767 b0bd
00000130: aa9c b9bb 1684 a53d f6fd 23bd e50e c33c
00000140: aff4 163d 90ec a6bd ee6f 5b3c 8ebb b6bd
00000150: b09c 8bbd 1074 c8bc 6db7 13be e952 89bd
00000160: 5b0a 3f3d 0bda bdbc 1886 c73d 8239 fdbd
00000170: 5e46 92bd ed3e df3d ff13 13bd 08ef 1dbd
00000180: 7216 b0bd 6ccf be3c 7c1d 283d c76e 2a3d
00000190: 1943 96bd a83c 0bbd fcb0 d0bd 7222 7abd
000001a0: 00e1 72bd 10ff a2bc b257 0fbe 88ab 233d
000001b0: f602 97bd 8f7f 3b3d 9741 9fbd ac86 55bd
000001c0: 7716 25bd 553d 5d3d 0e0b 133d f283 9fbd
000001d0: 0b72 223c 27e7 793d 3ea8 37bc 8655 063d
000001e0: 4050 c4bd bcd0 8fbc 83bd b7bd 73ad d63d
000001f0: ec50 043e ae90 c3bd 187d e6bc 9585 4f3d

fc2_1.weight f4 [64, 128]
0.020862993 0.013655174 -0.036300663 0.042245604 0.09502894 0.011865847 0.004860997 -0.078051075
-0.07898961 -0.052359596 -0.058122758 0.055318054 -0.038937952 0.068271704 0.11479189 -0.041525267
0.0337921 -0.061183445 0.06775861 0.06778528 0.05999376 0.10078779 0.027331935 -0.080378726
0.05458148 -0.048763722 0.03708936 0.016218623 0.0064136656 0.115673944 0.012272692 0.053300727
-0.090094574 -0.030285034 -0.051097494 -0.03104662 -0.03851082 0.10388845 0.021950519 -0.021016903
0.052942924 0.071024455 -0.014390338 -0.102298304 -0.018962165 0.13744983 -0.009781076 0.025562353
0.05088659 -0.1239188 0.11203582 -0.05115733 0.019336548 -0.066705175 -0.026554322 0.06988878
0.08682052 -0.05388682 -0.028322529 0.030643806 -0.042486276 -0.0076839626 0.11347644 -0.021425547
0.08067834 0.077189945 0.003371412 -0.016052013 -0.02564307 -0.051255457 0.0032714643 0.06744612
0.024229094 0.021965763 -0.05971075 -0.015908351 0.12709226 0.018117009 0.06353618 0.052980598
-0.010001237 -0.11276948 -0.04670623 -0.08439243 -0.08883075 -0.05116331 0.062277824 0.09407181
0.061231606 -0.029454174 -0.005215475 0.010349683 0.0472387 0.08423747 0.019651456 -0.049112625
-0.00683628 -0.049535055 0.018611751 0.017742855 -0.02399809 0.04807021 -0.028896049 -0.031182982
0.0011991635 0.009099886 0.08026664 -0.08398272 -0.07157882 -0.048254225 -0.033875417 -0.07320217
-0.052370094 -0.024301462 0.08664433 -0.07451096 0.05149684 0.055352528 0.076413155 0.08930193
-0.07310476 0.08106258 -0.0516065 -0.09599467 -0.0037645802 -0.0023550629 -0.087408625 -0.008579373
0.030367386 0.04107325 -0.0033508125 -0.003741555 0.039275486 0.03628821 0.017343573 0.059713494
0.068958886 0.08847353 -0.066631965 0.041146148 -0.05585691 0.009305605 0.07360455 0.06496426
-0.040553734 -0.04218701 -0.022057636 0.02006477 0.07973092 0.038448356 0.0038529958 0.05449786
0.047504254 0.063926846 -0.024735734 0.032732967 -0.026878657 0.07994408 0.0063501573 0.024144677
-0.099721 -0.037294686 -0.053252976 -0.018161904 0.029833892 0.049311507 0.033677723 0.02565585
0.01923015 0.038774777 0.062717035 0.005239211 -0.024333645 0.12501729 -0.0081955865 -0.04945012
-0.11432954 0.08838865 0.055074643 0.039630137 -0.0070241196 -0.022248091 0.07031468 0.13777724
-0.036706254 0.017823873 -0.021512596 0.019724198 0.008775183 -0.015067413 0.07507081 0.082429826
-0.113775946 -0.018756472 0.042248953 0.0312912 0.013176274 0.029387984 0.079061046 0.08767677
0.028149996 0.011621137 0.038982205 -0.098252006 0.12346356 -0.0072214007 0.13389342 0.009803601
0.078681014 -0.094961755 0.09743593 0.020564942 -0.05842081 -0.074816495 0.0032140696 0.06206845
-0.031470347 -0.021453008 -0.057258543 0.020360708 -0.07375086 -0.03818878 -0.038946252 0.024215557
-0.032885183 0.110640764 -0.066025116 -0.012537115 0.13276096 0.056146007 0.06375042 -0.01374375
0.035108574 -0.041308504 0.13389172 0.08169599 -0.06583062 -0.0077095623 0.047855247 0.027360007
0.008156091 0.11054371 -0.00409532 0.047701605 0.07365144 0.037696984 0.008509612 0.07670898
-0.0359572 -0.021570217 0.024940843 0.0170234 0.05301361 -0.09559147 0.017022615 0.09501886
00000000: dee8 aa3c f3b9 5f3c 01b0 14bd ba09 2d3d
00000010: 889e c23d f868 423c 0049 9f3b 3ed9 9fbd
00000020: 4ec5 a1bd 0477 56bd 2112 6ebd 2f95 623d
00000030: 677d 1fbd 09d2 8b3d 0318 eb3d 6616 2abd
00000040: 9669 0a3d 7e9b 7abd 07c5 8a3d 02d3 8a3d
00000050: 04bc 753d d469 ce3d 39e7 df3c 9a9d a4bd
00000060: d490 5f3d 78bc 47bd 03eb 173d ebdc 843c
00000070: ba29 d23b 76e6 ec3d 6713 493c dd51 5a3d
00000080: 8183 b8bd 5218 f8bc 9b4b 51bd 7b55 febc
00000090: 86bd 1dbd 78c3 d43d 93d1 b33c a42b acbc
000000a0: aeda 583d 4575 913d 74c5 6bbc c681 d1bd
000000b0: 8b56 9bbc a6bf 0c3e ce40 20bc 2468 d13c
000000c0: 756e 503d 24c9 fdbd 0973 e53d 598a 51bd
000000d0: ae67 9e3c b99c 88bd 7388 d9bc d921 8f3d
000000e0: f5ce b13d 6db8 5cbd a604 e8bc b808 fb3c
000000f0: 1706 2ebd c0c9 fbbb 5666 e83d a184 afbc
00000100: af3a a53d c315 9e3d e8f2 5c3b 837f 83bc
00000110: 6a11 d2bc 3ef1 51bd 1066 563b 3121 8a3d
00000120: 187c c63c 8bf1 b33c 4293 74bd 3b52 82bc
00000130: 7924 023e 1f6a 943c 421f 823d 2f02 593d
00000140: 3adc 23bc aff3 e6bd 084f 3fbd f0d5 acbd
00000150: e5ec b5bd 9e90 51bd 0817 7f3d b9a8 c03d
00000160: fecd 7a3d e149 f1bc 93e6 aabb b891 293c
00000170: 5e7d 413d b284 ac3d 17fc a03c 522a 49bd
00000180: e002 e0bb 45e5 4abd ac77 983c 7759 913c
00000190: a497 c4bc 45e5 443d 68b7 ecbc 7473 ffbc
000001a0: 402d 9d3a b017 153c d662 a43d 22ff abbd
000001b0: eb97 92bd 39a6 45bd f3c0 0abd 05eb 95bd
000001c0: 0682 56bd dc13 c7bc 9572 b13d 3499 98bd
000001d0: 5aee 523d 55b9 623d 807e 9c3d eee3 b63d
000001e0: f3b7 95bd 2304 a63d 5661 53bd db98 c4bd
000001f0: 2db7 76bb 6657 1abb 4b03 b3bd 8090 0cbc
00000200: 06c5 f83c 6d3c 283d 4e99 5bbb e034 75bb
00000210: 55df 203d f2a2 143d 1c14 8e3c 2396 743d
00000220: 513a 8d3d 9c31 b53d 5776 88bd dd88 283d
00000230: 37ca 64bd 8976 183c fbbd 963d fb0b 853d
00000240: ac1b 26bd 49cc 2cbd 37b2 b4bc df5e a43c
00000250: f749 a33d 067c 1d3d 8b82 7c3b 2639 5f3d
00000260: d293 423d 14ec 823d 98a2 cabc 0113 063d
00000270: a130 dcbc b9b9 a33d fb14 d03b 0fcb c53c
00000280: 863a ccbd 50c2 18bd cb1f 5abd 46c8 94bc
00000290: 3566 f43c ddfa 493d a7f1 093d 382c d23c
000002a0: 8c88 9d3c 4dd2 1e3d ca71 803d b0ad ab3b
000002b0: 5a57 c7bc 8804 003e c846 06bc 368c 4abd
000002c0: 9b25 eabd 1c05 b53d f395 613d 3653 223d
000002d0: 962a e6bb a141 b6bc 2501 903d 7a15 0d3e
000002e0: 4c59 16bd 5f03 923c 2f3b b0bc a494 a13c
000002f0: c9c5 0f3c 50dd 76bc babe 993d f8d0 a83d
00000300: 5d03 e9bd 2ca7 99bc 3d0d 2d3d 342b 003d
00000310: 4ce1 573c 12bf f03c c2ea a13d e18f b33d
00000320: d29a e63c 9566 3e3c ceab 1f3d 5938 c9bd
00000330: 77da fc3d 80a1 ecbb 5b1b 093e 489f 203c
00000340: 8323 a13d 4f7b c2bd 7d8c c73d cf77 a83c
00000350: a94a 6fbd 6439 99bd 24a3 523b 7d3b 7e3d
00000360: 0de7 00bd 38be afbc ef87 6abd 80cb a63c
00000370: b10a 97bd d76b 1cbd 1b86 1fbd b45f c63c
00000380: 9db2 06bd a097 e23d 2d38 87bd 7968 4dbc
00000390: 7df2 073e 5bf9 653d 958f 823d 772d 61bc
000003a0: 02ce 0f3d 1b33 29bd e91a 093e 3a50 a73d
000003b0: 34d2 86bd 7fa0 fcbb dd03 443d 1822 e03c
000003c0: 20a1 053c be64 e23d 0932 86bb c262 433d
000003d0: 91d6 963d 2768 1a3d e66b 0b3c 9919 9d3d
000003e0: db47 13bd 06b4 b0bc bd50 cc3c a874 8b3c
000003f0: cd24 593d 76c5 c3bd 0373 8b3c 4099 c23d

fc2_1.bias f4 [64]
0.008117962 0.08709342 0.0029607604 -0.10730551 0.081297435 -0.08341487 -0.010307029 -0.11633928
-0.114640445 -0.041793965 -0.08466462 -0.06174569 0.074126326 0.0023212358 -0.07004832 0.10612653
-0.01907734 0.06446638 -0.004798232 0.025564782 0.031677507 -0.047038663 -0.02951581 -0.11342058
-0.1056569 -0.059612025 0.06102922 -0.02132574 -0.05486539 -0.061550133 0.08524599 -0.06182134
-0.06545114 -0.11585974 -0.13524859 -0.08761505 0.015036124 -0.043875486 -0.088378824 -0.04388996
-0.07702296 0.07190347 -0.02922878 -0.0855304 -0.050198488 0.104628734 -0.11106106 -0.017842028
0.06001981 0.05637205 0.05105333 0.027319811 0.004749156 -0.05153896 0.025574636 0.0062533068
-0.028208423 -0.025372878 -0.039988007 -0.02190284 -0.12473008 -0.07475998 -0.025740903 -0.05157557
00000000: 3301 053c 095e b23d 5109 423b fec2 dbbd
00000010: 457f a63d 6ad5 aabd d0de 28bc 4a43 eebd
00000020: 9cc8 eabd 2630 2bbd a564 adbd 0ce9 7cbd
00000030: 8bcf 973d e01f 183b 7e75 8fbd de58 d93d
00000040: 1548 9cbc f306 843d 7d3a 9dbb 3c6d d13c
00000050: 46c0 013d 9dab 40bd 24cb f1bc 0d49 e8bd
00000060: a562 d8bd bd2b 74bd c7f9 793d 51b3 aebc
00000070: 88ba 60bd fe1b 7cbd 7395 ae3d 6038 7dbd
00000080: 3f0b 86bd df47 edbd 9b7e 0abe 856f b3bd
00000090: 135a 763c c8b6 33bd f5ff b4bd f5c5 33bd
000000a0: 37be 9dbd 2042 933d 3271 efbc 902a afbd
000000b0: ee9c 4dbd 9747 d63d fb73 e3bd 7229 92bc
000000c0: 55d7 753d 61e6 663d 4c1d 513d cccd df3c
000000d0: cf9e 9b3b 841a 53bd e681 d13c 8ae8 cc3b
000000e0: 5a15 e7bc c8da cfbc 77ca 23bd 966d b3bc
000000f0: 7c72 ffbd c31b 99bd 96de d2bc e840 53bd

fc3.weight f4 [18, 64]
0.10120274 -0.07138367 0.08561651 -0.06763687 0.042930886 0.054731026 -0.017458176 0.014990213
0.09059173 0.08342381 0.17097172 0.088952795 0.08632253 -0.045947 0.0053815544 0.0061296676
-0.0028857815 0.13744968 -0.018354502 -0.054037437 -0.023194965 -0.04328929 0.114120215 0.018710233
0.08293336 0.023721235 0.10954893 -0.11657961 0.094218045 0.043869592 0.06680783 -0.003919935
-0.029578917 -0.042160526 0.045086462 -0.047582082 0.03709742 0.08886029 -0.023469517 0.05906616
-0.098640606 0.13701044 -0.018206023 0.14659783 0.034189045 0.177807 -0.16034293 0.08818328
-0.03247031 0.035387557 0.0058236066 0.029553356 -0.032383554 0.13967174 -0.07841242 -0.07279445
0.017094329 -0.04554366 0.06945143 0.08499968 0.051517423 -0.08146827 -0.0586919 -0.05729031
0.015410484 -0.14640605 -0.022644103 0.008008628 0.060162764 -0.031203598 -0.18436034 -0.010319186
-0.14588828 -0.043091506 -0.04690354 -0.006859839 -0.0417946 0.06042999 -0.020714656 -0.019975195
-0.07597834 -0.103536904 -0.03129513 -0.08279697 0.059876256 0.10906136 0.060157094 0.052119277
0.035814144 0.04191317 -0.01580881 0.083602585 0.045224246 0.1582806 -0.09088491 0.07603493
-0.0866187 0.045507874 -0.080105804 -0.050929725 -0.043669946 -0.14911403 0.011011599 0.060092032
-0.105910406 -0.07548983 -0.024961263 -0.057167694 0.011449188 0.010447646 0.00924725 -0.17094675
-0.02972382 -0.0032025173 -0.056049865 -0.018459773 0.060383197 -0.034354754 -0.14198732 -0.052550673
-0.061766 0.0372533 -0.09506506 -0.17178555 -0.06514225 -0.001106888 0.1517989 -0.054659538
0.037015874 0.091323525 0.09925732 0.02912724 -0.09496524 -0.010116905 -0.063495055 -0.14408727
0.07715603 0.057448626 -0.017805694 -0.1057356 0.0058638966 0.09669371 0.011350468 -0.030117422
0.170829 -0.015559076 0.18238574 -0.0410886 0.039182197 -0.006446019 0.11364126 0.050590303
-0.006822122 -0.05265473 0.065876655 -0.09473748 0.0069018174 0.06428957 0.043123238 -0.17898509
0.09915096 0.15118758 0.015398094 0.00941703 0.04530911 -0.13704081 -0.03394152 -0.034982756
-0.1092833 -0.016097855 0.10587565 0.084177606 -0.10445154 -0.038276784 -0.14766163 0.016358774
-0.019747484 -0.032764494 -0.04233778 0.009374472 0.03667208 -0.030751623 0.044684812 0.0037564132
0.08923456 -0.019321542 0.1429558 0.117105305 -0.024087204 -0.06038791 -0.05010655 0.05952451
-0.061747465 0.07658606 0.02333495 0.13169596 -0.00853626 0.124644935 0.049165163 0.021914212
-0.04264182 0.04915085 -0.123411566 0.08365238 -0.01898792 -0.057619125 0.118866205 0.019651517
-0.04441119 0.038864627 -0.04615164 -0.012196446 0.008957201 0.06101066 0.0039745457 0.15608586
-0.041391086 -0.038672548 0.06389582 -0.05521134 0.016006961 -0.17606674 -0.05171588 -0.0093605025
-0.016878216 -0.0015234001 -0.0009699972 0.025532804 -0.17671464 0.053525314 -0.09358031 -0.09800267
0.10565351 -0.09688889 0.007832374 -0.05286278 -0.04953544 0.013324971 0.025033422 0.007817067
-0.09842213 -0.009241909 -0.063464515 -0.08749339 0.093247786 -0.0857358 0.11622126 -0.073811896
0.103600174 0.07953398 -0.119953446 -0.14807983 -0.03890149 0.097390026 -0.056192722 -0.067213036
00000000: 6243 cf3d 9a31 92bd b557 af3d 3385 8abd
00000010: 4cd8 2f3d a42d 603d 7304 8fbc 8399 753c
00000020: 2888 b93d 1ada aa3d 3613 2f3e e22c b63d
00000030: dec9 b03d ec32 3cbd c057 b03b 61db c83b
00000040: 611f 3dbb 9cbf 0c3e 2e5c 96bc 5c56 5dbd
00000050: 5e03 bebc 1c50 31bd dcb7 e93d 3446 993c
00000060: f7d8 a93d 0953 c23c 305b e03d 4ac1 eebd
00000070: 64f5 c03d 9ab0 333d 8bd2 883d cc72 80bb
00000080: 7c4f f2bc 84b0 2cbd 95ac 383d 6ee5 42bd
00000090: 77f3 173d 62fc b53d 2543 c0bc 5cef 713d
000000a0: 1604 cabd 774c 0c3e cc24 95bc be1d 163e
000000b0: d009 0c3d 0a13 363e f030 24be 6f99 b43d
000000c0: 96ff 04bd 8bf2 103d f4d3 be3b e119 f23c
000000d0: 9ea4 04bd 1c06 0f3e b196 a0bd 4215 95bd
000000e0: 6809 8c3c fd8b 3abd 8d3c 8e3d 5014 ae3d
000000f0: ef03 533d d6d8 a6bd eb66 70bd 3ea9 6abd
00000100: 417c 7c3c 78eb 15be 2080 b9bc 9f36 033c
00000110: 3b6d 763d b09e ffbc f5c8 3cbe ce11 29bc
00000120: bd63 15be b880 30bd ed1d 40bd 80c8 e0bb
00000130: d130 2bbd 7085 773d c8b1 a9bc 05a3 a3bc
00000140: 889a 9bbd 280b d4bd 522f 00bd 7591 a9bd
00000150: ce40 753d 905b df3d 4967 763d 067b 553d
00000160: dab1 123d 25ad 2b3d 7a81 81bc d537 ab3d
00000170: 0f3d 393d 4f14 223e de21 babd 34b8 9b3d
00000180: 2565 b1bd 7766 3a3d 830e a4bd b09b 50bd
00000190: 42df 32bd 59b1 18be fe69 343c 1023 763d
000001a0: 8ee7 d8bd 699a 9abd 907b ccbc ac28 6abd
000001b0: 6095 3b3c 9a2c 2b3c c781 173c aa0c 2fbe
000001c0: 5e7f f3bc 53e1 51bb 8b94 65bd f338 97bc
000001d0: 5f54 773d 92b7 0cbd 2065 11be 603f 57bd
000001e0: 58fe 7cbd eb96 183d 78b1 c2bd 8de8 2fbe
000001f0: 4d69 85bd 0015 91ba 2c71 1b3e aee2 5fbd
00000200: f59d 173d d407 bb3d 6c47 cb3d 409c ee3c
00000210: 237d c2bd 60c1 25bc b209 82bd 9d8b 13be
00000220: fb03 9e3d 404f 6b3d 3fdd 91bc e88b d8bd
00000230: ee25 c03b 5a07 c63d 50f7 393c d0b8 f6bc
00000240: cced 2e3e 7feb 7ebc 54c3 3a3e 854c 28bd
00000250: 837d 203d 2039 d3bb c0bc e83d c737 4f3d
00000260: 1b8c dfbb 7cac 57bd 57ea 863d b905 c2bd
00000270: a428 e23b 40aa 833d fea1 303d de47 37be
00000280: a90f cb3d ebd0 1a3e 4a48 7c3c e349 1a3c
00000290: 0c96 393d 6d54 0cbe 4306 0bbd 144a 0fbd
000002a0: eccf dfbd a6df 83bc 55d5 d83d 4f65 ac3d
000002b0: b0ea d5bd 1ec8 1cbd 9c34 17be d602 863c
000002c0: 7ac5 a1bc 1034 06bd 616a 2dbd 6397 193c
000002d0: 7735 163d d4ea fbbc 6c07 373d 282e 763b
000002e0: 9cc0 b63d 3648 9ebc 0163 123e e8d4 ef3d
000002f0: 8752 c5bc 5059 77bd 873c 4dbd f9cf 733d
00000300: e9ea 7cbd 27d9 9c3d f028 bf3c 4edb 063e
00000310: abdb 0bbc d845 ff3d 6961 493d 6f85 b33c
00000320: 30a9 2ebd 6752 493d 34bf fcbd f051 ab3d
00000330: 8e8c 9bbc 0802 6cbd 2070 f33d 38fc a03c
00000340: 82e8 35bd 8430 1f3d 8109 3dbd 9ad3 47bc
00000350: 39c1 123c 50e6 793d e83c 823b f9d4 1f3e
00000360: b389 29bd 1b67 1ebd d0db 823d 4925 62bd
00000370: 0821 833c d74a 34be 08d4 53bd cb5c 19bc
00000380: 2f44 8abc d3ac c7ba 6947 7eba 2c2a d13c
00000390: aff4 34be 5c3d 5b3d 09a7 bfbd a0b5 c8bd
000003a0: de60 d83d af6d c6bd 5c53 003c a486 58bd
000003b0: ace5 4abd fb50 5a3c e412 cd3c 2813 003c
000003c0: 8b91 c9bd 606b 17bc aff9 81bd bc2f b3bd
000003d0: b2f8 be3d 4096 afbd 6905 ee3d b12a 97bd
000003e0: 542c d43d b6e2 a23d 27aa f5bd 3da2 17be
000003f0: 2b57 1fbd 6c74 c73d 572a 66bd fda6 89bd

fc3.bias f4 [18]
-0.044905964 0.034916 -0.0061560716 -0.0010172905 -0.022246849 0.031587567 0.03557783 0.0011004524
-0.036178656 0.035080303 -0.0820214 0.0061274273 0.06908145 0.01504474 0.032917157 -0.032990325
-0.080688834 0.07704228
00000000: 51ef 37bd 1404 0f3d dfb8 c9bb 9b56 85ba
00000010: 063f b6bc f761 013d 0fba 113d 0e3d 903a
00000020: 1230 14bd 5db0 0f3d d6fa a7bd 96c8 c83b
00000030: 937a 8d3d 377e 763c 24d4 063d dd20 07bd
00000040: 3040 a5bd 58c8 9d3d
