models/2024-07-15_15-03-29/epoch_0012_loss_0.00026332/dynamics.pth (torch, 83084 bytes, 8 tensors)

fc1.weight f4 [64, 34]
000000 d2 f2 8b 3d c4 d7 fc bd 30 55 8f 3d 47 db aa 3d
       0.06833424 -0.123458415 0.0699867 0.08342605
000010 10 3c 26 be ce b8 16 be c6 fd 7f 3d 7f f8 e8 3d
       -0.1623385 -0.14718935 0.062497877 0.11375522
000020 a6 4b 34 3b d7 a3 2d bd bb fe 24 be 3d 52 12 3e
       0.002751091 -0.042392578 -0.16112797 0.14289184
000030 27 d6 ce 3d 9a da 4d 3d 2d 1f 57 bd e3 17 ec bd
       0.1009944 0.050257303 -0.052519966 -0.115279935
000040 40 6a 8d bd cb 22 fe 3c 81 7f 49 be a5 c8 23 3e
       -0.06905031 0.03102245 -0.19677545 0.15994509
000050 45 61 3d bd 69 36 3b 3b a8 12 87 bd c5 10 45 3b
       -0.04623534 0.0028566367 -0.06595355 0.003006981
000060 60 b1 0b 3e 33 f1 b9 bd a9 f6 1e be bf b0 2b 3e
       0.13641882 -0.09079208 -0.15523781 0.16766642
000070 59 e1 09 3e dd d5 92 bd 7f 42 7b bd ac b1 c0 3c
       0.1346487 -0.071696974 -0.061342712 0.02352222
000080 03 e1 f8 bd 08 b9 2c be 40 2e 3d 3d a4 f3 2e 3d
       -0.121522926 -0.16867459 0.046186686 0.042712823
000090 52 50 87 3d 24 49 30 3e d3 3d 15 3c 7f 38 b6 bd
       0.06607117 0.17215401 0.009108978 -0.088974945
0000a0 d0 ff 27 be a0 03 1d bd e2 d7 f1 bb b3 39 90 3d
       -0.16406178 -0.038333535 -0.0073804716 0.07042255
0000b0 57 69 98 bd 05 f6 53 be a9 56 98 bd 29 82 67 3d
       -0.07441967 -0.20699318 -0.07438404 0.056520615
0000c0 b6 24 0c be 98 64 1a be 50 6f 68 3e 99 2d 9f bd
       -0.13685879 -0.15077436 0.22698712 -0.07772369
0000d0 5d 2c b3 bd 7e d9 5d bc 79 20 7a 3b d6 2c fb bd
       -0.08748696 -0.013540624 0.0038166328 -0.12264411
0000e0 bf c1 5c bc 4e 18 91 3d 6c 8b 92 3c 70 96 0a 3e
       -0.013473927 0.07084714 0.017888747 0.1353395
0000f0 21 19 4c be 41 b8 d4 3d 53 c4 22 be 9f 99 de 3d
       -0.19931461 0.10386706 -0.15895204 0.10869145
000100 1c 19 59 be 4f a7 e1 3d bf 18 83 3d 56 c1 6c 3d
       -0.21200985 0.1101824 0.06401204 0.057801567
000110 2c 29 94 bd f6 5d 05 be 68 2d aa bc 88 3e d8 bc
       -0.072344154 -0.13024125 -0.020773605 -0.026397005
000120 06 0d c3 bd ea 2a a5 3d 22 20 e0 3d 40 bc b5 3c
       -0.095239684 0.08064826 0.10943629 0.022184491
000130 a0 01 84 bc c5 72 01 3e b2 96 b2 3d 0d 92 05 be
       -0.016114056 0.12641437 0.08720149 -0.13043995
000140 40 7d 29 3c e2 22 c6 3d f2 53 27 be 1b 96 1e 3e
       0.010344803 0.09674622 -0.16340616 0.15486948
000150 e0 d0 57 3d 85 ee 15 be 6a 2d 05 be 80 7e 9f ba
       0.052689433 -0.14641769 -0.13005605 -0.0012168437
000160 ee ea 20 be 30 9c 12 3c 3a 27 bd 3d db 49 99 bd
       -0.15714619 0.008948371 0.092359975 -0.0748479
000170 b0 07 79 3d 70 f5 1c bd 90 43 54 bc 8f c9 b6 bd
       0.060798347 -0.038320005 -0.012955561 -0.08925163
000180 42 07 e6 3d aa 63 ca 3d cc e1 03 bd 40 dc d6 3b
       0.11231853 0.09882291 -0.03219776 0.0065570176
000190 30 44 43 3d 88 f1 f3 bc 35 19 af bd 72 b4 27 be
       0.04767245 -0.029778257 -0.0854973 -0.16377428
0001a0 ca c7 d1 bc ef 05 6e 3d a4 14 bb 3a 8a 90 23 3e
       -0.025607962 0.058111127 0.0014273119 0.15973106
0001b0 f2 95 f9 bc 7c 00 02 be 53 4d 59 3d f6 59 c1 3d
       -0.030467007 -0.12695497 0.053052258 0.09440987
0001c0 a7 ef 18 3d 2d 14 02 3e 06 81 93 bd ad 38 c1 3d
       0.037337925 0.12703009 -0.07202344 0.09434638
0001d0 96 4f ad 3d 05 e3 27 3e 60 df 20 be 1b ca ab 3d
       0.084624454 0.16395195 -0.15710211 0.08388158
0001e0 98 5c c3 3d c8 73 ec 3d 4a 8a ac 3c 71 ef 53 3d
       0.09539145 0.11545521 0.021062035 0.05174202
0001f0 30 9a cd 3d 6d c2 64 3d 82 00 e7 bc 2e eb 14 3e
       0.100391746 0.05584948 -0.028198484 0.14542839
000200 51 ad 88 be 94 d5 1f 3e 85 b9 ca 3c 4f bf b0 bc
       -0.2669473 0.15608817 0.024746666 -0.021575598
000210 17 ff b0 bb a6 f6 ce 3d 2c d8 b8 bd 13 b3 28 3e
       -0.005401503 0.10105638 -0.090256065 0.16474561
000220 00 8f c0 ba bb e6 20 3e 72 e6 97 3d b0 22 7d 3d
       -0.0014691055 0.15713017 0.07417001 0.06180066
000230 bb 90 18 3e 70 60 a2 bd e0 a7 9e bb 16 12 89 3d
       0.1489896 -0.0792855 -0.0048417896 0.06692903
000240 3e 01 c7 3d bb c6 16 3e f5 b3 db bd a7 31 ec bd
       0.09717034 0.14724247 -0.107276835 -0.11532908
000250 71 a2 2c 3e 3e 58 e7 3d 7c b1 4f 3d c5 c6 29 3e
       0.16858841 0.11296128 0.05070637 0.16579731
000260 20 e7 23 3c d0 d5 04 be 82 41 1e be 1a d2 bd 3d
       0.010003835 -0.12972188 -0.15454677 0.09268589
000270 b6 03 ba bd 77 f1 86 bd a8 3b 01 3d 23 16 29 3e
       -0.09082739 -0.065890245 0.031551033 0.1651235
000280 01 1c 13 3e 60 fe 09 3c 7e 59 e1 3d 42 56 f2 3d
       0.14366151 0.008422464 0.110033974 0.118328586
000290 60 99 64 3c 88 5f da 3c 92 74 e7 3d 7b ea 02 3e
       0.013952583 0.026656881 0.11301531 0.1278476
0002a0 06 15 4b bd 68 a0 94 bd 90 c2 bb bd 04 0e 05 be
       -0.049580596 -0.072571576 -0.09167969 -0.12993628
0002b0 60 be 8b bb d7 6d 82 bd 10 97 b7 bc e0 80 ad 3b
       -0.004264638 -0.063686065 -0.0224109 0.005294904
0002c0 e2 70 e2 3d 12 ad 26 be 0d d2 25 3e 2b e3 06 3e
       0.11056687 -0.16276959 0.1619341 0.13172595
0002d0 98 60 8b 3c 4a 86 d0 bd 80 6f ef 3b 8e 73 da bd
       0.017013833 -0.101818636 0.007306993 -0.106665716
0002e0 70 b0 2a 3c d0 1f e3 bc 66 e2 bd 3d fe e3 de 3d
       0.010418043 -0.02772513 0.09271698 0.1088333
0002f0 a3 12 cc bd da 7e bf 3d 7d 21 bf bd 3a f5 16 be
       -0.09964492 0.09350367 -0.09332559 -0.14741984
000300 a4 26 4f 3d 8e 85 8f bd 14 ed 6b 3d 73 59 fa bd
       0.05057396 -0.070078954 0.057599142 -0.12224092
000310 d5 5a d9 bd d8 6e 21 3d 52 c5 cb 3d 3e 3b 88 3d
       -0.10613028 0.03941235 0.09949745 0.066519246
000320 60 ee b3 bc ab 65 8d bd 3a 79 25 be 04 6c 53 3d
       -0.021964252 -0.06904157 -0.16159526 0.051616684
000330 e7 9f 36 3e a2 74 23 3b 48 76 46 be 6e 49 96 bc
       0.17834435 0.0024941345 -0.19381058 -0.01834556
000340 84 dc 31 3d b8 e0 2b be ee f2 18 bd b7 da 6f 3a
       0.04342319 -0.16784942 -0.03734105 0.00091497175
000350 07 64 7b 3d 10 d1 e1 3d b5 e6 d2 3d 01 aa 7d 3c
       0.06137469 0.11026204 0.1029791 0.015482427
000360 ff 50 2b be 7f 6d 32 bd c7 30 5b be ac c6 43 3d
       -0.16730116 -0.043561455 -0.21405326 0.04779689
000370 46 19 7e 3d 7b 7f 52 be cc 73 6a 3e d8 17 f1 3d
       0.06203582 -0.20556442 0.22895736 0.11772126
000380 d8 52 df bc 38 a8 ae 3b b6 10 6e be 40 dd b5 bb
       -0.027261183 0.005330112 -0.23248562 -0.0055500567
000390 50 79 63 bd 66 d2 89 bd bd a6 41 bd 33 3c 07 3e
       -0.055535614 -0.067295834 -0.047278155 0.13206558
0003a0 f3 a3 19 be 27 48 e6 bd 50 b2 71 be ca f0 67 3c
       -0.15003948 -0.11244231 -0.23603177 0.01415653
0003b0 e7 60 2d be 18 28 2b bd 16 a7 86 bd 86 ff c0 3d
       -0.16931497 -0.041786283 -0.06574838 0.09423737
0003c0 f0 8f 80 3c 60 7a 82 3b a6 ac b9 3d e0 5c 84 3d
       0.015693635 0.0039818734 0.09066133 0.06463027
0003d0 5e c8 a9 3d 00 38 e8 38 42 a3 b9 3d a0 f6 25 bd
       0.0829017 0.00011073053 0.09064342 -0.040518403
0003e0 6a 05 eb bd ff 48 d9 bd 68 c4 0a bd f1 88 1a 3e
       -0.11475642 -0.10609626 -0.033878714 0.15091302
0003f0 70 08 bf bd 03 e6 23 3e 24 2f 02 3d bb 34 2b 3e
       -0.09327781 0.16005711 0.031783238 0.16719334

fc1.bias f4 [64]
000000 ee b6 55 3c 98 64 65 3e 70 18 e6 bc 5c 1e 7c bb
       0.013044102 0.22401655 -0.028087825 -0.0038470244
000010 00 8f 3c bd 6b e0 14 be 7b bb 41 be ad 0b 63 3a
       -0.046034813 -0.14538734 -0.18919174 0.00086611026
000020 b8 b5 e4 3d 39 a5 fb bd 8e 0d 94 3b 45 9b 74 bd
       0.111674726 -0.12287373 0.0045182174 -0.05971839
000030 cc 6f 77 bd 45 a3 8d 3d 07 ad b6 bd c6 54 01 3e
       -0.060409352 0.06915907 -0.08919721 0.12629995
000040 42 87 10 be 36 0f a1 3d b2 a4 d8 bc 8f ac cb bd
       -0.14114097 0.078642294 -0.02644572 -0.09945022
000050 10 58 63 bd 5e aa b2 bd 09 49 a8 bd 4c 19 94 bd
       -0.055503905 -0.08723901 -0.08217055 -0.072313875
000060 41 34 a0 bc eb 8a 13 bd d8 4e 01 bd f0 a5 30 3e
       -0.019556167 -0.036021154 -0.031569332 0.172508
000070 11 64 60 3d a4 18 d4 3d 80 86 c0 bb f7 15 20 bd
       0.05478293 0.10356262 -0.0058754086 -0.039083447
000080 dc f6 ad bd 4f 59 ec 3d 56 65 61 bd c0 22 82 bc
       -0.0849435 0.11540472 -0.055028282 -0.01588571
000090 56 0e 06 be 3e 13 59 bd f3 54 7e bd 07 ce 67 bc
       -0.13091406 -0.052996866 -0.062092733 -0.014148242
0000a0 07 52 ab 3d ec db 26 be bd fb 1c be ce b8 11 3e
       0.08365255 -0.16294831 -0.15330406 0.14230654
0000b0 3a d6 0d be e3 0e 29 3e a8 b6 15 3e 60 35 2d be
       -0.13851252 0.16509585 0.14620459 -0.16914892
0000c0 24 3c b6 bd e0 89 81 bb 80 02 60 3d 4a 4f f5 3c
       -0.0889819 -0.0039532036 0.054689884 0.029945035
0000d0 a5 88 b5 3d 48 1b 25 be f3 55 80 3c f6 06 09 be
       0.088639535 -0.16123688 0.015665984 -0.13381562
0000e0 58 64 73 bd 6d 29 21 bd 08 03 2b bd a0 dd 0e 3d
       -0.059421867 -0.039346147 -0.041750938 0.034879327
0000f0 a8 de e9 bc ff d7 9a bb 42 f5 d8 bd a8 c6 e4 bd
       -0.028548554 -0.004725456 -0.10593654 -0.11170703

fc2.weight f4 [128, 64]
000000 7c 41 fd bc 24 a8 a6 bd 6c 55 c5 bd 90 5b 93 3c
       -0.030915014 -0.08137539 -0.096354336 0.017987996
000010 de 4f a7 bd ec ae 24 bd 77 f5 47 be d0 8e ab bd
       -0.0816953 -0.04020588 -0.19527231 -0.08376849
000020 a2 0d 15 be e4 11 3e 3d b3 57 c3 bd 58 8d 90 bc
       -0.14555982 0.04640378 -0.09538212 -0.017645523
000030 f4 7e 2e bd f0 4a 8d 3c 30 a4 f4 bd f0 ff ca 3d
       -0.04260154 0.017247647 -0.11945379 0.099120975
000040 ac 62 6b bd a8 db 13 3d ed 96 3f bd be e4 d0 bd
       -0.057467148 0.036098152 -0.046774793 -0.10199879
000050 a2 30 d0 3d a1 82 65 bd 60 1c 0a be a4 ae 0a 3d
       0.10165526 -0.05603278 -0.13487387 0.033857957
000060 c3 23 07 3c ce 56 c3 3a 42 ed ed bd e8 1a 9a 3d
       0.008248272 0.0014903189 -0.11617519 0.07524663
000070 f0 c6 8a ba 0b cd fa bc 5c 28 fc bd c3 25 b5 bd
       -0.0010587852 -0.03061535 -0.123123854 -0.08845093
000080 c2 3e f7 bc 64 bf b4 3c 30 7b 3e 3d 08 2c 6c 3d
       -0.030181292 0.022063918 0.0465042 0.05765918
000090 9f 27 2b be e8 a5 b4 3b 70 25 c4 3c b2 34 22 bd
       -0.16714333 0.0055129416 0.023943633 -0.039601035
0000a0 74 eb b5 bd 54 4d 9e bd e8 ef 85 bd 58 31 ff 3c
       -0.088828 -0.07729593 -0.06539899 0.031151459
0000b0 ef d9 52 bd 80 45 e5 3d 2c b3 23 3d 58 77 d0 bc
       -0.05147737 0.11194897 0.039965793 -0.025447533
0000c0 40 d9 14 be 6c c8 c1 bd 8d 16 d7 bd 35 99 ce 3c
       -0.14536 -0.094620556 -0.10502348 0.02521954
0000d0 23 00 94 bd 9e 3e 7b bd ba 11 ac bd 79 2c 6b bd
       -0.072265886 -0.061339013 -0.084018186 -0.05741546
0000e0 12 2a a6 bd 17 63 3f 3d ec 22 00 be b9 72 ba bd
       -0.08113493 0.04672536 -0.12513322 -0.09103913
0000f0 a0 1a c6 bb 3c 17 9a bd 43 51 0d be a8 ce b8 3b
       -0.0060456544 -0.07523963 -0.1380053 0.0056398697
000100 e8 9f 9d bd 20 cf 29 3d 00 88 be 3b fe d1 80 bd
       -0.07696515 0.041457295 0.0058145523 -0.06290053
000110 b4 77 ab 3d d4 5c b1 3d f0 d6 c4 bd b0 58 9f bc
       0.08372441 0.08660284 -0.096113086 -0.01945147
000120 bc dc b7 bd e4 ce e4 3d f4 d7 58 3d fe 67 c6 bd
       -0.089776486 0.11172274 0.052940324 -0.09687804
000130 d4 e1 0b 3d 2a 23 b4 3d d6 6f bd bd 14 bb 6c 3d
       0.034150913 0.087957695 -0.09249847 0.0577956
000140 0c 4f 15 bd 80 84 62 3d 7a 1b 92 3d 14 29 80 bd
       -0.036452338 0.055302143 0.07134147 -0.06257835
000150 14 3e 6f 3d 5c af 29 3d 50 65 3e bd f4 65 26 3d
       0.05840881 0.041427 -0.046483338 0.040624574
000160 56 86 e8 3d 46 4b fe bd e0 d7 23 bc 90 55 83 3d
       0.113537475 -0.12416701 -0.010000199 0.06412804
000170 5a 55 df bd 0c b4 ae bd 80 d3 99 3c c0 32 6f 3b
       -0.109049514 -0.08530435 0.018777609 0.0036498755
000180 b8 db 75 3d 98 4c 8a bd 78 29 27 bd 58 75 cf bd
       0.060023993 -0.0675289 -0.040811032 -0.101298034
000190 b0 bc 78 bd 00 03 ce 3d 60 be 0d 3c fe 81 fa bd
       -0.06072682 0.10059166 0.008651346 -0.12231825
0001a0 82 b7 fa 3d 14 05 fe bd 70 4c 4c 3c c6 84 8a bd
       0.122420326 -0.12403312 0.012469396 -0.06763606
0001b0 fc 64 22 bd 30 2a 5d bd e0 43 a6 3b 72 d3 bb bd
       -0.039647087 -0.05399531 0.0050740093 -0.09171189
0001c0 48 11 78 bd 50 45 5a bc 82 75 f5 bd 36 f5 85 3d
       -0.060563356 -0.013322189 -0.119853035 0.06540911
0001d0 50 45 e4 bc 0e 0a ec 3d 24 8b c0 3d 60 59 b7 bd
       -0.027865082 0.11525355 0.09401539 -0.08952594
0001e0 1e 79 cc bd cc 63 5f bd f0 29 0e bc 72 80 b2 3d
       -0.09984039 -0.054538533 -0.008676991 0.08715905
0001f0 b6 33 a9 bd b8 a6 dc 3c e0 e2 e2 bb dc f1 1c 3d
       -0.08261816 0.026934966 -0.0069240183 0.038316593
000200 04 2a 1b bd 40 6b a0 3c 68 5d 53 3d e0 31 54 3c
       -0.037881866 0.01958239 0.05160275 0.012951344
000210 c2 ac f4 3d ec ed 16 bd 7e 11 b2 3d 10 9a 47 3c
       0.119470134 -0.036847994 0.086947426 0.012182727
000220 fa 5c ae bd 94 dd 7b bd 48 d8 81 bc 1c fc a0 3d
       -0.085138276 -0.06149061 -0.015850201 0.07860586
000230 ec 95 39 3d d0 50 c8 3c 84 ce da bd a2 e6 bc bd
       0.045308992 0.024452597 -0.10683921 -0.09223677
000240 0e 60 fb 3d 28 16 fc 3c 9e af c1 bd 8a 55 9a bd
       0.1227418 0.030772284 -0.094573244 -0.075358465
000250 e2 35 b0 3d 2e b6 d9 bd 00 ab db bb f0 b1 eb 3d
       0.08604027 -0.10630451 -0.0067037344 0.11508548
000260 00 cd da 3d 10 07 bf bc 58 95 f1 3c c0 0a 78 3c
       0.10683632 -0.023318797 0.029490158 0.015139282
000270 e8 e5 26 3d 90 cc 63 bd 06 79 ed bd 80 7a 3d bb
       0.0407466 -0.055615008 -0.11595349 -0.0028912127
000280 90 fc 17 bd dc 33 1c bd a6 41 f3 bd 00 22 f2 3b
       -0.037106097 -0.038135394 -0.11877756 0.007389307
000290 60 c4 cb 3d 0a dc fe bd 70 1d 4b 3d f6 c5 d6 3d
       0.09949565 -0.12444313 0.04958862 0.10486977
0002a0 ec 3e 59 bd f0 de 32 bc 22 f6 b6 3d b8 01 d3 3c
       -0.053038523 -0.01091741 0.08933665 0.025757656
0002b0 64 de 93 bd f4 ea 65 3d 1e 10 d7 3d 08 a8 d3 3d
       -0.07220152 0.056132272 0.10501121 0.10334784
0002c0 50 4a c2 bd 20 9f af 3c 80 f7 60 3c 3e c5 bf bd
       -0.0948683 0.021438181 0.013730884 -0.09363793
0002d0 e8 f0 5d 3d 54 e6 34 bd f8 eb f9 3c 62 07 f3 bd
       0.054184824 -0.04416497 0.030508026 -0.118666425
0002e0 c8 ec 9b bd 50 65 dc bd 54 61 f8 bd d0 03 13 bd
       -0.07613522 -0.10761511 -0.12127939 -0.035892308
0002f0 44 fd 06 bd 78 d5 a4 bc b4 78 03 3d 48 25 d5 3c
       -0.032956377 -0.020121321 0.032097533 0.026018754
000300 4f f3 2c be 2b 83 38 bd 08 15 f7 bc 9a ee b9 bd
       -0.1688969 -0.045046967 -0.030161396 -0.09078713
000310 d0 ba a5 3c a0 f3 b6 3c 64 78 7e 3d 30 cc 85 3d
       0.02023068 0.022332966 0.062126532 0.06533086
000320 2e 87 97 bc 84 ed 1d 3d f5 f9 ed ba 60 5c fa bc
       -0.018497076 0.03855659 -0.0018156158 -0.030561626
000330 a4 42 dc 3d 18 64 da 3d 31 f6 cd bd c8 5e 35 bd
       0.10754898 0.106636226 -0.10056723 -0.044279844
000340 80 29 3e 3b fc 4e f9 bd 6d 7d 31 be 7d e7 c0 bd
       0.0029016435 -0.12173268 -0.17333002 -0.09419153
000350 c0 a7 32 3d e1 a4 00 be 27 e5 8a bd 94 80 46 bd
       0.04361701 -0.12562896 -0.067819886 -0.048462465
000360 18 4b 19 be 07 ad f1 bc 90 97 43 bd a0 f4 74 bc
       -0.14970052 -0.029501451 -0.047751963 -0.014950901
000370 ff 44 89 3c 8e da 57 3d 68 04 8c 3c ec 5b e7 3a
       0.016756533 0.052698664 0.017091945 0.0017651296
000380 27 ce de bd 97 91 bd bd 12 0d a4 3c d8 43 b3 3c
       -0.10879164 -0.09256285 0.020025764 0.021882936
000390 da 2e 93 bd af cc d4 3c 75 9c 06 bc c1 0b 0b bd
       -0.071866706 0.025976507 -0.008216013 -0.033946756
0003a0 de ff ab bd 80 af fd ba 38 5a c5 bc c8 5c 2b bd
       -0.08398412 -0.0019354671 -0.024090871 -0.04183653
0003b0 97 80 69 bd a6 d0 df 3d d0 53 c8 bd b8 ac ce bc
       -0.0570074 0.109284684 -0.09781611 -0.025228843
0003c0 f3 0d b0 bd 32 47 d1 3d 49 2f 01 be 12 91 c4 bd
       -0.085964106 0.102186576 -0.12615694 -0.095979825
0003d0 91 73 3c bd 78 87 60 bd 43 1a 1e 3d 5c 51 6d bd
       -0.04600865 -0.054816693 0.038599264 -0.05793892
0003e0 68 1c 51 bd d9 bb 06 3d c4 f1 31 be 72 7c e2 bd
       -0.05105248 0.03289399 -0.17377383 -0.11058892
0003f0 70 e3 b3 3c c8 0e 8d bd 2e e7 86 3d d3 ed 1e be
       0.021959037 -0.06887585 0.06587063 -0.1552041

fc2.bias f4 [128]
000000 77 8c 33 be e8 4e a6 bc 14 5a 3a bd f9 53 8e bd
       -0.17534052 -0.020301297 -0.04549606 -0.0694961
000010 99 64 95 3d cd db a8 bd 00 bc 55 3d 1f 09 b0 bd
       0.07294578 -0.08245049 0.052181244 -0.0859549
000020 85 0c bf bd e5 1b ef bd ea 10 b2 3d ee 62 ea bd
       -0.0932856 -0.11675242 0.08694632 -0.114446506
000030 a7 2c b5 bd 0c 9c 21 3d 99 0b 24 be 38 6e 6d bd
       -0.088464074 0.03945546 -0.16020049 -0.05796644
000040 14 91 69 bd fd 51 01 be 90 3a d9 bd d0 e9 a2 bd
       -0.057023123 -0.12628932 -0.10606873 -0.079547524
000050 70 e4 6d bc 1f 20 ac bc 18 a9 2d 3d 28 d8 0a bd
       -0.014519796 -0.02101141 0.04239759 -0.03389755
000060 70 7f d0 bd 22 31 ad bd 60 f9 e1 3c 3e 08 29 3d
       -0.10180557 -0.08456637 0.027584732 0.041267626
000070 10 b5 fd bd 26 ff 8a bc c3 fb 0e be c9 47 6a 3d
       -0.123880506 -0.016967367 -0.13963227 0.057197366
000080 32 2e fc bd 98 3f 50 3c af 7f c2 3c 91 69 c4 3d
       -0.123134986 0.012710474 0.023742525 0.09590448
000090 01 70 2f 3d cd db 34 3d df b0 de 3d 3d 6c f5 bd
       0.042831425 0.04415493 0.10873579 -0.119835354
0000a0 8f 9d 39 3e 16 dd bd bd ed 76 d4 bd fe c4 7f bd
       0.1812651 -0.092706844 -0.10374246 -0.062443726
0000b0 bb 0b c7 bc f5 fa 92 3d 5f 93 a2 bb c0 62 58 3b
       -0.024297586 0.071767725 -0.0049614157 0.0033017844
0000c0 fe b6 c5 3c da 4a e2 bd 40 63 06 be 07 d8 cd 3b
       0.024135109 -0.11049433 -0.13123798 0.006281856
0000d0 f4 e5 0f 3d 54 2e fe bd b1 67 f1 3d 6a f8 88 bd
       0.03513141 -0.1241118 0.11787356 -0.06688006
0000e0 43 59 33 3d 9d 32 a5 bc 8e 9c a8 3c 38 df 91 bd
       0.0437863 -0.020165736 0.020582464 -0.07122654
0000f0 77 ee 2d 3e 89 8f a7 bd ff 6e 58 bd 53 da 0d be
       0.16985498 -0.08181674 -0.05284023 -0.13852815
000100 ea c5 d2 3b d0 75 56 bd 48 e2 99 bc 56 73 98 bd
       0.0064322846 -0.05235845 -0.018784657 -0.074438736
000110 68 a2 c2 bd ee 68 9c bd 44 4a 3e 3d 99 77 00 3e
       -0.09503633 -0.07637201 0.046457544 0.12545623
000120 98 d6 5c 3d 6d c8 3b be ac 33 c7 3d 63 17 e3 bd
       0.05391559 -0.18338175 0.097266525 -0.11088445
000130 6e fd 9a 3d 56 0b 84 bd 32 66 d2 bd 9c 68 70 bd
       0.07567869 -0.06447475 -0.102733985 -0.058693513
000140 d9 ff 22 be 5e 3f ca bd 74 b9 e0 bd c5 1c 45 be
       -0.1591791 -0.098753676 -0.109728724 -0.19249256
000150 db e7 8a bd 3a 41 d5 bd 98 de 60 bd 8a 83 27 bc
       -0.06782504 -0.104128316 -0.054899782 -0.010224232
000160 51 0d ed bd 92 f1 3b 3d 10 e8 ed bd 0e 1a 86 bd
       -0.115748055 0.045884676 -0.11616528 -0.06547938
000170 ee 77 14 be 8b 00 51 3d ef 48 d4 3b 00 fb 33 3d
       -0.14498875 0.05102591 0.006478421 0.043940544
000180 90 9a 31 bd 43 4d cd 3d 0a 10 b1 3d 5e 62 e8 bd
       -0.043360293 0.10024502 0.08645637 -0.11346887
000190 f9 c4 9f 3c 08 a0 c1 bd b8 97 33 bd 35 8a 0a bd
       0.019503104 -0.09454352 -0.043845862 -0.03382321
0001a0 28 80 c4 3c a0 7e 5f bd 18 49 e0 3c 89 fe 80 3c
       0.02398689 -0.05456412 0.027378604 0.015746372
0001b0 ac 96 0c 3d ee a5 e1 3d c4 87 66 bd 11 3f 6e ba
       0.03432338 0.11017977 -0.05628182 -0.0009088377
0001c0 7a 1a b1 bc 0f 25 43 3d df e9 08 be 02 57 a3 bd
       -0.02161907 0.047642764 -0.13370465 -0.0797558
0001d0 02 ec 9d 3c 08 9e 2f 3c 34 db c2 bc 8c f7 3a bc
       0.019277576 0.01071883 -0.023786165 -0.011411559
0001e0 e0 c1 4c bc 6f 35 88 bd 66 a3 09 bd 9c 3c 7d bd
       -0.012497395 -0.06650817 -0.033603095 -0.06182538
0001f0 9a 04 f8 bd 1c 22 03 3d a1 fc 17 3d 99 e9 e9 bb
       -0.12110253 0.03201495 0.03710616 -0.0071384427

fc2_1.weight f4 [64, 128]
000000 18 99 36 bd 80 5f b6 bb 58 d7 da bc e8 04 20 bd
       -0.044579595 -0.0055655837 -0.026714012 -0.03906718
000010 a7 44 92 3d 10 51 af bd 84 2d 97 bd 70 9a a4 bb
       0.07142001 -0.08560383 -0.07381728 -0.005023293
000020 88 cd 46 bc 6c c5 c5 bc d6 85 60 3d fc 74 b5 3c
       -0.012133963 -0.02414199 0.054815136 0.022150509
000030 a5 e7 a5 3d fa 17 2a 3d a4 6d 91 bd e5 46 9a bd
       0.08100823 0.041526772 -0.071009904 -0.07533053
000040 6e 6f 39 3d ce bf 51 3d c1 39 52 bd 05 53 3d bd
       0.045272283 0.05120831 -0.05132461 -0.04622175
000050 d2 35 3e 3d d2 d0 5c 3d 6a a2 b2 bd bc bd 01 3d
       0.046438046 0.053910084 -0.08722384 0.031675085
000060 e8 08 86 bd 4c dd 9e bc 96 d2 a9 bd 88 2d 74 bc
       -0.065446675 -0.019392632 -0.08292119 -0.014903434
000070 92 96 f0 bc ac 8d e6 3c 10 66 33 bc 04 c5 a4 3c
       -0.029368673 0.028143726 -0.010949627 0.020113476
000080 00 94 89 bc 0e 69 47 3d 78 9c e4 bc 10 22 ff 3b
       -0.016794205 0.048684172 -0.027906641 0.007786043
000090 46 8d 5e bd 60 b9 97 bc 07 80 9d 3d 30 77 ea bb
       -0.054333948 -0.01852101 0.07690435 -0.0071553215
0000a0 72 aa ff bc 82 ca 05 3d d8 5f 3d bc 14 ee 6b bd
       -0.031209204 0.03266383 -0.011558495 -0.057600096
0000b0 09 9c 14 bd ec 6b be bc c0 53 50 bb c0 01 9c 3a
       -0.03628162 -0.02324482 -0.00317882 0.0011902377
0000c0 98 e2 f7 bc 20 28 09 bd 65 00 8a 3d cf ca 61 bd
       -0.030259416 -0.03348553 0.067383565 -0.055125054
0000d0 a8 11 33 bd 00 a4 52 39 25 ef aa 3d 7d 64 b2 3d
       -0.04371801 0.00020088255 0.083463944 0.08710573
0000e0 5e 33 a8 bd e8 bd fc 3c 88 a1 07 3d 30 55 a8 3c
       -0.082129225 0.030852273 0.033113033 0.020548433
0000f0 ae 07 ab bd 00 63 a5 39 78 85 93 bc cd c4 98 bd
       -0.08351074 0.00031545013 -0.018007979 -0.07459412
000100 10 13 d2 3b 80 48 29 bc e2 15 ee bc b0 18 58 bd
       0.006410964 -0.010332227 -0.029063169 -0.05275792
000110 a8 bf f2 bc a6 6d 48 3d fc 16 80 bd 5e 8b 57 3d
       -0.029632404 0.048932694 -0.06254384 0.052623145
000120 77 0a 9a bd 80 c5 64 ba e6 41 42 3d 82 a6 63 3d
       -0.07521527 -0.00087269396 0.047426127 0.055578716
000130 60 62 3a bc 39 eb ae bd 64 e5 e3 3c f4 19 91 bc
       -0.0113759935 -0.08540959 0.027819343 -0.01771257
000140 9a 0c 35 3d 98 7e 9e bd bc a0 09 bd 36 83 71 3d
       0.04420147 -0.077389896 -0.033600554 0.058963023
000150 56 7e 53 3d 20 10 ba 3b 66 7b 5c 3d c0 22 58 3c
       0.051634155 0.005678192 0.05382862 0.013191879
000160 20 23 87 bd d4 f9 a9 bc cd 3f 12 bd 2a 93 2d bd
       -0.065984964 -0.02074901 -0.035705376 -0.042376675
000170 59 ca a4 bd 18 23 86 3c 78 42 3b 3c be 95 3e 3d
       -0.08046407 0.016374156 0.011429422 0.046529524
000180 60 32 cf bc e0 ec e5 bb 9f 91 b2 3d 06 e2 32 3d
       -0.025292575 -0.007016763 0.08719181 0.043672584
000190 ed 43 84 3d e0 3e 44 bd 90 57 b2 3b f4 3e 97 bc
       0.06458268 -0.047911525 0.005442567 -0.018462636
0001a0 20 de 8d bd ea 6c 43 3d be 67 5f 3d b8 17 6c 3c
       -0.069271326 0.04771129 0.054542296 0.014409952
0001b0 6c fc a5 bd 98 c8 4f bd ce 56 71 bd 88 c9 b5 bc
       -0.08104786 -0.05072841 -0.058920674 -0.022190824
0001c0 43 be 1f bd 0e 69 62 3d 6c 71 70 bd 17 36 16 bd
       -0.038999807 0.05527597 -0.058701918 -0.036672678
0001d0 d0 9e 03 3d 69 1d 9b bd 83 ec 93 3d d9 1a 98 3d
       0.032133877 -0.07573969 0.072228454 0.07426996
0001e0 d4 0e b6 bc db 17 88 3d 40 09 c4 3c a8 cf 3c 3c
       -0.022223867 0.06645175 0.023930192 0.0115241185
0001f0 3c fa b5 bc c8 10 6e bc 00 91 9c 3c e9 15 24 bd
       -0.022214048 -0.014530368 0.01911211 -0.040059958
000200 f3 d3 01 3d 40 a7 05 bd f3 d3 a5 bd d2 2a 31 bd
       0.03169627 -0.032630205 -0.08097067 -0.043253727
000210 e5 31 c7 3d c6 d0 04 be 0e db 3b bc 19 eb 92 bc
       0.097263135 -0.12970266 -0.011465801 -0.017934369
000220 46 e2 91 ba e0 9b b7 bc bf 5f 36 bd cd 13 78 3d
       -0.0011130057 -0.022413194 -0.044524904 0.06056576
000230 e2 b1 94 3d fd ed 58 bd 5c 45 af 3d 38 67 b9 3c
       0.07260491 -0.05296134 0.08558151 0.022632226
000240 cb ee a1 bd 11 4e c9 3d b0 4e d2 bd 97 13 71 3c
       -0.07906874 0.09829343 -0.10268915 0.014714143
000250 30 86 e8 bb 5a c2 84 3a 5f 01 33 bd 2f cc 7b bd
       -0.0070960745 0.0010128722 -0.04370248 -0.06147402
000260 7d 15 06 3d f8 77 d6 bc 54 21 67 bc 8f 90 15 be
       0.032735337 -0.026180252 -0.014107067 -0.14605926
000270 ca 1b 74 bd a6 09 e5 bc d4 be 10 3d fe a7 b5 bc
       -0.059596814 -0.027958702 0.035338238 -0.022174831
000280 12 2d d4 bc da 53 76 bd 3b b0 a6 3d aa 55 cf bd
       -0.025900397 -0.06013856 0.08139082 -0.10123761
000290 db 29 fa bd fc d7 6f 3d 1c 99 16 be 63 8c 1c 3c
       -0.122150145 0.058555588 -0.14706844 0.009554955
0002a0 81 1c ca bd 63 6e 9a 3d 10 c0 71 3d ca 8d 17 bd
       -0.09868718 0.07540586 0.059021056 -0.037000455
0002b0 22 af c9 bd 2c bf 58 3d bf 46 6a bd aa 89 19 3d
       -0.09847857 0.05291669 -0.057196375 0.037484802
0002c0 e1 05 e8 bd ce 56 53 bd 5f e5 ca 3d fd 55 43 bc
       -0.11329246 -0.051596455 0.0990703 -0.011922357
0002d0 93 f5 70 3d 79 be 76 3d e3 8d fa bc fa 6c e8 bc
       0.058827948 0.060240243 -0.030585235 -0.028372277
0002e0 6c e9 ae 3d 1a 6c 55 bd 09 0c 43 bd 90 b3 ea 3c
       0.085406154 -0.052105047 -0.0476189 0.028650075
0002f0 7a 75 22 be 74 9b d6 3d f4 77 65 bc 59 df e1 3d
       -0.15865126 0.10478869 -0.01400565 0.11028928
000300 47 81 01 bd 6b 48 a5 bd eb 9e 06 be 8c c1 99 bc
       -0.03161743 -0.08070453 -0.1314656 -0.018769048
000310 81 c8 85 3d 45 6b 6e 3a 63 c9 9f 3d ba fa 82 bd
       0.06532384 0.0009094964 0.07802083 -0.063954785
000320 8f 84 89 3d 74 e6 69 3d 30 c6 0b be 58 76 61 3d
       0.06714737 0.057104543 -0.13649821 0.055044502
000330 ab f9 bc bd f6 7f a6 bd 8f 7f ad bd 68 7d 0c bd
       -0.09227308 -0.08129875 -0.084715955 -0.034299284
000340 24 4c 15 be af d4 94 3d f8 3a 83 3c e4 59 d9 3d
       -0.14579827 0.07267129 0.01601933 0.106128484
000350 13 6f d2 bd 99 5b d5 3d 4b b9 1a bd a1 78 fe bd
       -0.10275092 0.104178615 -0.037774365 -0.12425352
000360 78 b4 02 3d db e8 24 bd 95 86 cd bb 77 16 b4 3d
       0.03191039 -0.04026113 -0.006272147 0.08793347
000370 87 27 e6 bc 80 da 41 bd 63 c2 1f be 6d 45 b0 3d
       -0.02809502 -0.04732752 -0.15601496 0.08606992
000380 80 ee ba 3c cd 08 6e bd 37 9e 95 3c 7d d7 a6 3d
       0.022818804 -0.05811386 0.01826392 0.0814657
000390 d9 5c b0 3c 42 e8 68 bd d6 98 41 3d 31 97 d6 bc
       0.021528648 -0.056862123 0.047264896 -0.02619514
0003a0 b9 aa 04 be 40 52 c1 3d 12 99 19 3d d3 44 5a bd
       -0.1295575 0.09439516 0.037499495 -0.053288292
0003b0 c0 3c 14 bc 2f 68 6f bd 02 05 6b bd c5 99 88 bd
       -0.009047687 -0.058448967 -0.057377823 -0.06669954
0003c0 b4 68 4c bc 12 42 9d bd d1 f4 17 bc b0 42 1d bc
       -0.012476135 -0.076786175 -0.009274677 -0.009598419
0003d0 da 85 f0 bd 24 f3 be 3c f9 2c ea bc 8f b6 94 3d
       -0.1174428 0.023309298 -0.028585898 0.07261383
0003e0 0e 37 51 3d 80 1a 9f bd 71 b7 93 3d 28 6e f3 bc
       0.051077895 -0.07768726 0.07212723 -0.029715613
0003f0 f2 07 5c 3d 9f 19 65 bd a4 ac 41 3d 92 df 1e 3d
       0.053718515 -0.055932637 0.047283784 0.038787432

fc2_1.bias f4 [64]
000000 76 08 88 bd d8 fc 37 bc 4f 6b d7 bc 00 70 65 bc
       -0.06642239 -0.011229716 -0.026296286 -0.014003754
000010 ec 83 25 bd d9 b4 d1 3c 63 be 5f bd 28 7e 82 bc
       -0.040409014 0.02559893 -0.054624926 -0.015929297
000020 e7 21 bf bd e4 69 02 3d 9d 98 09 be 97 84 89 bd
       -0.09332638 0.031839266 -0.13437124 -0.06714743
000030 1c 24 26 3d 54 30 6d bd 7c 93 1f 3d 60 42 fa 3c
       0.04056178 -0.057907417 0.03895901 0.030549228
000040 11 ad 78 bd 48 89 b3 bd 51 46 5a bd 76 75 09 bd
       -0.060711924 -0.08766419 -0.053289715 -0.033559285
000050 77 7a 22 3c 73 38 42 bd 18 0c e7 3c 50 f5 7c bc
       0.009916893 -0.047417115 0.028204009 -0.015439346
000060 8e 32 98 3c 17 ed 1a bd 40 9d 52 3d 24 ed ab bd
       0.018578794 -0.037823763 0.051419497 -0.0839484
000070 31 ea 3b 3c 77 16 c5 bd c1 40 89 bd 3c 8b 04 bd
       0.01146941 -0.096234255 -0.06701804 -0.032359347
000080 ba 75 8a bc 72 92 e9 3c c5 60 66 3d 00 74 61 3d
       -0.01690184 0.028512213 0.05624463 0.055042267
000090 2e 0c c4 3d 11 db 00 be 43 2f 0e be 8d ec 11 bd
       0.095726356 -0.12583567 -0.13885216 -0.035625983
0000a0 e1 fb a9 bd a8 f0 b0 bc 33 63 48 3c 8d 1a 41 3d
       -0.08299995 -0.021599129 0.012230682 0.04714446
0000b0 69 1a b8 bd 16 82 07 be c2 ac ad bd 2a d6 b4 bc
       -0.08989412 -0.13233218 -0.084802166 -0.022074778
0000c0 08 2c a2 bd 38 5d bb 3d d8 66 50 bd 74 3a 15 3d
       -0.079185545 0.091486394 -0.05087933 0.0364327
0000d0 c1 b6 7c bd 9a a9 f4 bd bc 86 21 3c 9c 63 3a bd
       -0.061697725 -0.119464114 0.009858783 -0.04550515
0000e0 6e 45 d1 3a 35 29 a6 bd e2 fd fa bc c7 b5 ab bd
       0.0015966126 -0.08113328 -0.030638639 -0.08384281
0000f0 7a 9d 25 3d 15 2f c1 3d c1 82 10 bd 40 07 b4 bd
       0.040433384 0.09432808 -0.035280947 -0.08790445

fc3.weight f4 [18, 64]
000000 00 1f 83 3d db ec 2b 3d 03 13 ff bd a4 2a c0 3d
       0.06402397 0.04197393 -0.12454798 0.09383133
000010 5c 19 c6 bd 3c d7 b2 bb 6d 99 62 3c 90 df fd bd
       -0.09672806 -0.005457787 0.013830525 -0.12396157
000020 37 43 a3 bd 52 e6 96 3d 6e e2 72 3d 91 57 eb bd
       -0.079718046 0.07368149 0.05929797 -0.11491311
000030 ab de 5d 3d 1a 20 93 bd 59 79 24 bc 6f e3 fd 3b
       0.05416743 -0.07183857 -0.010038697 0.0077480595
000040 12 6e b3 bd 74 de 05 be 32 53 f8 3d af b4 b3 3c
       -0.087612286 -0.1307314 0.12125243 0.021936743
000050 e3 04 9c bd b3 a3 bc bd d4 a6 57 3d 60 6e 0d 3d
       -0.076181196 -0.09210911 0.052649334 0.03452909
000060 aa 84 3c 3d 24 71 c0 bd f1 58 4d 3d f6 81 9e 3d
       0.046024956 -0.0939658 0.05013365 0.07739632
000070 2d b1 23 3d 8d b6 ee bb 83 a7 22 be b7 cf d7 bd
       0.03996389 -0.0072849453 -0.15884213 -0.10537665
000080 c0 3e 7f bd af d5 47 bd 94 ae ca bd 16 62 20 bd
       -0.062315702 -0.04878777 -0.098965794 -0.039156042
000090 37 6a 4e bd 29 fb 47 bd 2d 53 54 bc 02 e5 8d bd
       -0.050394263 -0.04882351 -0.012959284 -0.069284454
0000a0 11 51 b6 3d e0 95 b8 bb d9 d5 3b bd 77 30 47 ba
       0.08902181 -0.005633101 -0.045858238 -0.00075984694
0000b0 ad c4 a9 3d 08 93 c8 bd dc 2d 3c be b5 65 12 be
       0.08289466 -0.09793669 -0.18376869 -0.1429661
0000c0 d4 9a 98 bd 47 69 22 bd ea 8c 3c 3d 92 6c 0b bd
       -0.07451406 -0.03965118 0.046032824 -0.034039088
0000d0 23 e1 07 be ef 61 0c be e1 d4 08 be b8 2d 44 bd
       -0.13269477 -0.13709234 -0.13362457 -0.047895163
0000e0 5b a5 e2 bc f0 55 23 3c fa 39 f0 bd de 88 72 bd
       -0.027666738 0.00996922 -0.11729808 -0.059212558
0000f0 ce dc d2 bd 84 ef 78 bd 80 29 9a 3c 6a fc 40 3d
       -0.102960214 -0.060775295 0.018818617 0.04711572
000100 40 52 20 bb b4 a9 e4 bd 4d 05 da 3d 2c ba 64 3d
       -0.0024463087 -0.11165181 0.10645542 0.05584161
000110 29 25 4c bb 8d 46 f1 bd 63 73 b0 3d 80 6b 37 bd
       -0.003115008 -0.117810346 0.08615758 -0.044780254
000120 da 22 be 3d 54 ea 78 bd 16 d2 74 bd c0 3d 83 bd
       0.09283991 -0.060770348 -0.059770666 -0.06408262
000130 72 cd e7 ba 0a 96 d0 3d be ca c7 3d 50 43 1e bd
       -0.0017685129 0.10184868 0.09755467 -0.038638413
000140 da fb 97 3d e8 bf 01 bd e0 a1 b6 bd 57 5f 64 bd
       0.07421084 -0.031677157 -0.08917594 -0.055754986
000150 11 fc 22 bd f6 60 84 3d 30 18 fa 3d 4c 83 c1 bd
       -0.03979117 0.06463806 0.12211645 -0.09448871
000160 2c f9 30 3c 7d e1 83 3d cd b7 c1 3d 52 ed 91 3d
       0.010801595 0.06439493 0.09458885 0.071253434
000170 05 6f e5 bc 52 0e 12 be a6 c8 39 3e fd 8e da 3c
       -0.02800704 -0.14263275 0.18142948 0.02667951
000180 c7 9d 93 bb 04 52 83 3d a5 8e 47 3d 3a 76 92 3d
       -0.0045048925 0.064121276 0.04872002 0.07151456
000190 91 bf 6d 3d 4b d5 0e bd b1 a2 b5 bd dd 27 31 be
       0.05804402 -0.03487138 -0.088689215 -0.17300363
0001a0 a2 28 b0 3d 00 8a e0 3a 2a af 8f bc a3 3c 7a 3b
       0.086015 0.0017130971 -0.01753958 0.0038183115
0001b0 3d 43 41 3c c7 ae 1d bd 5f 1c 90 bc 55 58 04 3e
       0.011795816 -0.03849676 -0.017591653 0.12924321
0001c0 fd 89 85 bc c8 17 76 bc 9f 70 00 3d af 16 03 be
       -0.01630115 -0.015020318 0.031357404 -0.12801622
0001d0 b7 8d b0 bc 61 2c 3b 3d 2d 1e d5 bd fe 61 9b bd
       -0.02155195 0.04569662 -0.10406146 -0.0758705
0001e0 cc 21 2f 3d e0 ff b7 bc e4 14 82 3d 55 66 82 3d
       0.04275684 -0.022460878 0.06351641 0.063671745
0001f0 94 04 cd bd 13 e7 71 bb 44 2b 15 bd 34 24 98 3d
       -0.10010639 -0.0036911413 -0.036418214 0.0742878
000200 60 f3 be 3c 0f 04 ba bd af 0a a8 3c 46 2d a0 bd
       0.02330941 -0.09082805 0.020512907 -0.07821135
000210 a4 db 77 bd 54 13 97 3d bb 44 e8 bc 00 c4 d6 b9
       -0.0605122 0.073767334 -0.028353086 -0.00040963292
000220 43 58 ce 3d ef 7d ab bd 09 91 52 3b 35 94 95 3d
       0.10075428 -0.08373629 0.0032129905 0.07303659
000230 fc 7d c1 bc c6 e5 ca 3d 03 fb c7 3c ce 00 93 bc
       -0.023619644 0.09907107 0.024411684 -0.01794472
000240 c2 d8 c1 3d c7 9b a6 bd ba bd 8b bd 78 12 03 3d
       0.094651714 -0.08135181 -0.06823297 0.032000035
000250 f9 21 7d 3d 72 a4 7c bd ec 44 73 3d 44 b1 31 bd
       0.061799977 -0.061680265 0.0593919 -0.043381944
000260 6b 32 c4 bd 22 94 11 3d 88 42 dc bd 88 a3 a1 bc
       -0.09579929 0.03554166 -0.10754877 -0.019731298
000270 f2 05 4f 3d da 41 86 bc 48 3c 13 3d 61 3f c3 3d
       0.05054278 -0.016388822 0.03594616 0.09533573
000280 23 3e c6 3d b5 ee 7d 3d 81 37 c8 bc 79 42 a8 bd
       0.096798204 0.061995227 -0.024440529 -0.08215804
000290 71 7f ad bd cf 88 cc bc 8a 6e 79 bd 50 8d 25 be
       -0.08471573 -0.02496758 -0.060896434 -0.16167188
0002a0 5d 48 30 3d e0 f3 47 bd ea 92 b0 bd 86 b7 a3 bd
       0.04303776 -0.04881656 -0.08621772 -0.07993989
0002b0 25 ad 2e 3e 1d a4 12 3e be 88 54 3d d4 8d 5f bd
       0.17058237 0.14320417 0.05188822 -0.054578617
0002c0 07 90 15 bd 95 d2 1d 3d a1 cc 08 3d f0 fc 2e 3d
       -0.03651431 0.038530905 0.033398274 0.04272169
0002d0 73 f9 73 3c f4 a7 35 be 62 d1 aa 3d 58 f9 85 3d
       0.014891016 -0.1773985 0.08340718 0.06541699
0002e0 7f f9 d5 3c 26 bd 98 3d 7d 75 1b 3d d4 99 9c bc
       0.026119946 0.07457952 0.037953842 -0.01911632
0002f0 e0 e8 f7 3c 65 eb 13 be 74 54 97 3d d6 82 3a 3d
       0.03026241 -0.14445265 0.07389155 0.04553493
000300 c2 f1 b4 bd 51 bf 4e bd 43 30 79 3d ec 09 21 bd
       -0.08835174 -0.050475422 0.06083704 -0.039316103
000310 41 3a 14 3e e5 43 0b 3d 69 dd 36 bd 96 ba f0 3d
       0.14475347 0.034000296 -0.044644747 0.117543384
000320 30 04 ec 3d 97 8e 0f 3d 57 a9 ed 3d bc 38 f0 bd
       0.11524236 0.035048094 0.11604565 -0.11729571
000330 27 7b 58 bd 1e 8c 90 3d f2 8f e1 3d 44 b9 06 3e
       -0.052851822 0.07057975 0.110137835 0.1315661
000340 60 ef a8 3d 8c 02 3f bd d2 af cf bd 23 09 c9 3d
       0.08248782 -0.04663329 -0.10140957 0.09816196
000350 6d c3 e0 3b de a5 a7 bc 12 3b ae bd 7c 67 a8 bd
       0.006859234 -0.020464834 -0.085073605 -0.08222863
000360 29 6c c1 3d 46 8b 3e bb 2a 90 5e 3d 9e 0f ce 3d
       0.09444458 -0.0029074713 0.054336704 0.100615725
000370 e6 39 33 3e 3f 2b 63 3c 4f 26 44 3c 1b 42 89 3d
       0.17502555 0.013865291 0.011972024 0.06702062
000380 00 71 a5 3c e0 ec a4 bd d8 ff d8 bd e2 66 bf bd
       0.020195484 -0.08052993 -0.10595673 -0.09345795
000390 7c a3 0b 3e 5b 40 1d 3e bf 9a 2c 3e 0f ab 39 3d
       0.13636583 0.15356581 0.16855906 0.04532915
0003a0 5c e4 c8 bb c6 f9 d3 bd 9c 7e 82 bd 30 b6 bb 3d
       -0.006130738 -0.10350375 -0.06371805 0.09165609
0003b0 e7 8f d9 3c 65 f2 63 bd d8 7d 9e 3d 8a b0 7a 3c
       0.026557876 -0.055651087 0.077388465 0.015300879
0003c0 df 6f 94 3c c9 b4 ba 3d d6 1c 1a bd 37 0a b9 bc
       0.01811975 0.09116513 -0.037625156 -0.022587879
0003d0 d3 cd df 3d 3f 40 f0 3d 1c b0 10 be bc 21 b4 3d
       0.1092793 0.11731004 -0.1412968 0.08795497
0003e0 06 0f 85 bd 24 23 83 bd 89 16 23 3c 54 74 e5 bd
       -0.06497006 -0.06403187 0.009954103 -0.112038285
0003f0 b6 b1 98 bd d0 fb 8c 3d 0c 18 0e 3d d3 57 e9 bc
       -0.07455771 0.06883967 0.0346909 -0.02848426

fc3.bias f4 [18]
000000 d5 d7 91 3c 60 7b 2f bc 49 c2 34 3d d4 9d 11 bd
       0.017803112 -0.010710567 0.044130597 -0.035550907
000010 e6 df f4 ba c1 1d 88 3b 02 01 37 3d dc 8e 57 bc
       -0.001868245 0.0041539376 0.044678695 -0.013156619
000020 ee f7 3f 3c d5 84 26 3d e9 81 5d bd 35 e7 02 3d
       0.011716826 0.040654022 -0.05407897 0.031958777
000030 f7 26 1f bb 7f 0d 05 bd 5e 0c ee bc a1 a9 5b 3d
       -0.00242847 -0.032483574 -0.029058632 0.053628568
000040 e3 02 6a bd a9 56 f0 3c
       -0.05713166 0.029338198
