models/2024-07-20_16-10-13/epoch_0003_loss_0.00081137/dynamics.pth (torch, 83084 bytes, 8 tensors)

fc1.weight f4 [64, 34]
000000 de 0f b8 bd 99 08 24 3e 59 f1 20 3e c2 b0 49 bd
       -0.089874014 0.16018905 0.15717067 -0.049240835
000010 c7 41 14 3e 54 9b 1c bd 1c 17 e2 bd 8e 31 ef 3d
       0.14478217 -0.03823407 -0.11039564 0.11679374
000020 96 c2 af 3d ff 48 de bd 4e 1b 8e 3d 0b d5 2c be
       0.08582036 -0.10853767 0.06938802 -0.16878144
000030 60 3b ed bb f3 c8 05 3e 0f 8f 25 3e 8a 0f dc 3d
       -0.007239744 0.13064937 0.16167854 0.10745151
000040 38 e9 e3 bc 90 4d d1 3c de 48 81 3d 94 71 81 bd
       -0.027821168 0.02554968 0.063127264 -0.063204914
000050 af a1 c6 bd a4 39 20 bd 38 62 8f 3d c8 18 7c 3d
       -0.096988074 -0.03911747 0.070011556 0.06154707
000060 13 36 2f 3e 01 9b 27 3e eb ea c5 bd b4 80 02 be
       0.17110471 0.16367723 -0.09663948 -0.12744409
000070 12 d8 65 bd e9 fc 07 be 90 30 17 3c d7 fb a3 bd
       -0.056114264 -0.13280071 0.009227887 -0.08007019
000080 c0 fd b0 bc 0f 8e ac bd e4 46 da bd d4 44 a0 bd
       -0.021605372 -0.08425533 -0.106580526 -0.07825628
000090 3d 96 ac bd 32 f4 14 be c8 0f 03 be 02 9b dd 3d
       -0.08427093 -0.14546278 -0.12798989 0.10820581
0000a0 7f 35 25 be 7a 17 ad 3d e8 98 bf bd c0 01 d2 bd
       -0.16133688 0.084517434 -0.093553364 -0.1025424
0000b0 42 44 5f bd 97 65 2e 3e 59 6b d4 bd e0 7a d8 bb
       -0.054508455 0.17030941 -0.103720374 -0.0066064447
0000c0 e8 0b 19 bd d0 74 c1 bd 3f 5d 28 3e f6 9d aa 3d
       -0.03736487 -0.09446108 0.1644182 0.0833091
0000d0 c8 5f 09 3d 24 92 47 3d 40 43 c6 bd fa e1 c1 3d
       0.03353861 0.048723355 -0.09680796 0.0946693
0000e0 1b 05 d9 bd 20 c2 75 3d 84 5b 0d be a2 4b a1 3d
       -0.10596677 0.059999585 -0.13804442 0.07875754
0000f0 9c ae 6a 3d 02 d4 76 bd 8e 02 56 bd 78 dd 8b 3c
       0.057295427 -0.06026078 -0.05224853 0.017073378
000100 18 0a 71 bd fc 0e 8f bd d0 e6 a4 3c 08 1e 09 be
       -0.058847517 -0.0698528 0.020129591 -0.13390362
000110 62 70 e7 3d da 29 80 3d e0 a0 95 3d 00 57 79 bd
       0.11300732 0.062579826 0.07306075 -0.060873985
000120 50 24 69 bd ee 4d cc 3d 6d 77 14 be e6 5a d8 3d
       -0.056919396 0.099758014 -0.14498682 0.105642125
000130 e8 2e bf 3c 6e 03 bc bd 80 39 ae ba 4a a4 d7 3d
       0.023337796 -0.09180342 -0.0013292283 0.105293825
000140 6a 9b de 3d 10 3d 1e 3d c4 21 50 3d ea 1d d9 3d
       0.10869487 0.038632452 0.05081345 0.10601409
000150 bc 3a 2f bd dd a8 0f be 28 aa 45 3d 04 36 46 bd
       -0.042780623 -0.1402926 0.048257977 -0.048391357
000160 f7 2b 0e be 3f 17 a6 bd 60 03 77 bc 74 ad 5a 3d
       -0.13883959 -0.081099026 -0.015076488 0.053388074
000170 b8 da 27 be 09 6b 2b 3e f9 d9 2d 3e 68 76 40 3d
       -0.16392028 0.1674005 0.16977681 0.04698792
000180 ee 86 e2 3d ae 30 c6 3d 4e d9 bc 3d b8 84 91 3c
       0.11060892 0.09677254 0.09221135 0.01776348
000190 50 cc b9 bc f9 69 08 3e e0 85 04 3d 73 87 0a 3d
       -0.022680432 0.13321675 0.032354236 0.03382058
0001a0 39 f8 28 3e 8e eb 93 3c a4 67 e6 bb b3 6b a4 bd
       0.1650094 0.018056657 -0.007031398 -0.080283545
0001b0 ad fb 6f 3c 32 fe f7 3d 89 b7 8c bd 52 62 e5 bd
       0.0146474065 0.12109031 -0.06870944 -0.11200394
0001c0 3d ad 4a 3d e1 ea 7b 3c c0 72 2c be c7 a6 33 3e
       0.04948162 0.015375824 -0.16840649 0.1754409
0001d0 93 06 73 3c d8 50 84 3d 74 06 0d be c4 2b 60 bd
       0.01483311 0.06460732 -0.13771993 -0.05472924
0001e0 7f 9d d4 3c fe e5 f0 3d c1 0b 2c bc 5c 9c 44 3d
       0.025954006 0.117626175 -0.010500849 0.04800068
0001f0 34 14 07 be 10 25 f7 3d fd 50 bb 3d b4 4f db 3c
       -0.131913 0.12067616 0.09146307 0.026771404
000200 3b 24 39 be 3f fe 24 bd e9 50 5b 3d 4f 3c 0f bd
       -0.18080227 -0.04028153 0.05354396 -0.034969624
000210 b0 92 14 3d 63 27 11 3e 7d 77 da 3d b4 f2 ec bd
       0.036272705 0.14175181 0.10667322 -0.115697294
000220 dd 9e 0d be 78 cd f7 bc c2 36 f7 3d 5e 5b ad 3d
       -0.13830133 -0.030249342 0.12070991 0.084646925
000230 80 df 2d bd 4f 39 d5 bd c0 e2 f7 3c d0 47 82 bd
       -0.042449474 -0.10411321 0.03025949 -0.063613534
000240 91 7e 09 be dc 39 1c bd a2 0d db 3d fa 2f 52 bd
       -0.13427188 -0.038141116 0.1069596 -0.051315285
000250 54 01 13 bd f4 ec a8 bd fb 39 0a 3e 14 95 7b 3d
       -0.03588994 -0.0824832 0.1349868 0.06142147
000260 e8 7b ee bd 0e bb 25 be 1b b1 c6 bd ff a5 0e be
       -0.11644727 -0.16184637 -0.09701749 -0.1393051
000270 5c a2 5e bd b0 da 23 bd 7e 56 cb bd af bf 0c 3e
       -0.054354057 -0.04000348 -0.099286065 0.13744996
000280 b0 c2 bc 3c 10 66 cc bc 13 e7 9d bd 8f 15 10 3e
       0.023042053 -0.024951011 -0.077100895 0.14070724
000290 c8 c9 07 3d 2b b8 13 3e fc ed 9d 3d 8b 19 98 bd
       0.033151418 0.14425723 0.077114075 -0.07426747
0002a0 56 ba d9 3d 44 0b 45 bd 65 15 4d 3e a0 56 19 be
       0.10631244 -0.048106447 0.20027693 -0.14974451
0002b0 84 36 1b bd e2 51 35 3e 5c 64 6a 3d b9 67 c8 bd
       -0.037893787 0.17707017 0.057224616 -0.097854085
0002c0 9a 89 38 bd c5 25 a4 3d a4 8c 74 bd f6 cc eb 3b
       -0.045053102 0.080150165 -0.059704438 0.007196064
0002d0 3a 45 44 bd 7d f3 9f bd 3a c7 18 bd 86 cd 22 bc
       -0.047917582 -0.078101136 -0.037299372 -0.009936696
0002e0 09 86 cf 3d c6 49 17 3e 70 d3 6d bd 18 d0 11 3d
       0.10132987 0.14774236 -0.05806297 0.035598844
0002f0 40 85 94 bd 48 d7 c9 bd 49 0f 04 bd 8f e9 43 3d
       -0.07251978 -0.09855515 -0.03224114 0.04783016
000300 8d 24 c7 3d 44 df 85 bc a8 85 c4 bd f7 f6 23 be
       0.097237684 -0.016341813 -0.095958054 -0.16012178
000310 dc 36 5c be 74 07 9a 3d 60 fd 17 3c f9 c1 dc 3d
       -0.21505302 0.07520953 0.009276718 0.10779185
000320 7f e7 f9 bc 8b 47 97 bd d4 26 c0 3d b9 4d a9 3d
       -0.030505894 -0.073866926 0.09382406 0.082667775
000330 b1 33 95 bd ca 31 a8 3d e2 b7 d6 bc ad cc 0d 3e
       -0.0728525 0.082126215 -0.026210729 0.13847609
000340 85 21 6c 3e 7b 91 c3 bd 70 d8 71 bc de b7 77 bd
       0.23059662 -0.095492326 -0.014761075 -0.060478084
000350 5b 25 f6 bd cf bd 0b be 5b 43 af bd d7 28 be 3c
       -0.12018844 -0.13646625 -0.08557769 0.023212833
000360 99 c4 fb bd 7c 8e a5 3d 3d ec 67 3d 80 80 22 3d
       -0.122933574 0.08083817 0.05662178 0.03967333
000370 cd 5a 33 3d bf 02 35 3d 2d b5 f7 3b 04 47 16 3e
       0.043787766 0.044192072 0.0075594396 0.14675528
000380 85 eb 03 bb 05 a1 03 3e 4c 91 ac bd a1 df 09 be
       -0.0020129394 0.12854393 -0.08426151 -0.13464214
000390 bf 44 4a bc ac a7 29 be bc 2d 8f be 00 d2 b6 bd
       -0.012345492 -0.16567868 -0.2796458 -0.08926773
0003a0 6b d0 8c 3d 5d 29 17 be ba 65 11 3d 30 1e 09 3e
       0.0687569 -0.14761873 0.035497405 0.13390422
0003b0 6e f5 f8 bc d1 77 2d 3e 7a 6a 7c bd bd bd c7 bd
       -0.030390467 0.16940238 -0.06162498 -0.097529866
0003c0 77 78 1f 3e 08 ff 85 bc 15 59 be bd 64 d0 56 bd
       0.15573297 -0.01635696 -0.09294335 -0.05244483
0003d0 4c b8 d4 bd 70 9d ff bc 44 ff be bd 48 6b 9f 3d
       -0.10386714 -0.031203002 -0.09326032 0.07784134
0003e0 31 12 d4 bd 27 c6 8e bd 82 ae e6 bd dd fb 13 3e
       -0.10355032 -0.06971388 -0.112637535 0.14451547
0003f0 28 00 2b bd 51 d5 a3 bd 56 d7 f8 3d a1 c4 b1 bd
       -0.041748196 -0.07999671 0.12150447 -0.08680082

fc1.bias f4 [64]
000000 60 4e d6 bd 35 d8 15 be 4a f5 b5 bd 0e ab b5 bd
       -0.104641676 -0.14633258 -0.08884676 -0.08870517
000010 da d0 20 be c6 e2 a7 bd ca a0 83 3d 3c 7e 54 bd
       -0.1570467 -0.081975505 0.064271525 -0.0518782
000020 c5 ae 28 be 30 8f 0e 3e d3 fe 24 bd 5b a2 d2 3d
       -0.1647292 0.13921809 -0.04028208 0.10284873
000030 cd fd 4f 3d 43 ad 9b bd 8c 17 9f bd 2c 9e 85 3d
       0.050779153 -0.076014064 -0.07768163 0.065243095
000040 5e 4e d4 3d eb 78 83 bd 05 b3 0d be 22 1a 91 bd
       0.1036651 -0.06419548 -0.13837822 -0.070850626
000050 61 c2 a1 bd e0 5e a2 3c 44 44 ab bc e4 93 76 bd
       -0.07898403 0.01982063 -0.020906575 -0.060199633
000060 f7 8e e8 3d ca 95 a8 3d b2 63 13 bd 50 5b 5d bc
       0.113553934 0.08231695 -0.03598375 -0.01351054
000070 30 0c 09 bd 1a 58 3c 3c 05 e0 ad bd 16 fd 2b 3d
       -0.03345889 0.011495614 -0.08489994 0.04198941
000080 06 1f d4 bd 46 6e 2a bd 1d f8 92 3d 2f 8c 00 3e
       -0.1035748 -0.04160907 0.0717623 0.12553476
000090 bc e8 3a 3e f5 c3 b2 bd a6 01 ba 3b 68 91 9c 3c
       0.18252844 -0.08728782 0.005676466 0.019112304
0000a0 11 5c 67 bd 01 0b 1e 3e 5f 08 a4 bd 7a c9 3d 3d
       -0.056484286 0.15433885 -0.08009409 0.04633472
0000b0 40 86 e8 bd 70 9b 2b be ca 34 24 be 7c 60 39 bd
       -0.11353731 -0.16758513 -0.16035762 -0.04525803
0000c0 24 da d2 bd 76 86 0e be 7b 70 1d be d8 1b 5e 3d
       -0.10295513 -0.1391848 -0.15374939 0.054225773
0000d0 45 a2 e6 bd f6 5d 98 bd d2 36 4b bd bd 5f 99 3c
       -0.11261419 -0.074397966 -0.049612828 0.01872241
0000e0 1a 5c b7 3d d6 86 0f be 3f b4 29 be 27 e6 53 3e
       0.08953114 -0.1401628 -0.16572665 0.20693265
0000f0 52 a0 4b bd 4a 97 08 3e 12 64 d4 3d 30 88 20 be
       -0.04971344 0.13338962 0.103706494 -0.15676951

fc2.weight f4 [128, 64]
000000 a8 4a 42 bd 18 69 a9 3d e4 87 89 3d 63 14 d8 3d
       -0.04743448 0.08271998 0.06715372 0.105507635
000010 02 7e b1 3d d3 32 12 3e 59 6a ff 3d a0 ca 9d 3c
       0.08666612 0.142772 0.12471456 0.019261658
000020 b2 c7 95 bd e0 81 c2 3c 36 16 d9 3d 29 0c 1d 3d
       -0.073134795 0.02374357 0.105999395 0.038341675
000030 70 43 ba bc c8 d0 6a 3c 91 ab 85 bd 9d 20 a3 3d
       -0.022737235 0.014332004 -0.06526864 0.07965205
000040 f3 26 a5 3a 80 38 a5 3d 6e 8f 3c bd 30 d8 ba 3d
       0.0012600109 0.08067417 -0.046035223 0.09123266
000050 88 28 63 3d 66 10 2d 3d ef 5f 5b 3d 84 b3 c6 bd
       0.055458575 0.042251967 0.053558286 -0.09702209
000060 e6 70 84 3c ed 17 46 3e b4 9c 74 3a 9c a8 18 bd
       0.016167115 0.19345064 0.0009331212 -0.037270173
000070 8c f1 63 bd a2 dd 38 3d 43 43 8f 3d 38 9a 9a bd
       -0.05565028 0.04513324 0.06995251 -0.07548946
000080 88 c3 b3 3d 58 4b 86 3d 8c 7c a9 bd 36 8c c2 bd
       0.08777529 0.065573394 -0.082757086 -0.09499399
000090 36 cf ba 3d 0a f6 95 3d ad 64 dc 3d cf 41 20 3e
       0.091215536 0.07322319 0.1076139 0.15650104
0000a0 a4 a5 19 3e 4a 25 91 bd 5a 53 e5 3d 07 ff cf 3d
       0.15004593 -0.070871904 0.11197539 0.101560645
0000b0 b3 4b f2 3d 40 1e 99 3d 75 d1 e3 3d f7 ba 89 3d
       0.11830845 0.07476473 0.11123935 0.06725114
0000c0 5e 90 eb 3d 18 bb f9 3c d1 30 bf 3d 51 ad 3e 3b
       0.11502145 0.030484721 0.09335483 0.0029095004
0000d0 d4 ed f5 3d 18 a9 e1 3c 18 04 f2 bc 61 18 e1 3d
       0.12008253 0.02754645 -0.029542968 0.10990978
0000e0 18 cd a3 bc 6c b6 67 3d ae d1 7e bd 8c 37 78 3d
       -0.019995257 0.056570455 -0.062211685 0.06059985
0000f0 54 37 90 bd 18 56 7b bd 64 f8 34 bd 24 29 71 3d
       -0.07041803 -0.061361402 -0.044182196 0.058877125
000100 c0 15 71 bb 7a a4 b8 bd fc 0b f3 3d e1 8a a8 3d
       -0.0036786646 -0.090157464 0.1186752 0.08229614
000110 30 3e 38 bc b3 f3 7c bd b1 41 4b bd 08 9b d0 3d
       -0.011245295 -0.061755847 -0.049623195 0.1018582
000120 82 62 b5 3c 37 41 54 3d e8 65 8b bd 78 c4 ec bc
       0.022141699 0.051820006 -0.068065464 -0.028902277
000130 42 7e 87 bd 8f 73 f3 bd 1d a2 f3 bd a1 3a c0 bd
       -0.06615879 -0.118872754 -0.11896155 -0.093861826
000140 7d a3 52 3d e4 78 94 3d 1b 6f 2c 3c d8 2a a4 bc
       0.051425446 0.072496206 0.0105245365 -0.02003996
000150 68 d7 9a 3c f4 f6 78 3d 3a b2 9a 3d 79 bb d8 3d
       0.018901542 0.060782388 0.07553525 0.105826326
000160 15 0d 9e 3d 62 8f d6 3c a5 1a af bd 28 05 8c 3d
       0.07717339 0.026191417 -0.08550004 0.06836921
000170 00 ba c2 3c 30 5c 8e bd f6 87 ca ba 42 61 7c 3d
       0.023770332 -0.06951177 -0.0015451896 0.06161619
000180 10 6f cd 3d 85 b0 f1 3c 31 66 5f 3d ca 38 84 bd
       0.10030949 0.029503116 0.054540817 -0.06456144
000190 04 69 4d 3d 80 1f 87 bd 13 e1 aa 3c 2a e7 19 3d
       0.05014898 -0.06597805 0.020859277 0.03757397
0001a0 02 9c 16 bd 50 f7 56 bd 08 81 9a bd f4 86 f1 bc
       -0.036769874 -0.05248195 -0.07544142 -0.029483296
0001b0 d2 6f c5 3d b4 c3 e5 bd 8d 9e fb bd 44 71 c3 3d
       0.09640469 -0.11218968 -0.122861005 0.09543088
0001c0 00 7a 99 bb 10 06 24 bd 30 3c e2 3c 2f 30 df 3d
       -0.004683733 -0.040044844 0.02761659 0.10897862
0001d0 68 eb 5a 3d 68 30 9c bd 90 d7 3f bd f3 d9 d0 bd
       0.053447157 -0.0762642 -0.046836436 -0.101978205
0001e0 80 b7 8e bc 5e 28 da 3d 97 bd c1 bd cc c6 b4 bd
       -0.017421484 0.10652231 -0.094599895 -0.0882698
0001f0 c0 78 b0 3d 26 89 8b bd c0 5d eb bd 00 45 10 bb
       0.08616781 -0.06813268 -0.11492491 -0.0022013783
000200 70 19 c2 bd 52 c1 cc 3d a8 5b aa 3c 14 3d 14 be
       -0.09477508 0.099978104 0.020795658 -0.14476424
000210 58 f8 34 3d 78 b3 eb bd 18 59 1d 3d 34 0d 2c bd
       0.04418215 -0.1150884 0.038415045 -0.04200478
000220 19 b2 1e bc 33 cd a6 bd 2f 41 36 3d ac 89 76 bd
       -0.0096860165 -0.081446074 0.044495758 -0.060189888
000230 40 f1 17 3d 1b f2 5d 3d 89 e6 35 be 7a 1f 2f bd
       0.03709531 0.054185968 -0.17763723 -0.042754628
000240 14 88 fb ba 6a dc 81 3d 1a 54 22 bc dc fb d0 bd
       -0.0019190335 0.06340869 -0.009907747 -0.10204288
000250 ae 6f 9d bd 53 30 66 bd 20 b7 68 bd 91 04 32 be
       -0.07687317 -0.05619843 -0.056815267 -0.17384554
000260 f0 fd 79 bd 91 23 3b be ec c6 8e 3c 24 bc 34 bd
       -0.06103319 -0.18275286 0.017428838 -0.044124737
000270 e4 d1 d3 bd e1 bb 6b bd c4 d2 44 be f6 7c 30 3d
       -0.10342768 -0.057552222 -0.19221026 0.043087922
000280 ac 4b 10 3d 9a bb ba bd b9 f6 23 be 68 0c 32 bd
       0.035228416 -0.091178134 -0.16012086 -0.043468863
000290 7c 4e 76 3d fe 72 de bd 40 f8 a6 3c 7f fd 00 bd
       0.060133442 -0.10861777 0.020382047 -0.031491753
0002a0 51 5e 29 be 12 3f e0 3d 82 70 a8 3d 95 88 92 bd
       -0.16539885 0.1094953 0.08224584 -0.07154957
0002b0 70 db 76 bc 52 fb ed bd c9 c5 15 be d9 67 e1 bc
       -0.015066966 -0.11620201 -0.1462623 -0.027515339
0002c0 a0 4a 17 bd 58 87 da 3d e2 8a f9 3b 8d 80 c5 bd
       -0.036936402 0.10670346 0.007615433 -0.0964366
0002d0 00 0f aa 36 1c 01 4d bd 92 0f dd bd 6d fe 83 bc
       5.068141e-06 -0.050049886 -0.107939854 -0.01611253
0002e0 30 e2 0f 3c 08 7d 66 bd ee b3 c1 bd d0 78 b4 3c
       0.008781955 -0.056271583 -0.09458147 0.022030264
0002f0 04 89 3b 3d 24 63 12 bd 50 2a 67 bc 80 02 94 3c
       0.045784965 -0.03573908 -0.014109209 0.018067598
000300 9a 81 e1 bd 5c 6c 57 bd 9e ee be bd e7 83 ae bd
       -0.11011048 -0.052593574 -0.09322856 -0.08521252
000310 30 57 79 bc be 16 39 bc be ec 6e 3d 50 0c ac 3d
       -0.015218541 -0.011296926 0.058331244 0.08400786
000320 58 fb 63 bd 24 77 1d bd bc 2b 12 bc 02 12 8d 3c
       -0.055659622 -0.0384437 -0.00892156 0.0172205
000330 b8 59 fc 3d 72 cf e5 bd 0f 43 d9 bc 60 a6 85 3d
       0.123218 -0.11221208 -0.026521234 0.06525874
000340 13 61 4a bd 38 25 c8 3c 44 e6 09 be 28 2f e8 bc
       -0.049408983 0.02443181 -0.13466746 -0.028342798
000350 90 81 2d 3d 0e e8 cb bd cc 2d 73 3d 21 14 04 be
       0.04235989 -0.0995637 0.059369847 -0.12898304
000360 6e 7f 28 bd 21 50 ba bd 4b b6 b7 bd f8 c5 17 bd
       -0.04113715 -0.090973146 -0.089703165 -0.037054032
000370 40 1d 05 3b f0 82 1b be 4c bb 0e be e8 20 59 3b
       0.0020311624 -0.15186667 -0.13938636 0.0033131186
000380 58 d9 fe bd db 70 b3 bd bd d6 e4 3b ec 6d 3f bd
       -0.12443799 -0.0876176 0.0069836066 -0.04673569
000390 82 20 99 3d de 97 a5 bd f9 e8 78 bd e5 28 99 bd
       0.074769035 -0.08085607 -0.060769055 -0.07478503
0003a0 05 c3 88 3d 4a 6e bd bd 7a e0 85 bd f9 02 ab bd
       0.06677822 -0.092495516 -0.06536956 -0.08350176
0003b0 f9 97 2b 3d e2 af f1 bd 2d d5 9b 3c 03 b1 e6 bd
       0.04189298 -0.11801125 0.019022549 -0.11264231
0003c0 28 fd a6 bc 76 9d 90 bd 22 be 75 bd 1f 00 9f bc
       -0.020384386 -0.07061283 -0.059995778 -0.019409237
0003d0 b1 54 db bd 64 e6 d0 bd 40 f5 8c 3b 6c ea cf 3c
       -0.10709513 -0.102001935 0.004301697 0.025380336
0003e0 24 c3 a2 bd 1a 9e bc 3d 30 8b c1 bc 70 e2 fd 3c
       -0.07947376 0.09209843 -0.02362594 0.030991763
0003f0 8a 57 c2 bd 00 fa 80 b9 50 ab 7e bc e4 2a 68 bd
       -0.09489353 -0.00024600327 -0.015543774 -0.05668153

fc2.bias f4 [128]
000000 a6 d5 ac bd 83 a9 b5 bd d7 26 0a be d0 e7 cf bd
       -0.08439188 -0.088702224 -0.13491379 -0.101516366
000010 24 02 f5 bd 01 37 82 bd de 42 0b bd d5 72 9b 3c
       -0.11963299 -0.063581474 -0.033999316 0.018975655
000020 7d 14 c3 3d bc 44 f1 3c 6e d9 89 3b da 6a 58 bd
       0.09525392 0.02945172 0.004206828 -0.052836277
000030 1c 48 88 bd 2a 27 e2 bd 91 8c 16 3d 85 2a e0 bc
       -0.06654379 -0.11042626 0.03675515 -0.027364025
000040 d8 24 b3 bd 2f cf db 3d 3d 81 9f 3b 06 42 3c bd
       -0.08747262 0.107328765 0.0048677013 -0.045961402
000050 31 65 99 bd 13 49 56 3b 10 8c 2f 3c d0 2d 1f be
       -0.07490004 0.0032697364 0.010714546 -0.1554482
000060 b8 13 5d bd e7 83 48 bd 56 76 96 3d 86 d7 5b 3c
       -0.053973883 -0.048953917 0.073467895 0.013418084
000070 2c 22 18 bd 13 6a 39 3d 6a 62 da bd 60 33 ca bd
       -0.037141964 0.045267176 -0.10663302 -0.0987308
000080 00 b3 d4 bc e8 0c 0d bc e0 a8 bb bd 9f 85 6f 3d
       -0.02596426 -0.008609034 -0.0916307 0.05847704
000090 49 fd 10 be 80 43 b4 bc 40 d6 61 bd f8 fe 63 bd
       -0.1415912 -0.022004843 -0.055135965 -0.05566308
0000a0 63 75 9a bd b3 65 1d bd 81 0e 16 3d 1c 4f e7 bd
       -0.07541921 -0.038427066 0.036634926 -0.11294386
0000b0 e5 da 1d 3e fe 2d 00 ba b7 b7 35 bd d4 c4 e5 3d
       0.15415533 -0.0004889666 -0.044364657 0.112191826
0000c0 31 d0 a2 3d b2 0d 81 bd b7 dd d6 bd 9d 2a 9b bd
       0.079498656 -0.0630144 -0.104915075 -0.07576487
0000d0 08 b8 5d 3b 9e 1d 9e 3c 60 fc a8 3d 7a 1f ef bd
       0.0033831615 0.019301232 0.08251262 -0.116759256
0000e0 90 1d 65 3c 4e 17 ed bd 62 e1 ab bc 04 e7 96 bd
       0.013984099 -0.11576711 -0.020981494 -0.073682815
0000f0 1c 46 d0 3d 2f 04 36 bd 2c 56 c4 bd df 72 af 3a
       0.10169622 -0.044437584 -0.095867485 0.0013385675
000100 4a 4f 07 3d ab fc 13 be 5d 00 4d bc c7 63 b2 bc
       0.0330346 -0.14451854 -0.012512294 -0.021776093
000110 a4 5b 8f bd bc 7d 61 bd de 77 bf bd 91 44 cb bd
       -0.06999901 -0.05505155 -0.09349035 -0.099251874
000120 7f 24 82 3d 7c 58 2f 3c a8 89 ea bd 35 38 d2 3d
       0.06354617 0.010702249 -0.11452037 0.10264627
000130 aa 30 e7 3c ff fd 3f 3d b0 87 32 3d f8 a9 2b be
       0.028221447 0.04687309 0.043586433 -0.16764057
000140 97 37 47 bd 17 2a 11 be 18 5f 9e bd 4b be e1 3b
       -0.048637 -0.14176212 -0.077329814 0.00688914
000150 40 12 4c b9 12 cb 83 bd aa 22 b6 bd fe 4a 88 3d
       -0.00019461755 -0.06435217 -0.088933304 0.066549286
000160 d8 22 e6 3d 4e ea 01 3e cd 1a 28 be 92 7d fe bc
       0.11237115 0.12687036 -0.16416474 -0.031065736
000170 ec bf 74 bd ed 04 dc bd c7 dc 26 3d b0 ea 8a bc
       -0.059753343 -0.10743127 0.040737893 -0.01695761
000180 30 67 b1 bd 6b 8c 21 be 28 8a 16 be 1e f2 03 be
       -0.086622596 -0.15776221 -0.1470114 -0.12885329
000190 02 b6 94 bc c9 49 54 3d 21 17 4d bc ae 2a 8b bd
       -0.018153194 0.05182818 -0.012517721 -0.0679525
0001a0 6b 86 a6 bd e3 ac c8 bb 4d c8 3a bd 38 30 94 bd
       -0.08131107 -0.0061241253 -0.045601178 -0.072357595
0001b0 56 3a cf bd fe 82 10 3c 1f d5 99 3c 7a 0c 56 3a
       -0.101185486 0.0088202935 0.018778382 0.00081653113
0001c0 f9 6e d9 3c 95 43 5d 3d e4 38 4a 3d 4b 18 ee bc
       0.026542174 0.05401953 0.04937066 -0.029064318
0001d0 b0 e9 f0 3c 6f 84 c9 bd 1d 55 d0 bc 1f 92 4d bc
       0.029408306 -0.09839713 -0.02543121 -0.012547045
0001e0 2c d5 80 3d a5 94 29 bd c7 01 23 be b5 02 05 be
       0.06290659 -0.041401524 -0.15918647 -0.12989314
0001f0 ac c8 1e bd 9c 05 f1 bd c0 5e 07 3b 92 12 69 bd
       -0.038765594 -0.11768648 0.002065584 -0.056902476

fc2_1.weight f4 [64, 128]
000000 d1 95 d7 3c 80 d2 11 3d 23 ae be bd f8 33 34 bc
       0.026316555 0.03560114 -0.09310558 -0.010998718
000010 e2 cc ec bc 8d e8 b3 bd 23 cc 47 bd a8 0b b4 3c
       -0.02890629 -0.0878459 -0.048778664 0.021978214
000020 55 e0 1c bd 85 ce 52 bd 2f a5 82 bd 59 7a 9f bd
       -0.038299877 -0.051466484 -0.063791625 -0.07787008
000030 ff 04 4f 3d 3e 4a 6f bb f7 e8 76 3d 74 9f 55 bd
       0.050541874 -0.0036512758 0.060280766 -0.05215402
000040 a0 33 39 bb d7 0c 59 3d fa b7 5d bd 25 de db bc
       -0.002825953 0.05299076 -0.05413053 -0.026839325
000050 a6 68 3a bd 3f 41 ae bd 18 ee 90 3c e5 da 87 bc
       -0.045509957 -0.085085385 0.017691657 -0.01658387
000060 31 d8 47 bd 1f de 96 bd 91 8b 26 3d 51 47 cd bc
       -0.04879016 -0.07366585 0.040660445 -0.02505842
000070 d2 bf 67 3d fc f7 df bc a0 9a 46 bc fa db 79 3d
       0.05657942 -0.027339928 -0.012121826 0.0610008
000080 c0 6e e3 bc 4a 7f 3f 3b 94 15 94 bd 2a bb 7f 3d
       -0.02776277 0.0029220157 -0.07230678 0.062434353
000090 df 52 63 3d f0 9d 3d 3d 4e 81 6c 3d 5d 08 57 bd
       0.055498954 0.0462932 0.057740502 -0.05249821
0000a0 c1 f4 e7 bd 79 86 a1 3d c5 a3 1a bd f7 84 96 3d
       -0.1132598 0.07886977 -0.03775384 0.0734958
0000b0 02 ce e0 3b 16 f9 a8 bd c8 b8 3e bc 84 f3 60 bd
       0.0068604955 -0.08250634 -0.011640735 -0.054919735
0000c0 dc b5 cb bc 74 24 a1 bd 39 28 0d 3d f1 5c 0d 3d
       -0.02486699 -0.07868281 0.034462187 0.034512464
0000d0 8d 4c e7 3c db 60 8e 3d 82 9c 28 3d 37 1d 00 bd
       0.028234744 0.069520675 0.041164882 -0.03127786
0000e0 41 c3 78 3d 1c 01 a0 bc 87 fe 8c 3d 14 aa 0e 3d
       0.060733084 -0.019531779 0.06884485 0.034830168
0000f0 b1 ee a7 bd 84 ef b6 3b 22 84 6b bd e5 77 49 3d
       -0.08199824 0.0055827517 -0.05749906 0.049186606
000100 43 3e 94 3d 6c b8 c4 bd a4 eb 88 bb fc f2 3b bd
       0.07238438 -0.09605488 -0.004178481 -0.045886025
000110 e8 fd d6 3c 78 21 83 bc 80 3f b8 3a 2f 91 81 3d
       0.026244119 -0.01600717 0.001405701 0.0632652
000120 98 88 f3 3c 37 c5 71 bd 30 8a d8 3b 9e 8e 66 bc
       0.029728219 -0.05902597 0.00660827 -0.0140720885
000130 d5 86 bc bd b0 ba 78 bd 40 ae b7 3c f8 d4 f1 bc
       -0.09205405 -0.060724914 0.022421956 -0.029520497
000140 03 a7 c8 bc e5 9d 2e bd e4 39 99 3c f0 77 e1 3c
       -0.0244937 -0.04263105 0.018704362 0.027523011
000150 61 23 8b 3d 80 a5 06 3a e1 89 5c bd df 0d bf bb
       0.06793857 0.0005136356 -0.05384243 -0.005830511
000160 3a d3 f1 bd 22 99 e9 bc a9 06 94 bc 03 0d 74 3c
       -0.118078664 -0.028515402 -0.018069582 0.01489568
000170 52 e6 86 bd 34 ed 90 bd 08 c6 e9 bc 80 7d b2 bd
       -0.06586899 -0.07076493 -0.028536811 -0.087153435
000180 c8 53 07 bc 95 21 60 bc 19 9d fe bc 47 60 ec 3c
       -0.008259721 -0.013679882 -0.03108077 0.028854502
000190 60 12 e2 bd 2a 06 85 bc 31 8d bb bd 4b 34 8d 3d
       -0.11038661 -0.01623829 -0.091577895 0.0689474
0001a0 9e a9 52 3d 8b d4 38 3d db 49 a5 bd a8 04 bb 3c
       0.05143129 0.04512457 -0.080707274 0.022829369
0001b0 f6 91 db 3c f2 d0 19 3d 35 dd 12 bd 4f 88 10 bd
       0.026802998 0.03755278 -0.03585549 -0.035286244
0001c0 0a ed 2c 3d 4d dd ec bc fb c0 8d bd d2 a0 7d 3d
       0.042218246 -0.028914118 -0.06921574 0.06192095
0001d0 92 84 f4 bd c4 15 04 3d ec a0 e7 bd 2d 9a a5 bd
       -0.11939348 0.03224732 -0.1130999 -0.08086047
0001e0 2e d6 71 bd 45 a2 94 3c d3 f6 a2 3d 83 29 59 bd
       -0.05904215 0.018143782 0.07957234 -0.053018104
0001f0 e7 1a 36 bc 83 ed 1c 3d e0 2f a5 bd a9 a5 aa 3d
       -0.011114812 0.038312446 -0.08065772 0.083323784
000200 0a 8a 5f 3c e3 b6 06 3c fb 3b d7 bd d3 01 aa 3d
       0.013643751 0.0082223145 -0.10509487 0.08301129
000210 e0 79 af 3b 77 94 d8 bd 02 8d 1a be ab 46 1a be
       0.005355105 -0.105751924 -0.15092853 -0.1506602
000220 58 31 3a 3d 31 d9 22 3b 56 d8 d6 3c 32 78 bf 3b
       0.045457214 0.0024848694 0.026226204 0.005843186
000230 4b 17 d4 bc 07 db ac bd c0 f3 22 3d 3d 2e 36 bd
       -0.025890013 -0.08440214 0.03978324 -0.04447769
000240 a4 4b 3b bd 59 b2 e9 bd 61 9b ba 3d d5 c4 ac bd
       -0.045726433 -0.1141097 0.091116674 -0.0843598
000250 64 f8 1c be b4 03 9a 3d 64 1c ca 3c 88 f5 25 bd
       -0.15329129 0.075202376 0.02467174 -0.04051736
000260 d0 8f f7 3c fc 0d 0b 3b 77 46 ec bb fd 12 dc bc
       0.030219942 0.0021218052 -0.0072105485 -0.026864523
000270 10 50 cc 3b 40 5f a2 bc 8d 15 03 be 9a d5 78 3d
       0.00623513 -0.01982081 -0.1280119 0.06075058
000280 50 99 98 3c 97 fd 09 be 39 3e 07 bd b9 6b f5 bc
       0.018627793 -0.13475643 -0.033018325 -0.029958593
000290 9f 01 f9 bc a4 f3 ad bd f0 20 ac bd e0 06 00 3b
       -0.03039628 -0.084937364 -0.0840472 0.0019535348
0002a0 6e 3a f9 bc 02 98 cf bd d6 03 c0 bd 0c c1 62 bd
       -0.03042337 -0.10136415 -0.09375732 -0.055359885
0002b0 a2 8b b9 bd d1 3b 1b 3e aa cd d1 bc 75 94 ae bd
       -0.09059836 0.15159537 -0.025610764 -0.0852441
0002c0 7c 5c 46 bd 7a d0 aa bd be 4d a2 bd ae e1 2c bd
       -0.048428044 -0.08340545 -0.079249844 -0.042207412
0002d0 7a 36 6a 3c 81 6a 27 bd 22 b4 20 bb 50 d8 49 3c
       0.014295215 -0.040873054 -0.002452143 0.012319639
0002e0 42 fe 91 3d a8 09 5e 3c 5e c1 83 bb 0f cd 9a 3d
       0.07128574 0.013552107 -0.004020854 0.07558643
0002f0 ec 2c 05 bd ae 6a 49 bb 84 d0 fc 3c c5 62 d5 bd
       -0.032513544 -0.0030733752 0.030861147 -0.104192294
000300 9a ad ca bc 08 95 55 bc c4 b2 22 be 90 1a 9a 3d
       -0.024740983 -0.01303602 -0.15888506 0.07524598
000310 7c 32 d9 3c da 33 62 3d 92 43 5b bd 0f 23 bf bd
       0.02651333 0.05522523 -0.053531237 -0.09332859
000320 28 b4 77 3d 5e 90 b0 3d b9 ab b4 bd b2 40 99 bd
       0.060474545 0.08621286 -0.08821816 -0.07483043
000330 ae 77 82 3c f1 be bd bd 6c 9b a0 bc a2 fb 17 bd
       0.015926208 -0.09264935 -0.01960536 -0.03710521
000340 84 ed 01 be 9a a1 70 3c ac ec 9e 3c 15 d1 b3 3d
       -0.12688261 0.014686966 0.019399963 0.087801136
000350 81 3a 9d 3c 10 ec 73 3c 6f 65 90 3d d4 20 d5 3b
       0.019192936 0.014887825 0.07050597 0.0065041576
000360 3f 0a 19 bd 10 c2 cc bd bc 55 c8 bd 26 97 d2 3d
       -0.037363287 -0.09997952 -0.097819775 0.102827355
000370 17 e2 9a bd 01 76 40 bd 70 01 3d bd 2b 93 b5 3d
       -0.075626545 -0.046987537 -0.04614395 0.08865961
000380 71 bc 48 bd 90 98 86 38 c2 50 8d bd cb cf 64 3c
       -0.049007837 6.418035e-05 -0.06900169 0.013965557
000390 2a 26 3f 3d fb f1 2e 3d f2 4d 0a 3d 20 da 8f bd
       0.046667255 0.04271124 0.03376574 -0.07024026
0003a0 91 dc 92 3c 25 4d 8a bd e7 16 9b bc 00 3f 4e 3a
       0.01792744 -0.067529954 -0.01893182 0.0007867664
0003b0 77 f1 b1 3d 1e d6 16 bc 12 c6 2e bd 16 e7 0e 3d
       0.08688634 -0.009206323 -0.042669363 0.03488835
0003c0 90 50 58 3d 4b eb 01 be 93 8b 44 bd 60 ec eb bc
       0.052811205 -0.12687413 -0.04798467 -0.028799236
0003d0 0b de e3 3d 16 cd 8f 3c f7 d2 05 bd d1 02 46 3d
       0.11126336 0.017553847 -0.032671895 0.04834253
0003e0 40 14 93 bd af e7 bb 3d 45 6a 1c bd a7 cf a8 bd
       -0.07181597 0.091750495 -0.038187284 -0.082427315
0003f0 81 f5 26 bd 7e fd d2 bd 00 a6 39 ba 29 00 ae 3d
       -0.040761475 -0.10302256 -0.0007081926 0.08496124

fc2_1.bias f4 [64]
000000 f0 e9 9d bd c9 40 46 3c 1a 62 ac bd dd c3 ed 3c
       -0.07710636 0.012100407 -0.08417149 0.029024059
000010 25 05 87 bd af b6 5a bc 93 d1 23 bd 90 35 0f bd
       -0.06592778 -0.013349219 -0.039994787 -0.03496319
000020 99 d8 2a 3d 8c 88 a9 bd e7 1b 76 bd 21 67 00 be
       0.04171047 -0.082779974 -0.060085203 -0.1253934
000030 9a 69 0d bd 0d d4 24 bb a2 a4 3d ba 83 2e dd bc
       -0.034524538 -0.0025150806 -0.000723431 -0.026999718
000040 0a 55 c2 bc d7 e9 7c bc cc 6f 71 bd 19 d8 b4 bd
       -0.02372219 -0.015436611 -0.05894451 -0.0883028
000050 e0 53 34 bd 46 66 1d 3d 9a 3f 03 bb 78 5b 01 3d
       -0.044025302 0.038427614 -0.0020026923 0.031581372
000060 f4 28 a4 bd 49 37 3b bd f7 4c df bd 8a 5d 05 bd
       -0.08015624 -0.04570702 -0.10903352 -0.03255991
000070 14 a4 78 bb 88 e1 9c bd ff 1b 00 be 26 09 49 bd
       -0.0037939595 -0.07660204 -0.1251068 -0.04908099
000080 94 44 94 bc e8 e1 92 bd 0f e1 87 bd 64 40 8a bd
       -0.018099107 -0.071719944 -0.066347234 -0.06750563
000090 70 a7 a9 bd 16 9f 22 3d 08 61 a3 3c 20 8e 88 3b
       -0.08283889 0.039702497 0.019943729 0.0041673332
0000a0 1f 92 b2 bd e2 fe 1f 3d a9 b0 ac 3d c1 6e a0 bd
       -0.08719277 0.039061435 0.08432133 -0.07833625
0000b0 25 b4 12 3c 1a 4c 63 3d 97 da 27 bd 5f 82 c1 bd
       0.008954083 0.055492498 -0.040979948 -0.094486944
0000c0 94 66 9a bd e4 7d 52 bc 76 13 a5 bd 23 5e fc 3c
       -0.075390965 -0.0128473975 -0.080603525 0.030806607
0000d0 4a f0 7a 3d 1c 2b 9b bd bd 66 97 bd 75 7a 86 bd
       0.061264314 -0.07576582 -0.07392643 -0.065663256
0000e0 72 c5 4f bd e8 6e b5 3c 22 50 ac bd 85 e5 49 bd
       -0.050725408 0.02214761 -0.084137216 -0.049291153
0000f0 d8 bf 08 be 7f 41 ec bd 9d 8c f4 bb b9 9e ac 3c
       -0.13354433 -0.1153593 -0.0074630515 0.021071779

fc3.weight f4 [18, 64]
000000 92 3e 09 be ca a9 8f bd 6a 52 bc bd f1 ec d1 3d
       -0.13402775 -0.070148066 -0.09195407 0.10250271
000010 e1 18 0a 3c 5f 07 c8 bd 55 9e 79 3d 96 ac 57 3d
       0.008428783 -0.09767031 0.060942013 0.052654825
000020 d4 93 1a bd 5c 52 48 3d f4 b4 7b 3d f1 b6 d6 bc
       -0.037738636 0.04890667 0.061451867 -0.02621028
000030 e4 fb 98 3d d7 58 d7 3d 87 86 15 be a2 36 c8 bd
       0.07469919 0.10514992 -0.146021 -0.097760454
000040 37 a6 29 be 65 b5 07 bd ca cc 8b 3c bb 12 d4 3c
       -0.16567312 -0.033131976 0.017065424 0.025887838
000050 8a 61 4d bd 91 f0 b3 3d 89 0a 2f bd fc cb 86 3d
       -0.05014185 0.08786119 -0.042734656 0.06581876
000060 36 ec 53 3d f0 f5 f0 3d dd 91 70 bc df b0 26 3e
       0.05173894 0.11765659 -0.014683214 0.16278408
000070 09 f4 8e 3c 32 76 8d 3d 31 e9 a8 3c 98 fe f0 bc
       0.01745035 0.069073096 0.020619007 -0.029418275
000080 c8 5d cf bd c4 17 31 be 4a 92 d0 bd 6c 6a a1 bd
       -0.10125309 -0.17294222 -0.101841524 -0.078816265
000090 10 35 14 bc a1 21 37 3c 38 55 16 bd ca fc 8d 3d
       -0.009045854 0.011177451 -0.036702365 0.06932981
0000a0 a4 97 d6 3d 04 32 2b be fe 19 b4 bd 1b d6 18 bc
       0.10478142 -0.16718298 -0.0879402 -0.0093283905
0000b0 38 05 4d 3d e0 d0 31 bd f0 cb 55 3c a4 5d 08 be
       0.050053805 -0.04341209 0.013049111 -0.13316971
0000c0 65 9c df bd 71 10 e2 bd 21 c1 0b 3e 00 8a e2 3d
       -0.10918502 -0.11038292 0.13647892 0.11061478
0000d0 d0 32 0b be 80 47 ff 3d 60 c9 80 bb 17 fa 7a 3a
       -0.13593602 0.124648094 -0.003930256 0.00095740095
0000e0 10 7f da bc 10 44 d6 3c b0 9f db bc d8 2f e0 bd
       -0.026671916 0.026155502 -0.026809543 -0.109466255
0000f0 fd 8b 45 3c 4f ba 21 bd fd bc 1c be 8e 61 c7 bd
       0.012057302 -0.03948432 -0.15306468 -0.09735404
000100 99 30 25 3e f2 4c d5 3c 3a f2 92 3d 0b a4 e7 bd
       0.1613182 0.026037667 0.07175107 -0.113105856
000110 33 2f aa bd 4f 5c 02 be 84 14 54 bd 0b 50 d1 bc
       -0.08309784 -0.12730525 -0.051777378 -0.025550863
000120 1e c9 f7 bd 60 06 73 3d 07 32 f9 3d df c1 0f be
       -0.12098907 0.05933225 0.12167745 -0.140388
000130 e0 df 0c bc 11 ab 1c be 94 50 86 ba cd f0 3e bd
       -0.008598298 -0.15299632 -0.0010247403 -0.046616364
000140 64 34 a3 bc 9a 68 52 bc 97 5a 34 3d 74 12 91 3b
       -0.019922443 -0.012842322 0.044031706 0.0044272486
000150 35 0a 56 bd 05 16 34 be 66 9c 0e bd 94 76 1a 3d
       -0.052255828 -0.17586525 -0.034817122 0.03771074
000160 3a 67 57 3a a4 d6 b2 39 d1 48 e9 3c b0 3c c9 3c
       0.0008216981 0.00034110725 0.028477104 0.02456507
000170 3d 65 39 3b d8 82 fa 3d 86 a0 b3 3c 71 17 1f bd
       0.0028289102 0.12231988 0.02192713 -0.038840715
000180 d0 7e 7b bc 6e 03 1d 3c 1e 4e 85 b9 18 ba ca bc
       -0.015350059 0.009583337 -0.0002542594 -0.02474694
000190 8a 74 ee 3d 41 d5 6a bd ab 6d 68 bd 18 45 db 3c
       0.11643322 -0.05733228 -0.056745213 0.026766345
0001a0 40 ea 49 3b 32 e9 46 3b 75 41 84 bd 2a 87 91 3d
       0.003080979 0.0030351398 -0.064577974 0.071058586
0001b0 51 94 cc 3d d6 22 02 3d 9c a3 a4 bd d8 f5 87 3d
       0.099892266 0.031771503 -0.080390185 0.06638688
0001c0 58 0b 88 bd 0b 9d 14 bd 37 76 e0 3d 6b 4d b6 3d
       -0.06642789 -0.03628258 0.10960048 0.08901485
0001d0 3f 29 81 bd e8 34 cb bd e6 a7 9e bd ca 66 76 3d
       -0.06306695 -0.099222004 -0.07746868 0.06015662
0001e0 b6 d4 f4 bd de 7b ee 3d fa 00 ca bd d8 fb a8 3d
       -0.11954634 0.116447195 -0.098634675 0.082511604
0001f0 b4 45 14 3d 86 a3 4c 3c a0 c5 94 bc 6e 67 3f bc
       0.036199287 0.012490159 -0.018160641 -0.011682374
000200 3a a5 50 3d cb a0 51 3d 60 f7 5d 3c a8 e7 c1 3d
       0.050938822 0.051178735 0.013547748 0.09468013
000210 a8 a8 86 3b e3 3d d0 bc f0 64 51 bc 30 0e ea 3a
       0.004109461 -0.025420135 -0.012780413 0.0017857011
000220 58 8a 10 3c 28 9e ca 3c 1d c4 4e 3d df 11 2e 3e
       0.008822046 0.024733618 0.050479997 0.16999005
000230 40 8a 94 3c 12 ea 29 3d 42 76 41 bd 0b ac 20 3e
       0.018132329 0.041482992 -0.04723192 0.15690629
000240 07 b8 16 3e 64 18 7d bd 92 96 c0 bc 81 f9 12 bd
       0.14718638 -0.06179084 -0.023509298 -0.035882477
000250 53 23 32 bc 2e 8e a5 3d 91 71 eb 3b 90 88 34 3b
       -0.01087268 0.08083759 0.007185169 0.0027547218
000260 bb b3 a2 bd 90 0b 81 3d cc f9 62 3d 85 01 cb 3d
       -0.07944437 0.063010335 0.055414006 0.09912399
000270 a7 da fa bc 84 66 2d 3d 33 41 27 3e c5 71 07 bd
       -0.03062184 0.042334095 0.16333465 -0.033067483
000280 50 79 b0 bd 0e ca e9 3d 0b 0b a3 3c f2 b9 f7 3d
       -0.086168885 0.11415492 0.019902727 0.12096013
000290 b6 8f 86 3d 82 1a 63 bd f8 1c b9 bc 88 cc 2f bd
       0.065703794 -0.0554452 -0.022596821 -0.042919666
0002a0 94 9e d6 bd 12 db 87 3d 6b b1 bc 3d 53 34 01 bc
       -0.10479465 0.06633581 0.09213527 -0.00788601
0002b0 71 4d 72 3b e4 45 7e 3b 30 85 d3 3d c3 d5 91 3d
       0.0036972428 0.0038798982 0.10328138 0.0712085
0002c0 a5 72 59 bc df 20 80 bd 2d c3 ad 3d b2 ff 0b 3c
       -0.013271962 -0.0625627 0.084844925 0.008544849
0002d0 f1 24 36 3d aa b1 a4 3d 90 dd f9 3d 41 0a 1d 3d
       0.044468824 0.08041699 0.12200463 0.038339857
0002e0 f2 5b 96 bd 8d 22 43 3d 12 11 c8 3d 60 3d 0f 3d
       -0.07341756 0.047640372 0.09768881 0.03497064
0002f0 87 16 24 be 0f 72 2c 3d 40 f8 70 3d 5d 1c 88 bc
       -0.16024218 0.042100962 0.0588305 -0.016615087
000300 2e ed 07 3d 2f 75 e7 3d 00 02 a2 bc d9 d4 1e 3e
       0.033185177 0.11301648 -0.019776344 0.15510882
000310 3c bc 77 bd 24 69 fd 3d bc 25 fb bc 49 60 66 bd
       -0.06048225 0.123735696 -0.030657642 -0.05624417
000320 da ca 00 3e 44 a5 5b bd 64 a2 04 be e3 6a 1f bc
       0.12577382 -0.053624406 -0.12952572 -0.009730074
000330 70 77 d1 3c f5 f9 18 3e 81 da b1 ba ae c3 20 bb
       0.025569648 0.14939101 -0.0013569148 -0.0024530697
000340 47 4e bb 3d 01 e6 f3 bc 42 88 0d 3d f5 74 ac 3c
       0.091457896 -0.02977276 0.034553774 0.021051863
000350 42 46 a2 3c db 22 35 3e 44 b8 b7 3d c9 9e 0d 3e
       0.019808892 0.17689078 0.08970693 0.13830103
000360 7e 5c c3 bd 58 53 65 3d 39 27 36 3e d3 d6 68 3d
       -0.09539126 0.055987686 0.177884 0.056845497
000370 4d 63 9a 3d a0 2b b3 3d 8d e5 f6 bc b0 c9 5c 3d
       0.07538471 0.08748555 -0.030138755 0.05390328
000380 1e e7 ff 3d d4 b1 e0 3d 9f a9 40 bd c6 6b af bd
       0.12495254 0.10971418 -0.047036763 -0.08565478
000390 20 e5 2a 3d ba 0d c1 3d c8 99 0b bd d0 34 2e bc
       0.041722417 0.09426446 -0.034082204 -0.010632709
0003a0 0c b1 bb 3d 27 86 24 3c 95 c3 09 3d eb 30 d4 bd
       0.091646284 0.01004175 0.033633787 -0.10360893
0003b0 35 f7 4b bd 01 42 07 3e 1c 46 51 bd e2 0d 33 3d
       -0.049796302 0.13208772 -0.051092252 0.04371441
0003c0 46 c5 a2 bd 14 a5 bb bd 24 bf 0b be e7 58 1d bd
       -0.07947783 -0.091623455 -0.13647133 -0.038414862
0003d0 60 df 62 bd 10 08 83 3d 96 fb dc 3d 32 1f 10 3e
       -0.05538881 0.06398022 0.10790174 0.140744
0003e0 f0 14 a9 3d 01 6d cd 3d f6 5f 95 bd 9d e6 3f 3d
       0.08255947 0.100305565 -0.07293694 0.04685079
0003f0 ce 90 cb 3c 42 8d 44 3d f6 23 af 3d a3 b2 bd 3d
       0.024849322 0.047986276 0.08551781 0.09262588

fc3.bias f4 [18]
000000 88 58 19 3c 46 8c 0f 3d 83 c4 07 bd e1 3e 2c bd
       0.009359486 0.035045885 -0.033146393 -0.042052153
000010 4c f3 20 bd 6d be 25 3b e4 3b 18 bd 8d 98 8b bc
       -0.039294526 0.0025290505 -0.03716649 -0.017040515
000020 26 55 46 bc 05 9a 80 bc 20 1e 07 3d 90 b7 3f 3d
       -0.012105262 -0.015698442 0.032987714 0.04680592
000030 4d 0d 11 3d 34 fa 2a 3d 50 d2 1f 3d 93 12 78 3c
       0.035413075 0.04174252 0.03901893 0.015141147
000040 fa 76 71 bd a1 a8 80 3c
       -0.058951356 0.015705409
