models/2024-07-20_16-10-13/epoch_0031_loss_0.00034034/dynamics.pth (torch, 83084 bytes, 8 tensors)

fc1.weight f4 [64, 34]
00000000: de0f b8bd 9908 243e 59f1 203e c2b0 49bd
00000010: c741 143e 549b 1cbd 1c17 e2bd 8e31 ef3d
00000020: 96c2 af3d ff48 debd 4e1b 8e3d 0bd5 2cbe
00000030: 603b edbb f3c8 053e 0f8f 253e 8a0f dc3d
00000040: 38e9 e3bc 904d d13c de48 813d 9471 81bd
00000050: afa1 c6bd a439 20bd 3862 8f3d c818 7c3d
00000060: 1336 2f3e 019b 273e ebea c5bd b480 02be
00000070: 12d8 65bd e9fc 07be 9030 173c d7fb a3bd
00000080: c0fd b0bc 0f8e acbd e446 dabd d444 a0bd
00000090: 3d96 acbd 32f4 14be c80f 03be 029b dd3d
000000a0: 7f35 25be 7a17 ad3d e898 bfbd c001 d2bd
000000b0: 4244 5fbd 9765 2e3e 596b d4bd e07a d8bb
000000c0: e80b 19bd d074 c1bd 3f5d 283e f69d aa3d
000000d0: c85f 093d 2492 473d 4043 c6bd fae1 c13d
000000e0: 1b05 d9bd 20c2 753d 845b 0dbe a24b a13d
000000f0: 9cae 6a3d 02d4 76bd 8e02 56bd 78dd 8b3c
00000100: 180a 71bd fc0e 8fbd d0e6 a43c 081e 09be
00000110: 6270 e73d da29 803d e0a0 953d 0057 79bd
00000120: 5024 69bd ee4d cc3d 6d77 14be e65a d83d
00000130: e82e bf3c 6e03 bcbd 8039 aeba 4aa4 d73d
00000140: 6a9b de3d 103d 1e3d c421 503d ea1d d93d
00000150: bc3a 2fbd dda8 0fbe 28aa 453d 0436 46bd
00000160: f72b 0ebe 3f17 a6bd 6003 77bc 74ad 5a3d
00000170: b8da 27be 096b 2b3e f9d9 2d3e 6876 403d
00000180: ee86 e23d ae30 c63d 4ed9 bc3d b884 913c
00000190: 50cc b9bc f969 083e a69f 063d 82f2 413c
000001a0: 822a 1c3e 353a 063d 5eb2 4abd ff62 b1bd
000001b0: c9f4 21bb 400c 0e3e 78f0 afbd a3c2 debd
000001c0: 804f 893d 5877 5ebb cdef 41be 5477 463e
000001d0: 2a4c 4cbb 51d4 3e3d 9cf3 f5bd 74bc 95bd
000001e0: 2d08 1a3d bd7c 103e 5e59 c6bc b8fe f23c
000001f0: e9c9 19be 8753 073e 8908 103e 83a7 763c
00000200: 6370 59be 7381 fcb9 5cc1 f43c d948 5dbd
00000210: 3052 953c 31dc f93d 0d0e b43d 6cdc 08be
00000220: dd9e 0dbe 78cd f7bc c236 f73d 5e5b ad3d
00000230: 80df 2dbd 4f39 d5bd c0e2 f73c d047 82bd
00000240: 917e 09be dc39 1cbd a20d db3d fa2f 52bd
00000250: 5401 13bd f4ec a8bd fb39 0a3e 1495 7b3d
00000260: e87b eebd 0ebb 25be 1bb1 c6bd ffa5 0ebe
00000270: 5ca2 5ebd b0da 23bd 7e56 cbbd afbf 0c3e
00000280: b0c2 bc3c 1066 ccbc 13e7 9dbd 8f15 103e
00000290: c8c9 073d 2bb8 133e fced 9d3d 8b19 98bd
000002a0: 56ba d93d 440b 45bd f5d1 7b3e dade 3b3d
000002b0: 197a 2ebe 30c4 473e 97b4 713e bc55 42be
000002c0: bf88 4dbd eeff a23d 1421 7dbd c3eb d8bd
000002d0: 31b8 3abd d2e8 9ebd 5e5c 8dbc 6691 4fbc
000002e0: f1db cd3d 5ac4 193e 5b96 62bd c92f 123d
000002f0: 69f1 edbd a623 80bd 5cb6 b4bc 4494 283d
00000300: 3467 da3d 3222 85bc faf9 283e 6ddd 4cbe
00000310: e1e3 c3be 4a80 4a3e 98eb debc d2e2 a03d
00000320: efe0 16bd 3578 aabd 728b 943d e76c 993d
00000330: 283e 85bd ef58 713e b2e4 dcbd fe32 1f3e
00000340: 9742 903e 6f91 19be 2801 bcbc 2efc 67bd
00000350: af5b 02be 1a8a 3dbe 4752 a2bd 718c 853c
00000360: 29b1 f7bd 9db0 ae3d 3871 4c3d a159 0e3d
00000370: 9927 4e3d 91e7 183d 55ac 82bd a2cb 4e3d
00000380: bf69 c13b b0f4 f23d 0718 a2bd 8f4c d0bd
00000390: f734 1abe 3452 35be 1d69 63be 0180 333c
000003a0: 9151 793d 9d50 3cbe 75a3 d83c c589 f43d
000003b0: 16ae 3cbd 264c 1c3e 7a6a 7cbd bdbd c7bd
000003c0: 7778 1f3e 08ff 85bc 1559 bebd 64d0 56bd
000003d0: 4cb8 d4bd 709d ffbc 44ff bebd 486b 9f3d
000003e0: 3112 d4bd 27c6 8ebd 82ae e6bd ddfb 133e
000003f0: 2800 2bbd 51d5 a3bd 56d7 f83d a1c4 b1bd
-0.089874014 0.16018905 0.15717067 -0.049240835 0.14478217 -0.03823407 -0.11039564 0.11679374
0.08582036 -0.10853767 0.06938802 -0.16878144 -0.007239744 0.13064937 0.16167854 0.10745151
-0.027821168 0.02554968 0.063127264 -0.063204914 -0.096988074 -0.03911747 0.070011556 0.06154707
0.17110471 0.16367723 -0.09663948 -0.12744409 -0.056114264 -0.13280071 0.009227887 -0.08007019
-0.021605372 -0.08425533 -0.106580526 -0.07825628 -0.08427093 -0.14546278 -0.12798989 0.10820581
-0.16133688 0.084517434 -0.093553364 -0.1025424 -0.054508455 0.17030941 -0.103720374 -0.0066064447
-0.03736487 -0.09446108 0.1644182 0.0833091 0.03353861 0.048723355 -0.09680796 0.0946693
-0.10596677 0.059999585 -0.13804442 0.07875754 0.057295427 -0.06026078 -0.05224853 0.017073378
-0.058847517 -0.0698528 0.020129591 -0.13390362 0.11300732 0.062579826 0.07306075 -0.060873985
-0.056919396 0.099758014 -0.14498682 0.105642125 0.023337796 -0.09180342 -0.0013292283 0.105293825
0.10869487 0.038632452 0.05081345 0.10601409 -0.042780623 -0.1402926 0.048257977 -0.048391357
-0.13883959 -0.081099026 -0.015076488 0.053388074 -0.16392028 0.1674005 0.16977681 0.04698792
0.11060892 0.09677254 0.09221135 0.01776348 -0.022680432 0.13321675 0.032867096 0.0118376035
0.1525059 0.032770354 -0.04948651 -0.0866146 -0.0024712554 0.1387186 -0.08590788 -0.10876968
0.067046165 -0.0033945646 -0.18939133 0.19381458 -0.0031173327 0.0465892 -0.120093554 -0.07311335
0.037605453 0.14110084 -0.024212535 0.029662475 -0.15018429 0.13215457 0.14065756 0.015054586
-0.21234278 -0.00048161633 0.029877357 -0.05402455 0.018227667 0.12200201 0.087917425 -0.13365334
-0.13830133 -0.030249342 0.12070991 0.084646925 -0.042449474 -0.10411321 0.03025949 -0.063613534
-0.13427188 -0.038141116 0.1069596 -0.051315285 -0.03588994 -0.0824832 0.1349868 0.06142147
-0.11644727 -0.16184637 -0.09701749 -0.1393051 -0.054354057 -0.04000348 -0.099286065 0.13744996
0.023042053 -0.024951011 -0.077100895 0.14070724 0.033151418 0.14425723 0.077114075 -0.07426747
0.10631244 -0.048106447 0.24591811 0.045866825 -0.17038764 0.19508433 0.23604046 -0.18978018
-0.05017924 0.07958971 -0.061799124 -0.10591843 -0.045585815 -0.07759251 -0.017255958 -0.012668943
0.10051716 0.15016308 -0.05531917 0.035690103 -0.11618311 -0.062567994 -0.022059612 0.041157022
0.10664216 -0.016251657 0.16501608 -0.20006342 -0.38259795 0.19775501 -0.02721195 0.078557625
-0.036835607 -0.08323709 0.072531596 0.074914746 -0.06505996 0.23569082 -0.10785808 0.15546796
0.28175804 -0.14996885 -0.02294977 -0.05663698 -0.12730287 -0.18509713 -0.079258494 0.01630232
-0.120943375 0.0852978 0.04991266 0.034753446 0.050330732 0.037330214 -0.06380526 0.050487168
0.0059024985 0.11863077 -0.07914739 -0.101708524 -0.15059267 -0.17707139 -0.22208066 0.0109558115
0.060868803 -0.18390127 0.02644513 0.1194034 -0.04606446 0.15263423 -0.06162498 -0.097529866
0.15573297 -0.01635696 -0.09294335 -0.05244483 -0.10386714 -0.031203002 -0.09326032 0.07784134
-0.10355032 -0.06971388 -0.112637535 0.14451547 -0.041748196 -0.07999671 0.12150447 -0.08680082

fc1.bias f4 [64]
00000000: 604e d6bd 35d8 15be 4af5 b5bd b896 dabd
00000010: dad0 20be 510c a6bd 0f03 6d3d 3c7e 54bd
00000020: 4c9e 2dbe 1e83 f43d 959c 42bd 563d b33d
00000030: 70c7 103d 1c2e a4bd cb83 a4bd c0c3 0f3d
00000040: 8d28 c53d 3f3f 94bd bf87 09be 221a 91bd
00000050: 61c2 a1bd 0a48 493c 29eb 9abc 1bc6 63bd
00000060: 461f d53d 9d62 543d ba2f 3ebd 505b 5dbc
00000070: 300c 09bd 403a 393c ee69 a8bd 0b18 1c3d
00000080: 061f d4bd 3d1f 2abd 633d 7e3d 0c0d e63d
00000090: b65a 3c3e f5c3 b2bd 7587 eabb 9de5 4a3c
000000a0: 559d 89bd 4e82 173e 5f08 a4bd a19f 273d
000000b0: a008 ddbd 709b 2bbe d07f 1abe 442d 6fbd
000000c0: 24da d2bd 7686 0ebe 9de9 22be 3b62 353d
000000d0: 6698 e2bd f65d 98bd c56f 77bd 8b11 183c
000000e0: feb9 953d d686 0fbe bd26 32be 0178 573e
000000f0: 52a0 4bbd a35e de3d 6e16 c03d 3088 20be
-0.104641676 -0.14633258 -0.08884676 -0.106732786 -0.1570467 -0.08107818 0.057864245 -0.0518782
-0.16954917 0.11939071 -0.04751261 0.08751933 0.03534645 -0.08016607 -0.0803295 0.03509879
0.09626875 -0.07238626 -0.1343069 -0.070850626 -0.07898403 0.012285242 -0.018910961 -0.05560885
0.104063556 0.051851857 -0.046432234 -0.01351054 -0.03345889 0.011305392 -0.082233295 0.038108867
-0.1035748 -0.041533697 0.06207026 0.11232957 0.18393978 -0.08728782 -0.007157261 0.012383846
-0.06719462 0.14795801 -0.08009409 0.04092372 -0.10792661 -0.16758513 -0.15087819 -0.058392778
-0.10295513 -0.1391848 -0.15909429 0.044283133 -0.11064224 -0.074397966 -0.060409326 0.009281526
0.07310866 -0.1401628 -0.1739759 0.21041872 -0.04971344 0.10857894 0.09379278 -0.15676951

fc2.weight f4 [128, 64]
00000000: a84a 42bd 1869 a93d e487 893d df07 d13d
00000010: 027e b13d 2c4a e73d 641d ec3d a0ca 9d3c
00000020: 40e8 98bd 0701 ea3c fd35 e23d 93c0 483d
00000030: 7043 babc d082 403c 90eb bbbd befc ad3d
00000040: 7c3b 1dbc 8038 a53d 4805 37bd 30d8 ba3d
00000050: 8828 633d e3a9 0d3d d1cf 063d 5536 05be
00000060: f1c0 253c fb14 4d3e a517 a33b 9ca8 18bd
00000070: 8cf1 63bd 5a97 d23c a236 563d 94a2 9ebd
00000080: 88c3 b33d 4bf2 883d 11a1 a8bd 368c c2bd
00000090: 36cf ba3d 0af6 953d 4b1b da3d df19 1c3e
000000a0: 4f40 1a3e 4a25 91bd 5a53 e53d 7291 d83d
000000b0: cab2 ba3d 401e 993d 52f3 f83d e366 733d
000000c0: 5e90 eb3d 18bb f93c fa0f ca3d 3a8d bcbb
000000d0: 436a e33d 18a9 e13c 1804 f2bc 8e7b f93d
000000e0: 18cd a3bc 6cb6 673d 47e8 7cbd 8c37 783d
000000f0: 5437 90bd 1856 7bbd 64f8 34bd 2429 713d
00000100: c015 71bb 7aa4 b8bd fc0b f33d 5f27 a23d
00000110: 303e 38bc 3dbe 78bc e473 c8bb 089b d03d
00000120: 72ff 973c ceab 403d 6e67 83bd edbf 243d
00000130: 427e 87bd e16d 1abe 2ea9 8bbd 7d42 bcbd
00000140: 0d2a cf3d e478 943d 1945 103d d82a a4bc
00000150: 68d7 9a3c 63c5 623d 6ef3 383e 8f3a 453e
00000160: 8315 e63d 81ca f93c f871 b1bd 2805 8c3d
00000170: 00ba c23c ad77 f1bc 05d4 3c3d 7d9e bf3d
00000180: 106f cd3d dced 3a3d a70f 813d ca38 84bd
00000190: 0469 4d3d 801f 87bd 7a44 9b3c 4929 353d
000001a0: f8b7 18bd 50f7 56bd 0881 9abd e236 01bd
000001b0: 34ed 073e b4c3 e5bd 6694 4abe 68c6 b43d
000001c0: 007a 99bb 1006 24bd 303c e23c 01af 043e
000001d0: b34f 993d 6830 9cbd 90d7 3fbd 984a 17be
000001e0: 80b7 8ebc 5e28 da3d aa5b ccbd ccc6 b4bd
000001f0: c078 b03d 2689 8bbd c05d ebbd 0045 10bb
00000200: 7019 c2bd 52c1 cc3d a85b aa3c bb13 1bbe
00000210: 58f8 343d f63a f7bd 302f 033d 340d 2cbd
00000220: 98ce 73bc b5ad b0bd d88e 1b3d fb92 86bd
00000230: 40f1 173d 5012 463d 5190 3cbe 3153 44bd
00000240: 391f 01bc 6adc 813d e710 83bc dcfb d0bd
00000250: ae6f 9dbd a307 7ebd b8c8 81bd 8d63 39be
00000260: 3205 8abd c211 41be 4141 413c 24bc 34bd
00000270: e4d1 d3bd 78e8 81bd 00d6 4bbe b9eb 173d
00000280: ac4b 103d 6d63 c8bd 1a83 2abe 680c 32bd
00000290: 7c4e 763d fe72 debd 4cf7 593c be69 19bd
000002a0: ae08 30be 123f e03d 8270 a83d 03b6 9ebd
000002b0: bfee b0bc 52fb edbd 2e33 1bbe f212 07bd
000002c0: a04a 17bd 5887 da3d 83f9 1c3b 85d7 d2bd
000002d0: 7c93 c3bb 1c01 4dbd 920f ddbd ea6c b4bc
000002e0: 30e2 0f3c 087d 66bd e34c cdbd d078 b43c
000002f0: 0489 3b3d 2463 12bd 502a 67bc 8002 943c
00000300: 9a81 e1bd 5c6c 57bd 9eee bebd 977b b9bd
00000310: 3057 79bc bc62 88bc 53fc 583d 500c ac3d
00000320: 58fb 63bd 2477 1dbd dcee 69bc eb7b 423c
00000330: b859 fc3d fcc6 f0bd 5390 02bd 60a6 853d
00000340: a550 60bd 3825 c83c 9462 0fbe 282f e8bc
00000350: 9081 2d3d ffde d6bd 2d8d 5e3d d08e 09be
00000360: f56f 3ebd 0347 c5bd 66ac c2bd f8c5 17bd
00000370: 401d 053b 57fe 20be c036 14be 96f1 05bb
00000380: 58d9 febd d668 bebd bd61 d53a ec6d 3fbd
00000390: 8220 993d de97 a5bd a066 87bd 0621 a4bd
000003a0: bb95 7b3d 4a6e bdbd 7ae0 85bd 5ffb b5bd
000003b0: 92a8 153d e2af f1bd 1ffb 5f3c 63a4 f1bd
000003c0: 28fd a6bc 769d 90bd cbc9 85bd 5ede cabc
000003d0: ce4c e6bd 64e6 d0bd 40f5 8c3b d30b a43c
000003e0: 24c3 a2bd 1a9e bc3d 3167 edbc 70e2 fd3c
000003f0: 8a57 c2bd 00fa 80b9 50ab 7ebc e42a 68bd
-0.04743448 0.08271998 0.06715372 0.102065794 0.08666612 0.11293444 0.11529043 0.019261658
-0.07466173 0.028564943 0.11045454 0.049011778 -0.022737235 0.011749938 -0.09175789 0.08495472
-0.009596702 0.08067417 -0.04468277 0.09123266 0.055458575 0.034585845 0.032913033 -0.13009007
0.010116802 0.20027535 0.004977184 -0.037270173 -0.05565028 0.025706936 0.052298196 -0.07745853
0.08777529 0.06686839 -0.08233846 -0.09499399 0.091215536 0.07322319 0.10649737 0.15244244
0.15063594 -0.070871904 0.11197539 0.105746165 0.091161326 0.07476473 0.12155785 0.059424292
0.11502145 0.030484721 0.098663285 -0.00575414 0.11104252 0.02754645 -0.029542968 0.12181769
-0.019995257 0.056570455 -0.061744954 0.06059985 -0.07041803 -0.061361402 -0.044182196 0.058877125
-0.0036786646 -0.090157464 0.1186752 0.07917666 -0.011245295 -0.015182075 -0.006117331 0.1018582
0.018554423 0.047038846 -0.06416212 0.040222097 -0.06615879 -0.15080978 -0.06819378 -0.09192369
0.101154424 0.072496206 0.035222147 -0.02003996 0.018901542 0.055364024 0.18061611 0.1926062
0.11234572 0.03049207 -0.08664316 0.06836921 0.023770332 -0.029476011 0.046100635 0.09356401
0.10030949 0.045636997 0.063018136 -0.06456144 0.05014898 -0.06597805 0.01895355 0.044228826
-0.03728482 -0.05248195 -0.07544142 -0.03154648 0.1327408 -0.11218968 -0.19783172 0.088269055
-0.004683733 -0.040044844 0.02761659 0.12957384 0.074859045 -0.0762642 -0.046836436 -0.14774549
-0.017421484 0.10652231 -0.09978421 -0.0882698 0.08616781 -0.06813268 -0.11492491 -0.0022013783
-0.09477508 0.099978104 0.020795658 -0.15144245 0.04418215 -0.12071793 0.032027423 -0.04200478
-0.014880799 -0.08626882 0.037978023 -0.06571003 0.03709531 0.048357308 -0.18414427 -0.0479309
-0.007880979 0.06340869 -0.01599927 -0.10204288 -0.07687317 -0.062019 -0.06337112 -0.18104382
-0.06739272 -0.1885443 0.011795343 -0.044124737 -0.10342768 -0.06343168 -0.19905853 0.037090037
0.035228416 -0.09784589 -0.16651574 -0.043468863 0.060133442 -0.10861777 0.013303589 -0.03745436
-0.17190811 0.1094953 0.08224584 -0.0774956 -0.021598218 -0.11620201 -0.15156242 -0.032977052
-0.036936402 0.10670346 0.0023952432 -0.10295013 -0.0059685092 -0.050049886 -0.107939854 -0.02202459
0.008781955 -0.056271583 -0.100244306 0.022030264 0.045784965 -0.03573908 -0.014109209 0.018067598
-0.11011048 -0.052593574 -0.09322856 -0.09056776 -0.015218541 -0.016648643 0.05297501 0.08400786
-0.055659622 -0.0384437 -0.01427814 0.011870365 0.123218 -0.11756703 -0.03187592 0.06525874
-0.05476441 0.02443181 -0.14002448 -0.028342798 0.04235989 -0.10491752 0.054333854 -0.13433385
-0.04649349 -0.09632685 -0.09505539 -0.037054032 0.0020311624 -0.15722023 -0.1447401 -0.0020438186
-0.12443799 -0.092973396 0.0016279739 -0.04673569 0.074769035 -0.08085607 -0.06611371 -0.08014111
0.06142209 -0.092495516 -0.06536956 -0.08885836 0.036537714 -0.11801125 0.013670712 -0.117989324
-0.020384386 -0.07061283 -0.065326296 -0.024764236 -0.11245118 -0.102001935 0.004301697 0.02002517
-0.07947376 0.09209843 -0.02897987 0.030991763 -0.09489353 -0.00024600327 -0.015543774 -0.05668153

fc2.bias f4 [128]
00000000: b0e0 93bd e6f9 49bd ef79 10be 67e0 dabd
00000010: 2402 f5bd 1eb2 3bbd 0a82 04bd c77b 9a3b
00000020: 17cd b03d bb26 c33c 9afe 6bbb d8fa 18bd
00000030: 838f 90bd 5abd f0bd 9f53 123d 1834 d6bc
00000040: d824 b3bd 5fb7 bd3d f5f6 9dbb b32d 2dbd
00000050: e8a6 84bd eba1 d6bb b6fd 0dbd 74eb 24be
00000060: b813 5dbd 7913 37bd e4b8 8a3d c62f 64ba
00000070: 2c22 18bd 27c2 153d d843 e4bd 9de7 51be
00000080: e54e 4fbd a70a 5abb 717d 4dbe c54f 4b3d
00000090: 1282 28be 5030 86bc 40d6 61bd f8fe 63bd
000000a0: 1603 a9bd 0329 31bd c8c2 1c3d 1c4f e7bd
000000b0: fb4e 083e 2595 06bc 4ae6 4bbd dcb6 ed3d
000000c0: dd05 843d f3be b1bd 9947 cfbd 6fd5 abbd
000000d0: 454d 0ebc 25e4 87bc 32e9 883d 7a1f efbd
000000e0: 4bfc a73c c577 19be a210 d3bc 04e7 96bd
000000f0: f628 aa3d 620f 3ebd 2c56 c4bd f019 d83b
00000100: c2da e23c a24a 19be 265a 20bc 0b7d 02bd
00000110: a45b 8fbd bc7d 61bd de77 bfbd 1425 d5bd
00000120: dd21 713d a95f 133c a889 eabd b2d6 c33d
00000130: e929 4f3c f553 2e3d 6d69 183d b49a 30be
00000140: 6312 86bd fe3c 17be 6140 a8bd 8f59 633a
00000150: 258a f2bb 12cb 83bd aa22 b6bd 3277 933d
00000160: 38c0 d13d 84b1 fd3d 1a68 31be 94c0 1cbd
00000170: ecbf 74bd 38b2 e3bd cbd0 cc3c b727 03bd
00000180: 3067 b1bd 5c4e 28be fd4d 1dbe 76d6 10be
00000190: e2e5 9abc 38a9 353d e305 9fbc 2540 9cbd
000001a0: ce67 b0bd 994f 47bc 398b 4ebd 3830 94bd
000001b0: d551 ddbd 09e7 c739 3a3e 193c 99e4 4dbc
000001c0: 5abc dd3c 364c 543d 430d 09bd 71ae 26bd
000001d0: 6e6a 963c e065 d3bd 5592 00bd 3ceb b8bc
000001e0: 8d99 11bb 0a6c 56bd 54ed 27be b680 febd
000001f0: 667e 5fbd 60fd fbbd c05e 073b 67fc ddbd
-0.0722059 -0.049310587 -0.14109014 -0.106873326 -0.11963299 -0.045824163 -0.032350577 0.0047144624
0.08632868 0.023822179 -0.0036009909 -0.0373486 -0.07058623 -0.11754866 0.03572428 -0.026147887
-0.08747262 0.09263491 -0.0048206993 -0.04227991 -0.06477147 -0.006550064 -0.034665786 -0.16105443
-0.053973883 -0.044696305 0.06773546 -0.00087046286 -0.037141964 0.03656211 -0.11145753 -0.2049851
-0.05061235 -0.003327051 -0.20067383 0.04963662 -0.16455868 -0.01638046 -0.055135965 -0.05566308
-0.08252542 -0.043252002 0.038271695 -0.11294386 0.13311379 -0.00821427 -0.049780168 0.11607143
0.06446431 -0.08678999 -0.10121078 -0.083903186 -0.008685415 -0.01658828 0.066851035 -0.116759256
0.020506045 -0.14987095 -0.025764767 -0.073682815 0.08308594 -0.04640139 -0.095867485 0.006594889
0.027692202 -0.14969876 -0.009787118 -0.03185753 -0.06999901 -0.05505155 -0.09349035 -0.10407463
0.058870185 0.008994975 -0.11452037 0.09562434 0.0126442695 0.042560536 0.037209917 -0.17246515
-0.06546476 -0.1476936 -0.08215404 0.0008672708 -0.007401722 -0.06435217 -0.088933304 0.07200469
0.10241741 0.12387374 -0.17324868 -0.038269594 -0.059753343 -0.11117977 0.025001904 -0.032020297
-0.086622596 -0.16436142 -0.15361781 -0.1414431 -0.018908445 0.044350833 -0.019411987 -0.07629422
-0.08613549 -0.012164974 -0.05042574 -0.072357595 -0.10806624 0.00038128372 0.009353215 -0.012566709
0.027067352 0.051830493 -0.033459913 -0.040693704 0.018361297 -0.103221655 -0.031389553 -0.022573106
-0.0022216768 -0.052349128 -0.16399127 -0.124268934 -0.054563902 -0.12304187 0.002065584 -0.108391576

fc2_1.weight f4 [64, 128]
00000000: 035a b13c 5311 033d 7098 c9bd 273f 82bc
00000010: e2cc ecbc 540a bebd 4571 5abd 345c 883c
00000020: c9b2 32bd 85ce 52bd 2fa5 82bd 09f5 a9bd
00000030: 90e7 3a3d b773 13bc cfa3 643d dbd1 6bbd
00000040: a033 39bb 394c 5d3d 0e4d 69bd 69f4 01bd
00000050: f695 4cbd 3f41 aebd 18ee 903c ac78 2dbc
00000060: 31d8 47bd ed49 a1bd 3442 113d 9308 f0bc
00000070: d2bf 673d 819b d8bc a09a 46bc fadb 793d
00000080: c06e e3bc c363 fbba 9415 94bd a38f 8b3d
00000090: da9c 4c3d 9778 2b3d 4e81 6c3d 5d08 57bd
000000a0: d2e1 f2bd 7986 a13d 3873 2ebd f784 963d
000000b0: 61b4 c73a 16f9 a8bd f799 81bc 1be2 76bd
000000c0: 55bd 05bd 7424 a1bd 0386 f13c 5e41 dd3c
000000d0: 4f94 0d3d db60 8e3d 829c 283d 371d 00bd
000000e0: 6049 693d 1c01 a0bc 87fe 8c3d 14aa 0e3d
000000f0: 4ddc b2bd 52f4 8c3a 2284 6bbd 611c 353d
00000100: 433e 943d c288 cfbd f7d0 f4bb 6f7a 42bd
00000110: e8fd d63c 7821 83bc 803f b83a 2f91 813d
00000120: 9888 f33c 9aae 82bd 308a d83b d7e7 99bc
00000130: 60ec b2bd 9db1 86bd 40ae b73c f8d4 f1bc
00000140: 5de8 fabc e6aa 1dbd e439 993c f077 e13c
00000150: 6123 8b3d 80a5 063a e189 5cbd c119 22bc
00000160: c0b7 fcbd 15db 15bd 61e5 aebc 3e63 1c3c
00000170: 52e6 86bd 1df9 95bd 493c 04bd 807d b2bd
00000180: c853 07bc 3f5e f3bb 489f cebc 40d6 b53c
00000190: b2eb eabd 92e4 b0bc 6080 c6bd e5f1 893d
000001a0: 9ea9 523d ce10 253d db49 a5bd a804 bb3c
000001b0: c4c3 af3c f2d0 193d 1e07 22bd c280 f4bc
000001c0: 527c 1a3d 6ab7 0cbd fbc0 8dbd d2a0 7d3d
000001d0: 045f ffbd c415 043d 1487 f1bd 4213 adbd
000001e0: 2ed6 71bd ed35 873c d3f6 a23d b0be 6bbd
000001f0: c1dd 73bc d720 073d e02f a5bd 70d8 c43d
00000200: 9a72 b53b c6ce d3b9 df5c e1bd d1ba ac3d
00000210: e079 af3b b2c2 e9bd 7714 23be 5fc2 2dbe
00000220: d9b8 043d b146 f93b 970f 013d 85bd 10bb
00000230: 64e7 13bd df16 b7bd 7ef8 033d 718b 58bd
00000240: a44b 3bbd 6502 04be 5078 bd3d c5ff bcbd
00000250: 3c30 26be 7f65 a73d 641c ca3c 4e98 46bd
00000260: d08f f73c 77ef dabb c915 9ebc 8251 0abd
00000270: 1050 cc3b 7b86 f2bc ff05 08be 9ad5 783d
00000280: 5099 983c 4b83 12be 393e 07bd ed4d 37bd
00000290: a5b5 1cbd ecd8 c4bd f020 acbd e006 003b
000002a0: 8705 11bd df77 d9bd a269 ccbd 0cc1 62bd
000002b0: cb4a d6bd 02d0 213e ea36 0dbd a383 cdbd
000002c0: b510 81bd 7ad0 aabd 28da b3bd aee1 2cbd
000002d0: 2006 a23b 816a 27bd a959 4fbc 50d8 493c
000002e0: 39a2 8c3d a809 5e3c 477b f93a 0fcd 9a3d
000002f0: c39e 40bd b7d5 5ebc 84d0 fc3c 4d2f e6bd
00000300: 02f2 9cbc 933d 92bc 63df 2dbe 7886 923d
00000310: 7c32 d93c da33 623d 9243 5bbd 0cf1 c8bd
00000320: 9a63 883d 58b7 a73d b9ab b4bd 26ff b3bd
00000330: 3172 ac3c decb cbbd 6796 5dbc 64bb 2bbd
00000340: d20a 0fbe 910e 8e3c 0de0 6e3c dec9 c03d
00000350: 4bc9 cc3c 10ec 733c 6f65 903d 37d0 c1bb
00000360: 548a 63bd 0d22 e9bd 37b4 dbbd cb1e df3d
00000370: 17e2 9abd 23da 5ebd 3af7 6dbd 499d aa3d
00000380: 71bc 48bd 04b4 bdbb f164 98bd 4a0c f43b
00000390: 8d92 253d 72e5 293d 162b 243d b88f a4bd
000003a0: 02b9 563c 4eff 9ebd 193e 67bc 003f 4e3a
000003b0: ceff bc3d 17d3 9dbb c1f4 34bd a133 193d
000003c0: 3a52 353d c1af 10be 938b 44bd 56b1 2dbd
000003d0: cf00 e93d c7a6 503c e5ea 26bd 4e30 273d
000003e0: 4c48 a8bd d4dc c33d 2ef9 2fbd 8136 b9bd
000003f0: 2890 42bd f572 ddbd 00a6 39ba 2900 ae3d
0.021649366 0.031998944 -0.09843528 -0.015899254 -0.02890629 -0.09279314 -0.05333068 0.016645528
-0.043627534 -0.051466484 -0.063791625 -0.0829869 0.04563099 -0.008999757 0.055820283 -0.05757318
-0.002825953 0.05402777 -0.05695825 -0.03172723 -0.0499477 -0.085085385 0.017691657 -0.010587852
-0.04879016 -0.07875428 0.035463527 -0.029300964 0.05657942 -0.026441338 -0.012121826 0.0610008
-0.02776277 -0.0019179512 -0.07230678 0.06814506 0.049954273 0.04186305 0.057740502 -0.05249821
-0.11859478 0.07886977 -0.04259035 0.0734958 0.0015236252 -0.08250634 -0.015820486 -0.060274225
-0.032651264 -0.07868281 0.029482847 0.027008709 0.034565266 0.069520675 0.041164882 -0.03127786
0.05695474 -0.019531779 0.06884485 0.034830168 -0.08733425 0.0010753965 -0.05749906 0.044216517
0.07238438 -0.10133506 -0.0074711996 -0.047480043 0.026244119 -0.01600717 0.001405701 0.0632652
0.029728219 -0.06380959 0.00660827 -0.018787308 -0.08736491 -0.06576846 0.022421956 -0.029520497
-0.030628378 -0.03849306 0.018704362 0.027523011 0.06793857 0.0005136356 -0.05384243 -0.0098938355
-0.12339735 -0.036585886 -0.02134961 0.009545146 -0.06586899 -0.07322905 -0.032284055 -0.087153435
-0.008259721 -0.0074270065 -0.025222436 0.022196889 -0.114707366 -0.021593366 -0.09692454 0.06735591
0.05143129 0.04029923 -0.080707274 0.022829369 0.021455653 0.03755278 -0.03955757 -0.029846553
0.037716217 -0.034354605 -0.06921574 0.06192095 -0.12469295 0.03224732 -0.11793342 -0.08450939
-0.05904215 0.016505206 0.07957234 -0.0575549 -0.014884413 0.032990303 -0.08065772 0.09611595
0.005537343 -0.00040399114 -0.11004042 0.0843407 0.005355105 -0.11414088 -0.15925775 -0.16968678
0.032402847 0.007607304 0.03150901 -0.0022085619 -0.036109343 -0.08939909 0.032219402 -0.052867357
-0.045726433 -0.12891538 0.092514634 -0.09228472 -0.16229337 0.08173656 0.02467174 -0.048485093
0.030219942 -0.0066813785 -0.019297497 -0.03376914 0.00623513 -0.02960514 -0.13283537 0.06075058
0.018627793 -0.14307897 -0.033018325 -0.04475205 -0.038259167 -0.09611687 -0.0840472 0.0019535348
-0.035405662 -0.10618567 -0.09981085 -0.055359885 -0.104634844 0.15802005 -0.0344762 -0.10034873
-0.06302015 -0.08340545 -0.087818444 -0.042207412 0.004944578 -0.040873054 -0.012655654 0.012319639
0.06866879 0.013552107 0.0019033932 0.07558643 -0.047026407 -0.013600758 0.030861147 -0.11239491
-0.019158367 -0.017851627 -0.16979747 0.07154554 0.02651333 0.05522523 -0.053531237 -0.09811601
0.066596225 0.08189267 -0.08821816 -0.087889 0.021050544 -0.09950994 -0.013524628 -0.041926757
-0.13968971 0.01734093 0.014579785 0.09413503 0.024998328 0.014887825 0.07050597 -0.0059147137
-0.05555184 -0.11383448 -0.10727733 0.10894545 -0.075626545 -0.05440725 -0.0580971 0.08330781
-0.049007837 -0.005789282 -0.07441128 0.007447754 0.040422965 0.04147858 0.040080152 -0.08035225
0.013105633 -0.07763539 -0.014113926 0.0007867664 0.09228478 -0.0048164236 -0.044178728 0.037402753
0.04426787 -0.14129545 -0.04798467 -0.04240545 0.11377107 0.012735075 -0.040751357 0.04081755
-0.082169145 0.09563604 -0.042962246 -0.09043599 -0.04750076 -0.10812942 -0.0007081926 0.08496124

fc2_1.bias f4 [64]
00000000: eba0 a8bd 359c be39 1a62 acbd 0ece db3c
00000010: d5e6 90bd dee1 94bc 3106 0bbd ab3d 9ebc
00000020: 9777 693d 8c88 a9bd 7d43 87bd e157 05be
00000030: 9a69 0dbd ebc0 96bb d9cf b5bb 8d5a 02bd
00000040: 9adb e9bc b01e efbc 9799 82bd 7524 d2bd
00000050: 4f28 04bd 8989 1b3d c4f2 1dbc 7127 fa3c
00000060: 2565 adbd 4f73 11bd 5404 e9bd b84f 1bbd
00000070: 236b 43bc 88e1 9cbd c90c 05be b7d3 e2bd
00000080: 9444 94bc 8dc3 9cbd 1393 91bd 6440 8abd
00000090: 70a7 a9bd 2a3f 7f3d e759 353c 208e 883b
000000a0: 1f92 b2bd 30e9 1f3d 698d a93d 337d aebd
000000b0: 0286 6e3c 7a5a 503d 97da 27bd ec63 cbbd
000000c0: f519 93bd 5514 44bc a20c b0bd 09fb 5a3d
000000d0: ba1e 883d 1c2b 9bbd bd66 97bd 4403 94bd
000000e0: 72c5 4fbd c260 2b3d 2250 acbd 3621 35bd
000000f0: 7b3a 12be 2323 f6bd c652 49bc 1ae6 813c
-0.08233818 0.00036356007 -0.08417149 0.026831653 -0.07075278 -0.018174108 -0.03394145 -0.019316515
0.056998815 -0.082779974 -0.06604669 -0.13021804 -0.034524538 -0.0046006343 -0.005548459 -0.031824637
-0.028547097 -0.029189438 -0.06376951 -0.1026086 -0.032265004 0.03797296 -0.009640399 0.030536385
-0.084665574 -0.035510357 -0.11377779 -0.037917823 -0.011927399 -0.07660204 -0.12993158 -0.11075538
-0.018099107 -0.07654486 -0.0710813 -0.06750563 -0.08283889 0.062316097 0.011068798 0.0041673332
-0.08719277 0.039040744 0.08278925 -0.085199736 0.014558317 0.050867535 -0.040979948 -0.09931168
-0.07182685 -0.011967738 -0.085961595 0.053462062 0.066464856 -0.07576582 -0.07392643 -0.07227185
-0.050725408 0.041840322 -0.084137216 -0.044221126 -0.14280121 -0.120184205 -0.012287801 0.015856791

fc3.weight f4 [18, 64]
00000000: 0ff1 11be 2a5a a1bd 6a52 bcbd 383c dc3d
00000010: 26a3 6c3b e9e2 d1bd 9829 5d3d b84c 543d
00000020: 91a9 f3bc 5c52 483d 7f9a 683d 9fb8 fdbc
00000030: e4fb 983d 0d13 c03d ce74 1abe 7f9c d1bd
00000040: cd95 2ebe 12c1 a6bc 5e99 483c e4f5 0a3d
00000050: d983 2bbd 0011 b83d c6d0 1fbd 5a02 893d
00000060: 42fc 603d ac64 e83d aba9 9fbc e029 2c3e
00000070: 8242 9d3c 3276 8d3d 5c71 813c b03b 94bd
00000080: c85d cfbd 7906 36be d16a dabd 6c6a a1bd
00000090: 1035 14bc 8f28 bd3b 2626 22bd cafc 8d3d
000000a0: a497 d63d f596 17be e327 aabd dd3c 87bc
000000b0: c85d 463d 8a7b 22bd f0cb 553c 9449 0dbe
000000c0: c95d cabd cea4 cbbd 1735 113e 95b9 d93d
000000d0: 9efa 0bbe 8047 ff3d 60c9 80bb b3c5 b6bb
000000e0: 107f dabc 41c4 d63c b09f dbbc e997 bcbd
000000f0: 536f 803b 0471 35bd d6a4 21be 9817 cbbd
00000100: 7124 283e 0e88 c33c 3af2 923d b86a fdbd
00000110: b310 b4bd fc4c 07be d47d 35bd 6d53 cdbc
00000120: 2a39 ffbd 6006 733d 90ad ef3d 44b0 14be
00000130: e0df 0cbc ddd8 0cbe 31ab bfbb 3e93 52bd
00000140: 90ba cabc 6f50 3539 7397 203d 33db 82bc
00000150: 6190 3fbd cb8c 39be 2b15 eebc eafc 143d
00000160: 4540 1e3b cb19 91bb 6cc8 c13c 28ef f43c
00000170: 1d94 933b d882 fa3d 181c 8c3c 7103 ddbc
00000180: d07e 7bbc def0 9b3b ca5e a6bb 18ba cabc
00000190: 8a74 ee3d e78f 5fbd 5238 61bd 1845 db3c
000001a0: 40ea 493b d6c2 dcbb e30c 81bd 49b4 963d
000001b0: 5767 b83d 665b a73c 9ca3 a4bd 7b2b 7c3d
000001c0: 8634 80bd 1e3a 05bd cd46 eb3d da89 a23d
000001d0: 7716 82bd e834 cbbd e6a7 9ebd 4064 883d
000001e0: b6d4 f4bd d8c6 e13d fa00 cabd d55b a53d
000001f0: e8fb 2e3d 713c fb3b 2c40 bcbc d8ef 8bbc
00000200: 82e3 313d 9269 233d 60f7 5d3c 4b4f bb3d
00000210: 4160 123c 7eb8 a8bc 2233 aabc 43b9 12bb
00000220: 43b2 053c 289e ca3c 0710 0e3d 09fe 323e
00000230: 408a 943c 7b0e 803d 70b3 2dbd 198d 253e
00000240: c4a8 1b3e 43d1 51bd 7210 99bc 81fa 12bd
00000250: 5847 77bc 22cf b53d c205 743c 0b4e 54bb
00000260: f7d8 aebd 9d92 763d fdb6 763d f9f8 d53d
00000270: ebca c4bc 8466 2d3d 7531 2c3e c2ba c8bd
00000280: 5079 b0bd 52ab f33d 7e8b ca3c f2b9 f73d
00000290: b68f 863d db0e 81bd 479b 47bc 88cc 2fbd
000002a0: 949e d6bd af0e 983d b344 bf3d c77d 6cbc
000002b0: 8989 ddbb 3469 a73b 3085 d33d 60b4 9b3d
000002c0: 516b 8fbc e3b0 63bd c8b7 b83d 6b73 693b
000002d0: 35d5 103d aab1 a43d 90dd f93d ca09 023d
000002e0: f25b 96bd 8c06 273d 1211 c83d 86d1 0b3d
000002f0: 2666 2cbe 6d31 403d e757 823d 8412 32bc
00000300: 7a26 123d a7e6 f13d 0002 a2bc a999 223e
00000310: 2ff9 63bd 42a5 033e 5ea5 11bd f55f 76bd
00000320: 74f6 fc3d 44a5 5bbd bd45 09be 0845 a1bb
00000330: 7077 d13c bf8e 193e 5f41 633b a8ea 173b
00000340: c92f c53d c2b1 87bc 5c4b 213d 5dce ce3c
00000350: d844 6d3c a8cd 383e 3514 b33d 2a92 083e
00000360: 0b33 d0bd 75b6 6a3d 8616 3b3e 60f1 523d
00000370: 14f4 9b3d a02b b33d 3b63 cfbc 93cb ba3c
00000380: 1ee7 ff3d 2993 ea3d 17e9 2cbd c66b afbd
00000390: 20e5 2a3d 6dad b73d b70b eebc d034 2ebc
000003a0: 0cb1 bb3d d5bd a43c 2ff0 fd3c 8517 c5bd
000003b0: 3d81 5cbd 781e 133e 1c46 51bd 66cb 463d
000003c0: 16a9 9dbd 6dcc bdbd 5f33 11be 2ecf 31bd
000003d0: e422 73bd 1008 833d 96fb dc3d 02ca 163e
000003e0: f014 a93d 5e40 ba3d f65f 95bd 2b97 2d3d
000003f0: c191 f93c c44c 583d e4ff b83d 7c7d c93d
-0.14252113 -0.078785256 -0.09195407 0.10753673 0.0036107986 -0.10248358 0.053994745 0.051830977
-0.029743942 0.04890667 0.056787964 -0.030971823 0.07469919 0.09378634 -0.1508362 -0.102349274
-0.17049332 -0.020355735 0.012243597 0.033925906 -0.041873787 0.089876175 -0.03901746 0.06689902
0.05492807 0.11347327 -0.019490084 0.16812849 0.019196752 0.069073096 0.015801124 -0.07237947
-0.10125309 -0.17775907 -0.10664905 -0.078816265 -0.009045854 0.005772657 -0.039587162 0.06932981
0.10478142 -0.1480368 -0.08308389 -0.016508514 0.04842928 -0.039668597 0.013049111 -0.13797599
-0.09881169 -0.099435434 0.14180408 0.106311 -0.13669822 0.124648094 -0.003930256 -0.005577767
-0.026671916 0.026216628 -0.026809543 -0.09208662 0.003919521 -0.044297233 -0.15785536 -0.099166095
0.16420151 0.023868587 0.07175107 -0.123738706 -0.087922476 -0.13212961 -0.044309452 -0.025064195
-0.12462075 0.05933225 0.11703026 -0.14520365 -0.008598298 -0.13754602 -0.005849265 -0.051409952
-0.024747163 0.00017291469 0.039206933 -0.015973663 -0.04676855 -0.18120115 -0.029062828 0.03637401
0.0024147194 -0.0044281236 0.023655139 0.029899195 0.0045037405 0.12231988 0.01710324 -0.02697918
-0.015350059 0.004758938 -0.0050772177 -0.02474694 0.11643322 -0.054580595 -0.05498535 0.026766345
0.003080979 -0.0067370934 -0.06301286 0.073586054 0.090040855 0.020429324 -0.080390185 0.061564904
-0.06260018 -0.032526128 0.114881136 0.07936449 -0.06351941 -0.099222004 -0.07746868 0.06659746
-0.11954634 0.110242546 -0.098634675 0.08074156 0.042720705 0.0076671173 -0.022979818 -0.01708214
0.04342986 0.0398956 0.013547748 0.09145983 0.0089340815 -0.020595785 -0.020776335 -0.0022388257
0.008160177 0.024733618 0.034683254 0.17479719 0.018132329 0.06252762 -0.042407453 0.16167106
0.15201098 -0.05122496 -0.0186846 -0.03588343 -0.015092693 0.08877398 0.014893951 -0.003239515
-0.085374765 0.060198415 0.060233105 0.104478784 -0.02402254 0.042334095 0.16815741 -0.09801246
-0.086168885 0.11897911 0.024724718 0.12096013 0.065703794 -0.063016616 -0.012183017 -0.042919666
-0.10479465 0.07424676 0.09339275 -0.0144342845 -0.0067607802 0.0051089767 0.10328138 0.07602763
-0.017507227 -0.055588614 0.090194285 0.0035621773 0.03535958 0.08041699 0.12200463 0.031747617
-0.07341756 0.040777728 0.09768881 0.034135364 -0.16835842 0.046922136 0.06364422 -0.010868672
0.035681225 0.118115716 -0.019776344 0.15878929 -0.055657562 0.1285601 -0.035558097 -0.060150106
0.12351695 -0.053624406 -0.1340551 -0.0049215592 0.025569648 0.1499586 0.0034676415 0.0023180638
0.09628255 -0.016564254 0.03937851 0.025244886 0.014481746 0.18047202 0.087440886 0.13337007
-0.10165986 0.05730291 0.18270311 0.051499724 0.076149136 0.08748555 -0.025315871 0.02280215
0.12495254 0.1145385 -0.04221448 -0.08565478 0.041722417 0.08968625 -0.02905832 -0.010632709
0.091646284 0.02011005 0.030998318 -0.096236266 -0.05383419 0.14367092 -0.051092252 0.04853382
-0.07698266 -0.09267507 -0.14179753 -0.043410473 -0.059359446 0.06398022 0.10790174 0.14725497
0.08255947 0.09094308 -0.07293694 0.042380493 0.030465009 0.052807584 0.09033182 0.09838387

fc3.bias f4 [18]
00000000: ac4e 843c 1b81 d53c 6127 bdbc abff 14bd
00000010: 97a8 d8bc 780f 0f3c 092b dfbc a09f cabc
00000020: 53f1 3bbc 778c 44bc 0472 bd3c b7da 203d
00000030: 835a 193d 2380 513c 9b48 0f3d 5a6c 8a3c
00000040: d278 39bd b364 b33c
0.016150795 0.026062539 -0.023090066 -0.036376636 -0.026447577 0.008731715 -0.0272422 -0.024734318
-0.01147111 -0.01199638 0.023125656 0.039271083 0.037439834 0.012786898 0.03498135 0.01689737
-0.04528124 0.021898603
