models/2024-07-20_16-19-11/epoch_0005_loss_0.00040729/dynamics.pth (torch, 83084 bytes, 8 tensors)

fc1.weight f4 [64, 34]
00000000: 0fb1 09be 444a 903d ef3d d4bd 6018 c13b
00000010: cece 47bd a707 29be 44b6 09be 2953 16be
00000020: 40cd 083d 76b1 25be e0d4 96bd 5a8c 81bd
00000030: 4cf3 37bd 840f 003d e4d1 983d ec83 dcbd
00000040: 961b 2abe c89f 033d 7a70 e33d db89 073e
00000050: 3bdc 0bbe 7516 11be c5b2 2c3e 405b e1bb
00000060: 0843 0abd 41bc 2e3e 3e44 e93d f042 66bd
00000070: f36f 033e c047 eebd 60a6 5b3d 01f5 2c3e
00000080: 0fca fabd a8fb 25be 3c7a 0d3d cc8d 073d
00000090: 433e 0c3e 5a03 843d be95 f73d 0019 753d
000000a0: 52de ab3d 640d 41bd 350b b4bd df3e cebd
000000b0: 1cfc 623d 9ec0 a63d c123 d8bd 5c99 2bbd
000000c0: be0a bcbd c3de 2a3e 0c00 b3bd 9073 69bc
000000d0: 0a64 963d 982f 7dbd 02e7 fc3d 8056 ffbd
000000e0: 0c10 1e3d 322f d33d 487d a23c 94b1 4abd
000000f0: bbe4 223e 8ae9 aa3d 1155 143e 9aed f93d
00000100: 8523 243e cc80 793d ae27 bcbd 042b 7ebd
00000110: 1405 22be 7b76 463e 2671 b63d a5a8 253e
00000120: c6c1 62bc f7a4 c4bd 64e7 a0bd 6bac 5dbd
00000130: 810a 43bd 2f8f 72be 31e3 3f3e 0d2d e83c
00000140: 5118 b0bd c5bc a4bb ff34 01be 9fa5 68bd
00000150: 86ae 4d3e 001a 773d 788d e2bd dab3 ebbd
00000160: 1ad4 1abe 9a01 59bd c12b 8cbc 1571 323d
00000170: ce14 0a3d cb9a 643d 89fe eebb c47b 543d
00000180: ac4f c63b 0c45 4dbe 4e8d abbd 4979 613d
00000190: 427b 6fbe 19fe 63bd a5c3 82bd c49f 9d3d
000001a0: ad61 2d3e fb95 1b3e d62f ec3d 92e3 fb3d
000001b0: 4c42 1fbe 8121 123e 33e8 063e 70cc f5bd
000001c0: d3a0 fabd 2087 33bc 4a87 ba3d e002 2f3c
000001d0: 4515 2b3e 201b af3b 00d3 f5bd 38d9 39bd
000001e0: bcdb 1abe 204d a93c 6758 aabd 78c8 b2bd
000001f0: cac8 aa3d 803e 70bb 1bd1 8ebd 4016 2e3c
00000200: d8ae 3e3d cadb f03d 3850 343d 4034 d93b
00000210: c07b 0abb 6585 04be ecd1 583d cde9 2ebe
00000220: 80c5 8ebd 9084 cebc e05a 4cbc 6ecf 8fbd
00000230: 846e 27bd e6b8 d43d 0e6e b6bd 062f ef3d
00000240: 98fb ca3c 2858 25be fea0 ba3d 08e3 1ebd
00000250: 9632 a93d c0fc 753d de62 87bd 20bf 8e3c
00000260: 7ce5 123d ee22 1fbe b3a5 8cbd 57dd bcbd
00000270: 7eab eabd 9eb2 69bd 3cc6 eebd 000c 5b3d
00000280: cc90 a4bd 0ae5 ee3d 8059 a4bc 1240 ae3d
00000290: dbcc 1f3e a811 d0bc c3d2 243e 6aa4 f93d
000002a0: bcf6 16bd 7658 f23d 6354 c0bd 008f 913b
000002b0: 803e c53b 2ece 5ebd 508f e9bd 5f01 36be
000002c0: 2622 b9bd 3d93 843d f570 3fbe db4a d1bc
000002d0: 5ca3 a43c 1743 10be d86d c13d 16b3 143d
000002e0: 1383 54bd 9b5a 28be 7dcc 9cbd 9c73 c4bd
000002f0: f1bf cf3d 4149 6bbd 52e8 e13d 7a1b dcbd
00000300: d4c8 15be cae0 93bd e00d 57bd 0918 bbbc
00000310: 9bca 9c3d da76 d13d 886e a3bd 6512 63be
00000320: 772c 27bd 9e5a e63d 9dbe 8c3d b47a a3bd
00000330: a7ef 26be 2472 223d 86d1 23be 3a7f 7bbd
00000340: ac75 313d 9b0f 2bbe 703b 933c aa93 b93d
00000350: fe2b a33d 07f1 2b3e 10cf e83c 067c e63d
00000360: 61bc 133e 0aa6 ca3d 1483 9b3d fa14 cb3d
00000370: b1b8 85bd 4d20 043e 40b5 61bb 52bd fe3d
00000380: b2e9 dfbd d2c0 cdbd d2f7 db3d 048d ddbd
00000390: 400c 6d3c d493 383d 00b2 aa3c 982e aabc
000003a0: 42cc f53d 8438 ebbd 2bb0 253e 6053 dd3b
000003b0: 66a3 43bd 7cb7 833d 902b c53c 38a3 e03c
000003c0: 12d5 b73d 8742 f9bd dc9f 043d 84f5 0abd
000003d0: d068 f1bd 0000 35ba 2f9c 2dbe 1845 e83c
000003e0: 68f9 25be 5d2d 183e 60c5 053d c222 02be
000003f0: 7acf 95bd dfe2 a6bd e191 173e 24e6 f3bd
-0.13446449 0.07045415 -0.103633754 0.0058927983 -0.04878121 -0.16506825 -0.13448435 -0.1468016
0.033398867 -0.16180977 -0.073648214 -0.06325598 -0.04490976 0.031264797 0.074619085 -0.107673496
-0.16612086 0.0321348 0.111054376 0.13236181 -0.1365823 -0.14168723 0.1686507 -0.006877333
-0.033755332 0.17064 0.11389969 -0.05621618 0.12835674 -0.11634779 0.053625464 0.16890337
-0.12245571 -0.1620928 0.0345404 0.033094212 0.13695626 0.06445952 0.12089108 0.059838295
0.083920136 -0.04713191 -0.087912 -0.100705855 0.05541621 0.081422076 -0.105536945 -0.0418943
-0.091817364 0.1668654 -0.08740243 -0.014248744 0.073433 -0.061812967 0.12348749 -0.124676704
0.038589522 0.10311736 0.01983513 -0.049485758 0.15907566 0.08345325 0.14485575 0.12203522
0.16029175 0.060913846 -0.09187256 -0.06205274 -0.1582225 0.19381134 0.089083 0.16177614
-0.0138401445 -0.09601777 -0.07856634 -0.05411951 -0.04761744 -0.23687433 0.1873901 0.028341794
-0.08598388 -0.005027386 -0.12617873 -0.056798574 0.20086107 0.06032753 -0.11062139 -0.11508913
-0.15119973 -0.052980043 -0.017110707 0.043564875 0.033711247 0.055811685 -0.0072935265 0.051875845
0.006051978 -0.2004587 -0.08376561 0.055047307 -0.23386863 -0.05566225 -0.063849725 0.076964885
0.16931792 0.15193932 0.115325615 0.12299265 -0.15552634 0.14270593 0.13174514 -0.12001884
-0.12237706 -0.010957509 0.091078356 0.010681838 0.16707332 0.0053438097 -0.12003136 -0.04537317
-0.15122885 0.020666659 -0.08317643 -0.08729643 0.08339079 -0.0036658347 -0.069734775 0.010625422
0.046553463 0.117606714 0.044021815 0.006628543 -0.002113089 -0.12941511 0.052934572 -0.17081375
-0.06971264 -0.025209695 -0.012472838 -0.07021986 -0.04087688 0.10386829 -0.0890771 0.11678891
0.024778172 -0.1614691 0.09112738 -0.038790733 0.082616016 0.060055494 -0.06610654 0.01742512
0.035863385 -0.15540668 -0.06867542 -0.09221905 -0.11458491 -0.05705511 -0.11658904 0.05347824
-0.0803543 0.116647795 -0.020062208 0.08508314 0.1560549 -0.025399044 0.16096024 0.121895626
-0.036856398 0.11833279 -0.093910955 0.0044420958 0.0060194135 -0.054395847 -0.11404288 -0.1777396
-0.090397164 0.06473396 -0.18695433 -0.02554839 0.020097427 -0.14088093 0.09444779 0.036303602
-0.051882815 -0.16440813 -0.076561905 -0.09592363 0.10144032 -0.057442907 0.1103064 -0.10747428
-0.14627391 -0.072206095 -0.052503467 -0.02283861 0.076558314 0.10227747 -0.079800665 -0.22174986
-0.04081389 0.112477526 0.06872294 -0.07982388 -0.16302358 0.039659634 -0.15997896 -0.06140063
0.04332511 -0.16705172 0.017972678 0.09061368 0.07967375 0.16791163 0.028419048 0.11254124
0.1442733 0.09894951 0.075933605 0.0991611 -0.06529368 0.12902947 -0.0034440309 0.12438454
-0.10933246 -0.10046543 0.10740627 -0.10817912 0.014468253 0.045062855 0.02083683 -0.02077417
0.1200185 -0.11485389 0.16180484 0.006754324 -0.04776325 0.06431481 0.024068624 0.027421579
0.08976187 -0.12170892 0.032379016 -0.03392555 -0.117875695 -0.0006904602 -0.1695411 0.028353259
-0.16208422 0.14861055 0.032658935 -0.12708572 -0.07314964 -0.08148741 0.14801742 -0.1190913

fc1.bias f4 [64]
00000000: b8c5 9fbc 388e 6b3d d7a1 3fbe 475c d03d
00000010: 61de 0fbd 73f9 28bc e097 85bc c5bb c5bd
00000020: 73cc 5d3d 71a6 06bc c677 d93d 641e 38bd
00000030: 7206 cbbd bf3e bcbd 8811 87bd 8543 35bd
00000040: 80e3 28bd 0b64 57bd ee03 b03d 269b dabd
00000050: 91b2 00be 9cfa f93c d8a2 0a3e 1d32 75bc
00000060: 727e 4abd 6e18 71bd 2e3b d7ba 5660 d6bc
00000070: fa58 58bd 99a7 863d 83fe 02be 959e 25be
00000080: 9200 07be 8396 b03d e7ae e53d 35db 40bc
00000090: 3106 27bd 7122 773e 1363 8c3d 704c 17be
000000a0: b20f a73d 1ed0 81bd 6052 e33d c7e6 74bd
000000b0: a27e 3e3e 1946 f23d 1bf3 703d 2034 3ebe
000000c0: c894 c6bb 2569 c0bd eb0c ef3d c18c 093e
000000d0: a8a4 c0bc f987 323d b37e 133e 85de 8bbd
000000e0: 71d6 22bb d687 d4bc 970b c13c 791d c33d
000000f0: 1518 56bc 3ca7 0f3d bb2f 29be ac52 55be
-0.01950346 0.057508677 -0.18714081 0.101738505 -0.035124186 -0.01031338 -0.016307771 -0.09654955
0.054150056 -0.008218394 0.10618548 -0.044950858 -0.09913339 -0.09191655 -0.06595141 -0.044253845
-0.041232586 -0.052585643 0.085944995 -0.106741235 -0.12568118 0.030515008 0.13538682 -0.014965561
-0.049436994 -0.05886119 -0.0016420835 -0.026168983 -0.05281923 0.065749355 -0.12792401 -0.16173775
-0.13183811 0.08622458 0.112150006 -0.011771013 -0.04077739 0.24134232 0.068548344 -0.14775252
0.081572905 -0.06338523 0.11099696 -0.0597904 0.18602994 0.11829776 0.058825593 -0.18574572
-0.0060602166 -0.09395055 0.11672386 0.134326 -0.023516014 0.043586705 0.144038 -0.068295516
-0.0024847055 -0.025943678 0.023565097 0.09527106 -0.013067265 0.035071597 -0.16522114 -0.20832318

fc2.weight f4 [128, 64]
00000000: 1c5b a53d 5e50 023c 8fa4 c93c 3108 513c
00000010: acc8 d9bd 31ef 04be 101e fe3c 5c6b 37bd
00000020: 6445 b1bc 23a4 5c3d e376 cabd fc7b 90bd
00000030: 2c34 813d 6c89 b33d 7334 ffbd 4fd5 973d
00000040: 4c6f 4dbd eef4 143d 1b3a 0a3d e012 35bd
00000050: 44aa b3bd fc71 c73d ad86 86bd 6f37 4dbd
00000060: 1f4e 033d 9890 84bd c540 6ebc f81e 743d
00000070: 8094 76bd 3cc9 2bbe 3224 d3bd dc4f d4bd
00000080: fc73 b73d b635 debb 7a1e 1ebe 54a9 6abd
00000090: 0fd4 ef3c 8110 2dbe e40d 1a3d 34c6 013e
000000a0: e184 f5bd 383c 3cbd 78dd 0abe 98f7 a5bd
000000b0: 38a5 e7bd 51e3 233d d198 8b3d 5fe2 0b3e
000000c0: 2167 afb9 42d1 a1bb 0828 0ebe 4ac8 2a3c
000000d0: ae90 ff3d 6d62 c6bd e856 2abd e4d1 e73d
000000e0: 2c92 39bc d2cb 26be 0019 27be 795b 87bd
000000f0: f2aa a23c e894 4abd 1c1a a2bd af38 bebd
00000100: 34b7 babd 843c fabd 667a 26be 6e11 e83d
00000110: 10c1 923c 4008 233c 0043 a13b 48a9 be3c
00000120: c06a fc3d a176 a3bb 4ccf 48bd d02a a6bc
00000130: 9ad1 923d 481e c5bd a0a7 a1bd 97fa 5cbd
00000140: 345e 09bd a07a 1cbe bbf3 143b 2e89 d53d
00000150: 3cc5 efbd 3eca 23be d0e9 42bc 00e5 2cbb
00000160: 50c2 1b3d 40dc 63bc c6d9 423d eda9 98bd
00000170: 403a b8bb 70c4 62bc bf1d 9fbd 9673 4abd
00000180: f834 063d 52bf a9bc a6ce 8abd bee8 4f3d
00000190: 5867 b4bc d8ed e43c 814e b23c 201c 2ebe
000001a0: 80c2 ffbd 8068 453d ac76 6fbd 4f1f 29bd
000001b0: 4448 b6bd 2bbd c2bd bcf1 723c a265 d93d
000001c0: 18e5 2c3b 16aa 323d 9fa9 523d 1b96 6e3d
000001d0: 5445 1a3d 3444 ddbd 6c67 d23d 90f7 01be
000001e0: adfe 8fbd 4004 d2bd a0d2 783d 30ee 57bd
000001f0: a0c6 88bd ec2a e5bd d44b 753d e0b2 84bc
00000200: 408a a0bb fc70 e03d ac42 49bd a096 153e
00000210: 78a7 8138 6c85 dd3d 8ab3 d53d f89b be3d
00000220: 2f7e 4d3d 2599 033e 8e2c 0a3e 00a2 873b
00000230: 1810 203d 1004 553d 0f1b a5bb 6f24 d4bd
00000240: 9022 f43c 0fd4 b0bd c984 cf3d deef c93d
00000250: cc7b b4bd 4820 c5bd 6643 2e3e fd40 343e
00000260: 70b3 3d3e a2c6 cf3d 1296 10be 3a94 463d
00000270: c07c 57bd c294 c73d 7896 c4bd e0c3 98bd
00000280: 14a4 5cbd d55d 033e 8fda a43d 464e 873c
00000290: 516f ea3d f9bd 583e 4ae2 97bd 5c46 ac3d
000002a0: 3628 b7bd f007 68bc 54e8 3d3e 2287 8cbd
000002b0: dbcb 2d3e 0717 293e 4171 033e 044d 25be
000002c0: 782f cb3c 0c9f 0fbd a582 ee3b df56 5cbd
000002d0: 58a5 00bd 8086 c1bd 8a51 873d 1651 18be
000002e0: 37cd e6bc 872a 0abd bed1 903d 5bbc 213d
000002f0: 367b de3d 83d4 173e f61f cfbd 3088 b0bd
00000300: 4071 a4bb 1fc3 143e 80a3 38be 77ea 1c3e
00000310: 21f1 4b3e 28be 513e d04e 483c 6033 15bc
00000320: 5258 093e 0e3a 313b f70d de3c 7001 ff3c
00000330: 709f d1bd f020 a7bd 472b 33be 0358 cf3c
00000340: e231 e3bd 32e6 34be 7fa9 4f3c d2f9 a1bd
00000350: e076 6dbc 261f f9b9 2ace c53d 00f1 653c
00000360: 01bf 073d e8b8 e1bc 4fde 18be fc73 1dbe
00000370: 9453 b33d db90 943d 3df7 a3bd f3ad b8bd
00000380: e0b4 3fbc ec5a 8bbd 50df f13d 77df 253e
00000390: 83ad 51bc 1ff2 293e 592e 60bd b584 c6bd
000003a0: 309e fe3d f44c 2fbd 5a1c 533d 2fe9 0abd
000003b0: fdfb 233e 0879 e83d 5c18 d5bd 68ce e4bc
000003c0: f794 4f3d 2e63 f2bc bd00 8b3d e199 33bd
000003d0: b8e9 d03c 9943 ba3c 904d 103e 4c5e 22be
000003e0: 6492 18bd abc6 9dbd 7eb3 0f3e 3158 ef3d
000003f0: 79d6 d73b c9a9 023e 405e 9a3b 739b e53c
0.08074018 0.007953731 0.0246146 0.012758301 -0.10633978 -0.1298187 0.031020194 -0.04478012
-0.021639533 0.05386747 -0.09885957 -0.07054898 0.06308779 0.087664455 -0.12461176 0.07413732
-0.05015497 0.036366396 0.03374682 -0.044207454 -0.0877271 0.09738538 -0.06568656 -0.050101694
0.032056924 -0.064728916 -0.014541809 0.059599847 -0.060200214 -0.16775984 -0.10309638 -0.103667945
0.08957669 -0.006781305 -0.15441313 -0.05729039 0.029275922 -0.16900827 0.037610903 0.12673265
-0.11988235 -0.045955867 -0.13561046 -0.081038654 -0.1131081 0.040011708 0.06816257 0.13660572
-0.00033455438 -0.0049382756 -0.13882458 0.010423729 0.12478767 -0.09686742 -0.041586787 0.1131933
-0.011326354 -0.16288689 -0.1631813 -0.06609244 0.019856904 -0.049458414 -0.07915136 -0.09288155
-0.091169745 -0.12218574 -0.16257629 0.113314494 0.017914325 0.009950697 0.004921317 0.023274079
0.123250484 -0.004988507 -0.04902582 -0.020284086 0.071688846 -0.09624916 -0.078933 -0.05394992
-0.033537105 -0.15281153 0.0022728282 0.104265556 -0.11707541 -0.15995118 -0.011896566 -0.0026381612
0.038027108 -0.013907492 0.047570966 -0.07454286 -0.0056221783 -0.01384078 -0.077693455 -0.049426638
0.03276536 -0.020721111 -0.06777696 0.05075907 -0.022021934 0.027945444 0.02176595 -0.17002916
-0.1248827 0.048195362 -0.058462784 -0.041289624 -0.08900502 -0.09508737 0.014828142 0.10615088
0.0026381668 0.043619238 0.051431295 0.05824862 0.037663773 -0.10804024 0.102736324 -0.12692094
-0.070309974 -0.10254717 0.060747743 -0.052717388 -0.0667851 -0.11189827 0.05988677 -0.016198575
-0.004899293 0.1095905 -0.04913585 0.1460824 6.182393e-05 0.10816464 0.10434635 0.093070924
0.050169166 0.12851389 0.13493559 0.004139185 0.03907785 0.052005827 -0.005038626 -0.10358512
0.029801637 -0.08634197 0.10132749 0.09860204 -0.08812675 -0.09625298 0.17017898 0.17602916
0.18525481 0.10145308 -0.14119747 0.048481204 -0.052609205 0.0974517 -0.09599012 -0.07459235
-0.053867415 0.12828763 0.08049499 0.016516816 0.11447013 0.21166219 -0.07416208 0.084118575
-0.089432165 -0.014162049 0.18545657 -0.06861712 0.16972296 0.1651269 0.12836172 -0.1614266
0.024802908 -0.03506379 0.0072787576 -0.053793784 -0.031407684 -0.09449482 0.06607349 -0.14874682
-0.028174026 -0.033731963 0.07071255 0.03948627 0.10863344 0.1482716 -0.10113518 -0.08619726
-0.0050183833 0.14527558 -0.1803112 0.15323816 0.19916202 0.20482695 0.012225822 -0.009106487
0.13412598 0.002704266 0.027106268 0.031128615 -0.102354884 -0.08160579 -0.17496978 0.025310522
-0.11093499 -0.17665938 0.012674688 -0.079089776 -0.014493674 -0.00047516188 0.09658463 0.01403451
0.03314114 -0.02755399 -0.14928554 -0.15376276 0.08756176 0.072541915 -0.08006141 -0.09017553
-0.011700839 -0.06804451 0.118101716 0.16198526 -0.012797716 0.16596268 -0.0547317 -0.096932806
0.124325156 -0.042797998 0.05154071 -0.033913787 0.16014095 0.1135121 -0.10405037 -0.027930453
0.050679173 -0.029588308 0.0678725 -0.043847922 0.02550207 0.022737311 0.14092088 -0.15856284
-0.037248984 -0.077039085 0.14033315 0.11686743 0.0065868464 0.1276008 0.0047109425 0.028028226

fc2.bias f4 [128]
00000000: f16e eb3c 5776 e4bd 6f2e c73d 0c98 f53d
00000010: 6203 0a3c 5978 9b3d 1551 883c e2d9 a23d
00000020: 2e49 87bd b4dc f3bd a865 043d 65ad 8b3d
00000030: 8d17 8abd e3a1 20bd 6c13 b5bd 85fa bcbd
00000040: fc18 1dbd 60ea 893d 0eea acbd 66b8 99bd
00000050: 6ec4 83bd b377 7dbd 0f3a 983c eb91 91bd
00000060: 6c88 79bd b876 c6bc fc45 bfbd 1073 bcbc
00000070: 9829 76bd 50cf 4ebc 706b b0bc 1673 e2bd
00000080: 9676 02bd cad7 bebd 212e a9bd 58fe adbc
00000090: aa88 eb3d 2469 43bc 5866 763d 0eae 1dbe
000000a0: 70a2 cd3d c5ca 833d e491 0fbc 44b0 4dbd
000000b0: 44a4 f5bd f0bf 28bd 603a 8b3d 9653 92bd
000000c0: 41d5 a4bb 2cd9 5fbd 1784 3dbc cb9f 7c3c
000000d0: 9e75 6abc 5732 c53c d8ed 1abd afcd 81bd
000000e0: b87d c2bd 6b85 0b3e d842 abbc 7a7b 47bc
000000f0: e262 af3d e60e 0cbd 391c 9fba 77a1 983d
00000100: dc30 1e3c 0967 31be df7a 25bd 7029 74bc
00000110: 8481 01bd 5a9e cb3b 864d 8abc 30fa 1c3d
00000120: ca9d dabd a6ad 9d3c 9ade 24be 074b 11be
00000130: 934d a7bc 7c5b cf3c 04af 8abd 62b9 ecbd
00000140: dd85 193e 2270 b9bd ac19 963d 40b9 e33b
00000150: 999a d1bd f698 4fbd 9ef7 2fbc cf1f 8bbd
00000160: c471 e4bd e0b2 1a3c 8ae2 92bd 0d26 d63c
00000170: ac35 05bd 40be 2abd 96f7 e83c da20 3fbc
00000180: f0a6 89bc 1ea7 e9bd 00a4 69b9 e919 5c3d
00000190: 545d a4bc 16f5 43bd 9063 47bc 1623 183d
000001a0: faf4 c0bc 4624 8fbd 53e3 7cbc 08d3 c93b
000001b0: d162 ba3d 9d21 fcbd 4aa0 b1bd 8598 afbc
000001c0: 1833 93bd 8748 14bd a8b5 87bd b1d4 173c
000001d0: 1e46 23bc 595c f6bd 92d8 24bb 565d cbbd
000001e0: 6c82 5bbd 2df2 a0bd 8b2d 5a3d 0f1c e13c
000001f0: 2a56 f7bd 3441 36bd 9409 633c a088 323d
0.028739424 -0.11155384 0.097256534 0.11991891 0.008423658 0.07591314 0.016640225 0.07951714
-0.06605755 -0.1190733 0.03232351 0.06820182 -0.06742773 -0.039216887 -0.08841595 -0.0922747
-0.038353905 0.067341566 -0.0844308 -0.07505874 -0.0643395 -0.061881732 0.018582372 -0.0710791
-0.060921118 -0.024226531 -0.0933952 -0.023004085 -0.06009826 -0.012622669 -0.021535605 -0.11057107
-0.031851374 -0.09318502 -0.082607515 -0.021239445 0.11500676 -0.011926923 0.060156196 -0.15398428
0.10040748 0.064351596 -0.00876281 -0.050216928 -0.11994222 -0.04119867 0.067982435 -0.07144849
-0.0050303047 -0.05465047 -0.011567137 0.015418957 -0.014310269 0.024071855 -0.03782448 -0.06338059
-0.09496635 0.13625114 -0.020905897 -0.012175435 0.08563782 -0.034193896 -0.0012139148 0.07452672
0.009655204 -0.17324461 -0.040400382 -0.014902458 -0.031617656 0.0062139453 -0.01688267 0.038324535
-0.10674627 0.019247841 -0.16100541 -0.14188777 -0.020422732 0.025312178 -0.06771663 -0.115587965
0.14992471 -0.09054591 0.07329115 0.0069495738 -0.10234565 -0.050682984 -0.010740189 -0.067931764
-0.111545116 0.009442061 -0.07172115 0.02614119 -0.03252189 -0.041685343 0.02843837 -0.011665547
-0.016803235 -0.11408828 -0.00022281706 0.053735647 -0.020064034 -0.047841154 -0.012169734 0.037142836
-0.023554314 -0.069893405 -0.015435058 0.00615919 0.09100879 -0.12311099 -0.08673151 -0.021435032
-0.0718748 -0.03620198 -0.06626445 0.009267018 -0.009965448 -0.12029333 -0.00251535 -0.09929912
-0.053591177 -0.07858691 0.05326609 0.0274792 -0.12076981 -0.044495776 0.013857264 0.043587327

fc2_1.weight f4 [64, 128]
00000000: 43fc c7bd e14e 903c ac9d 963c 307a 06be
00000010: fbf8 223c 3053 36bc e202 b3bc 23f0 12be
00000020: a28a 9abd 5829 873c 0004 123a f2c9 273d
00000030: 1d0d 00be b8a7 cabc 72c8 603d 6498 12be
00000040: ce02 4f3d 5b3a 69bc f0f1 14bd 83a8 dabd
00000050: 9472 3a3c 3354 a83b 18f7 ed3c 0898 93bc
00000060: 0767 873d be0d 493d 8652 523d 1764 35bd
00000070: 6ea3 86bd a04a 07bd 737e 813d 746d 04be
00000080: e83a 1cbd 6089 623b 9e5c 6a3d ddeb 1cbd
00000090: d16b cebd 1057 b4bb 6d46 bfbd c0f4 54bb
000000a0: 0206 563d b37e 12be 0b9a 99bd 8fac 86bd
000000b0: 0bd2 d53c 91b3 08bd 68b9 efbd 356e 5dbd
000000c0: 7461 d0bb 58ad 83bd 0a32 14bd 226c 15be
000000d0: efba 2bbc 30b6 b8bd 8c35 b3bc 5b0c f6bc
000000e0: 18ad 0bbc f487 c23c b266 603d 3f98 04bc
000000f0: e19f adbd 899c ffbd f841 dbbd f27c 53bb
00000100: 4a11 8bbd 57c2 f9bd 6012 d93c f0f8 233c
00000110: 37f6 99bd 161e 3bbd 54ac debd fb10 14be
00000120: f661 303d 35d2 e939 d2fa cc3b a837 77bc
00000130: c72c 4fbd 7af3 5ebd c2a2 213d 854f ab3d
00000140: b6ef 3abc 9039 4dbd c0da 18bd f889 77bd
00000150: 4678 84bd b15e 75bc 7ebe 973b 5657 9c3c
00000160: e16c 7abd 0f50 883d 6067 00bc a6c3 e0bc
00000170: 6893 023c b132 913d de15 373d 4f48 9ebd
00000180: 6be5 8dbd 59e0 8c3d fdf9 9f3d e638 6abd
00000190: 3f30 01bd 18af 11bd 8ce5 093d 8db5 c53b
000001a0: 37f1 aabd 7239 9abd d19b 923b 55cd ba3c
000001b0: fa2e 0bbe 9a93 4d3d 196f 9ebd e631 61bd
000001c0: 6168 b13b b8b4 8cbb ed5e c93c c122 833d
000001d0: 5efc 6a3d 63d4 b5bc 9f5e f4bd e48d 9dbc
000001e0: 7072 dcbb 4049 dc3c 4cc5 9c3c f7db 583c
000001f0: 478b a83d 2965 9ebd 03dc 8b3d 8768 9cbd
00000200: 5ea6 0abd ca82 7a3d 875f c5bd 53a6 9cbd
00000210: 90bd d73c 20f4 403b 0884 a93c 9913 8abd
00000220: bf68 77bd 04e4 dc3c 58b4 90bd 7f22 a6bc
00000230: 0dcd 67bd a98f ad3d 223a 5f3d fb09 c03c
00000240: a60b 553d 62b0 ddbd 2c02 03bd f118 eabc
00000250: 836d f2bd af2f a63d a0ea dfbd 0439 b1bb
00000260: ff80 d73c 7832 773c 642a 18bd f6fd 113d
00000270: 199e 34bd 86c9 073d e5d5 883d f4d8 c93c
00000280: 22ef b1bd db4c 823d 4d0c 963d f451 c33c
00000290: f672 d5bc f2d5 043d 8a82 f6bd 548d 37bd
000002a0: 7dd2 833c 9a75 e6bc 9ab8 07be 00ad 3a3c
000002b0: 5cd5 81bd 87c1 81bd 5bf4 86bd 9e6c 46bd
000002c0: 8539 e3bd 4407 a5bd 98b0 51bc ce3c e6bc
000002d0: f930 96bc f21c a4bc 5e75 393d b802 ff3c
000002e0: d2d0 673d 8785 6cbd 460f acbd e820 9dbd
000002f0: 3c7f cd3c b4d3 c5bd 2cf7 ab3c 38dd c2bd
00000300: ed5f 41bd af67 21bd e256 363d 283f 20bc
00000310: 080b 063d 04ea adbd 927d 493d 8d6e ce3c
00000320: 15dc 12bd 78e9 5b3c 5c4d 8bbd 35cf cfbd
00000330: e6d4 0bbd d8de 86bd 5eaf f3bc 6dcd 9ebd
00000340: 58a9 0bbe 38e1 f73c fe35 8cbd 52ac 3e3d
00000350: b99b 9cbd 5a6d 88bc e5ad 00be 64f5 f8bd
00000360: e2ae 82bd 2d59 9dbd 10f6 9c3b c07b e13c
00000370: 27ba 91bc e14a 8c3d 7996 913c 7270 abbd
00000380: 665d 453d 2292 83bd 6cdf 8abc 78fc 8cbd
00000390: 6495 d73c 1a52 9fbd b295 693d fdff a8bb
000003a0: a7b8 953d 44c7 4abd 6f08 053d 737f fb3c
000003b0: 7514 34bb 97b1 b6bd f816 34bc 8cf6 06be
000003c0: 804d ed3d 14a4 94bc afc8 c5bd b0c3 8fbd
000003d0: 787a 85bd bb69 693d 9170 033d 1bc7 9bbd
000003e0: d0a0 adbc b85f 63bd fe46 a3bd e4a2 5d3c
000003f0: fe22 643d 5651 7e3d 9fd5 0abe f1c8 85bd
-0.09764912 0.017615737 0.01838573 -0.13132548 0.009947057 -0.011128232 -0.02185196 -0.14349417
-0.07545973 0.016499206 0.0005570054 0.040964074 -0.12505002 -0.024738178 0.05487866 -0.14315945
0.050539784 -0.014235104 -0.036363542 -0.10676672 0.011379857 0.0051369905 0.029048488 -0.01801683
0.06611448 0.04908537 0.05134823 -0.044284906 -0.065741405 -0.033030152 0.063229464 -0.12932378
-0.038142115 0.0034566745 0.057217233 -0.038310874 -0.10079158 -0.0055035427 -0.093396045 -0.0032494515
0.052251823 -0.14306144 -0.075000845 -0.06575882 0.026101133 -0.033374373 -0.11705285 -0.05406018
-0.0063592736 -0.06429547 -0.036180533 -0.1459203 -0.01048158 -0.090191245 -0.02187612 -0.030035188
-0.0085251555 0.023746468 0.054785438 -0.008092939 -0.0847776 -0.124810286 -0.10705942 -0.0032270518
-0.06790407 -0.121952705 0.02649802 0.010008082 -0.07517665 -0.04568299 -0.10872713 -0.14459603
0.043062173 0.0004459784 0.006255486 -0.015088953 -0.050579812 -0.054431416 0.03946186 0.083647765
-0.011409691 -0.050103724 -0.03731799 -0.06043431 -0.06468253 -0.0149761895 0.0046308627 0.019084614
-0.06113899 0.06655895 -0.0078371465 -0.027437042 0.007969715 0.07089747 0.04469859 -0.077286355
-0.06928524 0.068787284 0.07811353 -0.05718317 -0.03154015 -0.035567373 0.03366618 0.0060336054
-0.08346789 -0.07530488 0.004474141 0.022802988 -0.13592139 0.050189592 -0.07736034 -0.054979227
0.0054140543 -0.0042940043 0.024581397 0.06403113 0.057369582 -0.022196 -0.1193211 -0.019232698
-0.006727509 0.026890397 0.019137047 0.013236037 0.0822969 -0.077341385 0.06829073 -0.076371245
-0.033850066 0.061159886 -0.09637361 -0.07648911 0.026335508 0.0029442385 0.02069284 -0.06742019
-0.060402628 0.026964195 -0.07065648 -0.02028012 -0.056592036 0.084746666 0.0544988 0.023442259
0.052013062 -0.10824658 -0.031984493 -0.028576346 -0.11837294 0.08114564 -0.10933423 -0.005408408
0.026306627 0.015087716 -0.0371498 0.035642587 -0.044096086 0.033151172 0.06681422 0.024639584
-0.08688189 0.06362315 0.07326565 0.02384279 -0.026055794 0.032430597 -0.12036617 -0.044812515
0.01609158 -0.028132249 -0.13254014 0.0113937855 -0.06339523 -0.063357405 -0.06589576 -0.04844343
-0.11094955 -0.080580264 -0.012798451 -0.028105166 -0.018333899 -0.020033333 0.045277946 0.031129226
0.05659563 -0.05774453 -0.08401351 -0.07672292 0.025085084 -0.0965952 0.020991884 -0.095148504
-0.047210623 -0.03940552 0.04451645 -0.009780683 0.032725364 -0.084919006 0.04919202 0.0251992
-0.035854418 0.0134223625 -0.068018645 -0.101469435 -0.034138583 -0.06585473 -0.029746708 -0.077540256
-0.13638818 0.03025876 -0.06846236 0.046551056 -0.07646889 -0.016653705 -0.12566335 -0.121561795
-0.063810125 -0.076830246 0.004790075 0.027524829 -0.01778896 0.068502195 0.017771946 -0.083710566
0.048184775 -0.06424357 -0.016952239 -0.06884092 0.026316352 -0.077793315 0.057027526 -0.0051574693
0.0731061 -0.04950644 0.032478746 0.030700421 -0.0027478014 -0.08920591 -0.010991804 -0.13179988
0.115870476 -0.018144645 -0.09657418 -0.07019746 -0.065175 0.056985598 0.032089774 -0.07606336
-0.021194845 -0.055511206 -0.07972525 0.013527606 0.055697434 0.062089287 -0.13558052 -0.06532467

fc2_1.bias f4 [64]
00000000: 0de8 debd 15b1 e8bd d6fb a0bd 33ad a8bb
00000010: f22e febd 3638 293d c7ec 8fbd d9de 1d3c
00000020: 4409 d9bc 1775 b4bd eeba 82bd 54dc 73bd
00000030: ea70 05bd 3e59 ccbd bec3 b0bc 9a94 c2bd
00000040: 74b9 923d e622 c1bb 4ede f3bd 16d5 bb3c
00000050: 7c1a 8b3d 9028 1dbd dc84 6e3d bf58 013d
00000060: 31aa 843c d5b3 173c 30b0 a7bd d0ae d03c
00000070: ea63 7b3c 0bee 72bc 1642 513b 60eb 9cbc
00000080: 18a6 f1bc 76f7 f53a a7c3 49bd 3c03 cabd
00000090: df0b 4fbd 91d0 903c ef4c 80bd 2a3b 21bd
000000a0: e418 31bd 6f32 253b f907 97bc 4da0 703d
000000b0: f47b 01bd 8c19 6bbd 96cb f83a f352 50bd
000000c0: 1c61 ebbb 5384 983d a039 afbd 31ff dcbd
000000d0: 76a5 ef3c 2aa9 0bbe ee60 bcbc 85a9 c7bc
000000e0: 2f27 ba3c f30b b63d 3290 06be 271f 8c3d
000000f0: 0c62 e7bc 3ac9 e5bb d45b b03c 4266 d5bd
-0.10884104 -0.11361901 -0.07860534 -0.0051476 -0.12411298 0.041313373 -0.070275836 0.009635651
-0.026493676 -0.088113956 -0.0638331 -0.059536293 -0.032578386 -0.09977959 -0.021577712 -0.09501
0.071642786 -0.005894053 -0.11907636 0.022928756 0.06792161 -0.03836876 0.058232173 0.031578775
0.016194435 0.009259184 -0.08187902 0.025473982 0.015343646 -0.014827262 0.003193026 -0.019155204
-0.029498145 0.0018765766 -0.049258854 -0.09863898 -0.05054843 0.017677577 -0.06264674 -0.039363064
-0.04323663 0.0025207063 -0.018436419 0.058746625 -0.03161235 -0.05739741 0.0018981572 -0.050860357
-0.007183207 0.07447114 -0.08555913 -0.107908614 0.029253703 -0.1363875 -0.022995438 -0.024372825
0.022723762 0.08888998 -0.13140944 0.06841879 -0.028244995 -0.0070125135 0.021528162 -0.10419895

fc3.weight f4 [18, 64]
00000000: 5c33 093e 01a4 9dbd 002c eb3d 4616 2bbd
00000010: 48c6 7dbd 59f1 a93d a8cc 82bc ac5d 943a
00000020: 06b7 aebd eeab 123e 0b3e d83d b36e f03c
00000030: 840e c63d 7c37 ac3c 801b 283d 4651 4fbd
00000040: d80f 9a3d 49bc 2a3e 12c5 b43d 2379 843c
00000050: ed93 b63c c05a f8bb 7100 cf3d 31c8 fa3c
00000060: 624a 22bd f667 973c 38a9 24bd 9441 ae3a
00000070: 1f32 813d 4346 38bd 061d b0bd b8da 5e3d
00000080: cc3f 7c3d bb85 c13c 7c75 a53d f17e 853c
00000090: 8323 25bc 52a5 c1bd 3e0c b539 ef1f 2b3d
000000a0: f0d7 e53d 909c 9abd cfa7 5c3d 14c7 47bb
000000b0: f16f a8bd 2006 c03c 8736 c93c 60f2 703d
000000c0: 8202 9c3c 55d3 f53d 5482 9f3d b2fb 143e
000000d0: f63e a0bc b304 13be 7490 71bc 2a64 013e
000000e0: a7dc cb3c 15d5 363d 23ca 023e 3a0c bc3d
000000f0: 7cb8 c3bd 706a c7bd 40b6 983d 7b66 6a3d
00000100: cb29 1dbc d320 a03c 42d7 10be 6a7a 9e3d
00000110: 468d 8f3c 1779 92bd f016 75bd ed63 bbbd
00000120: 622e d13d 5dd6 c5bd fdda 1c3d 3bd3 05be
00000130: 6d35 9ebc 7043 25be cbaa 88bd d14c d0bd
00000140: 2873 01be b595 0dbe 2e4a 7abd 9d4e 7cbd
00000150: 9ca3 cbbd 787f 7bbd cd41 dabc 4679 9a3d
00000160: a872 1ebe 082a b7bc 2817 ca3d 3409 b6bd
00000170: ae5d d83d 6f3e 903c 05df 65bd 1cc4 053e
00000180: 706e 12bc 001e 813d 132c c5bd bc36 89bd
00000190: 57bc 723d 306d 77bd 2550 b43d b3c7 fcbd
000001a0: f8f0 d3bd 847f 043d df66 8c3b a41c 253c
000001b0: 385a 1b3e 0005 553d e593 01be 4d9e 143c
000001c0: 4a18 a2bd 0320 0bbe 072d efbd 8178 c1bc
000001d0: 476c cbbd 0ff3 873c 53f6 26be 6d0c 28be
000001e0: 17a6 fabd 5d7c e2bd 2944 4a3c 2bcc 94bd
000001f0: b8ed 8a3d b9b8 a2bd 4c1f 6a3d 1f4f 233e
00000200: f944 723d 0a92 923d 9ee4 7abd 163f 19bc
00000210: 7e76 24be 7643 043d 2051 dabd d7e0 1abe
00000220: f1af c93d 5746 95bd c91c 5dbd 36e9 b83b
00000230: 5bdc 993d c85f b13d 9805 16bd 1d8b 3abd
00000240: 997a 25bd 3145 c3bc 9c64 0dbd a763 79bd
00000250: 0601 9d3b 0853 463d c825 9c3d 93e1 553d
00000260: 02f9 9abd 3bc8 3d3d 2ee2 dabd c2ef d8bd
00000270: 0ec1 61bd fc16 0e3c d42e acbd 1296 c2bd
00000280: 2432 de3d f7cc ac3d 33e7 7e3d 4492 c2bd
00000290: da77 3ebc 6abc b2bd 43b6 6b3c 24da 84bd
000002a0: 404e ff3c d64d 773d 85cd 8abc f57d d6bd
000002b0: d6c2 4bbc 105b 3ebc f3b4 9cbd d50e 84bd
000002c0: 7509 d9bd 9b75 f0bd 7395 e6bd 593f 6f3d
000002d0: 6874 60bd ddc4 e2bd e749 5e3d f187 03bd
000002e0: b019 f2bd 7661 0cbd 789e d13c 2fa5 4dbd
000002f0: 14ee b3bd 66a1 a7bc 03ff 7c3c 14c2 90bd
00000300: 81d7 6c3c 8625 bcbd f6ce 4fbd 1428 c13c
00000310: dc18 b4bd bd40 e8bd 80e7 37bc d395 0c3b
00000320: 4f64 b13d ad9c 293e 9b44 383d 2854 053e
00000330: a74b 80bd 1195 933b 2c8f 16bd 8ac1 d63d
00000340: f271 2bbd 4e26 5abc 31f4 02be 4735 3cbd
00000350: 9d53 9b3d acf7 f33d d118 cc3c d2fa 403e
00000360: 0de6 a43d 6982 84bd 162d dcbd debf 9fbd
00000370: e8a1 62bd 3ed6 5f3d efe6 8c3b c105 083d
00000380: ce16 a13d cb78 783d c4c7 2bbd a25b 69bd
00000390: 00c6 0b3e 9a9c 23ba bf88 abbc 1393 473e
000003a0: 70d4 88bd 385f 843d 726c 453c 0f99 a1bc
000003b0: 11eb 78bd 045f 3e3d 00ee 653d 2770 b43c
000003c0: c550 273b 67a8 d93d 92fb 383e 3753 e9bb
000003d0: df9a f0bd 5f78 1f39 fee9 8a3b 378c 8ebc
000003e0: 17a9 173e efd6 973d d3f6 c53d e332 91bd
000003f0: 8038 10bb 6b5e fbbd 4cea 5d3b 314a 81bd
0.13398498 -0.07697297 0.11483002 -0.04176929 -0.061956674 0.082979865 -0.015966728 0.001131942
-0.08531003 0.14323398 0.10558709 0.02934966 0.096707374 0.02102255 0.04104185 -0.050614618
0.07522553 0.16673388 0.08826651 0.016171044 0.022287333 -0.0075791776 0.10107506 0.030613037
-0.03962172 0.01848219 -0.040200442 0.001329469 0.06308388 -0.04498888 -0.08599286 0.054407805
0.06158428 0.023623338 0.08079049 0.016295882 -0.010079267 -0.094553605 0.0003453213 0.0417785
0.112228274 -0.07549393 0.053870972 -0.003048365 -0.08224476 0.02344042 0.024562133 0.058824897
0.019044165 0.12003199 0.0778853 0.14549139 -0.019561272 -0.14357261 -0.014743913 0.12635866
0.024885489 0.044636805 0.12772422 0.091820195 -0.09556672 -0.09737098 0.074566364 0.05722664
-0.009592484 0.019546902 -0.14144614 0.077381924 0.01752342 -0.07152002 -0.059836328 -0.09149919
0.10213925 -0.09660027 0.03829478 -0.1306886 -0.019312585 -0.16139007 -0.06673201 -0.101709016
-0.12641585 -0.1382664 -0.0611059 -0.06159841 -0.099433154 -0.06140086 -0.026642704 0.07542662
-0.15473425 -0.02235891 0.09867698 -0.08888474 0.10564743 0.017607896 -0.05612089 0.13063091
-0.008937463 0.0630455 -0.09627547 -0.06699893 0.059261646 -0.060406864 0.08804349 -0.12342777
-0.103486955 0.03234817 0.004284724 0.010077629 0.15171134 0.05200672 -0.12654074 0.009070945
-0.07914789 -0.1358643 -0.1167851 -0.023617031 -0.09932762 0.016595392 -0.16304903 -0.1641099
-0.122387104 -0.11058877 0.012345352 -0.072655044 0.067836225 -0.07945389 0.057158753 0.15948151
0.05914781 0.07156761 -0.061253183 -0.00935342 -0.16060826 0.0322909 -0.106600046 -0.15124832
0.09848011 -0.07288807 -0.05398253 0.0056430353 0.075127326 0.08660847 -0.03662643 -0.045542825
-0.04040012 -0.023836704 -0.034519777 -0.06088605 0.004791382 0.04841903 0.07624394 0.052217077
-0.07567026 0.046333533 -0.106876716 -0.10592605 -0.055115752 0.008672472 -0.08407369 -0.0950128
0.10849407 0.084375314 0.062232208 -0.09500554 -0.0116252545 -0.087273434 0.014386716 -0.064869195
0.031165242 0.060376965 -0.016943702 -0.10473243 -0.012436589 -0.011618391 -0.07651701 -0.064481415
-0.10597507 -0.117411815 -0.11258974 0.058410022 -0.054798514 -0.11072705 0.054269698 -0.032112066
-0.11821306 -0.034272633 0.02558826 -0.05020636 -0.08785644 -0.020462703 0.015441659 -0.070682675
0.014455677 -0.091868445 -0.050734483 0.023578681 -0.08793804 -0.11340473 -0.0112246275 0.0021451607
0.086617105 0.16563673 0.044987302 0.13020384 -0.062644295 0.004503854 -0.036757633 0.104861334
-0.041856714 -0.013314797 -0.12788464 -0.045949247 0.07584307 0.11912474 0.024914177 0.1884568
0.08051691 -0.06470186 -0.10750787 -0.07800268 -0.055330187 0.054647677 0.0042999904 0.033208612
0.07865678 0.060662072 -0.04193856 -0.056972153 0.1364975 -0.0006241292 -0.020939229 0.19489698
-0.06681144 0.06463474 0.012049781 -0.019726304 -0.06077105 0.046477333 0.056135178 0.022026135
0.002553032 0.10627823 0.18064716 -0.0071205157 -0.11748289 0.00015208263 0.00423932 -0.017400844
0.14810596 0.07414042 0.096662186 -0.07089784 -0.0022006333 -0.12273868 0.0033861576 -0.06312979

fc3.bias f4 [18]
00000000: 55f6 77bd 0cf8 773d f753 0b3d d425 7bbc
00000010: 9699 b33c 4256 24bd 375a 52bd eb73 eb3b
00000020: 73d6 38bd 0a0f 473d dd63 6b3d d111 f83c
00000030: e305 28bb 133f e8bc 2cd5 5abd 2ad4 1b3d
00000040: ad73 81bd ed9c 0fbc
-0.060537655 0.06053929 0.034015622 -0.015328843 0.021923821 -0.040121324 -0.051355567 0.0071854494
-0.04512639 0.048598327 0.057468284 0.030281933 -0.0025638274 -0.028350389 -0.053425953 0.038044132
-0.063208915 -0.008765441
