models/2024-07-20_16-38-18/epoch_0035_loss_0.00019594/dynamics.pth (torch, 83084 bytes, 8 tensors)

fc1.weight f4 [64, 34]
0	0x3c929a40	0.017895818
1	0x3dd98da6	0.106227204
2	0xbac2a400	-0.0014849901
3	0x3df64842	0.12025501
4	0xbdf64605	-0.12025074
5	0xbe2c1f76	-0.16808876
6	0x3dcee942	0.10103084
7	0x3e0d8095	0.13818581
8	0x3b634600	0.0034679174
9	0xbdbd2640	-0.09235811
10	0x3da3c482	0.07996465
11	0x3cfcaf20	0.030845225
12	0xbd97cc7f	-0.074120514
13	0x3e24226d	0.16028757
14	0x3da448b2	0.08021678
15	0xbc021c30	-0.007941291
16	0x3e1fdc3d	0.15611358
17	0x3dfec35e	0.12439607
18	0xbdb7ea10	-0.08980191
19	0x3c6afe60	0.014342874
20	0x3d9597a2	0.07304312
21	0xbd8d2e28	-0.06893569
22	0x3dfda952	0.12385811
23	0x3c387b40	0.011259854
24	0x3d8906bc	0.066907376
25	0xbddee784	-0.10884002
26	0xbe286500	-0.16444778
27	0x3e29a06b	0.16565101
28	0x3d04ba74	0.032404378
29	0xbda96509	-0.08271224
30	0x3d8424d0	0.06452334
31	0xba94eb80	-0.0011361688
32	0x3e09e38d	0.1346571
33	0x3d4e53a8	0.05037275
34	0xbd081059	-0.033218715
35	0xbd0da6e5	-0.03458299
36	0x3e0bb39c	0.13642734
37	0x3e245c01	0.16050722
38	0xbd8f208b	-0.06988629
39	0x3cdafffe	0.026733395
40	0xbc538341	-0.012909711
41	0xbd6dd7de	-0.058067195
42	0xbd97a0c8	-0.074037135
43	0xbd02b61d	-0.031911958
44	0xbd9f2d74	-0.07772341
45	0xbe0af215	-0.1356891
46	0xbe3d9a07	-0.18515788
47	0xbcdad05c	-0.026710682
48	0x3db90305	0.09033779
49	0x3db3cc68	0.08779222
50	0x3de65393	0.11246409
51	0x3ce273ba	0.027643073
52	0x3da41a1a	0.08012791
53	0x3c98cbd0	0.018651873
54	0x3bb9feb4	0.005676115
55	0xbdefde61	-0.11712337
56	0xbe290e4e	-0.16509363
57	0xbd589889	-0.052879844
58	0x3e40540a	0.18782058
59	0x3e139939	0.14413919
60	0xbe679201	-0.2261429
61	0x3e18e2b3	0.14930229
62	0xbe5b10be	-0.21393105
63	0xbd9eda51	-0.07756484
64	0x3dcc6bf7	0.0998153
65	0xbe1c5eae	-0.15270492
66	0xbdf59e19	-0.11993045
67	0xbdf1d3bc	-0.11807963
68	0xbdb2d2c8	-0.087316096
69	0x3bdd33a0	0.006750539
70	0xbddad4e9	-0.10685141
71	0xbd8b08e7	-0.06788807
72	0x3dfda79e	0.12385486
73	0xbd7cbed6	-0.061705433
74	0xbd276de4	-0.040876284
75	0xbdb0c9fe	-0.08632277
76	0xbd81ad09	-0.06331832
77	0xbd52f576	-0.05150362
78	0xbe075721	-0.13216831
79	0xbdb9adaf	-0.09066331
80	0xbdfae0b8	-0.12249893
81	0xbd3f3e16	-0.04669007
82	0xbe23c85c	-0.159944
83	0x3db2c866	0.08729629
84	0x3dceb7f2	0.100936785
85	0xbdba42e3	-0.09094789
86	0x3e0940ff	0.134037
87	0xbdcbff92	-0.099608555
88	0x3e02ed73	0.12785892
89	0xbe1ae208	-0.15125287
90	0x3cd59ac0	0.026074767
91	0x3d748618	0.059698194
92	0x3e003341	0.12519552
93	0xbd9d4238	-0.07678646
94	0x3ddf22fa	0.10895343
95	0x3c6150a0	0.013752133
96	0xbd3d9fc0	-0.046294928
97	0xbdb791d1	-0.08963359
98	0xbcbc81b8	-0.023011073
99	0xbd8393e0	-0.06424689
100	0x3dd7c27e	0.10535143
101	0xbccb3748	-0.024806634
102	0x3d8a28c2	0.06746055
103	0xbdec5b40	-0.11540842
104	0x3a8bdf19	0.0010671347
105	0xbd73253f	-0.059361693
106	0x3e5ec5e4	0.21755177
107	0xbe2691fe	-0.16266629
108	0xbd373fa5	-0.04473843
109	0xbd613e22	-0.054990895
110	0xbe223eff	-0.15844344
111	0x3dfaa2da	0.12238093
112	0xbd9227f2	-0.07136525
113	0x3d328bb6	0.04359027
114	0x3d1f4bd0	0.03889066
115	0xbd358178	-0.044312924
116	0x3b9699ba	0.0045959624
117	0xbde3e728	-0.11128074
118	0xbcadae8a	-0.02120139
119	0xbcf5cb32	-0.030004118
120	0x3db7a658	0.089672744
121	0x3e569c51	0.20958067
122	0x3dd799f2	0.105274096
123	0x3ddd3380	0.108008385
124	0xbe1fe1d0	-0.15613484
125	0x3dc4f175	0.09616367
126	0x3e0ec0ec	0.13940781
127	0xbcdfecab	-0.027334532
128	0xbd9e2f32	-0.077238455
129	0x3be2513d	0.006906657
130	0xbccdf21d	-0.025139863
131	0x3dbc104b	0.09182795
132	0xbd61743b	-0.055042487
133	0xbe382ec1	-0.17986585
134	0xbd9e10e9	-0.07718069
135	0xbe34c2f6	-0.17652497
136	0xbe034b58	-0.1282171
137	0x3e2f0bcd	0.17094345
138	0x3d0f8574	0.03503938
139	0x3ddc2406	0.107490584
140	0x3d09783c	0.03356193
141	0xbd49f6fc	-0.04930781
142	0x3be79500	0.0070673227
143	0x3e0c394f	0.13693736
144	0x3e11b2bf	0.14228342
145	0xbd1a6d04	-0.03770162
146	0xbd92efdb	-0.07174655
147	0x3da669ae	0.081256256
148	0xbdaacdec	-0.08340058
149	0xbe1debfa	-0.15422049
150	0xbe227d6c	-0.15868157
151	0xbe0b7fb6	-0.13622937
152	0xbd6e09e2	-0.058114894
153	0x3da35b36	0.079763815
154	0xbe27db6a	-0.16392294
155	0xbd19b04c	-0.037521645
156	0x3db6ceea	0.089261845
157	0xbda66f5b	-0.08126708
158	0x3d87ea98	0.06636542
159	0xbd78c8fa	-0.06073854
160	0x3d3b4eb8	0.04572937
161	0xbd596da4	-0.053083077
162	0x3df9dc4e	0.12200223
163	0x3c98c7a0	0.018649876
164	0xbd33a0e8	-0.043854624
165	0xbdb278e5	-0.08714465
166	0x3dce8a36	0.100849554
167	0xbdb46803	-0.08808901
168	0x3e0a86b9	0.13527955
169	0xbd931551	-0.071818
170	0x3d7ebd4e	0.062192254
171	0xbd9137af	-0.07090699
172	0x3dd33301	0.103124626
173	0xbd0004f5	-0.031254727
174	0x3dc99031	0.098419555
175	0x3e163697	0.14669262
176	0xbe3b44fe	-0.18288037
177	0x3e0bef25	0.13665445
178	0xbd183cbe	-0.037167303
179	0xbc37e2d9	-0.011223518
180	0x3dde94e3	0.10868242
181	0xbc4459dd	-0.011984316
182	0x3e16732c	0.14692372
183	0x3d840bf9	0.06447596
184	0xbc849d87	-0.016188396
185	0x3e0fe7b9	0.14053239
186	0xbd47e1ec	-0.04879944
187	0x3d853bd5	0.06505553
188	0x3da67ab9	0.08128876
189	0x3e40e1a7	0.1883608
190	0xbdbf0d08	-0.093286574
191	0x3c6e68ee	0.014551384
192	0x3d3362d4	0.04379542
193	0xbc611143	-0.013737026
194	0x3ea5b25a	0.32362634
195	0xbb95518b	-0.00455684
196	0x3d926400	0.0714798
197	0x3b2f4ea4	0.0026749754
198	0x3c4de892	0.012567656
199	0x3e16113a	0.14655009
200	0x3e194f35	0.14971621
201	0x3d514e18	0.051099867
202	0x3d971c13	0.073784016
203	0x3dc4780e	0.09593211
204	0xbe157ad6	-0.1459764
205	0x3e012c21	0.1261449
206	0x3dd1bd8e	0.10241233
207	0x3e03d14f	0.12872814
208	0xbd9f5bb8	-0.07781166
209	0x3dd189f2	0.10231389
210	0x3b95cba0	0.004571393
211	0x3b862d40	0.0040947497
212	0x3d44b848	0.048027307
213	0xbc31c850	-0.010850981
214	0x3e29a601	0.16567232
215	0x3ddb2426	0.10700254
216	0xbd4bca36	-0.04975339
217	0xbd273e14	-0.040830687
218	0x3d993752	0.07481255
219	0x3dc28c42	0.09499408
220	0x3ddb49d2	0.107074395
221	0x3e16f9a7	0.14743672
222	0x3e1ce0d9	0.15320148
223	0xbd70e46c	-0.05881159
224	0xbdff6468	-0.12470323
225	0xbe00d826	-0.12582454
226	0xbe29244d	-0.16517754
227	0xbe0501d0	-0.12988973
228	0x3dbba0e6	0.09161548
229	0x3d6f3f74	0.058410123
230	0xbd62794e	-0.055291466
231	0xbc42cec0	-0.011890113
232	0xbe029800	-0.12753296
233	0x3dfc515e	0.12320207
234	0xbe24fce8	-0.16112101
235	0xbda49c31	-0.08037604
236	0x3db6cc8e	0.089257345
237	0x3e1365af	0.14394258
238	0x3e0b65d5	0.13613065
239	0x3e0fbe6d	0.14037485
240	0x3e2948ef	0.16531728
241	0x3d83ff16	0.06445138
242	0xbb32c1c0	-0.0027276129
243	0xbd7f2e9e	-0.062300317
244	0xbda2771e	-0.07932876
245	0xbdd268d5	-0.102739014
246	0xbd4f40d0	-0.05059892
247	0x3dce1416	0.10062425
248	0xbe000305	-0.12501152
249	0x3cd4d600	0.02598095
250	0x3d6bc5d4	0.05756171
251	0xbcbbfbe0	-0.022947252
252	0xbd88434e	-0.06653462
253	0x3ce57850	0.028011471
254	0xbd354b18	-0.044261068
255	0x3bf19680	0.0073726773

fc1.bias f4 [64]
0	0xbdadbf64	-0.084837705
1	0x3d89ad49	0.06722505
2	0x3dbdf430	0.09275091
3	0x3daf4d89	0.085597105
4	0xbe197c38	-0.14988792
5	0xbcb3b752	-0.021938
6	0xbd9e3176	-0.07724278
7	0xbd98d88b	-0.07463177
8	0xbd7b4f6e	-0.061355047
9	0x3d462ecf	0.048384484
10	0xbe10164a	-0.14071003
11	0xbe0eaaa6	-0.13932285
12	0x3da89093	0.082307
13	0xbd36b279	-0.0446038
14	0x3e1558ad	0.14584608
15	0xbdd2307a	-0.102631524
16	0x3e31ac73	0.1735094
17	0xbcbfe939	-0.023426639
18	0xbd3d984f	-0.04628783
19	0x3de8ac24	0.11360958
20	0xbd5b23b8	-0.05350086
21	0xbd818c66	-0.06325607
22	0x3e5de362	0.21668771
23	0xbe44b157	-0.19208275
24	0xbb005e60	-0.0019587502
25	0xbdc084e9	-0.094003506
26	0xbdd5e78d	-0.104445554
27	0x3e4dac41	0.20085241
28	0xbdf540e2	-0.11975266
29	0x3d8a6581	0.067576416
30	0xbd5379ce	-0.051629834
31	0x3dcfac24	0.10140255
32	0x3d9ba0d3	0.07599034
33	0xbc8fa0a8	-0.017532662
34	0x3d80d499	0.0629055
35	0xbc389983	-0.011267069
36	0xbdd78814	-0.10524002
37	0xbe0608e8	-0.13089335
38	0x3d6a1f43	0.05715872
39	0xbe141619	-0.14461555
40	0xbdf42de1	-0.11922813
41	0xbdb83703	-0.08994868
42	0x3db800cf	0.08984529
43	0xbda1854e	-0.07886754
44	0xbd8d5c4a	-0.06902368
45	0xbd8498eb	-0.06474479
46	0x3e37af75	0.17938025
47	0x3e340b72	0.17582491
48	0x3db1d820	0.08683801
49	0xbbd9fbbd	-0.006652324
50	0xbdf673ea	-0.120338276
51	0xbd8bbd8d	-0.06823263
52	0xbe084d11	-0.13310649
53	0xbb902682	-0.0043991217
54	0x3e72ccd9	0.23710956
55	0xbc7552a0	-0.014973313
56	0xbdbc85b0	-0.09205186
57	0x3dc70362	0.09717442
58	0x3dc9230a	0.09821136
59	0xbbf10f80	-0.007356584
60	0x3e0e4a3a	0.13895503
61	0x3d98f06e	0.07467733
62	0xb9947a00	-0.00028319657
63	0x3bb81370	0.0056175515

fc2.weight f4 [128, 64]
0	0x3dd2570a	0.10270508
1	0xbc428812	-0.011873262
2	0xbe1009dc	-0.14066261
3	0xbd084493	-0.033268522
4	0x3dc611d6	0.09671371
5	0x3d809c88	0.06279856
6	0x3dbebe66	0.09313659
7	0x3cd48874	0.025943972
8	0xbd816f89	-0.06320102
9	0xbc7d5020	-0.015460998
10	0x3d875140	0.06607294
11	0xbdcbb15f	-0.0994594
12	0x3cf9c389	0.030488746
13	0xbd20bf27	-0.039244797
14	0xbe754564	-0.23952252
15	0x3e077cae	0.13231155
16	0xbe6a721c	-0.22895092
17	0xbc8a0a4d	-0.016850615
18	0x3d11bbe9	0.035579596
19	0xbe7b7d5a	-0.24559537
20	0xbc867117	-0.016411347
21	0x3dbad582	0.09122755
22	0xbc3a5a7a	-0.01137411
23	0x3dc2bf90	0.09509194
24	0x3d24913b	0.040177565
25	0x3d359ed8	0.04434094
26	0x3d033894	0.03203638
27	0xbd8c0ac6	-0.06837992
28	0xbc887080	-0.016655207
29	0xbcf974b7	-0.030451162
30	0xbdf8c040	-0.12146044
31	0xbe2c10c3	-0.16803269
32	0xbe4c78a2	-0.19967893
33	0x3de780c8	0.1130386
34	0x3daa0805	0.08302311
35	0x3d6b1838	0.057396144
36	0xbda1f94e	-0.07908879
37	0x3d5a4c04	0.05329515
38	0xbdee443c	-0.116341084
39	0x3dacecc0	0.08443594
40	0x3ce6d990	0.028179914
41	0x3d69b508	0.05705741
42	0x3c2d48c1	0.010576428
43	0xbda4a4ad	-0.08039222
44	0x3d043224	0.03227438
45	0x3c558e70	0.013034448
46	0xbe6dc1aa	-0.23218408
47	0xbe43223c	-0.19056028
48	0xbcb996bf	-0.02265489
49	0x3d0bba1c	0.034113035
50	0xbd877b1c	-0.06615278
51	0xbd9a1fb9	-0.07525582
52	0xbd0bd25f	-0.034136172
53	0xbd17f841	-0.037101988
54	0xbe63d219	-0.22248115
55	0xbdaff182	-0.08590986
56	0xbd1ac75f	-0.03778779
57	0xbd374169	-0.044740114
58	0xbbf66de4	-0.007520424
59	0xbc373ac0	-0.011183441
60	0xbe793975	-0.24338324
61	0x3d634387	0.05548432
62	0x3d80d96c	0.0629147
63	0xbe063746	-0.13107023
64	0x3dc9264a	0.09821756
65	0x3dca0b8e	0.09865485
66	0x3dfd736a	0.12375529
67	0xbdbb5f3c	-0.09149024
68	0x3dccd664	0.10001829
69	0x3dae09e2	0.08497979
70	0x3da10a58	0.07863301
71	0x3d450770	0.048102796
72	0xbcde6668	-0.02714844
73	0xbd66c670	-0.05634159
74	0xbde63f8a	-0.11242588
75	0xbdbc0318	-0.091802776
76	0xbd8a32a4	-0.0674794
77	0xbca5aae8	-0.020223096
78	0xbce5f758	-0.028072044
79	0xbd0adb10	-0.03390032
80	0xbdd50b20	-0.104025126
81	0x3d60b5c4	0.054860845
82	0xb99b2e00	-0.00029598176
83	0xbdab8ae4	-0.08376101
84	0xbd9f12ee	-0.077672824
85	0x3d3e6c40	0.046489954
86	0xbd40a2e0	-0.04703033
87	0x3df9e3fa	0.12201686
88	0x39af8c00	0.0003348291
89	0xbc728b90	-0.014803782
90	0xb9b73c00	-0.00034949183
91	0xbc7afd10	-0.015319124
92	0xbd9e6292	-0.077336445
93	0x3cfdf6d0	0.031001478
94	0x3c9f0538	0.019411668
95	0x3df658dc	0.12028667
96	0xbb7e0100	-0.003875792
97	0xbcf91668	-0.030406192
98	0x3c814c58	0.015783474
99	0xbd4ec850	-0.050484
100	0x3d01a93c	0.031655535
101	0x3dea653a	0.11445089
102	0xbc72de60	-0.014823526
103	0xbdf597ae	-0.11991821
104	0xbde39c22	-0.11113764
105	0xbde7e952	-0.11323799
106	0xbdaf6158	-0.08563489
107	0xbd95cd16	-0.07314508
108	0x3d49b5d8	0.049245685
109	0xbde645e8	-0.11243802
110	0x3db4234e	0.08795796
111	0xbca6e820	-0.020374358
112	0x3d468048	0.048462182
113	0xbcb67140	-0.022270799
114	0x3dc5e4e0	0.09662795
115	0xbb938dc0	-0.004502982
116	0xbd9a9978	-0.07548803
117	0x3db05db8	0.086116254
118	0x3ddc62f0	0.10761058
119	0xbdf0fb2a	-0.11766656
120	0x3cb555a8	0.02213557
121	0xbd398a28	-0.04529777
122	0xbda858ba	-0.08220048
123	0x3dd75972	0.10515107
124	0x3da34586	0.07972245
125	0xbd43cac4	-0.047800794
126	0xbc99b378	-0.018762335
127	0x3b844220	0.004036203
128	0xbd8066f0	-0.06269634
129	0xbcbfdac7	-0.02341975
130	0xbca54cca	-0.020178217
131	0xbbe87510	-0.007094033
132	0x3dfc255c	0.12311813
133	0x3d16a85d	0.036781657
134	0xbd432164	-0.047639266
135	0x3d4ede80	0.05050516
136	0x3d316ed7	0.043318596
137	0x3dbae52b	0.091257416
138	0xbd1d3528	-0.038380772
139	0x3b6abbea	0.0035817572
140	0xbde678cf	-0.11253511
141	0xbe23dc35	-0.16001971
142	0xbdfb9287	-0.12283807
143	0x3e030609	0.12795271
144	0xbd4deea4	-0.050276414
145	0x3d690abe	0.05689501
146	0x3e0306ad	0.12795515
147	0xbe2f205e	-0.17102191
148	0xbd464ba8	-0.048411995
149	0xbb238ba0	-0.002495505
150	0xbcb89b8d	-0.02253511
151	0xbdd648c4	-0.10463098
152	0x3dccc45c	0.0999839
153	0xbd2d933c	-0.04237674
154	0x3ddf0eda	0.108915046
155	0xbe55cd90	-0.20879197
156	0x3d06a660	0.03287351
157	0xbd923011	-0.07138074
158	0xbd858670	-0.065197825
159	0x3d43982b	0.04775254
160	0xbe363888	-0.17795002
161	0x3ddeeab8	0.10884613
162	0xbd9229e0	-0.07136893
163	0xbc01c4fb	-0.007920499
164	0x3d611bf8	0.054958314
165	0xbdc4acaa	-0.096032456
166	0xbdc1a568	-0.09455377
167	0x3d9ca4b6	0.076486036
168	0xbd814b1d	-0.06313155
169	0xbd17fc10	-0.03710562
170	0xbc7dcada	-0.015490258
171	0xbba7f456	-0.0051255627
172	0xbdad6fdc	-0.08468601
173	0x3dabd006	0.08389287
174	0xbd12f632	-0.03587932
175	0x3cb5ed8f	0.022208003
176	0xbb8e1c50	-0.004336871
177	0x3d7f25f5	0.062292058
178	0xbccfd260	-0.02536887
179	0xbdea657f	-0.1144514
180	0x3d79cdb3	0.060987186
181	0x3c8e505a	0.017372299
182	0xbdd47d62	-0.103754774
183	0x3d9768de	0.07393049
184	0x3d80a52b	0.06281503
185	0xbd182180	-0.037141323
186	0x3d144872	0.0362019
187	0xbd1df318	-0.03856191
188	0xbc43277b	-0.011911268
189	0x3d96c0f9	0.07361025
190	0xbd01ef18	-0.03172216
191	0xbd90f438	-0.07077831
192	0x3de90cc0	0.11379385
193	0xbe4d01dd	-0.20020242
194	0xbe2c189f	-0.16806267
195	0xbd47d19b	-0.04878388
196	0xbd986bd4	-0.074424416
197	0xbd0e5ef4	-0.034758523
198	0x3dbfd3e6	0.09366588
199	0xbc092aa8	-0.008371986
200	0xbe2e16e9	-0.17000927
201	0xbe376b00	-0.17911911
202	0x3dc88d70	0.09792602
203	0x3d9f70b5	0.07785169
204	0xbe2bca82	-0.1677647
205	0xbe1c318f	-0.1525328
206	0xbdacb695	-0.08433262
207	0xbdd155c4	-0.102214366
208	0xbd720aad	-0.059092212
209	0x3dd3abdc	0.10335514
210	0x3d6683ae	0.056277923
211	0xbe3565e8	-0.17714655
212	0xbda9c51d	-0.082895495
213	0xbe19c896	-0.15017924
214	0x3bb69d00	0.005572915
215	0xbd3a1d0f	-0.04543787
216	0x3d859750	0.06523001
217	0xbbbcd460	-0.0057626218
218	0xbd4fb3a0	-0.050708413
219	0xbd98bd92	-0.07458033
220	0xbde7cebe	-0.1131873
221	0x3d1bbcd7	0.03802189
222	0x3d0fb014	0.03508003
223	0xbd4ae256	-0.049532257
224	0xbc487911	-0.012235896
225	0x3dd2d0f1	0.10293759
226	0x3c8b6b4d	0.017018938
227	0x3ca4abd2	0.020101462
228	0xbc24472d	-0.010026735
229	0xbd84d6c8	-0.06486279
230	0xbd8cca87	-0.068745665
231	0xbd9288f0	-0.07155025
232	0xbd363c9e	-0.044491403
233	0x3dc04410	0.09387982
234	0x3db63d60	0.08898425
235	0x3c5ad89a	0.013357306
236	0xbdf17026	-0.11788969
237	0xbc3a1d00	-0.011359453
238	0xbdba33d6	-0.09091918
239	0xbe3d6034	-0.1849373
240	0x3a12694d	0.0005585149
241	0xbe0b0ff6	-0.13580307
242	0xbd6ec444	-0.058292642
243	0xbe318d11	-0.17338969
244	0xbda32342	-0.07965709
245	0xbe23611c	-0.15955013
246	0xbd190412	-0.037357397
247	0x3db4e7fa	0.088333085
248	0xbe30269e	-0.17202231
249	0xbe500ddd	-0.20317788
250	0x3c95f7eb	0.018306693
251	0xbdcdcd4e	-0.100489244
252	0xbe3db80e	-0.18527243
253	0xbd92e357	-0.07172268
254	0x3ce41618	0.027842566
255	0xbca0ad4c	-0.019613884

fc2.bias f4 [128]
0	0x3d3da34c	0.04629831
1	0xbc6872f0	-0.0141875595
2	0xbd096b8d	-0.033549834
3	0x3c17b5df	0.00925967
4	0x3d340c6e	0.043957166
5	0xbd15791e	-0.03649246
6	0xbb660d39	-0.0035103096
7	0x3c80188a	0.015636701
8	0xbdf74da9	-0.120753594
9	0xbd7044b8	-0.058659285
10	0xbc91a59c	-0.017779164
11	0x3d0914ed	0.033467222
12	0xbd1c12bc	-0.038103804
13	0xbdc366c6	-0.09541087
14	0x3b4cd08f	0.003125224
15	0xbd11ccb5	-0.035595614
16	0x3d72d10c	0.059281394
17	0xbcdd6515	-0.027025739
18	0xbc05a264	-0.008156393
19	0xbd3d5e32	-0.04623241
20	0x3c2497ad	0.010045928
21	0xbd15e929	-0.036599312
22	0xbdd4fa35	-0.10399286
23	0x3865ffe4	5.483617e-05
24	0xbd814339	-0.0631165
25	0x3d9a4bae	0.07533966
26	0x3d70b4cb	0.058766168
27	0xbd0cf8aa	-0.034416832
28	0xbdec092e	-0.115251884
29	0xbca6a8f8	-0.020344242
30	0xbc2ee138	-0.0106738135
31	0x3cfd508f	0.030922202
32	0x3d50a4ae	0.0509383
33	0xbdbb13be	-0.09134625
34	0xbe0cf476	-0.1376513
35	0xbd818eb4	-0.063260466
36	0x3cf61d0a	0.030043144
37	0xbcd575bc	-0.026057117
38	0xbd64a8b5	-0.055824954
39	0xbcdac601	-0.026705744
40	0xbda10fb0	-0.0786432
41	0xbdc5ca4a	-0.09657724
42	0xbd05f6b0	-0.032705963
43	0xbdd9148a	-0.10599621
44	0xbe02f5c6	-0.12789068
45	0x3d24b9bc	0.040216193
46	0x3de44a02	0.11146928
47	0xbd332744	-0.04373862
48	0xbcc83c55	-0.024442831
49	0xbe0f1241	-0.13971807
50	0x3d1324f2	0.035923906
51	0xbd3640ba	-0.04449532
52	0x3c91c8e0	0.01779598
53	0xbd11d0f4	-0.035599664
54	0xbde0283a	-0.109451726
55	0x3d05ef22	0.032698758
56	0x3d04e876	0.032448255
57	0xbe1a2eb0	-0.15056872
58	0x3cce7ff9	0.025207506
59	0x3d9a93cf	0.075477235
60	0xbc2a46af	-0.010392829
61	0xbc71318c	-0.014721286
62	0xbcc4f1a0	-0.024040997
63	0xbda71320	-0.08157945
64	0x3b552e3d	0.003252878
65	0xbc745594	-0.014912982
66	0x3d175a92	0.03695161
67	0xbd7fdb53	-0.062465023
68	0xbe0b1326	-0.13581523
69	0xbcc2ed29	-0.023794727
70	0x3dcafe57	0.09911793
71	0xbe3a2097	-0.18176495
72	0xbdd8ffe0	-0.10595679
73	0xbd498758	-0.04920134
74	0xbdaedb74	-0.08537951
75	0x3c406bb0	0.011744425
76	0xbe165056	-0.14679083
77	0xbccdb291	-0.025109561
78	0x3cfd37f5	0.030910471
79	0x3d71572b	0.05892102
80	0xbd1c51b0	-0.03816384
81	0xbdcb29e4	-0.099200994
82	0xbd9d250c	-0.07673082
83	0xbdf7fb7c	-0.12108514
84	0xbdd5db60	-0.10442233
85	0x3caac317	0.02084498
86	0xbdae373d	-0.085066296
87	0x3d4ccc11	0.0499993
88	0xbb51ee9a	-0.0032033087
89	0xbd8041b7	-0.06262534
90	0xbde4982c	-0.11161837
91	0xbdc927b3	-0.09822025
92	0xbc80948d	-0.015695835
93	0xbdcddd7a	-0.10052009
94	0xbe34f8fd	-0.17673106
95	0xbc6aada6	-0.014323628
96	0xbddd1426	-0.10794859
97	0x3dbac774	0.09120074
98	0xbc9fa14a	-0.019486088
99	0xbd6a4250	-0.057192147
100	0xbcfae040	-0.030624509
101	0xbd9d9c01	-0.07695771
102	0xbdd0be4e	-0.10192548
103	0xbe1e6834	-0.15469438
104	0x3dd073f7	0.101783685
105	0xbda87a0f	-0.08226406
106	0xbdb4e307	-0.088323645
107	0x3d4b90fe	0.049698822
108	0xbd1c58bc	-0.03817056
109	0xbcb095f0	-0.02155587
110	0xbd0b4f31	-0.03401107
111	0xbd96f1a6	-0.073703095
112	0xbccb35bb	-0.024805894
113	0x3d4db376	0.050219975
114	0xbdd35bad	-0.1032022
115	0xbccf59b7	-0.025311334
116	0xbe58e519	-0.21181144
117	0xbca2294b	-0.01979508
118	0xbd9bf217	-0.07614534
119	0x3d479bd9	0.048732612
120	0x3d284fea	0.041091837
121	0x3d187d4a	0.03722886
122	0xbde82f92	-0.11337198
123	0x3d8f46b1	0.06995905
124	0xbbe6f2a0	-0.007047966
125	0x3c41dc2a	0.011832276
126	0xbcfae295	-0.03062562
127	0xbd92aaf6	-0.071615145

fc2_1.weight f4 [64, 128]
0	0xbd6978b1	-0.056999866
1	0x3bc5e3a0	0.006039098
2	0xbdb7678e	-0.08955298
3	0xbd1b575d	-0.037925113
4	0xbd5bfbb5	-0.053706843
5	0xbd80ad82	-0.06283094
6	0x3d43a696	0.04776629
7	0xbc104c80	-0.0088073015
8	0x3d02e052	0.03195221
9	0xbdad182f	-0.08451878
10	0x3d84e287	0.06488519
11	0x3cbc08a9	0.022953348
12	0xbc4ef128	-0.012630738
13	0x3d94883d	0.07252548
14	0xbdf2a1c3	-0.1184726
15	0xbb98afa1	-0.0046596085
16	0xbd765cdd	-0.060147155
17	0x3cc6e2c4	0.024278052
18	0xbd4baac6	-0.04972341
19	0xbd6fc36e	-0.058535986
20	0xbd85734e	-0.06516133
21	0x3cd219ec	0.025647126
22	0x3b5e9820	0.0033965185
23	0xbdc8e460	-0.09809184
24	0x3cb6bb63	0.02230615
25	0xbdeaa7f3	-0.11457815
26	0xbcf8b944	-0.030361779
27	0x3c220603	0.009889129
28	0xbc6a4630	-0.014298961
29	0xbdd9769d	-0.10618327
30	0xbc8b7f70	-0.01702854
31	0xbcd8b180	-0.026451826
32	0x3d0a633a	0.033786036
33	0xbdd8e77e	-0.10591029
34	0x3d9ad753	0.07560601
35	0xbce968e8	-0.028492406
36	0xbc277fe7	-0.010223365
37	0x3d26e476	0.04074522
38	0xbd973f78	-0.073851526
39	0xbd97d31e	-0.07413314
40	0x3d77fdea	0.060544886
41	0x3d7b2342	0.06131292
42	0xbb9624c0	-0.0045820177
43	0xbcb80a2c	-0.022465788
44	0xbb6fe096	-0.003660237
45	0xbd5e8c82	-0.054333217
46	0x3cb7cdf7	0.022437079
47	0xbdb00726	-0.085951135
48	0x3c9a169e	0.018809613
49	0x3dab1df9	0.08355326
50	0xbaee43c5	-0.0018178156
51	0x3d68ed5e	0.056866996
52	0xbd98a736	-0.07453768
53	0xbc73d5d8	-0.014882527
54	0xbcaa7208	-0.020806327
55	0x3c286625	0.010278259
56	0xbd7dc04f	-0.061950978
57	0xbd2a67b1	-0.041602794
58	0xbcda0d62	-0.02661771
59	0xbe0d20b9	-0.13782014
60	0x3cf5570a	0.02994873
61	0xbcce6f2c	-0.025199495
62	0xbda90361	-0.082525976
63	0xbd924433	-0.07141914
64	0xbc91e8ac	-0.017811142
65	0x3cc3a564	0.023882575
66	0xbc42b003	-0.011882785
67	0xbd8e736b	-0.06955608
68	0xbc114860	-0.008867353
69	0x3a312080	0.0006756857
70	0x3cde67a3	0.027149027
71	0x3cce4c04	0.025182731
72	0x3d998985	0.07496933
73	0xbcda20e2	-0.026627008
74	0xbd3bd0b6	-0.04585334
75	0xbcc931e8	-0.02455993
76	0xbd932b2e	-0.0718597
77	0xbd351f80	-0.044219494
78	0xbdb1230b	-0.08649262
79	0x3cf069a7	0.029347254
80	0xbe02c6a8	-0.12771094
81	0xbc1d8360	-0.009613842
82	0xbdd56e17	-0.104213886
83	0xb9f5b400	-0.00046864152
84	0x3d28aeaa	0.041182198
85	0xbca98df1	-0.020697566
86	0xbdb28907	-0.08717542
87	0x3bbf6654	0.005841056
88	0xbd6a1f01	-0.057158474
89	0xbdd1dad2	-0.10246815
90	0xbd9716d8	-0.07377404
91	0xbdf3a8e4	-0.11897448
92	0xbdeb8b60	-0.11501193
93	0xbb55f8c0	-0.0032649487
94	0xbd8ccb44	-0.06874707
95	0xbd92c8cf	-0.071672074
96	0x3ade0800	0.001693964
97	0xbd8dcacc	-0.06923446
98	0xbc4476c5	-0.0119912075
99	0xbdb2e7b9	-0.08735604
100	0xbce3a2ae	-0.027787533
101	0xbd62ad11	-0.05534083
102	0xbc884a10	-0.016636878
103	0xbdadda35	-0.08488885
104	0xbaffb4c3	-0.0019508827
105	0xbdd0a5a3	-0.10187843
106	0x3d05fbee	0.032710962
107	0x3d58ffa2	0.052978165
108	0x3d800b4d	0.062521555
109	0xbb5f7b00	-0.0034100413
110	0xbd77a332	-0.06045837
111	0x3d1a882e	0.037727527
112	0x3b75ecee	0.0037525254
113	0xbdbd2f18	-0.09237498
114	0xbc87b10c	-0.016563915
115	0xbd776315	-0.060397226
116	0x3ba41500	0.005007386
117	0x3d724846	0.059150957
118	0x3d323d6a	0.0435156
119	0xbdb9080a	-0.090347365
120	0xbe06c52d	-0.13161154
121	0x3d995111	0.07486165
122	0xbdaf62a9	-0.0856374
123	0xbddcb0d2	-0.10775913
124	0xbd175c6c	-0.036953375
125	0xbe0cd695	-0.13753732
126	0xbcaebe90	-0.021331102
127	0xbd89767c	-0.06712052
128	0xbd264779	-0.040595505
129	0xbba91670	-0.0051601455
130	0xbc367a95	-0.011137624
131	0xbdfb3d70	-0.12267578
132	0xbdd6c665	-0.104870595
133	0x3df1d181	0.11807538
134	0xbc3ec99b	-0.011644746
135	0xbdcb09ad	-0.09913955
136	0xbdfaa6c3	-0.122388385
137	0x3cf29db8	0.029616222
138	0xbe1528ca	-0.14566341
139	0xbdbff1f1	-0.093723185
140	0x3c3fc178	0.011703841
141	0xbd70ed06	-0.058819793
142	0xbd6ca3d6	-0.057773434
143	0x3ce23ba8	0.027616337
144	0x3cbacc5a	0.02280252
145	0xbe099818	-0.13436925
146	0xbe0d593a	-0.13803568
147	0xbde08eea	-0.10964759
148	0x3cc39ab1	0.023877474
149	0x3c78e2cb	0.01519079
150	0xbc8ff234	-0.017571546
151	0xbdcf820d	-0.10132227
152	0x3df176da	0.11790247
153	0xbd9a9831	-0.075485595
154	0xbd7634d3	-0.06010897
155	0x3e0c6feb	0.13714568
156	0x3c350901	0.01104951
157	0xbdeceaf5	-0.11568252
158	0xbd41674d	-0.047217656
159	0x3b256911	0.0025239626
160	0xbdef4854	-0.11683717
161	0x3d28647a	0.041111447
162	0x3d273981	0.040826324
163	0xbcb0954c	-0.021555565
164	0x3d81f32a	0.06345208
165	0x3cdd5872	0.027019713
166	0x3a96d84e	0.0011508556
167	0xbd8b5f40	-0.06805277
168	0x3cadfb80	0.021238089
169	0xbdd9d231	-0.10635794
170	0x3d4073f6	0.04698559
171	0xbd2ab3d1	-0.041675393
172	0x3b73267c	0.0037101796
173	0xbda7143b	-0.081581555
174	0xbe0e7148	-0.13910401
175	0x3cb5760f	0.022151021
176	0xbe071f46	-0.13195524
177	0x3d3102ae	0.043215446
178	0x3b97eeb3	0.0046366095
179	0x3ddb159f	0.10697483
180	0xbd98f089	-0.074677534
181	0x3d20162e	0.039083652
182	0xbc08a2b8	-0.008339576
183	0xbdb2f728	-0.087385476
184	0xbd36b084	-0.044601932
185	0x3ccbbb9a	0.024869729
186	0xbd769a0e	-0.06020551
187	0xbde28f6a	-0.1106251
188	0xbd48c635	-0.04901715
189	0xbd82f19e	-0.06393741
190	0xbdc9e643	-0.09858372
191	0x3c0ea4ba	0.008706266
192	0xbd1b7e7f	-0.037962433
193	0xbe083674	-0.13302022
194	0xbc7aaa47	-0.015299386
195	0x3cc8cb38	0.024510965
196	0x3d1660cc	0.036713406
197	0xbd858ff2	-0.06521596
198	0x3c5cc236	0.013474038
199	0x3d8f2be3	0.069907926
200	0x3b6ac180	0.0035820901
201	0xbd460a16	-0.048349462
202	0x3d2491cf	0.040178116
203	0xbd67420a	-0.056459464
204	0xbc800394	-0.015626706
205	0xbd8eac15	-0.06966416
206	0xbd946e2a	-0.072475746
207	0x3b7990d5	0.0038080711
208	0xbd9eb925	-0.07750157
209	0x3d9fb961	0.0779903
210	0x3d80357e	0.06260203
211	0xbd0ec870	-0.03485912
212	0x3dc36b1f	0.09541916
213	0xbd8de24d	-0.06927929
214	0xbe11e0f4	-0.14245969
215	0xbc186a06	-0.009302622
216	0x3b0e448d	0.002170834
217	0xbdee1eb2	-0.116269484
218	0x3ceb7940	0.02874434
219	0x3dccba11	0.09996427
220	0xbe055016	-0.13018832
221	0xbc5ebd90	-0.013595
222	0x3c286cce	0.010279847
223	0xbc4cefa3	-0.012508306
224	0x3d377a3a	0.0447943
225	0xbe12eb90	-0.14347672
226	0xbe08c297	-0.1335548
227	0x3daf666f	0.085644595
228	0xbd65b8cf	-0.05608445
229	0x3b208ad3	0.0024496808
230	0xbcbe584c	-0.023235463
231	0x3dd86267	0.10565644
232	0xbd4bccd3	-0.049755882
233	0xbd13c736	-0.036078654
234	0x3da67f07	0.08129697
235	0xbd8358c3	-0.06413414
236	0xbd702442	-0.05862833
237	0x3d8b0daf	0.06789719
238	0xbdad7174	-0.08468905
239	0x3dae7983	0.0851927
240	0x3d6a3dfb	0.057188015
241	0xbdb7570b	-0.08952149
242	0xbdf1e4da	-0.11811228
243	0x3b7ba5cf	0.003839839
244	0x3d9b2cf9	0.07576937
245	0x3c8cc13d	0.017181987
246	0x3de12eef	0.1099528
247	0xbd194f28	-0.037429005
248	0xbd3a8a29	-0.045541916
249	0xbbf87a6f	-0.0075829546
250	0xbd75daf8	-0.060023278
251	0xbd6d5726	-0.05794444
252	0x3b9d8b80	0.0048078895
253	0xbc949469	-0.018137174
254	0xbe071dd6	-0.13194975
255	0x3d3b1562	0.04567469

fc2_1.bias f4 [64]
0	0xbdb32ab3	-0.087483786
1	0xbcddef9f	-0.0270918
2	0x3d4258cf	0.047447976
3	0xbdab908c	-0.083771795
4	0xbdd4d685	-0.10392479
5	0xbda7e2ed	-0.081975795
6	0xbda39a73	-0.07988443
7	0xbd7e95aa	-0.06215445
8	0x3d31c5cf	0.043401536
9	0xbd895cc8	-0.0670715
10	0xbd9cab9e	-0.07649921
11	0xbe04c38e	-0.12965223
12	0xbde8f49d	-0.11374781
13	0x3d8968c1	0.06709433
14	0xbd96ac55	-0.073570885
15	0x3d087492	0.033314295
16	0xbdbd8958	-0.09254712
17	0x3d87690f	0.06611835
18	0xbbe0f74f	-0.006865419
19	0x3d2e8aa1	0.042612676
20	0xbccc33d0	-0.02492705
21	0x3dbf5f1e	0.09344314
22	0x3d8642a7	0.06555682
23	0xbd86329e	-0.06552623
24	0x3ce3bab1	0.027798982
25	0x3c871d09	0.016493337
26	0xbd87d62a	-0.066326454
27	0xbd6ef262	-0.058336623
28	0x3c1c9af6	0.00955843
29	0x3d878bfd	0.066184975
30	0xbdac256e	-0.08405577
31	0xbdc47349	-0.095923014
32	0xbd79fe56	-0.06103357
33	0xbd7397a8	-0.059470803
34	0xbd0a6f27	-0.03379741
35	0xbd3cf72c	-0.04613416
36	0xbdc6a782	-0.09699918
37	0xbcbf6a08	-0.02336599
38	0xbbf19378	-0.007372316
39	0x3dae7433	0.08518257
40	0x3d72da6b	0.05929033
41	0x3deb272f	0.11482083
42	0xbdf2ddd6	-0.11858718
43	0xbda23ba1	-0.079215296
44	0xbd535587	-0.051595237
45	0x3d0a2d90	0.033734858
46	0x3dbb8483	0.09156134
47	0xbba41b77	-0.005008157
48	0xbdfaf235	-0.122532286
49	0xbcc6ced4	-0.024268545
50	0x3ce8a41c	0.028398566
51	0x3d50bddc	0.050962314
52	0xbd2a02b2	-0.041506477
53	0xbd46aabe	-0.048502676
54	0xbd96a92b	-0.07356485
55	0x3dd0df2a	0.10198815
56	0xbd2fad21	-0.042889718
57	0xbda14969	-0.0787533
58	0xbd942ca3	-0.07235076
59	0xbb4037de	-0.0029330174
60	0xbd97705c	-0.07394478
61	0xbdb0a23d	-0.086246945
62	0xbda39381	-0.079871185
63	0xbd6441d5	-0.055726845

fc3.weight f4 [18, 64]
0	0x3d91f32c	0.071264595
1	0x3c438d60	0.011935562
2	0xbdab2571	-0.08356751
3	0x3dd4ee9e	0.10397075
4	0xbd651136	-0.055924617
5	0x3db7f8f8	0.08983034
6	0xbdc88cc2	-0.097924724
7	0x3db28c47	0.08718162
8	0x3df7d222	0.121006265
9	0x3d540c29	0.05176941
10	0x3d94a382	0.07257749
11	0x3d74f154	0.05980046
12	0xbdb099e5	-0.08623103
13	0x3d2ceb69	0.042216692
14	0x3e3201a6	0.17383441
15	0x3d8682cf	0.065679185
16	0xbd3d4f11	-0.04621798
17	0x3caf5d01	0.021406652
18	0x3d983036	0.074310705
19	0x3d879d4a	0.066217974
20	0x3de8771a	0.11350842
21	0x3db57454	0.088600785
22	0x3d6746c6	0.05646398
23	0xbdb89db4	-0.090144545
24	0xbc860d19	-0.016363667
25	0x3e0301a7	0.12793599
26	0xbd1d0efc	-0.03834437
27	0xbd767cfc	-0.06017779
28	0x3d452d13	0.04813869
29	0xbdd4eaad	-0.10396323
30	0xbc433b00	-0.011915922
31	0x3d3580c7	0.044312265
32	0xbd84f012	-0.06491102
33	0x3d859b2c	0.06523737
34	0x3cc05708	0.023479
35	0xbcbf4057	-0.02334611
36	0x3df1d789	0.11808688
37	0xbd2bbc08	-0.041927367
38	0x3d9362c5	0.07196573
39	0x3c83afc9	0.016075032
40	0x3d7d7b57	0.061885204
41	0x3cf5cc92	0.030004773
42	0x3d02f4fe	0.031971924
43	0x3d85c9c6	0.06532626
44	0x3e08a94f	0.13345836
45	0xbdd01e89	-0.10162074
46	0x3bced877	0.0063124257
47	0xbd28b7e8	-0.04119101
48	0xbd1f0e35	-0.03883191
49	0xbdccf522	-0.10007693
50	0xbd6d0272	-0.05786366
51	0xbc8fadea	-0.017538983
52	0xbc46ce7e	-0.0121341925
53	0xbc9da3a8	-0.019243076
54	0x3d86e7e4	0.065871984
55	0x3bcf1216	0.0063192947
56	0x3cbaf290	0.022820741
57	0x3e353ab4	0.17698175
58	0x3da35a08	0.079761565
59	0x3da8170e	0.08207522
60	0xbc519d41	-0.01279384
61	0x3d8dc549	0.06922395
62	0xbd7935f8	-0.060842484
63	0x3d657af3	0.056025457
64	0xbc35a36b	-0.011086325
65	0x3dbc0c03	0.091819786
66	0x3daf53eb	0.08560928
67	0x3dc0a7d0	0.09407008
68	0xbcd5d734	-0.026103593
69	0xbc00ff80	-0.007873416
70	0x3cd389c0	0.02582252
71	0x3d1e771b	0.038687807
72	0xbde1e53e	-0.110300526
73	0xbd26e508	-0.040745765
74	0xbcc7ac10	-0.024374038
75	0xbd761204	-0.060075775
76	0xbdb19f6f	-0.08672988
77	0x3d2aea2a	0.041727223
78	0x3c4246cc	0.0118577
79	0x3c6ab815	0.014326115
80	0x3dad44df	0.08460402
81	0x3da752c0	0.0817008
82	0xbb5ad9c0	-0.003339395
83	0xbd0c8ad2	-0.034312077
84	0x3dbbf79c	0.09178087
85	0x3d9c17af	0.07621705
86	0x3c3cde95	0.011527677
87	0xbc795c00	-0.015219688
88	0xbdadca52	-0.08485855
89	0x3e2a3f8c	0.16625804
90	0xbc158660	-0.009126276
91	0xbd8c7d22	-0.06859805
92	0x3df4f29b	0.11960336
93	0xbd9e86b0	-0.07740533
94	0x3d1661a4	0.03671421
95	0x3dc03e30	0.09386861
96	0xbc7c9ab0	-0.01541774
97	0x3d4395c8	0.047750264
98	0x3d3b10ea	0.045670427
99	0x3c910cc1	0.017706277
100	0xbb8de73b	-0.0043305433
101	0x3d8d6486	0.06903939
102	0xbda6029c	-0.081059664
103	0xbd08fc96	-0.03344401
104	0x3d40ea2e	0.04709833
105	0x3da8f445	0.08249716
106	0xbbbb5d19	-0.005717885
107	0x3dcceab4	0.100057036
108	0xbd2b163f	-0.041769262
109	0x3da84603	0.08216479
110	0x3dfb62b1	0.12274683
111	0xbdd887f2	-0.105728045
112	0xbcf35e18	-0.029707953
113	0xbbfacd20	-0.0076538473
114	0xbc5c452d	-0.013444227
115	0x3e28565b	0.16439192
116	0x3cfa2cb9	0.030538904
117	0x3d8ab5c8	0.06772953
118	0xbdc62019	-0.09674091
119	0x3de5c8a0	0.11219907
120	0x3d8bcf78	0.06826681
121	0x3e1744ab	0.14772289
122	0x3d60840d	0.054813433
123	0xbd17399e	-0.036920182
124	0x3d4cf459	0.050037716
125	0xbdca1c5d	-0.09868691
126	0xbd424764	-0.047431365
127	0xbdc16f3e	-0.09445046
128	0xbd5eee80	-0.05442667
129	0xbd522b85	-0.051311035
130	0xbd3bda62	-0.045862563
131	0xbdcce168	-0.1000393
132	0xbc37301d	-0.011180905
133	0xbcd5b380	-0.026086569
134	0x3cf59bb0	0.029981464
135	0x3bbeff58	0.005828779
136	0x3dca8bd7	0.098899536
137	0x3e7886af	0.24270128
138	0xbd8ac562	-0.06775929
139	0x3d3fea00	0.04685402
140	0xbcec2619	-0.02882676
141	0x3e0fd6ec	0.1404683
142	0x3dbce037	0.09222453
143	0x3d67b763	0.056571376
144	0xbc34ecf7	-0.011042825
145	0xbdbb96ab	-0.09159597
146	0x3dab1b08	0.08354765
147	0x3d53a0eb	0.051667135
148	0x3d66609c	0.056244478
149	0x3d68299a	0.0566803
150	0x3d77e5eb	0.060522
151	0xbc71d870	-0.014761075
152	0xbda35802	-0.079757705
153	0xbd82de51	-0.0639006
154	0xbdbd1170	-0.092318416
155	0x3df33140	0.11874628
156	0x3c0a3eac	0.008437794
157	0x3c0cc48d	0.008591783
158	0xbdacda08	-0.08440024
159	0xbb1be4d7	-0.0023787522
160	0xbd26fc58	-0.040767998
161	0xbd1d3408	-0.0383797
162	0x3db48560	0.08814502
163	0xbd217d00	-0.03942585
164	0xbd67fa5e	-0.056635253
165	0xbc7ff330	-0.015621945
166	0x3d8d032f	0.06885373
167	0x3dd08bba	0.10182901
168	0x3df4a93a	0.1194634
169	0x3d9394e4	0.07206133
170	0x3e187622	0.14888814
171	0xbd6aec20	-0.057354093
172	0x3da056a2	0.07829024
173	0xbc361428	-0.011113204
174	0x3d8681bc	0.065677136
175	0xbd8e31b2	-0.069430724
176	0x3d72bfaa	0.059264816
177	0xbde7cba0	-0.11318135
178	0x3d20e4cf	0.03928071
179	0x3dd5e337	0.104437284
180	0x3e25b443	0.16182046
181	0xbdfe943e	-0.12430619
182	0xbdc55cc7	-0.096368365
183	0xbdfe1b07	-0.12407499
184	0xbdc63bc8	-0.09679371
185	0xbd0346b4	-0.03204985
186	0xbca14292	-0.019685064
187	0xbcfff46c	-0.03124448
188	0xbd99e2c8	-0.07513958
189	0x3d4d7855	0.050163586
190	0xbd8da2ba	-0.06915803
191	0x3df788d2	0.12086643
192	0x3d03ccb8	0.032177657
193	0xbe16682e	-0.14688179
194	0xbd6a9e3d	-0.057279814
195	0xbce04350	-0.027375847
196	0x3d84e8ec	0.06489739
197	0xbc617890	-0.0137616545
198	0xbd7f5608	-0.062337905
199	0xbdcfbcf4	-0.10143462
200	0xbd5398a1	-0.05165923
201	0xbe3247fa	-0.1741027
202	0x3dedae46	0.11605506
203	0xbccccf67	-0.02500124
204	0xbcedac1a	-0.029012728
205	0xbd508ade	-0.050913684
206	0xbe23e6c3	-0.16005997
207	0x3e089b30	0.1334045
208	0xbde0ca90	-0.10976136
209	0xbd8d2016	-0.068908855
210	0xbc95f4e0	-0.018305242
211	0xbe029834	-0.12753373
212	0x3c94db90	0.018171102
213	0xbda35373	-0.07974901
214	0x3c454e42	0.012042584
215	0xbcb33448	-0.021875516
216	0xbd912176	-0.0708646
217	0xbd1d1481	-0.038349632
218	0xbd60dc70	-0.054897726
219	0xbd7f81b8	-0.06237957
220	0x3d283348	0.04106453
221	0xbc8b296a	-0.016987521
222	0xbd6e9638	-0.05824873
223	0xbdb80878	-0.0898599
224	0xbdbdd884	-0.09269813
225	0x3d4689bc	0.048471197
226	0xbd3c778d	-0.04601245
227	0x3c929a27	0.017895771
228	0xbd8620c5	-0.06549219
229	0xbd3678bc	-0.044548735
230	0x3d808f6b	0.06277355
231	0xbdbdfd0c	-0.092767805
232	0x3de0ab5d	0.10970185
233	0xbe2532dc	-0.16132683
234	0xbe00835d	-0.12550111
235	0x3d8c05fc	0.06837079
236	0xbde719a8	-0.112841904
237	0x3b57e75f	0.0032944304
238	0xbd2974f2	-0.041371293
239	0x3e1af546	0.15132627
240	0xbd9df5be	-0.07712887
241	0xbd1b8558	-0.037968963
242	0xbd9055b7	-0.07047599
243	0xbe21a0d2	-0.15784004
244	0xbd2fcf8b	-0.042922538
245	0xbd11b21c	-0.03557025
246	0xbd5d0eae	-0.053969078
247	0x3df15fe8	0.11785871
248	0xbde56e14	-0.11202636
249	0xbd715830	-0.058921993
250	0x3dbac27a	0.09119125
251	0xbdd65f9f	-0.10467457
252	0xbcc27088	-0.0237353
253	0xbe7ad941	-0.24496938
254	0xbca9eee8	-0.020743802
255	0x3dd7c31a	0.105352595

fc3.bias f4 [18]
0	0xbcb1d8c0	-0.0217098
1	0xbd1d2b73	-0.038371515
2	0xbd6df191	-0.058091704
3	0x3d6ff5fc	0.0585842
4	0x3d19ff34	0.037596896
5	0xbd3662a9	-0.044527683
6	0x3cb39332	0.021920774
7	0xbdaacccd	-0.08339844
8	0xbb0c4307	-0.0021402256
9	0x3d4ba21b	0.049715143
10	0xbd55479b	-0.05207024
11	0x3cdebb87	0.02718903
12	0xbb31076f	-0.0027012487
13	0x3b8a45b5	0.0042197355
14	0x3d1d4f23	0.03840555
15	0x3daf4f15	0.085600056
16	0xbc887476	-0.016657095
17	0xbceeacfb	-0.029135218
