models/2024-07-20_16-26-14/epoch_0050_loss_0.00045845/dynamics.pth (torch, 83084 bytes, 8 tensors)

fc1.weight f4 [64, 34]
000000 8b d2 eb 3d e1 62 ed 3d 6c bb 0a be c9 13 b6 3b
       0.11514767 0.11591125 -0.13548058 0.005556558
000010 0a 30 c6 bd 70 81 e1 3d 31 e4 04 3e 1a 34 20 be
       -0.096771315 0.11011016 0.12977673 -0.15644875
000020 e3 67 04 3e 38 ea 5b bc 12 2e 99 bd cd 5b 86 3d
       0.12930255 -0.013422541 -0.0747949 0.06560478
000030 db df dd 3d 0e 59 01 3e 63 af 3a 3d 85 40 bf 3d
       0.10833713 0.12631628 0.045577418 0.09338478
000040 c0 d2 14 bd 9a 50 dc 3d 87 e4 fe bc 07 ce df bc
       -0.0363338 0.10757561 -0.03111483 -0.027319921
000050 f8 cb 03 3e 6a 70 ab 3d 64 1e c2 3d 53 db a9 3b
       0.12870777 0.08371051 0.09478453 0.005183616
000060 c7 a7 b1 3e 3f db 45 3d 7e c4 99 be 3b b3 83 3d
       0.34698316 0.048304792 -0.30032724 0.0643067
000070 79 44 73 bd 01 5f 28 3d f2 ef 2d be 17 bc df bd
       -0.059391472 0.041106228 -0.16986063 -0.10924547
000080 fd 9a e4 bd c8 11 0b be a0 c7 b5 bc 58 1c 64 3d
       -0.11162374 -0.13581002 -0.022189915 0.055691093
000090 26 a4 ea bd 2f 1e 01 3e b0 f2 08 be 4c 08 14 be
       -0.1145709 0.1260917 -0.13373828 -0.1445629
0000a0 f1 26 0b be b6 f5 22 be 58 7e 1a be a1 33 10 3e
       -0.13589074 -0.15914044 -0.15087259 0.14082195
0000b0 2f fa a6 bd fb a7 07 3e a0 6e fa 3c 38 b6 1e bd
       -0.081531875 0.13247673 0.030570328 -0.038747996
0000c0 94 31 26 3d 2d 98 b8 bd 22 a6 b8 bd 6f 43 13 3e
       0.040574625 -0.090134 -0.09016062 0.14381193
0000d0 d0 cd 30 3c e1 a9 10 3e 26 17 27 be f3 d1 0c be
       0.010791257 0.14127304 -0.16317424 -0.13751964
0000e0 7d 0e 23 be fc 1e 3b bd 0f b7 11 be f8 37 a8 bd
       -0.15923496 -0.045683846 -0.14229988 -0.082138
0000f0 6e 4e fd 3d f3 fe 2e be e0 44 68 3c 62 71 e4 3d
       0.12368475 -0.17089443 0.014176577 0.111544386
000100 12 ca cd bd 49 5b 0c be 8d 58 ea bd b0 9e 7e bc
       -0.100483075 -0.13706698 -0.11442671 -0.015540764
000110 d7 05 85 bd 02 8e 84 3d ed 17 25 3e 4a 52 fe 3d
       -0.064952545 0.06472398 0.16122408 0.12418039
000120 d8 f5 07 bd 4b f6 e9 bd e8 6d 08 bd 2c 4b 9f 3d
       -0.03319344 -0.1142393 -0.03330794 0.0777801
000130 a5 3f 1a be 98 1a ec bd 47 2a 1a be aa c2 88 3d
       -0.15063341 -0.1152851 -0.1505519 0.06677754
000140 8d 0a a0 bd 6b 2b 2d be d4 05 55 3d 38 2c ee 3c
       -0.078145124 -0.16911094 0.05200751 0.02907382
000150 43 82 22 3e 70 e2 03 be c0 60 ee bd 00 f3 2d bb
       0.15870003 -0.12879348 -0.11639547 -0.0026542544
000160 0a 2c 90 3d 93 19 b7 bd 08 6b b8 bc 60 03 5e 3c
       0.0703965 -0.08940425 -0.022511974 0.013550609
000170 d4 2d ed bd 40 33 28 3c 56 fd 03 be 92 63 aa bd
       -0.11581007 0.010266125 -0.12889609 -0.08319773
000180 7c ee 17 3d f0 34 28 be 1e c8 bc bd 50 86 16 bd
       0.03709267 -0.16426444 -0.09217857 -0.036749184
000190 78 9d 0c be a0 c7 a0 bb 44 76 34 3b bd c1 60 3e
       -0.13731945 -0.0049066097 0.0027536312 0.21948905
0001a0 3c d2 78 3e a2 ae ec bd 14 b3 12 3e 3c 29 36 bc
       0.24298948 -0.11556746 0.14326125 -0.0111182295
0001b0 03 4e 9d bd 6c 05 ac 3d 8b 1f 57 bd 99 f6 d8 3c
       -0.07680895 0.08399472 -0.052520316 0.026484774
0001c0 5b e6 bd 3d 45 f8 21 bc cd 8c 43 bd 93 af 96 3c
       0.092724524 -0.009885852 -0.0477417 0.018394267
0001d0 b1 22 03 3e a2 a0 f2 bc 91 b6 c2 bd 13 dd d3 bc
       0.12806202 -0.029617611 -0.09507478 -0.025862252
0001e0 e3 33 15 be 85 6b 6e bd 8e eb 23 be 3f 68 f2 3c
       -0.14570574 -0.058208007 -0.16007826 0.029590724
0001f0 bd 57 1b be 54 cb b8 bd 97 ff 29 bd dc be 42 3e
       -0.15170188 -0.09023157 -0.041503515 0.1901812
000200 c3 df e0 3d b0 6b de 3d 3f 9c 66 3c 28 da 1d be
       0.10980179 0.108603835 0.014075338 -0.15415251
000210 cc 74 22 bd fc fa 73 3d 99 14 3a be b6 6d 00 be
       -0.039662167 0.05956553 -0.1817192 -0.12541851
000220 be db cd 3d 61 db 0a 3e c6 e7 7f bd 81 7a 44 3e
       0.10051678 0.13560249 -0.062476896 0.19187357
000230 a7 d6 58 3d b5 1e d1 bd 0c 8a c7 bd 41 8e 8c bd
       0.052939083 -0.10210935 -0.09743127 -0.0686307
000240 f6 55 00 bd 75 f9 b7 3d 81 c5 88 3d f8 b3 04 bc
       -0.03133198 0.08983127 0.06678296 -0.0080995485
000250 f1 05 49 be d4 b0 14 3e 46 39 c4 3d 45 5a e5 bc
       -0.19631173 0.1452058 0.095812365 -0.027997145
000260 74 78 15 3e d5 dc fd bd 27 b4 b0 3d 7d 04 99 bc
       0.1459673 -0.12395636 0.08628111 -0.018678898
000270 df 03 7e bd 63 e6 8b bd 6a 2f 8c bd 8d 17 eb bc
       -0.06201541 -0.06831052 -0.06844981 -0.028697753
000280 ed 0e 03 3e 09 ec d6 3d 85 0a d0 3d 72 41 23 bb
       0.12798662 0.10494239 0.101582564 -0.0024910835
000290 92 47 e0 bd 29 12 9b 3d e2 01 36 be 7c 5b e7 3c
       -0.10951151 0.07571823 -0.17774156 0.028241865
0002a0 1c b2 44 be 99 14 d9 bd 5e 97 0f 3e ec 9a 3c 3e
       -0.19208568 -0.10599632 0.14022586 0.18418473
0002b0 11 16 82 3e ac a2 13 3d 5b 8f b1 3d 2c 8f fb bb
       0.2540746 0.036043808 0.08669921 -0.0076769795
0002c0 42 cb b2 3d 9e 37 04 bd 42 3d fa bd 71 ba 08 be
       0.087301746 -0.032279603 -0.12218715 -0.13352372
0002d0 41 3d 90 bd 52 4a 29 be 8a 9e 5b be ca a7 e1 bc
       -0.07042933 -0.16532257 -0.21447197 -0.027545828
0002e0 94 22 5b be b8 1f dd 3d 30 09 99 3b 11 92 ca 3d
       -0.2139991 0.107970655 0.0046702847 0.09891141
0002f0 08 a6 24 be 35 2e 02 bd ab 39 5a be 1e 4c 00 be
       -0.16078961 -0.031782348 -0.21311061 -0.12529036
000300 8f 6e 16 bc f1 17 81 3c db f3 56 be 92 b0 22 be
       -0.009181633 0.015758486 -0.20991461 -0.15887669
000310 f2 0a 0f 3e 0a b2 e2 3b aa 14 cc bd 65 ef f5 3d
       0.13969019 0.0069181966 -0.09964879 0.120085515
000320 34 26 ea ba bf 73 47 bd b8 6d 8d bd c1 b6 a1 3d
       -0.0017864169 -0.04869437 -0.06905693 0.07896186
000330 e0 d5 a3 3c 06 ec e0 3d c1 f2 22 3e 0d 7a 1e 3e
       0.019999444 0.10982518 0.15912916 0.15476246
000340 60 6a 10 3c 11 68 06 be 98 08 b2 bc 93 2b cd bd
       0.008814424 -0.13125636 -0.021732613 -0.10018077
000350 44 d6 60 3d e7 31 0d 3e c7 41 b4 bd de f3 e7 3d
       0.05489184 0.13788567 -0.088016085 0.11325811
000360 c0 7e 1e 3d f5 41 2e 3e 0c ad 61 3d 6a 70 dc 3d
       0.038695097 0.17017348 0.05509667 0.10763629
000370 3b d5 1a be 70 d2 44 3c 20 38 ad bc f3 ae 1d 3e
       -0.15120403 0.012013063 -0.021144927 0.15398769
000380 b2 09 c8 3d fe 1f 1c be 88 3a 6a 3d fa c7 58 bd
       0.09767474 -0.15246579 0.057184726 -0.052925088
000390 10 d3 09 3c 97 2c d8 bd c4 04 4d 3d 84 4a 71 3d
       0.008412138 -0.1055538 0.050053373 0.058908954
0003a0 8b 1e 21 3e 04 1a 3b 3d 34 23 13 3d c4 e0 47 bd
       0.15734307 0.045679107 0.035922244 -0.048798338
0003b0 d6 ac 21 be 6e 11 94 3d cf 0c 38 be d7 c2 3b bd
       -0.15788588 0.07229887 -0.17973636 -0.04584011
0003c0 6c fa d2 3c 70 5e 84 bd 64 5b 41 be b9 5d dd bd
       0.025754176 -0.06463325 -0.18882519 -0.10808892
0003d0 63 24 0b 3e dd 9c 05 be e4 c8 9a 3d ab 46 c3 3d
       0.13588099 -0.1304812 0.07557848 0.09534963
0003e0 db ba 93 3d 12 df 07 3e 8d 4b 1e 3d 37 b7 43 3c
       0.07213374 0.13268688 0.03864627 0.011945537
0003f0 55 d7 90 bd 78 a7 c0 3d 3d 10 05 be ea 42 0b 3e
       -0.07072321 0.09406942 -0.12994476 0.13599744

fc1.bias f4 [64]
000000 78 0f ff 3b 14 db 1c bd 2a 6a 5f 3d e8 f6 99 3d
       0.0077838264 -0.038294867 0.054544605 0.07517797
000010 cc a6 5e 3d da 25 26 bd df be aa bd 62 af 37 bc
       0.05435829 -0.04056344 -0.08337187 -0.011211248
000020 4d 09 be bd 97 4a 61 3d d2 88 78 bd 4e 23 c4 ba
       -0.09279118 0.055002775 -0.060677357 -0.0014964135
000030 10 7d 9a bd 20 02 6e 3d 9e 54 00 3e ca ef 35 be
       -0.07543385 0.058107495 0.12532279 -0.17767254
000040 68 63 17 3e 57 1f 97 bd 99 c5 1c 3e 97 59 05 be
       0.14784014 -0.073790245 0.15309753 -0.13022457
000050 3c 73 c0 bd 2e 8b 50 3d 8a 5d 6b bd 9e 84 ae bc
       -0.09396979 0.050913982 -0.057462253 -0.021303471
000060 8c ff 27 be 31 32 32 bd c4 47 4f 3d 9c df 9e 3c
       -0.16406077 -0.043504898 0.05060555 0.019393735
000070 ce d5 38 3d 46 2c 75 be 39 e5 06 bd fc e5 24 be
       0.045125775 -0.2394267 -0.032933448 -0.16103357
000080 ba 6f 02 3e 93 ec 29 be 5d 18 17 bd ce 1c 55 bd
       0.12737933 -0.16594152 -0.03688847 -0.052029423
000090 1f 34 2a 3d 80 4c 5b be 2d 04 80 3d 5f 68 ee bc
       0.041553613 -0.21415901 0.062507965 -0.029102502
0000a0 28 3a 16 3d cf 2c 89 3d 67 b6 be bd 05 a4 48 3c
       0.036676556 0.06698 -0.09312134 0.012246137
0000b0 96 7d 86 3d a0 6d a7 bb 6b 15 b0 bd c0 66 8a bd
       0.06566922 -0.005109504 -0.08597835 -0.06757879
0000c0 61 f2 d6 bd 51 9b 1e bc f6 97 d5 3d f9 5d 0a be
       -0.10495449 -0.009680585 0.10429375 -0.1351241
0000d0 62 0d 9b 3d ce ed f4 bc db 1f cd 3c fd 2b 35 bc
       0.07570912 -0.02989855 0.025039604 -0.011057851
0000e0 37 0e 11 bc 10 c2 a6 bd 0c ac c5 bc 37 8f a3 3d
       -0.008853487 -0.08142483 -0.02412989 0.079863004
0000f0 3a fc 10 3e 7f 19 97 bd 23 cb 03 bd e5 c6 ce 3c
       0.14158717 -0.0737791 -0.03217615 0.025241325

fc2.weight f4 [128, 64]
000000 50 da ee bd b8 87 ef bc a8 7b 0b 3e 19 5b be bd
       -0.116627336 -0.02923952 0.1362139 -0.09294719
000010 36 62 79 3d ff 09 35 bd c8 ed 89 bc 90 59 eb bd
       0.060884677 -0.044198986 -0.016837016 -0.11491692
000020 ad e0 da bc ad 0c 90 3d 8d 28 bd bd 78 98 08 3b
       -0.026718462 0.07033668 -0.0923625 0.0020842832
000030 70 4e 66 3d 94 ec c8 bc 01 b5 60 3d 1b 8b 96 bd
       0.056227148 -0.024526872 0.05486012 -0.07350751
000040 ff 3e 65 3d 36 1e 71 bd 78 fe c1 3d 0a 82 ab 3d
       0.05596828 -0.058866702 0.09472364 0.08374412
000050 70 f5 45 bd 13 86 ba 3d 00 e6 3d bc 94 aa 03 3e
       -0.04832977 0.09107604 -0.011590481 0.12858039
000060 45 3a 76 3d 5c 08 11 be fb 6d 95 3d b0 aa 34 3d
       0.060114164 -0.14163345 0.07296368 0.044108093
000070 c8 f1 06 3d b5 66 0e be 62 43 dd bd cc 94 90 bd
       0.032945424 -0.13906367 -0.10803868 -0.07059631
000080 f8 ba dd bd 98 a4 46 bd c6 ee 9b bd 6a 65 21 3e
       -0.10826677 -0.048496813 -0.07613902 0.15761343
000090 7b 7a fa bc a6 44 c6 3d f3 17 d3 3d 9d ae 03 be
       -0.030575981 0.096810624 0.10307302 -0.12859578
0000a0 a3 54 80 3d 59 74 77 3c 39 68 3c 3d 59 52 b3 3d
       0.06266143 0.015103423 0.045997832 0.08755941
0000b0 db 85 d7 3d 48 2a d0 bc 00 5c 25 39 08 f7 ec 3c
       0.10523578 -0.025410786 0.00015769899 0.028926387
0000c0 f9 9b f2 3b c5 18 00 bc 7f f0 aa bd e0 bb 06 3d
       0.0074038473 -0.0078184055 -0.08346652 0.032894015
0000d0 50 e1 59 bd b3 42 00 3e c8 a2 11 3e 37 ee ab bb
       -0.05319339 0.12525444 0.14222252 -0.0052469033
0000e0 c9 b2 3b bd 55 fa 0a be 8e ba 59 bd 68 8b e1 3d
       -0.0458248 -0.13572057 -0.053156428 0.11012918
0000f0 7d d3 11 bd 40 b4 ea bb 70 ae 86 bd 4b 34 0c 3e
       -0.03560208 -0.0071626008 -0.0657624 0.13691823
000100 15 5b 61 3b 40 a4 45 bc 08 a4 3c 3e 76 75 9e 3d
       0.0034386565 -0.012063086 0.18421948 0.07737248
000110 1d 97 c1 3d 2f 0d b2 3c 00 38 f9 bc 2d 3c 2b be
       0.09452651 0.021734802 -0.03042221 -0.16722174
000120 09 bc 85 bd ec 38 80 bd 5a 1e b0 3d 9a f1 a6 bc
       -0.065300055 -0.06260857 0.08599539 -0.020378876
000130 00 c0 34 ba 0a 3d 82 bd 5b 9c 4a 3e 11 e9 28 bb
       -0.00068950653 -0.063592985 0.19786207 -0.0025773684
000140 d9 6a 08 3e b4 32 1c bd e1 89 53 bd 5e b7 ce bd
       0.13322009 -0.03813429 -0.051645163 -0.10093568
000150 68 96 98 3d 3a d3 e3 bd 30 37 e0 3d 6e 5b 87 3d
       0.07450563 -0.11124273 0.10948026 0.06609236
000160 05 73 1d be 9a 60 b5 bd f8 9e 38 3d 80 b2 c9 3d
       -0.15375908 -0.08856316 0.04507348 0.09848499
000170 31 2c c8 bd c9 82 d2 bb b8 67 86 bd 6a 04 a5 bd
       -0.09774054 -0.006424282 -0.065627515 -0.080574825
000180 e1 ca 1e 3e f4 6c 83 3d 79 6c 7d bd 1c d6 32 3d
       0.1550708 0.064172655 -0.061871026 0.04366122
000190 b1 28 07 3e c6 98 8a bd d9 75 80 3c 0c cf bc 3c
       0.13199116 -0.067674205 0.015681194 0.023047946
0001a0 62 cb 62 bb f2 d6 d6 ba c2 a4 08 be 67 4b ce bd
       -0.003460609 -0.0016390963 -0.133441 -0.100729756
0001b0 5a 4b 1c 3d 18 76 ae bd e8 16 bd 3d 80 c6 cb bc
       0.0381578 -0.08518618 0.09232885 -0.024874926
0001c0 fa e1 6e bb a8 cb 92 3d ba 3c b4 bd f7 03 f2 bd
       -0.003645061 0.071677506 -0.08800645 -0.118171625
0001d0 ef 1b 78 bd 05 f9 3b 3c 81 16 25 3d a4 31 03 be
       -0.060573515 0.011472945 0.040304665 -0.12811905
0001e0 bb 36 8e 3d b3 ee 9a bd 62 66 1f 3e 3f bb 2d 3e
       0.06944033 -0.075650595 0.155664 0.1696596
0001f0 7c 1e bd 3d 6e 8b 8f bd b0 bb 4e 3e 2f 17 0f 3e
       0.0923433 -0.07009016 0.20188785 0.13973688
000200 93 f3 ed 3c c4 bc 6f 3d 46 39 77 bd 8c 8b 6f bb
       0.02904681 0.05852963 -0.060357355 -0.0036551682
000210 ae ff ab bc bb 28 36 bd 66 44 be bd 17 10 06 3e
       -0.020995941 -0.044472437 -0.0929039 0.13092075
000220 4a 7d 37 3e 7e 0b 23 be de bc 39 3d bc c2 0f 3e
       0.17918888 -0.15922353 0.045346133 0.14039129
000230 80 a8 74 3c 61 de c1 bd 1e c6 e6 bd 8f 69 b3 3d
       0.014932752 -0.094662435 -0.112682566 0.08760368
000240 f0 74 1f be 87 0c 8c 3a 63 4e 50 be ae 19 82 bd
       -0.15571952 0.0010684886 -0.20342402 -0.06352554
000250 66 3e c1 bd 9c 8c 76 3b 70 6c 0f bc a2 87 05 bc
       -0.0943573 0.003762043 -0.008753881 -0.008150013
000260 90 39 5b 3d 19 d0 f5 3d a5 55 41 be 3d d5 3e be
       0.053521693 0.12002582 -0.18880327 -0.18636031
000270 7c e5 a2 bd 2d 27 4d 3e da 57 d4 bd d8 98 8f 3c
       -0.07953927 0.20034476 -0.10368319 0.017528936
000280 6b 16 46 bd e0 a0 a7 3d a2 e3 f5 bc b0 e6 79 3d
       -0.048361223 0.08184981 -0.03001577 0.061011016
000290 82 68 2d be e7 c9 df 3d d7 35 d4 3c ef 0c 2a bd
       -0.16934398 0.10927182 0.02590458 -0.04151624
0002a0 e2 9f 07 be 72 75 8d 3d 26 63 21 3e 98 a1 84 3d
       -0.13244584 0.069071665 0.15760478 0.06476134
0002b0 0e a9 33 bd 84 81 e8 bd b0 96 36 3c 9c 13 5c bd
       -0.043862395 -0.11352828 0.011144325 -0.05372964
0002c0 c1 8e c4 bd ba c4 eb bd c3 89 b1 bd f7 a9 d3 bc
       -0.09597541 -0.11512132 -0.08668854 -0.025837881
0002d0 c8 a4 01 3e 39 4e 04 be 9c 91 18 be bf c1 f9 bd
       0.12660515 -0.12920465 -0.14899296 -0.12195157
0002e0 bc 83 23 bc f4 82 44 3d fb 26 dd bd 7c b5 b1 bb
       -0.009980138 0.04797645 -0.107984506 -0.005423246
0002f0 55 b3 11 be 00 70 0d ba 83 eb 09 be d3 7a 7e bb
       -0.14228566 -0.00053954124 -0.13468747 -0.0038830533
000300 00 88 2a bd a8 4a 23 3d d8 97 d9 3c b8 c5 22 bd
       -0.041633606 0.03986612 0.026561663 -0.03973934
000310 04 3f f3 3d 54 e5 18 bd f0 2b 1c 3c ce db ef bd
       0.11877254 -0.03732808 0.00953196 -0.11711846
000320 28 41 95 bd c6 44 e6 3d d2 b6 ad 3d 90 58 bc bc
       -0.07287818 0.11243586 0.08482136 -0.022991449
000330 12 cc d7 bd 48 f2 b1 3c 1e 5f 8c bd f4 cc e5 3d
       -0.1053697 0.021721974 -0.0685408 0.11220732
000340 72 81 cb bd d0 58 fd 3d 5c a4 16 3d f4 1f cd 3d
       -0.09936799 0.12370455 0.03677784 0.1001586
000350 46 f2 e2 bd 40 e3 22 bc 94 b9 cf 3d 0c 38 b8 bd
       -0.11081366 -0.009941876 0.10142818 -0.08995065
000360 80 62 f7 bb b8 16 5e 3d e0 05 6d 3d ae 31 ba bd
       -0.007549584 0.054220885 0.05786693 -0.09091507
000370 f6 90 dd bd d0 44 e4 bc 88 5d 5f bd b0 00 70 bc
       -0.10818665 -0.027864844 -0.054532558 -0.014648601
000380 00 13 96 3c e0 5b b7 3d 80 6c 6f 3c 06 63 db bd
       0.018319607 0.08953071 0.014613271 -0.107122466
000390 ca 5d c0 3d 64 da 9a 3d 08 c1 f6 bc d0 0f 74 bc
       0.09392889 0.07561186 -0.030121341 -0.014896348
0003a0 a0 c4 45 3d cc df 8a 3d f0 75 23 3d be b2 f5 bd
       0.04828322 0.06780967 0.039907396 -0.11996983
0003b0 e0 16 ac bd f6 04 ca 3d 38 01 0d 3d 02 69 96 bd
       -0.084028006 0.098642275 0.03442499 -0.073442474
0003c0 80 d6 b1 ba 94 81 6e 3d 60 aa f1 3c be d6 d7 3d
       -0.0013567954 0.058229044 0.029500186 0.10539006
0003d0 8e 40 ec bd 64 16 7e 3d e8 72 8d bd 58 54 0d 3d
       -0.1153575 0.062033072 -0.06906682 0.034504265
0003e0 aa 7f a2 3d 5e 4d 8a bd fc d8 d3 3d da cc ca bd
       0.07934506 -0.06753038 0.10344121 -0.099023536
0003f0 ee 4b e9 bd 48 63 6f bd 00 18 55 b9 80 b0 4e 3b
       -0.113914356 -0.05844429 -0.00020322204 0.0031538308

fc2.bias f4 [128]
000000 ad 11 37 3d 50 63 d4 3b 96 65 21 bc 40 88 1c 3c
       0.04469459 0.0064815655 -0.00985088 0.009553969
000010 10 eb de 3c a0 5e 03 be 5e c5 b2 bd 69 21 9a bc
       0.027211696 -0.12829065 -0.08729051 -0.01881476
000020 e4 d3 53 bd 9c 29 51 3d 1c 57 f6 bd 23 3c 2d 3c
       -0.051715747 0.051065072 -0.120283335 0.01057342
000030 c9 0f 2e 3d 75 26 10 be 98 46 29 bc 7e 27 8b bd
       0.042495523 -0.1407717 -0.010331772 -0.06794642
000040 7d f9 80 bc 34 03 c2 bd d6 f3 f6 bd 65 5d 3f 3d
       -0.015743965 -0.09473267 -0.12058227 0.046719927
000050 e5 0b b9 3d 24 05 41 bd 87 46 b9 3c 96 87 c3 bd
       0.09035472 -0.047124043 0.022616638 -0.09547345
000060 77 92 9c 3d a6 a9 fa bd 8b f3 99 bd 2e 20 6d bd
       0.076451235 -0.12239389 -0.07517155 -0.057892017
000070 c7 5d 8a bd 52 e3 06 be 12 0e 93 bd 96 a0 f4 bd
       -0.06756168 -0.13172653 -0.07180418 -0.11944692
000080 9d f4 b1 3d 8d ea 44 3d 64 fd e4 bd f7 c0 91 3d
       0.086892344 0.048075248 -0.11181143 0.07116883
000090 df 1e 3d 3c 67 f9 0d be 70 b9 9d bc 50 45 1d be
       0.011543005 -0.1386467 -0.019253463 -0.15358472
0000a0 51 df 07 bd 23 40 83 bd 11 7e c3 3d a8 d3 4b be
       -0.033171955 -0.064087175 0.0954553 -0.19904959
0000b0 35 80 7f bd 65 14 cf bc 66 67 ca 3b 86 52 a8 bd
       -0.062378127 -0.02527828 0.006176877 -0.08218865
0000c0 30 80 0d be d9 7a 72 bd 35 43 a8 bd 3c 91 38 bd
       -0.13818431 -0.059199188 -0.08215944 -0.04506038
0000d0 ad d5 02 be e1 c3 da 3b e5 9b 99 3c 3b 01 58 bb
       -0.12776823 0.0066761826 0.018751094 -0.0032959718
0000e0 58 1e 0c bb 01 04 e0 bd 5f 6d fc bc 4f bb 87 bd
       -0.002138039 -0.10938264 -0.030813871 -0.06627523
0000f0 99 24 ab 3c 98 7a 26 bd 75 c6 8b bd 5f d7 0c 39
       0.020891475 -0.04064426 -0.06824962 0.00013431672
000100 67 68 29 be 30 12 80 bd 02 a5 e9 3c 0b 58 db bd
       -0.16543733 -0.06253469 0.028521065 -0.10710152
000110 94 68 03 bd 83 95 0c bc 96 bb 8b 3b 44 5e c5 bd
       -0.032082155 -0.008580568 0.0042643053 -0.0963712
000120 58 fe dc 3c 95 1a 1e be 9a 0f 80 bd ec 42 b0 bd
       0.02697675 -0.15439828 -0.06252976 -0.08606514
000130 aa 9c b9 bb 79 78 a5 3d f6 fd 23 bd e5 0e c3 3c
       -0.0056644278 0.08079619 -0.040037118 0.023810813
000140 af f4 16 3d 90 ec a6 bd ee 6f 5b 3c 8e bb b6 bd
       0.036854442 -0.081505895 0.013393385 -0.08922492
000150 55 86 8b bd d7 14 c7 bc 6d b7 13 be 03 64 88 bd
       -0.06812731 -0.02430193 -0.1442544 -0.06659701
000160 5b 0a 3f 3d 0b da bd bc 7b 58 c8 3d 82 39 fd bd
       0.046640735 -0.02317526 0.09782501 -0.12364484
000170 5e 46 92 bd ae ff df 3d 3b 60 11 bd 08 ef 1d bd
       -0.07142328 0.10937439 -0.035492163 -0.038558036
000180 72 16 b0 bd 6c cf be 3c 7c 1d 28 3d db d3 2b 3d
       -0.08598031 0.023292266 0.041043743 0.041950088
000190 19 43 96 bd a8 3c 0b bd fc b0 d0 bd bf 29 7a bd
       -0.073370166 -0.033993393 -0.10190007 -0.06107497
0001a0 00 e1 72 bd 10 ff a2 bc b2 57 0f be 88 ab 23 3d
       -0.059296608 -0.019897014 -0.13998297 0.039958507
0001b0 39 f6 96 bd 8f 7f 3b 3d 97 41 9f bd ac 86 55 bd
       -0.07371182 0.045775946 -0.07776182 -0.052130386
0001c0 77 16 25 bd 55 3d 5d 3d ed bf 14 3d f2 83 9f bd
       -0.040304627 0.05401357 0.036315847 -0.077888384
0001d0 22 f8 21 3c b2 98 7b 3d 04 7f 31 bc 86 55 06 3d
       0.00988582 0.06142492 -0.010833506 0.032796405
0001e0 40 50 c4 bd bc d0 8f bc 83 bd b7 bd d2 a5 d6 3d
       -0.09585619 -0.017555587 -0.08971693 0.104808465
0001f0 1a 4c 04 3e ae 90 c3 bd 18 7d e6 bc 95 85 4f 3d
       0.12919655 -0.0954908 -0.028135821 0.050664503

fc2_1.weight f4 [64, 128]
000000 de e8 aa 3c f3 b9 5f 3c c2 a0 14 bd ba 09 2d 3d
       0.020862993 0.013655174 -0.036286123 0.042245604
000010 88 9e c2 3d f8 68 42 3c 00 49 9f 3b 63 d3 9f bd
       0.09502894 0.011865847 0.004860997 -0.07803991
000020 4e c5 a1 bd 04 77 56 bd 21 12 6e bd 2f 95 62 3d
       -0.07898961 -0.052359596 -0.058122758 0.055318054
000030 67 7d 1f bd 09 d2 8b 3d 03 18 eb 3d 66 16 2a bd
       -0.038937952 0.068271704 0.11479189 -0.041525267
000040 4f ac 0a 3d 7e 9b 7a bd 07 c5 8a 3d 02 d3 8a 3d
       0.033855733 -0.061183445 0.06775861 0.06778528
000050 04 bc 75 3d d4 69 ce 3d fd bc e1 3c 9a 9d a4 bd
       0.05999376 0.10078779 0.027555937 -0.080378726
000060 98 2c 60 3d 78 bc 47 bd 70 13 18 3d eb dc 84 3c
       0.054730028 -0.048763722 0.037127912 0.016218623
000070 ba 29 d2 3b 76 e6 ec 3d 67 13 49 3c dd 51 5a 3d
       0.0064136656 0.115673944 0.012272692 0.053300727
000080 81 83 b8 bd 52 18 f8 bc 9b 4b 51 bd e7 36 fd bc
       -0.090094574 -0.030285034 -0.051097494 -0.030909969
000090 86 bd 1d bd 78 c3 d4 3d 93 d1 b3 3c a4 2b ac bc
       -0.03851082 0.10388845 0.021950519 -0.021016903
0000a0 ae da 58 3d 45 75 91 3d f4 c4 6b bc c6 81 d1 bd
       0.052942924 0.071024455 -0.014390219 -0.102298304
0000b0 8b 56 9b bc a6 bf 0c 3e 47 ba 1b bc 24 68 d1 3c
       -0.018962165 0.13744983 -0.009504861 0.025562353
0000c0 75 6e 50 3d 24 c9 fd bd 09 73 e5 3d 59 8a 51 bd
       0.05088659 -0.1239188 0.11203582 -0.05115733
0000d0 ae 67 9e 3c b9 9c 88 bd 97 3b d9 bc d9 21 8f 3d
       0.019336548 -0.066705175 -0.026517672 0.06988878
0000e0 f5 ce b1 3d 6d b8 5c bd a6 04 e8 bc b8 08 fb 3c
       0.08682052 -0.05388682 -0.028322529 0.030643806
0000f0 17 06 2e bd c0 c9 fb bb 56 66 e8 3d a1 84 af bc
       -0.042486276 -0.0076839626 0.11347644 -0.021425547
000100 af 3a a5 3d c3 15 9e 3d 56 d8 5d 3b 83 7f 83 bc
       0.08067834 0.077189945 0.003385087 -0.016052013
000110 6a 11 d2 bc 3e f1 51 bd 10 66 56 3b 31 21 8a 3d
       -0.02564307 -0.051255457 0.0032714643 0.06744612
000120 18 7c c6 3c 8b f1 b3 3c 42 93 74 bd d3 09 82 bc
       0.024229094 0.021965763 -0.05971075 -0.015873825
000130 79 24 02 3e 1f 6a 94 3c 42 1f 82 3d 2f 02 59 3d
       0.12709226 0.018117009 0.06353618 0.052980598
000140 3a dc 23 bc af f3 e6 bd 08 4f 3f bd f0 d5 ac bd
       -0.010001237 -0.11276948 -0.04670623 -0.08439243
000150 54 e4 b5 bd 87 53 51 bd 08 17 7f 3d d9 11 c1 3d
       -0.08881441 -0.05110505 0.062277824 0.09427232
000160 fe cd 7a 3d e1 49 f1 bc 73 3d a3 bb b8 91 29 3c
       0.061231606 -0.029454174 -0.0049816906 0.010349683
000170 5e 7d 41 3d 4c d8 ac 3d 7e bd a2 3c 52 2a 49 bd
       0.0472387 0.08439693 0.019865748 -0.049112625
000180 e0 02 e0 bb 45 e5 4a bd ac 77 98 3c 24 70 92 3c
       -0.00683628 -0.049535055 0.018611751 0.017875738
000190 a4 97 c4 bc 45 e5 44 3d 68 b7 ec bc e8 6d ff bc
       -0.02399809 0.04807021 -0.028896049 -0.031180337
0001a0 40 2d 9d 3a b0 17 15 3c d6 62 a4 3d 22 ff ab bd
       0.0011991635 0.009099886 0.08026664 -0.08398272
0001b0 9f 91 92 bd 39 a6 45 bd f3 c0 0a bd 05 eb 95 bd
       -0.07156681 -0.048254225 -0.033875417 -0.07320217
0001c0 06 82 56 bd dc 13 c7 bc d4 e1 b1 3d 34 99 98 bd
       -0.052370094 -0.024301462 0.086856514 -0.07451096
0001d0 5a ee 52 3d 4c 8d 63 3d 31 d7 9c 3d ee e3 b6 3d
       0.05149684 0.055554673 0.07658232 0.08930193
0001e0 f3 b7 95 bd 23 04 a6 3d 56 61 53 bd db 98 c4 bd
       -0.07310476 0.08106258 -0.0516065 -0.09599467
0001f0 2d b7 76 bb 66 57 1a bb 4b 03 b3 bd 80 90 0c bc
       -0.0037645802 -0.0023550629 -0.087408625 -0.008579373
000200 a4 af f8 3c 2a 31 28 3d 9b 18 5b bb e0 34 75 bb
       0.03035719 0.04106251 -0.0033431414 -0.003741555
000210 55 df 20 3d f2 a2 14 3d 1c 14 8e 3c 5f 9b 74 3d
       0.039275486 0.03628821 0.017343573 0.059718486
000220 51 3a 8d 3d 9c 31 b5 3d 57 76 88 bd dd 88 28 3d
       0.068958886 0.08847353 -0.066631965 0.041146148
000230 7a d2 64 bd 89 76 18 3c fb bd 96 3d fb 0b 85 3d
       -0.05586479 0.009305605 0.07360455 0.06496426
000240 b5 03 26 bd 49 cc 2c bd 37 b2 b4 bc df 5e a4 3c
       -0.04053088 -0.04218701 -0.022057636 0.02006477
000250 41 43 a3 3d 06 7c 1d 3d 8d 53 81 3b 26 39 5f 3d
       0.07971812 0.038448356 0.0039467276 0.05449786
000260 79 d8 42 3d 14 ec 82 3d c2 74 ca bc 01 13 06 3d
       0.047569726 0.063926846 -0.024713878 0.032732967
000270 a1 30 dc bc b9 b9 a3 3d fb 14 d0 3b 0f cb c5 3c
       -0.026878657 0.07994408 0.0063501573 0.024144677
000280 a8 45 cc bd 50 c2 18 bd cb 1f 5a bd e4 56 94 bc
       -0.099742234 -0.037294686 -0.053252976 -0.018107839
000290 35 66 f4 3c dd fa 49 3d a7 f1 09 3d 38 2c d2 3c
       0.029833892 0.049311507 0.033677723 0.02565585
0002a0 8c 88 9d 3c 4d d2 1e 3d ba 64 80 3d b0 ad ab 3b
       0.01923015 0.038774777 0.06269212 0.005239211
0002b0 5a 57 c7 bc 88 04 00 3e b7 71 04 bc 36 8c 4a bd
       -0.024333645 0.12501729 -0.008083752 -0.04945012
0002c0 9b 25 ea bd 1c 05 b5 3d f3 95 61 3d 36 53 22 3d
       -0.11432954 0.08838865 0.055074643 0.039630137
0002d0 96 2a e6 bb a1 41 b6 bc 17 0a 90 3d 7a 15 0d 3e
       -0.0070241196 -0.022248091 0.070331745 0.13777724
0002e0 4c 59 16 bd 5f 03 92 3c 2f 3b b0 bc a4 94 a1 3c
       -0.036706254 0.017823873 -0.021512596 0.019724198
0002f0 c9 c5 0f 3c 50 dd 76 bc ba be 99 3d f8 d0 a8 3d
       0.008775183 -0.015067413 0.07507081 0.082429826
000300 5d 03 e9 bd 2c a7 99 bc 20 15 2d 3d 34 2b 00 3d
       -0.113775946 -0.018756472 0.042256474 0.0312912
000310 4c e1 57 3c 12 bf f0 3c c2 ea a1 3d e1 8f b3 3d
       0.013176274 0.029387984 0.079061046 0.08767677
000320 d2 9a e6 3c 95 66 3e 3c ce ab 1f 3d 74 33 c9 bd
       0.028149996 0.011621137 0.038982205 -0.09824267
000330 77 da fc 3d 14 f7 ec bb 5b 1b 09 3e 48 9f 20 3c
       0.12346356 -0.0072316024 0.13389342 0.009803601
000340 83 23 a1 3d 4f 7b c2 bd 7d 8c c7 3d cf 77 a8 3c
       0.078681014 -0.094961755 0.09743593 0.020564942
000350 35 47 6f bd 0d 2e 99 bd 24 a3 52 3b f5 91 7e 3d
       -0.058417518 -0.074794866 0.0032140696 0.062150914
000360 0d e7 00 bd 38 be af bc e6 1f 6a bd 80 cb a6 3c
       -0.031470347 -0.021453008 -0.057159327 0.020360708
000370 b1 0a 97 bd 59 23 1c bd 58 28 1f bd b4 5f c6 3c
       -0.07375086 -0.038119648 -0.038856834 0.024215557
000380 9d b2 06 bd a0 97 e2 3d 2d 38 87 bd 4b 8b 4c bc
       -0.032885183 0.110640764 -0.066025116 -0.012484382
000390 7d f2 07 3e 5b f9 65 3d 95 8f 82 3d c7 32 61 bc
       0.13276096 0.056146007 0.06375042 -0.013745016
0003a0 02 ce 0f 3d 1b 33 29 bd e9 1a 09 3e 3a 50 a7 3d
       0.035108574 -0.041308504 0.13389172 0.08169599
0003b0 10 d2 86 bd 7f a0 fc bb dd 03 44 3d 18 22 e0 3c
       -0.06583035 -0.0077095623 0.047855247 0.027360007
0003c0 20 a1 05 3c be 64 e2 3d 22 48 83 bb c2 62 43 3d
       0.008156091 0.11054371 -0.0040064016 0.047701605
0003d0 15 d4 96 3d 84 c0 1a 3d fb 95 0c 3c 99 19 9d 3d
       0.0736467 0.037781253 0.00858068 0.07670898
0003e0 db 47 13 bd 06 b4 b0 bc bd 50 cc 3c ce 46 8b 3c
       -0.0359572 -0.021570217 0.024940843 0.017001536
0003f0 24 15 59 3d 76 c5 c3 bd 03 73 8b 3c 40 99 c2 3d
       0.052998677 -0.09559147 0.017022615 0.09501886

fc2_1.bias f4 [64]
000000 49 ad 09 3c 4e 64 b2 3d 51 09 42 3b fe c2 db bd
       0.008403131 0.08710538 0.0029607604 -0.10730551
000010 19 f9 a6 3d 6a d5 aa bd d0 de 28 bc 4a 43 ee bd
       0.0815298 -0.08341487 -0.010307029 -0.11633928
000020 9c c8 ea bd 26 30 2b bd a5 64 ad bd 0c e9 7c bd
       -0.114640445 -0.041793965 -0.08466462 -0.06174569
000030 26 b0 98 3d e0 1f 18 3b 7e 75 8f bd bc d6 da 3d
       0.07455473 0.0023212358 -0.07004832 0.106854886
000040 15 48 9c bc 1c f1 83 3d 7d 3a 9d bb 87 13 d0 3c
       -0.01907734 0.06442472 -0.004798232 0.025399936
000050 dc 25 02 3d 9d ab 40 bd 24 cb f1 bc 0d 49 e8 bd
       0.031774387 -0.047038663 -0.02951581 -0.11342058
000060 a5 62 d8 bd bd 2b 74 bd 10 1f 7a 3d 31 62 aa bc
       -0.1056569 -0.059612025 0.06106478 -0.020798774
000070 af e8 5f bd fe 1b 7c bd f3 4a ae 3d 60 38 7d bd
       -0.054665264 -0.061550133 0.08510389 -0.06182134
000080 3f 0b 86 bd df 47 ed bd 9b 7e 0a be 54 28 b3 bd
       -0.06545114 -0.11585974 -0.13524859 -0.08747926
000090 13 5a 76 3c c8 b6 33 bd f5 ff b4 bd f5 c5 33 bd
       0.015036124 -0.043875486 -0.088378824 -0.04388996
0000a0 37 be 9d bd 4c 72 94 3d 59 97 ec bc 90 2a af bd
       -0.07702296 0.07248363 -0.028880762 -0.0855304
0000b0 ee 9c 4d bd a5 f1 d5 3d fb 73 e3 bd 72 29 92 bc
       -0.050198488 0.10446481 -0.11106106 -0.017842028
0000c0 39 4d 75 3d ab 0c 68 3d 72 75 52 3d cc cd df 3c
       0.0598881 0.056652706 0.051381536 0.027319811
0000d0 c9 6c bb 3b 84 1a 53 bd a2 0a d5 3c e1 fd e6 3b
       0.0057197553 -0.05153896 0.026006047 0.0070493077
0000e0 5a 15 e7 bc c8 da cf bc 77 ca 23 bd 96 6d b3 bc
       -0.028208423 -0.025372878 -0.039988007 -0.02190284
0000f0 7c 72 ff bd c3 1b 99 bd 96 de d2 bc e8 40 53 bd
       -0.12473008 -0.07475998 -0.025740903 -0.05157557

fc3.weight f4 [18, 64]
000000 31 1b cf 3d d6 3e 92 bd b5 57 af 3d 33 85 8a bd
       0.10112608 -0.07140891 0.08561651 -0.06763687
000010 db 84 2f 3d a4 2d 60 3d 73 04 8f bc 83 99 75 3c
       0.04285131 0.054731026 -0.017458176 0.014990213
000020 28 88 b9 3d 1a da aa 3d 36 13 2f 3e e2 2c b6 3d
       0.09059173 0.08342381 0.17097172 0.088952795
000030 f9 70 b0 3d ec 32 3c bd c0 57 b0 3b 87 f4 c3 3b
       0.08615298 -0.045947 0.0053815544 0.0059800777
000040 61 1f 3d bb 90 bd 0c 3e 2e 5c 96 bc 98 5e 5d bd
       -0.0028857815 0.13744187 -0.018354502 -0.05404529
000050 3c 65 be bc 1c 50 31 bd dc b7 e9 3d 34 46 99 3c
       -0.023241632 -0.04328929 0.114120215 0.018710233
000060 f7 d8 a9 3d 09 53 c2 3c 29 4d e0 3d 7a f1 ee bd
       0.08293336 0.023721235 0.10952217 -0.11667152
000070 b3 d9 c0 3d 9a b0 33 3d 19 c3 88 3d cc 72 80 bb
       0.09416523 0.043869592 0.06677837 -0.003919935
000080 7c 4f f2 bc 84 b0 2c bd 95 ac 38 3d 34 02 43 bd
       -0.029578917 -0.042160526 0.045086462 -0.047609523
000090 77 f3 17 3d 62 fc b5 3d 25 43 c0 bc 5c ef 71 3d
       0.03709742 0.08886029 -0.023469517 0.05906616
0000a0 16 04 ca bd 68 21 0c 3e 5f b2 95 bc be 1d 16 3e
       -0.098640606 0.13684618 -0.01827353 0.14659783
0000b0 d0 09 0c 3d 45 0a 36 3e f0 30 24 be 6f 99 b4 3d
       0.034189045 0.17777355 -0.16034293 0.08818328
0000c0 a7 07 05 bd 28 a2 10 3d b1 58 bc 3b e1 19 f2 3c
       -0.032478 0.035310894 0.0057478775 0.029553356
0000d0 5a c8 05 bd 1c 06 0f 3e 12 ce a0 bd dd 7c 95 bd
       -0.032661773 0.13967174 -0.07851805 -0.072992064
0000e0 68 09 8c 3c fd 8b 3a bd 8d 3c 8e 3d 50 14 ae 3d
       0.017094329 -0.04554366 0.06945143 0.08499968
0000f0 ef 03 53 3d d6 d8 a6 bd eb 66 70 bd 3e a9 6a bd
       0.051517423 -0.08146827 -0.0586919 -0.05729031
000100 95 a4 7a 3c e1 eb 15 be 20 80 b9 bc 9f 36 03 3c
       0.0152980285 -0.14640762 -0.022644103 0.008008628
000110 9c fb 75 3d b0 9e ff bc f5 c8 3c be ce 11 29 bc
       0.060054407 -0.031203598 -0.18436034 -0.010319186
000120 bd 63 15 be b8 80 30 bd ed 1d 40 bd 80 c8 e0 bb
       -0.14588828 -0.043091506 -0.04690354 -0.006859839
000130 b3 2b 2c bd 70 85 77 3d c8 b1 a9 bc c4 71 a5 bc
       -0.042033862 0.06042999 -0.020714656 -0.02019585
000140 88 9a 9b bd 96 08 d4 bd 52 2f 00 bd e9 8e a9 bd
       -0.07597834 -0.103532 -0.03129513 -0.08279211
000150 48 04 75 3d 90 5b df 3d 49 67 76 3d 06 7b 55 3d
       0.059818536 0.10906136 0.060157094 0.052119277
000160 da b1 12 3d 25 ad 2b 3d a9 c1 81 bc 91 f2 aa 3d
       0.035814144 0.04191317 -0.015839415 0.08347047
000170 c5 f2 38 3d 4f 14 22 3e 53 18 ba bd 34 b8 9b 3d
       0.045153398 0.1582806 -0.09086671 0.07603493
000180 25 65 b1 bd 77 66 3a 3d 83 0e a4 bd 25 c4 50 bd
       -0.0866187 0.045507874 -0.080105804 -0.050968308
000190 42 df 32 bd 59 b1 18 be fe 69 34 3c 10 23 76 3d
       -0.043669946 -0.14911403 0.011011599 0.060092032
0001a0 8e e7 d8 bd b8 17 9b bd 88 47 cd bc ac 28 6a bd
       -0.105910406 -0.07572883 -0.025058523 -0.057167694
0001b0 60 95 3b 3c 41 83 2b 3c c7 81 17 3c aa 0c 2f be
       0.011449188 0.010468305 0.00924725 -0.17094675
0001c0 70 75 f3 bc b2 3e 59 bb 2d 08 66 bd f3 38 97 bc
       -0.029719085 -0.0033148942 -0.05616014 -0.018459773
0001d0 11 b0 75 3d 92 b7 0c bd c1 8d 11 be bd 69 58 bd
       0.059982363 -0.034354754 -0.14214231 -0.052835215
0001e0 58 fe 7c bd eb 96 18 3d 78 b1 c2 bd 8d e8 2f be
       -0.061766 0.0372533 -0.09506506 -0.17178555
0001f0 4d 69 85 bd 00 15 91 ba 2c 71 1b 3e ae e2 5f bd
       -0.06514225 -0.001106888 0.1517989 -0.054659538
000200 19 9a 17 3d 2d 05 bb 3d 6c 47 cb 3d 40 9c ee 3c
       0.037012193 0.091318466 0.09925732 0.02912724
000210 a5 7f c2 bd 60 c1 25 bc b2 09 82 bd 9d 8b 13 be
       -0.094970025 -0.010116905 -0.063495055 -0.14408727
000220 fb 03 9e 3d 40 4f 6b 3d 3f dd 91 bc e8 8b d8 bd
       0.07715603 0.057448626 -0.017805694 -0.1057356
000230 b6 c4 bf 3b 5a 07 c6 3d 50 f7 39 3c 6d cc f6 bc
       0.005852307 0.09669371 0.011350468 -0.030126775
000240 cc ed 2e 3e 2d f6 7e bc 54 c3 3a 3e 28 4f 28 bd
       0.170829 -0.015561623 0.18238574 -0.041091114
000250 cd 79 20 3d 20 39 d3 bb c0 bc e8 3d c7 37 4f 3d
       0.03917866 -0.006446019 0.11364126 0.050590303
000260 1b 8c df bb 7c ac 57 bd dd e8 86 3d d7 08 c2 bd
       -0.006822122 -0.05265473 0.06587384 -0.09474342
000270 54 10 e2 3b 40 aa 83 3d 0b 98 30 3d de 47 37 be
       0.006898919 0.06428957 0.04311375 -0.17898509
000280 a9 0f cb 3d eb d0 1a 3e 4a 48 7c 3c 0e 35 1a 3c
       0.09915096 0.15118758 0.015398094 0.009412063
000290 0c 96 39 3d 6d 54 0c be 43 06 0b bd 14 4a 0f bd
       0.04530911 -0.13704081 -0.03394152 -0.034982756
0002a0 ec cf df bd 9d f3 83 bc 8b d2 d8 3d 4f 65 ac 3d
       -0.1092833 -0.016107375 0.10587033 0.084177606
0002b0 b0 ea d5 bd 6b d3 1c bd 9c 34 17 be d6 02 86 3c
       -0.10445154 -0.03828756 -0.14766163 0.016358774
0002c0 a8 ca a1 bc 91 38 06 bd e9 6e 2d bd 63 97 19 3c
       -0.019749954 -0.03276879 -0.0423421 0.009374472
0002d0 e8 22 16 3d d4 ea fb bc ac ff 36 3d 04 66 75 3b
       0.036654383 -0.030751623 0.04467742 0.003744484
0002e0 9c c0 b6 3d 36 48 9e bc 01 63 12 3e e8 d4 ef 3d
       0.08923456 -0.019321542 0.1429558 0.117105305
0002f0 87 52 c5 bc 50 59 77 bd 87 3c 4d bd f9 cf 73 3d
       -0.024087204 -0.06038791 -0.05010655 0.05952451
000300 4e 1d 7d bd 4d dc 9c 3d f0 28 bf 3c 4e db 06 3e
       -0.061795525 0.076592065 0.02333495 0.13169596
000310 2f 8f 0c bc d8 45 ff 3d 69 61 49 3d 6f 85 b3 3c
       -0.0085790595 0.124644935 0.049165163 0.021914212
000320 30 a9 2e bd 67 52 49 3d 34 bf fc bd f0 51 ab 3d
       -0.04264182 0.04915085 -0.123411566 0.08365238
000330 4a 74 9c bc 08 02 6c bd 20 70 f3 3d 96 28 a0 3c
       -0.01909842 -0.057619125 0.118866205 0.019550603
000340 82 e8 35 bd 39 33 1f 3d 81 09 3d bd ce c8 47 bc
       -0.04441119 0.03886721 -0.04615164 -0.012193872
000350 b7 60 12 3c 50 e6 79 3d e8 3c 82 3b f9 d4 1f 3e
       0.008934191 0.06101066 0.0039745457 0.15608586
000360 b3 89 29 bd 1b 67 1e bd 68 d5 82 3d d2 66 62 bd
       -0.041391086 -0.038672548 0.0638836 -0.05527384
000370 40 df 82 3c d7 4a 34 be e2 c9 53 bd cb 5c 19 bc
       0.015975595 -0.17606674 -0.051706202 -0.0093605025
000380 2f 44 8a bc d3 ac c7 ba 69 47 7e ba 5c ed d0 3c
       -0.016878216 -0.0015234001 -0.0009699972 0.025503807
000390 af f4 34 be 5c 3d 5b 3d 09 a7 bf bd a0 b5 c8 bd
       -0.17671464 0.053525314 -0.09358031 -0.09800267
0003a0 de 60 d8 3d 77 a6 c6 bd 9e 0b ff 3b a4 86 58 bd
       0.10565351 -0.096997194 0.0077833673 -0.05286278
0003b0 ac e5 4a bd f7 7e 5a 3c e4 12 cd 3c 28 13 00 3c
       -0.04953544 0.013335935 0.025033422 0.007817067
0003c0 3e 90 c9 bd e9 3d 18 bc bc 13 82 bd bc 2f b3 bd
       -0.09841965 -0.009292104 -0.0635142 -0.08749339
0003d0 d1 95 be 3d 40 96 af bd bc de ed 3d b9 6f 97 bd
       0.09305919 -0.0857358 0.11614749 -0.07394356
0003e0 54 2c d4 3d b6 e2 a2 3d 27 aa f5 bd 3d a2 17 be
       0.103600174 0.07953398 -0.119953446 -0.14807983
0003f0 2b 57 1f bd 6c 74 c7 3d 57 2a 66 bd fd a6 89 bd
       -0.03890149 0.097390026 -0.056192722 -0.067213036

fc3.bias f4 [18]
000000 b5 a9 39 bd 0b ea 0d 3d 73 eb cb bb 2f 70 91 ba
       -0.04532786 0.03464703 -0.006223136 -0.0011096055
000010 cd bb b7 bc 3d fe 02 3d 84 ab 13 3d 0c e2 26 3a
       -0.022428418 0.03198074 0.036052242 0.0006366081
000020 4c 0f 13 bd 3c ee 10 3d 19 10 aa bd 33 05 e5 3b
       -0.03590326 0.035383448 -0.08303852 0.006989145
000030 c1 37 8f 3d b2 0b 68 3c f3 33 09 3d 39 3d 04 bd
       0.06993056 0.014162945 0.03349681 -0.03228495
000040 e8 45 a7 bd 79 d6 9f 3d
       -0.081676304 0.07804579
