models/2024-07-20_16-06-09/epoch_0043_loss_0.00050935/dynamics.pth (torch, 83084 bytes, 8 tensors)

fc1.weight f4 [64, 34]
0	0xbd95316c	-0.07284817
1	0xbe07db71	-0.13267304
2	0x3db89602	0.09012987
3	0xbc773b50	-0.015089825
4	0xbd1570c4	-0.036484495
5	0xbd9f9c1e	-0.07793449
6	0xbd9003d5	-0.07031981
7	0xbe05e566	-0.1307579
8	0x3d214574	0.039372876
9	0x3e0a8a7b	0.13529389
10	0xbdb7b5a9	-0.08970196
11	0x3cbe3348	0.023217812
12	0xbd5b0766	-0.053473853
13	0xbdeac824	-0.11463955
14	0x3d12399c	0.03569947
15	0x3e17b59b	0.1481537
16	0xbe2ee0d3	-0.17077951
17	0xbdf7c4d0	-0.12098086
18	0x3dd67666	0.104718015
19	0xbe180d46	-0.14848813
20	0x3dd8358e	0.1055709
21	0xbe1436c4	-0.14474016
22	0xbe2cc36e	-0.16871426
23	0x3e06cb0d	0.13163395
24	0x3d859ada	0.06523676
25	0xbe2177d2	-0.15768364
26	0x3dd3148e	0.10306655
27	0x3e07ee1d	0.13274427
28	0xbd990967	-0.074724965
29	0xbbd799c0	-0.0065796077
30	0xbe1e9e78	-0.15490139
31	0x3d912336	0.07086794
32	0xbd955a9f	-0.07292675
33	0xbe02d748	-0.12777436
34	0x3ca2afef	0.019859282
35	0x3e10d069	0.14142002
36	0xbd303081	-0.043015007
37	0xbe05df44	-0.1307345
38	0xbc9c511f	-0.01908165
39	0xbcca8667	-0.024722291
40	0xbd17ac4e	-0.037029557
41	0xbd598171	-0.05310196
42	0x3e153338	0.1457032
43	0xbbe938cb	-0.007117366
44	0xbba2255f	-0.0049483026
45	0x3e083786	0.1330243
46	0xbc5a2480	-0.013314366
47	0xbe129508	-0.14314663
48	0x3e1bac46	0.15202436
49	0x3dca3345	0.0987306
50	0x3e05e53a	0.13075724
51	0x3e12bbfa	0.1432952
52	0xbc3dbeb1	-0.011581109
53	0xbcea2850	-0.028583676
54	0xbc8f087b	-0.017460098
55	0x3c71420f	0.014725222
56	0x3e01c76d	0.12673731
57	0xbddcdbe2	-0.10784127
58	0x3ce3e9c2	0.027821425
59	0xbe075323	-0.13215308
60	0xbe8a0560	-0.26957226
61	0xbd26d818	-0.040733427
62	0x3cf3d8dc	0.029766493
63	0x3d3d394c	0.04619722
64	0x3e327052	0.1742566
65	0x3d59326a	0.053026594
66	0xbd7c494f	-0.06159335
67	0xbe061aa5	-0.13096102
68	0xbd4d8ec6	-0.050184987
69	0x3d854710	0.06507695
70	0x3dc61f8a	0.09673984
71	0x3dd1466b	0.10218509
72	0x3d01bb32	0.031672664
73	0xbe43f7eb	-0.19137542
74	0x3d9bbae7	0.07604008
75	0x3e4f5db4	0.20250589
76	0xbe5783f8	-0.21046436
77	0x3d26b3e8	0.040698916
78	0x3d82d306	0.06387906
79	0x3d91b755	0.07115046
80	0x3c94d648	0.018168584
81	0x3d21a612	0.039465018
82	0xbe06ece9	-0.13176312
83	0xbe5909bd	-0.21195121
84	0x3e7be5d5	0.24599393
85	0x3d838281	0.06421376
86	0x3e75acb4	0.23991662
87	0x3cf0f082	0.029411558
88	0xbe17c203	-0.14820103
89	0x3c349183	0.011021021
90	0xbe6b15db	-0.22957556
91	0x3cefb49e	0.02926093
92	0xbdc0b99d	-0.09410403
93	0xbdf0078b	-0.11720189
94	0x3e0fbb68	0.14036334
95	0x3e67f3fa	0.22651663
96	0xbd10e4dd	-0.03537451
97	0x3ca39d9a	0.019972611
98	0x3d0ff602	0.03514672
99	0x3d844297	0.064580135
100	0xbd0d29d2	-0.03446371
101	0xbcb58ad5	-0.022160927
102	0xbe162e89	-0.14666189
103	0x3dc2143a	0.09476514
104	0xbd24338c	-0.04008822
105	0xbd86a141	-0.065737255
106	0x3d30a788	0.04312852
107	0xbba21f00	-0.004947543
108	0x3e016997	0.12637936
109	0x3dc1954a	0.09452303
110	0x3dcc83b6	0.09986059
111	0xbda1c4ff	-0.07898902
112	0x3d818808	0.06324774
113	0xbc5d2190	-0.013496771
114	0xbd923ddf	-0.07140707
115	0x3bb58340	0.005539328
116	0x3c8c4908	0.017124668
117	0xbd069f80	-0.032866955
118	0xbe27f8e9	-0.16403545
119	0xbe25331e	-0.16132781
120	0xbd31e77c	-0.04343365
121	0xbe0f3ecf	-0.13988803
122	0x3e0241cb	0.1272041
123	0xbe264d7c	-0.16240495
124	0xbd9a9607	-0.07548147
125	0x3e1c97ed	0.1529233
126	0x3e0a9373	0.1353281
127	0x3dae1186	0.08499436
128	0x3e2904fd	0.16505809
129	0xbde2c7e4	-0.11073282
130	0x3db6611a	0.089052394
131	0x3d2927a0	0.041297555
132	0x3df73c8e	0.12072097
133	0x3dcf78aa	0.10130437
134	0xbe1586c3	-0.14602189
135	0xbe1b712b	-0.15179889
136	0xbdae58b3	-0.08513012
137	0x3e0b25ce	0.1358864
138	0xbe2887d6	-0.16458067
139	0x3e0b619f	0.13611458
140	0x3db1590a	0.08659561
141	0xbdbba5aa	-0.09162457
142	0xbde53535	-0.11191789
143	0xbca46a92	-0.020070348
144	0x3dcd828f	0.10034668
145	0xbd9b9794	-0.075972706
146	0xbcdb0777	-0.026736958
147	0xbd6c213b	-0.05764888
148	0xbe03c547	-0.12868224
149	0x3db1d2bf	0.08682775
150	0xbd377a2e	-0.044794254
151	0xbbe47e9d	-0.0069731013
152	0x3de959cf	0.11394083
153	0x3cc4613f	0.023972152
154	0x3d9c0fb6	0.07620184
155	0xbc91dbc5	-0.01780499
156	0xbe3f8878	-0.18704402
157	0x3d4fee93	0.05076463
158	0x3e0bf59d	0.13667913
159	0xbd05bfeb	-0.03265373
160	0x3e09dcff	0.1346321
161	0xbc22c25a	-0.009934032
162	0xbe02a9c1	-0.12760068
163	0x3e404f00	0.18780136
164	0xbe3d85c9	-0.18508066
165	0x3dcd5064	0.10025099
166	0x3d858c5e	0.065209135
167	0xbdc2732b	-0.09494623
168	0x3da4f095	0.080537
169	0x3deecaaf	0.116597526
170	0xbe27915d	-0.16364045
171	0xbd8f44aa	-0.069955185
172	0x3cf6d630	0.03013143
173	0x3df528b2	0.11970653
174	0xbe131f69	-0.14367451
175	0x3d7a15e0	0.061056018
176	0x3cf4faf0	0.029904813
177	0x3e2f2277	0.17102991
178	0x3d26e954	0.040749863
179	0x3d0ac5f4	0.03388019
180	0xbddf2d07	-0.1089726
181	0xbd81cc8f	-0.063378446
182	0x3dbf7492	0.09348406
183	0x3dcf29b6	0.101153776
184	0x3d249984	0.040185466
185	0x3d41861c	0.047247037
186	0x3e262825	0.16226251
187	0xbdc746b0	-0.097302794
188	0x3d684760	0.056708694
189	0xbd9c6f00	-0.07638359
190	0x3d77c3a4	0.06048931
191	0xbdbab24c	-0.09116039
192	0xbc027bd0	-0.0079640895
193	0x3d96c312	0.073614255
194	0xbd164ca8	-0.0366942
195	0xbdc0db71	-0.09416855
196	0xbd699e72	-0.05703587
197	0xbdeedeee	-0.11663614
198	0x3e0626c5	0.13100727
199	0xbd811482	-0.0630274
200	0xbdb89715	-0.090131916
201	0x3e0569a9	0.13028587
202	0xbdd6cbfa	-0.10488124
203	0x3e0d2333	0.13782959
204	0x3e2daf7b	0.16961472
205	0xbd085460	-0.03328359
206	0xbe027ef3	-0.1274374
207	0xbe03af86	-0.12859926
208	0xbe279c07	-0.16368113
209	0xbdc58eaf	-0.09646355
210	0x3c5424e0	0.012948245
211	0xbd079e5c	-0.033110008
212	0x3def2516	0.116769955
213	0x3dff8dbe	0.12478207
214	0xbcf8a7f0	-0.030353516
215	0x3de913f2	0.113807574
216	0x3ce71818	0.028209731
217	0xbb2a0340	-0.0025941879
218	0xbd27eb84	-0.04099609
219	0xbd86decb	-0.06585463
220	0xbe26d8c2	-0.16293624
221	0xbdaf45ab	-0.0855821
222	0x3cebd688	0.02878882
223	0xbcd882f8	-0.026429638
224	0x3d0bd060	0.03413427
225	0xbd3ba6a8	-0.045813233
226	0xbe1db21d	-0.15399976
227	0x3e25bc01	0.16184999
228	0x3e127dc1	0.14305784
229	0xbb9a9b40	-0.0047182143
230	0x3d78f828	0.060783535
231	0xbe1fde85	-0.15612228
232	0xbdd77ffa	-0.105224565
233	0xbd7d6f70	-0.061873853
234	0x3e2b5429	0.16731323
235	0xbd03d640	-0.032186747
236	0x3df43fe6	0.1192625
237	0xbe0b5db6	-0.13609967
238	0xbe15b4d1	-0.14619757
239	0x3c75ec47	0.015009946
240	0x3c4cb1ff	0.012493609
241	0xbd64f9a4	-0.05590214
242	0x3e32be98	0.17455518
243	0xbd67d1fe	-0.05659675
244	0xbd91478f	-0.07093727
245	0xbd19f0ad	-0.037583042
246	0xbdcaa6f9	-0.09895129
247	0xbdc70d89	-0.097193785
248	0xbe07c7b5	-0.13259776
249	0x3e0cc152	0.13745621
250	0xba5d78f5	-0.0008448505
251	0x3d826d98	0.063685596
252	0xbd980f44	-0.07424787
253	0xbe153500	-0.14570999
254	0xbd4873ed	-0.04893868
255	0x3e36e9b5	0.1786259

fc1.bias f4 [64]
0	0xbd539f64	-0.05166568
1	0x3da14670	0.07874763
2	0xbe453ff9	-0.19262685
3	0xbc763460	-0.015027136
4	0x3ca733d1	0.02041045
5	0x3cf615a5	0.030039618
6	0xbd5dd534	-0.054158404
7	0x3d8909b8	0.06691307
8	0xbe2cf249	-0.168893
9	0xbd480b6f	-0.04883903
10	0xbd4229a4	-0.047402993
11	0x3dcda726	0.10041647
12	0xbcdb522e	-0.026772585
13	0x3d48f464	0.049061194
14	0xbe189c8d	-0.1490347
15	0xbe0c84ae	-0.13722488
16	0xbd7fb438	-0.06242773
17	0x3de45ec9	0.11150891
18	0x3d86b444	0.06577352
19	0xbcc7aa12	-0.024373088
20	0x3df90c90	0.12160599
21	0x3dc0c54b	0.09412631
22	0xbca36cb2	-0.01994929
23	0x3cca51df	0.024697242
24	0x3d25b634	0.040456966
25	0x3dc6e108	0.0971089
26	0x3e0757f0	0.13217139
27	0x3d98a6f1	0.074537165
28	0x3e53dfea	0.20690885
29	0xbbbcb540	-0.0057589114
30	0xbdac31d3	-0.08407941
31	0xbd9fe321	-0.07806993
32	0xbdc2f3de	-0.0951917
33	0x3d4b4b98	0.04963264
34	0x3e242c2b	0.16032474
35	0xbdf11f58	-0.117735565
36	0x3dcfc8c8	0.10145718
37	0x3db464c9	0.08808286
38	0xbd1c6a6b	-0.038187426
39	0xbd054380	-0.032535076
40	0xbdbcde61	-0.09222103
41	0xbdcfcb3a	-0.10146184
42	0xbdbc2ea0	-0.091885805
43	0x3d296ae4	0.041361704
44	0xbdcf01f4	-0.101077944
45	0xbd8ef183	-0.069796585
46	0xbcd7aba3	-0.02632696
47	0x3d3dd101	0.0463419
48	0xbd76e484	-0.060276523
49	0x3c2c211b	0.01050594
50	0xbd946097	-0.072449856
51	0x3da50711	0.080579884
52	0xbdb7d620	-0.08976388
53	0x3dc4cdd2	0.096095696
54	0xbe2019a4	-0.15634781
55	0xbdc9855c	-0.098398894
56	0x3e1ce50e	0.15321752
57	0xbdb87711	-0.09007085
58	0x3d8d1418	0.06888598
59	0x3cf29ba8	0.029615238
60	0xbd229604	-0.039693847
61	0xbd468b9d	-0.04847299
62	0xbd38de1b	-0.04513369
63	0xbd54f10d	-0.051987696

fc2.weight f4 [128, 64]
0	0x3deaf032	0.11471595
1	0x3da4f695	0.08054844
2	0x3e1f5957	0.15561424
3	0x3dd7328a	0.105076864
4	0x3d8dede0	0.06930137
5	0xbcf8f1a5	-0.030388663
6	0xbda93482	-0.08261968
7	0xbd22a4c8	-0.03970793
8	0x3ddd1a38	0.107960165
9	0x3db41d30	0.087946296
10	0x3d7a2533	0.061070632
11	0xbdc6221c	-0.096744746
12	0x3d81de25	0.06341199
13	0x3e075157	0.13214622
14	0x3e2250f3	0.15851192
15	0xbca664cf	-0.020311741
16	0xbdd275f8	-0.10276407
17	0xbd55d62a	-0.052206196
18	0xbcb1c555	-0.02170054
19	0x3d22451c	0.03961669
20	0x3c23711b	0.009975697
21	0x3c2a824e	0.010407044
22	0x3e26269b	0.16225664
23	0x3db851e4	0.089999944
24	0xbab47048	-0.0013766373
25	0x3bf17642	0.0073688338
26	0xbde0903d	-0.10965011
27	0xbd635387	-0.05549958
28	0xbe12e914	-0.14346725
29	0xbcc70b48	-0.024297372
30	0xbd098448	-0.03357342
31	0x3cf5ea08	0.030018821
32	0x3e21c09a	0.15796128
33	0xba451342	-0.0007517823
34	0xbc79998b	-0.015234361
35	0x3d301760	0.042991042
36	0xbe33bb3f	-0.17551897
37	0xbdce4140	-0.10071039
38	0x3dec536a	0.115393475
39	0xbd6e74b0	-0.05821675
40	0x3e202b10	0.15641427
41	0xbca0b528	-0.019617632
42	0x3de9b1fe	0.114109024
43	0x3d32ea8e	0.04368072
44	0x3ded338c	0.115820974
45	0xbb92d4c7	-0.0044809314
46	0xbd21c15d	-0.039491046
47	0x3d9bb117	0.076021366
48	0xbde8f192	-0.11374201
49	0xbdc35540	-0.095377445
50	0x3d0c7260	0.034288764
51	0xbdad176f	-0.08451735
52	0x3db4d6ac	0.08830008
53	0x3db91059	0.09036321
54	0xbd0c61c4	-0.034272924
55	0x3e0b2a9d	0.13590474
56	0xbd693604	-0.05693628
57	0x3d84e7d2	0.06489529
58	0x3dd579c9	0.10423619
59	0xbc4423d7	-0.0119714355
60	0x3d5f0c73	0.054455232
61	0x3dd88f6d	0.10574231
62	0x3df42956	0.11921947
63	0x3dcf3095	0.10116688
64	0x3d1a3088	0.03764394
65	0xbded5bc9	-0.11589772
66	0x3caaa948	0.020832673
67	0x3b3b8780	0.00286147
68	0xbe07b5ca	-0.13252941
69	0x3e0b5f67	0.13610612
70	0x3c3221f0	0.010872349
71	0xbdfe1ea7	-0.1240819
72	0x3d806deb	0.06270965
73	0xbd66c904	-0.056344047
74	0xbe040b27	-0.1289488
75	0x3d55b51d	0.052174676
76	0xbe05d51c	-0.13069576
77	0xbdf850e3	-0.12124803
78	0x3d8122cc	0.06305465
79	0x3cb48c28	0.022039488
80	0xbdc89132	-0.09793319
81	0xbd83976d	-0.064253666
82	0xbda494e4	-0.08036211
83	0xbd051b6a	-0.032496847
84	0xbdb0b280	-0.08627796
85	0x3ba392f3	0.004991883
86	0xbdfb3673	-0.12266245
87	0xbdf79aec	-0.12090096
88	0x3d8ff56f	0.070292346
89	0xbc989596	-0.018626016
90	0x3cf3d730	0.029765695
91	0xbe0ce024	-0.13757378
92	0x3c8a6cce	0.016897585
93	0xbdbc9b16	-0.09209268
94	0xbdca268d	-0.09870634
95	0xbbe2ea60	-0.0069249123
96	0x3c5f2417	0.013619444
97	0x3d91ef49	0.07125718
98	0x3d62b992	0.055352755
99	0xbd41c840	-0.047310114
100	0x3c80fe0e	0.015746143
101	0x3d919ab1	0.07109583
102	0xbe14260e	-0.14467642
103	0xbd7b6b84	-0.06138183
104	0x3c10559f	0.008809476
105	0xbd191ffc	-0.03738402
106	0xbdf47b9e	-0.119376406
107	0x3ca19626	0.019724917
108	0xbd7320c4	-0.05935742
109	0xbe1d8965	-0.15384443
110	0xbd741e7f	-0.059599396
111	0x3b88eb07	0.004178408
112	0xbd665064	-0.05622901
113	0xbde3b695	-0.11118809
114	0xbd069ab8	-0.032862395
115	0xbba41646	-0.005007538
116	0x3c7fe170	0.015617713
117	0x3ce1e671	0.027575703
118	0xbd554d44	-0.05207564
119	0x3c8c88fc	0.017155163
120	0x3da626a4	0.08112839
121	0x3d9edfac	0.07757506
122	0x3d54d023	0.051956307
123	0xbdac9017	-0.084259205
124	0xbd174eb2	-0.036940284
125	0xbdc018d6	-0.09379737
126	0xbd6f4040	-0.058410883
127	0x3d991efd	0.07476614
128	0x3d7d5088	0.06184438
129	0xbd326964	-0.04355754
130	0xbda77a69	-0.08177645
131	0x3cbba468	0.022905543
132	0xbdc6f9f3	-0.09715643
133	0xbd5559c5	-0.052087564
134	0x3d950912	0.07277121
135	0x3c4e650c	0.012597334
136	0xbd3d3998	-0.046197504
137	0xbd868d23	-0.065698884
138	0x3cc85a1c	0.02445703
139	0xbd8ee15d	-0.069765784
140	0x3d2143cc	0.039371297
141	0xbbeb0d3d	-0.007173209
142	0xbc879d36	-0.016554456
143	0xbd8d0ef2	-0.06887616
144	0x3ccd7628	0.025080755
145	0x3d4a8dfc	0.049451813
146	0xbd397904	-0.045281425
147	0xbd67727d	-0.05650567
148	0xbdd4b1bd	-0.103854634
149	0x3ca319a7	0.019909693
150	0xbd50320d	-0.050828982
151	0xbe059be9	-0.13047756
152	0xbcbeb9ca	-0.02328195
153	0xbca3ee6a	-0.020011146
154	0xb995d990	-0.0002858159
155	0xbe10487c	-0.1409015
156	0x3d73668e	0.059423976
157	0xbdf80e3c	-0.1211209
158	0x3d3e5f25	0.046477456
159	0xbd3c2210	-0.045930922
160	0xbe394dbf	-0.18096064
161	0x3d015cc1	0.031582598
162	0xbe2003a3	-0.15626387
163	0xbd397258	-0.045275062
164	0xbdf098ad	-0.117478706
165	0xbe14ffa0	-0.14550638
166	0x3ba66803	0.005078317
167	0xbd5b7a18	-0.053583235
168	0x3d5b95fd	0.053609837
169	0x3d4d0868	0.050056845
170	0xbd19fc98	-0.037594408
171	0xbe40408e	-0.18774626
172	0xbd16924c	-0.036760613
173	0x3cd76104	0.026291378
174	0xbd01036d	-0.031497408
175	0xbc9c78ff	-0.019100664
176	0x3dcf24c8	0.10114437
177	0x3cb6f0ed	0.02233168
178	0x3a5a9700	0.0008338541
179	0xbe0b70b4	-0.13617212
180	0xbdb41e74	-0.08794871
181	0xbe38370c	-0.17989749
182	0xbdba2496	-0.090890095
183	0xbd5d435b	-0.054019313
184	0xbdb48212	-0.088138714
185	0xbaef8e00	-0.0018276572
186	0xbd48c3fb	-0.049015027
187	0xbd80e470	-0.06293571
188	0xbe131b6e	-0.14365932
189	0xbe0da333	-0.13831787
190	0xbe1cc515	-0.15309556
191	0x3d4754be	0.0486648
192	0x3dd23c8c	0.10265455
193	0xbce0bcff	-0.02743387
194	0xbd407f74	-0.04699655
195	0x3c116da0	0.008876234
196	0xbe13dead	-0.14440413
197	0xbe0db3e0	-0.13838148
198	0xbd9bddd6	-0.07610671
199	0xbe1d3e53	-0.15355806
200	0xbd46ab88	-0.04850343
201	0xbd76283c	-0.060096964
202	0xbda9b1a6	-0.08285837
203	0xb9bf2cfc	-0.00036463875
204	0x3d35f0e0	0.04441917
205	0xbe34c7ea	-0.17654386
206	0xbde06c54	-0.10958162
207	0xbc8d4ff0	-0.017250031
208	0xbd3ba8b8	-0.0458152
209	0xbe18e858	-0.14932382
210	0xbc12f2b8	-0.0089690015
211	0xbd893efa	-0.06701465
212	0xbd365662	-0.044515975
213	0xbdd4fa15	-0.10399262
214	0x3c1b9530	0.009496018
215	0xbe2370ce	-0.15961
216	0xbd2ba6c7	-0.0419071
217	0xbe092057	-0.13391243
218	0xbda18d17	-0.07888239
219	0x3d801aef	0.06255137
220	0xbd740d62	-0.059583075
221	0xbdf70c18	-0.120628536
222	0x3dac0cfc	0.08400914
223	0xbcde5580	-0.027140379
224	0xbd141bac	-0.036159202
225	0xbda3f5c9	-0.08005864
226	0x3bb4f2d1	0.00552211
227	0xbddb0742	-0.10694744
228	0xbc915b13	-0.017743623
229	0x3bca62fd	0.006176351
230	0x3d984e90	0.074368596
231	0xbd777504	-0.06041433
232	0x3da147ec	0.07875046
233	0x3d1e1928	0.03859821
234	0xbce67b80	-0.028135061
235	0xbe1e5717	-0.1546291
236	0x3c966688	0.018359438
237	0xbd562e08	-0.052289993
238	0xbcfeaf10	-0.031089336
239	0xbd99453a	-0.07483907
240	0x3d974d6a	0.073878124
241	0xbd1021c4	-0.03518845
242	0xbd19f7b8	-0.03758976
243	0xbd29ba09	-0.041437183
244	0xbdcba350	-0.09943259
245	0xbd158023	-0.036499154
246	0x3bf43680	0.007452786
247	0x3dc415e4	0.09574488
248	0xbe22aebc	-0.15886968
249	0x3d08f434	0.033436015
250	0xbcbff283	-0.023431068
251	0xbd3cb196	-0.046067797
252	0xbd869060	-0.06570506
253	0xbdeac46c	-0.11463246
254	0xbd2867d8	-0.041114658
255	0xbe18f0e7	-0.14935647

fc2.bias f4 [128]
0	0x3d979e2c	0.07403216
1	0x3e05529d	0.13019796
2	0x3bf4607f	0.0074577923
3	0x3d145c17	0.036220636
4	0xbd0c6f07	-0.03428557
5	0xbd8934ae	-0.06699501
6	0x3c1f1381	0.00970924
7	0xbd9f1406	-0.07767491
8	0xbd330ba1	-0.043712262
9	0xbe32ebb5	-0.17472728
10	0xbda76fcf	-0.08175623
11	0x3d10d8e9	0.03536311
12	0xbdc513c2	-0.09622909
13	0xbc8af620	-0.016963065
14	0x3d542232	0.051790424
15	0x3c885ec4	0.01664675
16	0xbd377ee6	-0.044798754
17	0xbc8fe9ae	-0.017567482
18	0xbdf30873	-0.11866846
19	0xbe126aa4	-0.14298493
20	0xbdc96855	-0.09834353
21	0x3d55a7e9	0.052162085
22	0x3d06becb	0.032896798
23	0xbcab4f30	-0.020911783
24	0xbd2602bf	-0.040529963
25	0xbe32a954	-0.17447406
26	0xbd39d37c	-0.045367703
27	0xbdfaf760	-0.12254214
28	0xbd05a395	-0.032626707
29	0x3d55913a	0.052140452
30	0xbdd1297e	-0.10212992
31	0x3be519b2	0.0069915885
32	0x3da285ec	0.079357
33	0x3c9931a1	0.018700423
34	0x3daecab7	0.085347585
35	0xbdb0c7b3	-0.086318396
36	0x3cdfb971	0.027310105
37	0xbc94aee0	-0.018149793
38	0xbd273dc4	-0.04083039
39	0x3c0317a6	0.008001244
40	0xbdb3c144	-0.08777097
41	0xbdddaf35	-0.10824434
42	0x3d22eb6d	0.0397753
43	0xbca46fc0	-0.020072818
44	0xbddf4b6a	-0.10903056
45	0xbdb3f4d1	-0.087869294
46	0xbde9b5b0	-0.11411607
47	0xbca23b35	-0.019803623
48	0xbc911dfd	-0.017714495
49	0xbd2fb6a2	-0.04289878
50	0xbe18b4ce	-0.14912722
51	0x3e01a938	0.12662208
52	0x3d1ad2e2	0.03779877
53	0xbc550135	-0.013000776
54	0x3c8086b4	0.015689231
55	0xbdf1d1bc	-0.11807582
56	0x3b4bcdec	0.003109808
57	0x3d33edc7	0.043927934
58	0x3d346fcf	0.04405194
59	0x3d519540	0.051167727
60	0xbd135e78	-0.035978764
61	0xbd2f07a2	-0.04273189
62	0xbdc8fe66	-0.09814148
63	0xbd9ea9b6	-0.077472135
64	0xbda896ae	-0.08231865
65	0xbd59c6f7	-0.053168263
66	0xbdc1f4b7	-0.09470504
67	0x3daaa4cf	0.08332216
68	0x3c21fa08	0.009886272
69	0xbd3f1104	-0.046647087
70	0x3e2336bb	0.15938847
71	0xbe305d39	-0.17223062
72	0xbdabb81f	-0.08384728
73	0xbd6dc4ef	-0.05804914
74	0x3da5ee27	0.081020646
75	0xbc8b35ab	-0.016993364
76	0xbac74600	-0.0015203357
77	0x3cc33c38	0.023832425
78	0xbcd16384	-0.025560148
79	0x3d52ca4b	0.051462453
80	0xbbdafae1	-0.006682739
81	0xbdac60c0	-0.08416891
82	0xbe15f0ae	-0.14642593
83	0x3cc4adb2	0.024008606
84	0x3d6e3c62	0.058163054
85	0x3b3f8872	0.0029225615
86	0xbd830680	-0.06397724
87	0x3cd74a5f	0.02628058
88	0xbe03a970	-0.12857604
89	0xbd830f5f	-0.06399416
90	0xbda09012	-0.07839979
91	0xbd447c27	-0.047969963
92	0xbd635c30	-0.05550784
93	0xbd80637f	-0.062689774
94	0xbd069ab4	-0.03286238
95	0xbe0bd8f6	-0.13656983
96	0xbda1d0fd	-0.079011895
97	0xbd3db4d0	-0.046315014
98	0xbd96d8f3	-0.073655985
99	0xbd093638	-0.033498973
100	0xbe08e160	-0.13367224
101	0xbd248bac	-0.040172264
102	0x3d08aeb1	0.033369724
103	0xbccb60b7	-0.02482639
104	0xbdea6e62	-0.11446835
105	0xbdeebb9a	-0.11656876
106	0xbdf53133	-0.11972275
107	0xbe1c6436	-0.15272602
108	0xbe26d514	-0.1629222
109	0x3d7762a5	0.06039681
110	0x3e168430	0.14698863
111	0x3d26c258	0.040712684
112	0xbcc198ac	-0.02363237
113	0x3e10a98a	0.14127174
114	0xbe2dd145	-0.16974361
115	0xbd1cb55a	-0.038258888
116	0xbd65fa20	-0.05614674
117	0xbd3a53fc	-0.04549025
118	0x3c30c7d3	0.010789829
119	0xbdd0a103	-0.101869605
120	0x3d9a5076	0.07534878
121	0x3dfcbfa7	0.12341242
122	0xbdf83e5e	-0.121212706
123	0x3d88e9ba	0.06685205
124	0x3c0ac4a1	0.008469732
125	0xbdc7e9db	-0.09761401
126	0xbc91bf22	-0.017791335
127	0xbd786a14	-0.06064804

fc2_1.weight f4 [64, 128]
0	0xbd95bfa4	-0.07311943
1	0x3d056668	0.032568365
2	0xbd58ee44	-0.052961603
3	0x3bc4db50	0.0060075894
4	0xbd521cc3	-0.05129696
5	0x3c94eb3c	0.018178575
6	0x3c38925f	0.011265366
7	0x3c345c20	0.011008292
8	0x3bc7ca00	0.0060970783
9	0xbd9544ab	-0.07288488
10	0xbd858bb9	-0.065207906
11	0x3d8c6eeb	0.068570934
12	0xbdac6ccc	-0.08419189
13	0x3c84ff74	0.01623509
14	0x3d1a61c3	0.03769089
15	0xbce7f370	-0.028314322
16	0xbc7d2a70	-0.015452012
17	0xbd0c7d51	-0.0342992
18	0x3cfa4da8	0.030554608
19	0xbd374cf1	-0.04475111
20	0xbda5c16c	-0.08093533
21	0xbc931cc4	-0.017958052
22	0xbd64b2f8	-0.05583474
23	0xbd51330d	-0.051074076
24	0x3d7125ca	0.05887393
25	0xbceca400	-0.028886795
26	0xbbf94ef0	-0.007608287
27	0xbbe761b0	-0.007061206
28	0x3d0d937c	0.03456448
29	0x3bfbf798	0.0076894276
30	0x3cf5345c	0.029932193
31	0xbde04747	-0.10951095
32	0xbda71b1f	-0.0815947
33	0xbc85a3d8	-0.016313478
34	0xbdaeba52	-0.085316315
35	0xbd86505f	-0.06558298
36	0x3cb441e1	0.02200407
37	0x3daaecf5	0.08345977
38	0xbb7d4b40	-0.0038649589
39	0xbb928040	-0.004470855
40	0xbc32a900	-0.010904551
41	0xbc1dfd98	-0.009642981
42	0xbca6680c	-0.020313285
43	0x3c27f7c0	0.010251939
44	0xbd33b9f8	-0.043878525
45	0xbcdc649a	-0.02690344
46	0xba4bed80	-0.00077792257
47	0xbda66915	-0.081255116
48	0x3d8fe835	0.07026712
49	0x3d6fc682	0.05853892
50	0x3d0806e8	0.03320971
51	0x3ce84511	0.028353246
52	0x3bfd5e69	0.007732202
53	0x3c03a080	0.008033872
54	0xbdedf283	-0.11618521
55	0x3d9abf1d	0.07555983
56	0x3d356042	0.04428125
57	0xbd38ae08	-0.045087844
58	0xbd8ae8d8	-0.06782693
59	0xbdfbe8aa	-0.123002365
60	0x3d0f01bc	0.034913763
61	0x3c804ae8	0.015660718
62	0x3d3d0602	0.046148308
63	0xbce16800	-0.027515411
64	0xbbc684a0	-0.0060582906
65	0xbd26b965	-0.04070415
66	0xbd4bf9c2	-0.049798734
67	0xbd7b2d68	-0.0613226
68	0xbcf37e76	-0.029723387
69	0x3da5d113	0.08096518
70	0xbcf3603b	-0.029708972
71	0xbdb1eb59	-0.08687467
72	0x3d7d38ba	0.061821677
73	0xbd9bbad7	-0.07603996
74	0xbbcfaebf	-0.00633797
75	0xbcc4ede4	-0.024039216
76	0x3ce7383c	0.028225057
77	0xbd9fb488	-0.077981055
78	0xbc531078	-0.012882344
79	0x3c13d4c8	0.009022899
80	0x3d42903e	0.04750084
81	0xbc7473d8	-0.014920197
82	0x3d48cba6	0.04902234
83	0xbd9b808e	-0.07592879
84	0x3d82173f	0.0635209
85	0xbd486241	-0.048921827
86	0xbd888248	-0.06665474
87	0x3da52fcb	0.080657564
88	0x3c721a40	0.014776766
89	0x3ccd45a4	0.025057621
90	0xbd9304e7	-0.071786694
91	0xbd994a9d	-0.074849345
92	0x3c971dac	0.018446766
93	0xbd11e011	-0.035614077
94	0xbce196a6	-0.027537655
95	0xbd47a0a4	-0.048737183
96	0xba7b5a80	-0.00095883757
97	0xbd8d1c2e	-0.068901405
98	0xbb9b4810	-0.004738815
99	0xbab4d540	-0.0013796464
100	0x3cc7a93c	0.02437269
101	0x3d9d5253	0.07681718
102	0xbda4b037	-0.08041423
103	0xbd0080d7	-0.03137287
104	0x3d16c64a	0.036810197
105	0xbda48216	-0.080326244
106	0x3cdbe080	0.026840448
107	0x3d6b1a8a	0.057398356
108	0x3caa9078	0.020820841
109	0xbddef146	-0.10885863
110	0xbd3ec1d3	-0.046571564
111	0xbceda4a8	-0.029009178
112	0xbda38d50	-0.079859376
113	0xbc9d54a3	-0.019205397
114	0xbd64f7ba	-0.055900313
115	0x3cb58628	0.022158697
116	0x3d158ac6	0.036509298
117	0x3d259402	0.040424354
118	0x3d613a02	0.05498696
119	0x3b91a710	0.004444964
120	0xbd771cfc	-0.060330376
121	0x3cc7085d	0.02429598
122	0xbd596aba	-0.053080298
123	0x3cc08e9b	0.0235055
124	0x3c99964c	0.018748425
125	0x3da345e9	0.07972319
126	0x3d7fc686	0.062445186
127	0x3cadbc7c	0.02120804
128	0x3d8af3c8	0.06784779
129	0xbdf26240	-0.11835146
130	0x3b4eddd2	0.003156532
131	0xbde06544	-0.10956815
132	0xbd9c0956	-0.07618968
133	0xbd38a7d2	-0.04508192
134	0xbc24e66d	-0.010064703
135	0xbd39cf15	-0.045363504
136	0xbd0a18a7	-0.033714917
137	0x3c9f28a8	0.019428566
138	0x3db6383d	0.08897445
139	0x3d8e0dd6	0.06936233
140	0x3acde480	0.0015708357
141	0x3d07bd5c	0.03313957
142	0xbb7030b1	-0.0036650116
143	0x3daf1cfd	0.08550451
144	0x3cc19a29	0.02363308
145	0x3e0ad945	0.13559444
146	0x3dea30cb	0.11435088
147	0x3de9856a	0.114024
148	0x3ce4b4c9	0.027918236
149	0xbddcd73c	-0.1078324
150	0x3d1181bf	0.035524126
151	0x3d217f86	0.039428256
152	0xbc6b0238	-0.014343791
153	0x3cd81374	0.026376463
154	0xbbb3ea8e	-0.0054906076
155	0xbb497358	-0.0030738916
156	0x3de3c593	0.11121669
157	0xbda34b75	-0.07973377
158	0xbd7f1aea	-0.062281527
159	0xbc8cb4c3	-0.017176038
160	0x3c15fb83	0.009154203
161	0xbd5ba917	-0.053628054
162	0x3d586760	0.05283296
163	0x3d890d66	0.06692009
164	0xbba81237	-0.0051291245
165	0x3cb70b68	0.022344306
166	0x3d576b5f	0.05259263
167	0x3d81bb67	0.06334572
168	0xbc67f079	-0.014156454
169	0x3dfc515b	0.12320205
170	0x3d0087b9	0.031379435
171	0xbdaeb585	-0.08530716
172	0x3d387ad0	0.045038998
173	0x3e1459b6	0.14487347
174	0x3c06ec80	0.008235097
175	0x3d2959ab	0.04134528
176	0x3dbdaaad	0.092610694
177	0x3c7e1c06	0.015509611
178	0xbd38da38	-0.045129985
179	0xbdf70d16	-0.12063043
180	0xbd329bf1	-0.04360575
181	0xbcce8e14	-0.025214233
182	0x3d7c1159	0.06153998
183	0x3d6fa548	0.058507234
184	0x3df31d7c	0.11870858
185	0xbe0183f0	-0.12647986
186	0xbb9ff159	-0.004881066
187	0x3d0060b5	0.031342227
188	0xbd1d2009	-0.03836063
189	0xbdd670b5	-0.10470716
190	0xbd659d1a	-0.056058027
191	0xbd64145c	-0.05568348
192	0xbdc35b3f	-0.09538888
193	0x3d98a516	0.07453363
194	0x3c64e021	0.013969452
195	0x3d685991	0.056726042
196	0xbdb825d7	-0.089915924
197	0x3d38bb6e	0.045100622
198	0xbbf4a1b3	-0.007465565
199	0x3dabf055	0.08395449
200	0xbb5a0a96	-0.003327047
201	0xbd9a0d83	-0.075221084
202	0x3c3f32ae	0.011669798
203	0xbca835e7	-0.020533515
204	0x3d3c6e82	0.046003826
205	0x3d63ddbe	0.05563139
206	0x3b13131f	0.0022441817
207	0xbd84bf05	-0.064817466
208	0xba0c20f1	-0.0005345485
209	0xbd98bb07	-0.07457548
210	0x3da69418	0.081337154
211	0xbd9039da	-0.07042284
212	0x3d449a6f	0.04799884
213	0xbc66c706	-0.014085537
214	0xbd971db1	-0.0737871
215	0xbe1161c8	-0.14197457
216	0x3cfa38e9	0.030544715
217	0xbe083c7a	-0.1330432
218	0x3d977979	0.07396216
219	0x3d34ce48	0.044142038
220	0xbdad335e	-0.08457063
221	0xbcf39306	-0.029733192
222	0xbda2664b	-0.07929667
223	0x3e087ad1	0.133281
224	0xbca64453	-0.020296251
225	0x3d752196	0.059846483
226	0xbce506e7	-0.027957393
227	0xbdb4b33f	-0.08823251
228	0x3d0ce380	0.03439665
229	0xbdc84b02	-0.097799316
230	0x3d808054	0.06274477
231	0xbd9ecbcc	-0.07753715
232	0x3da01a85	0.07817558
233	0x3db814b7	0.08988326
234	0xbcb5b2e4	-0.022180028
235	0xbc89fa4d	-0.016842986
236	0x3c5540e1	0.013015957
237	0xbe0cb223	-0.13739829
238	0xbd4dc807	-0.05023959
239	0x3d98b28c	0.0745593
240	0x3d2ee5ff	0.04269981
241	0xbd82d302	-0.06387903
242	0x3db76417	0.089546375
243	0xbd7ca6f9	-0.061682675
244	0x3d9ec26f	0.07751929
245	0x3c000028	0.007812537
246	0xbacea521	-0.0015765765
247	0x3db90d74	0.09035769
248	0x3d90910b	0.07058915
249	0xbe2046c4	-0.15651995
250	0x3dc2b59e	0.09507297
251	0x3cb9dce9	0.022688346
252	0xbdd94ee6	-0.10610752
253	0x3cf59295	0.029977122
254	0xbca086ab	-0.019595465
255	0xbdb24d25	-0.087061204

fc2_1.bias f4 [64]
0	0xbda83071	-0.082123645
1	0xbd524311	-0.05133349
2	0xbdae4a34	-0.08510247
3	0x3da4e3bf	0.080512516
4	0xbcd8671b	-0.026416352
5	0xbccbbf8c	-0.02487161
6	0xbe21147d	-0.15730472
7	0xbd9eb516	-0.07749383
8	0xbcfcdf84	-0.0308683
9	0xbd4c375f	-0.049857493
10	0xbd2b2e71	-0.041792337
11	0xbda4f391	-0.08054269
12	0xbdb0227e	-0.08600329
13	0xbd8d418c	-0.06897268
14	0xbdd41d1c	-0.10357115
15	0xbc33b862	-0.010969253
16	0x3d2d6d99	0.04234085
17	0x3d73bf5d	0.05950867
18	0xbc809a00	-0.015698433
19	0xbdefa09f	-0.11700558
20	0xbd73e811	-0.059547488
21	0x3c1908f0	0.00934051
22	0xbd58e608	-0.05295375
23	0xbc06c3c3	-0.008225384
24	0xbdaed5da	-0.08536883
25	0x3c405faa	0.011741558
26	0xbd985b28	-0.07439262
27	0xbd4e5f27	-0.050383713
28	0xbd1b741c	-0.037952527
29	0xbd25c50e	-0.04047113
30	0xbd4cfcab	-0.05004565
31	0xbd39bbbd	-0.045345057
32	0xbcad56d6	-0.02115957
33	0xbdca3eb1	-0.09875239
34	0xbd90ee6f	-0.070767276
35	0xbbe0fa04	-0.0068657417
36	0xbdffb768	-0.12486154
37	0x3d8b1f03	0.067930244
38	0x3c59d143	0.013294521
39	0xbde9c30e	-0.11414157
40	0xbd463391	-0.04838902
41	0x3d8d48f2	0.06898679
42	0xbd9f6e37	-0.07784694
43	0xbd0d1599	-0.034444425
44	0x3d801de1	0.06255699
45	0x3d1306a9	0.035895023
46	0xbe02242b	-0.1270911
47	0xbc4e7604	-0.012601379
48	0x3d918e41	0.07107211
49	0xbd3f6188	-0.046723872
50	0xbdba2a88	-0.090901434
51	0xbce9890f	-0.028507737
52	0xbe16efb2	-0.14739874
53	0x3c3c16c3	0.011480036
54	0xbcb981ab	-0.022644838
55	0xbc972ed2	-0.018454943
56	0xbd3c045e	-0.045902602
57	0xbd24fb48	-0.040278703
58	0xbac715c0	-0.0015188977
59	0xbd6fa794	-0.058509424
60	0x3dc19aeb	0.094533764
61	0xbdadc608	-0.08485037
62	0x3db8865f	0.09010004
63	0xbde2fd82	-0.11083509

fc3.weight f4 [18, 64]
0	0x3da6d0a4	0.08145264
1	0x3c308122	0.010772975
2	0x3cb119ba	0.021618713
3	0xbda84761	-0.082167394
4	0xbc12c3cc	-0.008957814
5	0x3d8846ac	0.066541046
6	0x3bb13c2a	0.0054087834
7	0xbd724bec	-0.059154436
8	0xbdb4e610	-0.088329434
9	0xbcbfd3ea	-0.023416478
10	0xbbead6fc	-0.0071667414
11	0x3d43e12a	0.047822155
12	0xbdd166c0	-0.10224676
13	0x3e2e4b74	0.1702097
14	0xbe0ebac7	-0.13938437
15	0x3d9c4771	0.07630814
16	0x3da34f49	0.07974107
17	0xbd9644c6	-0.07337336
18	0x3dbdbcae	0.092645034
19	0xbd91cd91	-0.07119287
20	0xbc2df8d0	-0.010618404
21	0xbd993e3d	-0.07482574
22	0xbe079f96	-0.13244471
23	0x3bc2fb90	0.0059503987
24	0xbd14e148	-0.036347657
25	0xbe2fe44c	-0.17176932
26	0xbd68f5a5	-0.05687489
27	0xbd2ffd14	-0.042965963
28	0x3da6a393	0.08136668
29	0xbcad7137	-0.02117215
30	0x3dc48a26	0.09596662
31	0x3d7e3760	0.06206453
32	0xbda5e775	-0.081007876
33	0x3d267783	0.04064132
34	0xbdf65c48	-0.1202932
35	0xbdf804b8	-0.12110275
36	0xbc85e704	-0.016345508
37	0xbb769792	-0.0037626964
38	0xbe2ee071	-0.17077805
39	0xbd623849	-0.05522946
40	0xbe2252ec	-0.15851945
41	0xbdd02eb2	-0.101651564
42	0xbde8560c	-0.11344537
43	0x3d925390	0.071448445
44	0x3dc79bf6	0.09746544
45	0xbd7c5cbe	-0.061611883
46	0xbe21ba9c	-0.15793842
47	0xbd889fa0	-0.06671071
48	0xbde9f758	-0.1142413
49	0x3d619db8	0.055082053
50	0xbcc5325a	-0.024071861
51	0xbe000bb3	-0.12504463
52	0xbc329193	-0.010898965
53	0xbc763642	-0.0150275845
54	0x3d97f598	0.0741989
55	0x3d3b16ed	0.04567616
56	0xbe1680bd	-0.14697547
57	0x3d862ad9	0.06551141
58	0x3db9bf0c	0.090696424
59	0x3df2c45c	0.11853859
60	0x3dccf514	0.100076824
61	0x3dbfdfd8	0.09368867
62	0xbc0d2e6d	-0.008617026
63	0xbd5fde82	-0.05465556
64	0x3cd1d95e	0.025616344
65	0xbd141158	-0.036149353
66	0x3d0da0ec	0.034577295
67	0x3dcba3f4	0.09943381
68	0xbd89f2ea	-0.06735785
69	0xbdd097a2	-0.10185172
70	0xbd7e03fb	-0.062015515
71	0x3b830d80	0.003999412
72	0xbcef1bd8	-0.029188082
73	0x3dc9eb79	0.09859366
74	0xbd27c501	-0.040959362
75	0xbb46add7	-0.003031602
76	0x3e0b39aa	0.13596216
77	0xbc333acc	-0.010939311
78	0xbca61fa3	-0.020278757
79	0x3e1cd00a	0.15313736
80	0xbc36f302	-0.011166336
81	0xbca106c3	-0.019656545
82	0x3d6a4fb8	0.057204932
83	0xbdceb58c	-0.10093221
84	0xbd28124f	-0.041033085
85	0x3d0a9cf5	0.033841092
86	0x3c72b2fc	0.014813181
87	0x3b998358	0.004684847
88	0x3dc9fdc0	0.09862852
89	0x3d7810f8	0.060563058
90	0x3c36cbc3	0.011156979
91	0x3dbb471e	0.09144424
92	0x3d0a0574	0.033696607
93	0xbe11a87a	-0.14224425
94	0xbd27bb2f	-0.040949997
95	0x3da73196	0.08163755
96	0xbc567b0f	-0.013090863
97	0x3cbb5408	0.022867218
98	0x3b8485e0	0.0040442795
99	0xbdf1c3df	-0.118049376
100	0xbdd7b1ce	-0.105319604
101	0xbd8fe9eb	-0.07027038
102	0x3d40a0ce	0.047028355
103	0x3d4248a1	0.047432546
104	0xbd71fb0d	-0.05907731
105	0xbda411e2	-0.080112234
106	0x3dfa0f44	0.12209943
107	0xbdd0f71a	-0.10203381
108	0xbdcf02e3	-0.101079725
109	0x3dcdded0	0.10052264
110	0xbceb9eea	-0.0287623
111	0xbd29ae85	-0.0414262
112	0x3de9c08c	0.114136785
113	0x3d1e56f8	0.03865716
114	0x3e15f780	0.14645195
115	0x3d236b07	0.03989699
116	0xbd88105a	-0.06643744
117	0x3de76529	0.11298592
118	0x3d83eb26	0.064413354
119	0x3dd9808f	0.10620224
120	0xbdae5986	-0.08513169
121	0x3ceb73bb	0.028741708
122	0x3d94346e	0.07236563
123	0xbd553968	-0.0520567
124	0xbdad09c8	-0.08449131
125	0xbd760a48	-0.0600684
126	0xbd9ea16a	-0.07745631
127	0xbe39d19a	-0.18146363
128	0xbd08180b	-0.033226054
129	0x3d017979	0.031609986
130	0x3c2b94b2	0.010472463
131	0xbd27a9c2	-0.040933378
132	0xbcb035e7	-0.021510078
133	0x3df1df84	0.1181021
134	0xbbe64305	-0.0070270323
135	0x3b8e5360	0.004343435
136	0x3d72a10c	0.059235618
137	0x3dea0833	0.11427345
138	0xbd150a95	-0.036387045
139	0xbd6434d0	-0.05571443
140	0x3d7a2993	0.061074805
141	0xbdb59af2	-0.08867444
142	0xbca24c5f	-0.019811807
143	0xbd9e47a6	-0.077285096
144	0x3d0d0b11	0.034434382
145	0x3d0c1ba5	0.03420605
146	0x3de8ddac	0.113704056
147	0xbcdea319	-0.02717738
148	0x3d805c82	0.062676445
149	0xbdf3ce26	-0.11904554
150	0x3d13ba17	0.03606614
151	0xbd8b85aa	-0.06812604
152	0x3dd0f4c0	0.10202932
153	0xbc39c9cc	-0.011339616
154	0x3d49d56e	0.049275808
155	0x3c152399	0.009102725
156	0x3a870387	0.0010300734
157	0x3b721b00	0.0036942363
158	0x3b991fd3	0.004672983
159	0xbdf6fdb4	-0.12060109
160	0x3c80de2c	0.01573094
161	0xbe390444	-0.18068033
162	0xbdb798ce	-0.08964692
163	0xbca0289e	-0.019550618
164	0x3e172ef6	0.14764008
165	0xbcb11673	-0.02161715
166	0xbdb30f5f	-0.08743166
167	0x3d028698	0.03186664
168	0xbe101c3e	-0.14073274
169	0x3cd95238	0.026528463
170	0x3d60ca20	0.05488026
171	0xbe410a55	-0.18851598
172	0x3d799b9e	0.060939424
173	0xbbaf5f77	-0.0053519565
174	0x3dc88850	0.097916245
175	0x3cf67074	0.030082919
176	0xbcd088a9	-0.02545579
177	0x3d80d5d4	0.062907845
178	0x3d36eb40	0.044657946
179	0x3d9e1714	0.077192456
180	0xbdc113f0	-0.09427631
181	0xbdeac9fc	-0.11464307
182	0xbd94afdf	-0.07260107
183	0x3d38c15e	0.045106284
184	0xbc2f65d6	-0.010705432
185	0x3e800ee3	0.25011358
186	0x3dbfc9b6	0.09364645
187	0x3d87c474	0.06629267
188	0xbd8d8c26	-0.06911497
189	0x3d2f9b60	0.042872787
190	0x3d001f00	0.031279564
191	0xbdf20f4b	-0.11819323
192	0xbdfbbd08	-0.12291914
193	0x3c1f9edf	0.009742468
194	0xbdb47e04	-0.08813098
195	0x3d0128b7	0.03153297
196	0xbd107e88	-0.03527692
197	0x3dd4e264	0.10394743
198	0x3d7eb659	0.06218562
199	0x3dc6fad6	0.09715812
200	0xbd82473a	-0.06361242
201	0x3cf817a1	0.030284705
202	0x3d2494bd	0.04018091
203	0x3df4d746	0.11955123
204	0xbcdcc0c4	-0.026947387
205	0xbcac7b22	-0.021054808
206	0x3c8aa37d	0.01692366
207	0xbd11c645	-0.035589475
208	0x3d4f6d01	0.050641064
209	0xbb23010c	-0.002487245
210	0x3dea965a	0.114544585
211	0x3e1edfbb	0.15515034
212	0x3dd20ac5	0.102559604
213	0x3c5ef98e	0.013609303
214	0x3d4cbebf	0.049986597
215	0x3d2c0202	0.041994102
216	0xbd8ce902	-0.0688038
217	0xbdfb282a	-0.1226352
218	0x3d550d2f	0.052014526
219	0x3db37f13	0.08764472
220	0xbb8af46d	-0.0042405636
221	0xbd4b4482	-0.04962588
222	0xbe30539e	-0.17219397
223	0xbce64230	-0.028107733
224	0x3bc18e10	0.0059068277
225	0x3d81e534	0.06342545
226	0xbdab240c	-0.08356485
227	0xbd0cb211	-0.034349505
228	0x3c45c3d2	0.012070613
229	0x3c683e03	0.014174941
230	0x3de64a74	0.112446696
231	0x3e18555c	0.14876312
232	0xbd1de4c1	-0.038548235
233	0xbcd30c38	-0.025762662
234	0xbd29ef28	-0.041487843
235	0xbd0754aa	-0.033039726
236	0xbb6d2f0d	-0.0036191375
237	0x3a3e1237	0.0007250639
238	0x39465d96	0.00018917615
239	0x3da2b346	0.0794435
240	0xbd20c02e	-0.039245777
241	0x3cc13a3d	0.02358734
242	0xbc9bb118	-0.019005343
243	0x3dbb0f1e	0.09133743
244	0x3d9b3484	0.07578376
245	0xbd175ad0	-0.03695184
246	0xbb4ae8f0	-0.0030961595
247	0xbcc239a5	-0.023709128
248	0x3b6d6d7d	0.003622859
249	0x3ea428de	0.3206243
250	0xbc6b9590	-0.01437892
251	0xbd476d18	-0.048688024
252	0xbd8f6939	-0.070024915
253	0x3d9e3000	0.07723999
254	0x3d121c47	0.0356715
255	0x3daa4aa2	0.08315016

fc3.bias f4 [18]
0	0x3cae6a70	0.021290988
1	0x3b91681c	0.0044374596
2	0x3b9bd61a	0.0047557475
3	0x39e84053	0.00044298414
4	0x3c48927f	0.012241959
5	0xbb5dd2e2	-0.003384762
6	0xbb2eacaa	-0.0026653209
7	0x3c28fa87	0.010313637
8	0x3c88ee53	0.016715204
9	0x3c3d9137	0.011570266
10	0x3c59bc98	0.013289593
11	0xbd1f07cf	-0.038825806
12	0xbae8702d	-0.0017733626
13	0x3c16c5a2	0.009202393
14	0xbc2c78a4	-0.01052681
15	0x3c353953	0.01106103
16	0xbc8a84a7	-0.016908957
17	0xbd0e07c9	-0.034675393
