models/2024-07-20_16-10-13/epoch_0022_loss_0.00036206/dynamics.pth (torch, 83084 bytes, 8 tensors)

fc1.weight f4 [64, 34]
000000 de 0f b8 bd 99 08 24 3e 59 f1 20 3e c2 b0 49 bd
       -0.089874014 0.16018905 0.15717067 -0.049240835
000010 c7 41 14 3e 54 9b 1c bd 1c 17 e2 bd 8e 31 ef 3d
       0.14478217 -0.03823407 -0.11039564 0.11679374
000020 96 c2 af 3d ff 48 de bd 4e 1b 8e 3d 0b d5 2c be
       0.08582036 -0.10853767 0.06938802 -0.16878144
000030 60 3b ed bb f3 c8 05 3e 0f 8f 25 3e 8a 0f dc 3d
       -0.007239744 0.13064937 0.16167854 0.10745151
000040 38 e9 e3 bc 90 4d d1 3c de 48 81 3d 94 71 81 bd
       -0.027821168 0.02554968 0.063127264 -0.063204914
000050 af a1 c6 bd a4 39 20 bd 38 62 8f 3d c8 18 7c 3d
       -0.096988074 -0.03911747 0.070011556 0.06154707
000060 13 36 2f 3e 01 9b 27 3e eb ea c5 bd b4 80 02 be
       0.17110471 0.16367723 -0.09663948 -0.12744409
000070 12 d8 65 bd e9 fc 07 be 90 30 17 3c d7 fb a3 bd
       -0.056114264 -0.13280071 0.009227887 -0.08007019
000080 c0 fd b0 bc 0f 8e ac bd e4 46 da bd d4 44 a0 bd
       -0.021605372 -0.08425533 -0.106580526 -0.07825628
000090 3d 96 ac bd 32 f4 14 be c8 0f 03 be 02 9b dd 3d
       -0.08427093 -0.14546278 -0.12798989 0.10820581
0000a0 7f 35 25 be 7a 17 ad 3d e8 98 bf bd c0 01 d2 bd
       -0.16133688 0.084517434 -0.093553364 -0.1025424
0000b0 42 44 5f bd 97 65 2e 3e 59 6b d4 bd e0 7a d8 bb
       -0.054508455 0.17030941 -0.103720374 -0.0066064447
0000c0 e8 0b 19 bd d0 74 c1 bd 3f 5d 28 3e f6 9d aa 3d
       -0.03736487 -0.09446108 0.1644182 0.0833091
0000d0 c8 5f 09 3d 24 92 47 3d 40 43 c6 bd fa e1 c1 3d
       0.03353861 0.048723355 -0.09680796 0.0946693
0000e0 1b 05 d9 bd 20 c2 75 3d 84 5b 0d be a2 4b a1 3d
       -0.10596677 0.059999585 -0.13804442 0.07875754
0000f0 9c ae 6a 3d 02 d4 76 bd 8e 02 56 bd 78 dd 8b 3c
       0.057295427 -0.06026078 -0.05224853 0.017073378
000100 18 0a 71 bd fc 0e 8f bd d0 e6 a4 3c 08 1e 09 be
       -0.058847517 -0.0698528 0.020129591 -0.13390362
000110 62 70 e7 3d da 29 80 3d e0 a0 95 3d 00 57 79 bd
       0.11300732 0.062579826 0.07306075 -0.060873985
000120 50 24 69 bd ee 4d cc 3d 6d 77 14 be e6 5a d8 3d
       -0.056919396 0.099758014 -0.14498682 0.105642125
000130 e8 2e bf 3c 6e 03 bc bd 80 39 ae ba 4a a4 d7 3d
       0.023337796 -0.09180342 -0.0013292283 0.105293825
000140 6a 9b de 3d 10 3d 1e 3d c4 21 50 3d ea 1d d9 3d
       0.10869487 0.038632452 0.05081345 0.10601409
000150 bc 3a 2f bd dd a8 0f be 28 aa 45 3d 04 36 46 bd
       -0.042780623 -0.1402926 0.048257977 -0.048391357
000160 f7 2b 0e be 3f 17 a6 bd 60 03 77 bc 74 ad 5a 3d
       -0.13883959 -0.081099026 -0.015076488 0.053388074
000170 b8 da 27 be 09 6b 2b 3e f9 d9 2d 3e 68 76 40 3d
       -0.16392028 0.1674005 0.16977681 0.04698792
000180 ee 86 e2 3d ae 30 c6 3d 4e d9 bc 3d b8 84 91 3c
       0.11060892 0.09677254 0.09221135 0.01776348
000190 50 cc b9 bc f9 69 08 3e a6 9f 06 3d 82 f2 41 3c
       -0.022680432 0.13321675 0.032867096 0.0118376035
0001a0 82 2a 1c 3e 35 3a 06 3d 5e b2 4a bd ff 62 b1 bd
       0.1525059 0.032770354 -0.04948651 -0.0866146
0001b0 c9 f4 21 bb 40 0c 0e 3e 78 f0 af bd a3 c2 de bd
       -0.0024712554 0.1387186 -0.08590788 -0.10876968
0001c0 80 4f 89 3d 58 77 5e bb cd ef 41 be 54 77 46 3e
       0.067046165 -0.0033945646 -0.18939133 0.19381458
0001d0 2a 4c 4c bb 51 d4 3e 3d 9c f3 f5 bd 74 bc 95 bd
       -0.0031173327 0.0465892 -0.120093554 -0.07311335
0001e0 2d 08 1a 3d bd 7c 10 3e 5e 59 c6 bc b8 fe f2 3c
       0.037605453 0.14110084 -0.024212535 0.029662475
0001f0 e9 c9 19 be 87 53 07 3e 89 08 10 3e 83 a7 76 3c
       -0.15018429 0.13215457 0.14065756 0.015054586
000200 63 70 59 be 73 81 fc b9 5c c1 f4 3c d9 48 5d bd
       -0.21234278 -0.00048161633 0.029877357 -0.05402455
000210 30 52 95 3c 31 dc f9 3d 0d 0e b4 3d 6c dc 08 be
       0.018227667 0.12200201 0.087917425 -0.13365334
000220 dd 9e 0d be 78 cd f7 bc c2 36 f7 3d 5e 5b ad 3d
       -0.13830133 -0.030249342 0.12070991 0.084646925
000230 80 df 2d bd 4f 39 d5 bd c0 e2 f7 3c d0 47 82 bd
       -0.042449474 -0.10411321 0.03025949 -0.063613534
000240 91 7e 09 be dc 39 1c bd a2 0d db 3d fa 2f 52 bd
       -0.13427188 -0.038141116 0.1069596 -0.051315285
000250 54 01 13 bd f4 ec a8 bd fb 39 0a 3e 14 95 7b 3d
       -0.03588994 -0.0824832 0.1349868 0.06142147
000260 e8 7b ee bd 0e bb 25 be 1b b1 c6 bd ff a5 0e be
       -0.11644727 -0.16184637 -0.09701749 -0.1393051
000270 5c a2 5e bd b0 da 23 bd 7e 56 cb bd af bf 0c 3e
       -0.054354057 -0.04000348 -0.099286065 0.13744996
000280 b0 c2 bc 3c 10 66 cc bc 13 e7 9d bd 8f 15 10 3e
       0.023042053 -0.024951011 -0.077100895 0.14070724
000290 c8 c9 07 3d 2b b8 13 3e fc ed 9d 3d 8b 19 98 bd
       0.033151418 0.14425723 0.077114075 -0.07426747
0002a0 56 ba d9 3d 44 0b 45 bd f7 d1 7b 3e c9 de 3b 3d
       0.10631244 -0.048106447 0.24591814 0.04586676
0002b0 19 7a 2e be 80 c4 47 3e 90 b4 71 3e 1a 57 42 be
       -0.17038764 0.19508553 0.23604035 -0.18978539
0002c0 2f 91 4d bd 9f 0a a3 3d c4 2c 7d bd 29 ec d8 bd
       -0.050187286 0.0796101 -0.06181027 -0.10591919
0002d0 07 9a 3a bd 4c f4 9e bd 0a 7e 8d bc 18 31 4f bc
       -0.04555705 -0.0776144 -0.017272014 -0.012645982
0002e0 06 d6 cd 3d 99 bf 19 3e 7e 78 62 bd d0 18 12 3d
       0.10050587 0.15014495 -0.05529069 0.035668194
0002f0 0d f1 ed bd 66 23 80 bd 29 df b4 bc ca e2 27 3d
       -0.116182424 -0.06256752 -0.022079067 0.040987767
000300 d3 5d da 3d 1c 16 85 bc d8 f9 28 3e 4e dd 4c be
       0.10662427 -0.016245894 0.16501558 -0.20006296
000310 99 e3 c3 be 4a 80 4a 3e 21 fa de bc 96 d9 a0 3d
       -0.3825958 0.19775501 -0.02721888 0.07854001
000320 bb f5 16 bd 09 87 aa bd 14 86 94 3d 79 61 99 3d
       -0.03685544 -0.08326537 0.07252136 0.074892946
000330 28 3e 85 bd ef 58 71 3e b2 e4 dc bd 63 33 1f 3e
       -0.06505996 0.23569082 -0.10785808 0.15546946
000340 97 42 90 3e 42 93 19 be f6 16 bc bc aa e0 67 bd
       0.28175804 -0.1499758 -0.022960167 -0.05661074
000350 74 5f 02 be 6b 8a 3d be 11 3f a2 bd 17 52 85 3c
       -0.12731725 -0.18509834 -0.07922185 0.016274495
000360 d3 bb f7 bd 02 c0 ae 3d fe 61 4c 3d 0d 41 0e 3d
       -0.120963715 0.08532716 0.04989814 0.034730006
000370 ba 4d 4e 3d 50 ca 18 3d 9d ab 82 bd ec cc 4e 3d
       0.050367095 0.037302315 -0.06380389 0.050488397
000380 2b 8e c0 3b 93 81 f2 3d 65 24 a2 bd 60 49 d0 bd
       0.0058763227 0.118411206 -0.07917098 -0.10170245
000390 53 34 1a be 43 52 35 be d1 68 63 be 60 81 33 3c
       -0.15059023 -0.17707162 -0.22207953 0.010956138
0003a0 1f 47 79 3d 71 56 3c be a5 6e d8 3c e9 76 f4 3d
       0.060858842 -0.1839235 0.026419947 0.11936743
0003b0 ed bb 3c bd d8 44 1c 3e 7a 6a 7c bd bd bd c7 bd
       -0.046077657 0.15260637 -0.06162498 -0.097529866
0003c0 77 78 1f 3e 08 ff 85 bc 15 59 be bd 64 d0 56 bd
       0.15573297 -0.01635696 -0.09294335 -0.05244483
0003d0 4c b8 d4 bd 70 9d ff bc 44 ff be bd 48 6b 9f 3d
       -0.10386714 -0.031203002 -0.09326032 0.07784134
0003e0 31 12 d4 bd 27 c6 8e bd 82 ae e6 bd dd fb 13 3e
       -0.10355032 -0.06971388 -0.112637535 0.14451547
0003f0 28 00 2b bd 51 d5 a3 bd 56 d7 f8 3d a1 c4 b1 bd
       -0.041748196 -0.07999671 0.12150447 -0.08680082

fc1.bias f4 [64]
000000 60 4e d6 bd 35 d8 15 be 4a f5 b5 bd b8 96 da bd
       -0.104641676 -0.14633258 -0.08884676 -0.106732786
000010 da d0 20 be 93 21 a6 bd e2 c4 6c 3d 3c 7e 54 bd
       -0.1570467 -0.081118725 0.05780495 -0.0518782
000020 4c 9e 2d be a4 83 f4 3d 5c eb 42 bd fb 32 b3 3d
       -0.16954917 0.11939171 -0.047587737 0.08749958
000030 73 c8 10 3d 3d 3f a4 bd ab 93 a4 bd ba c7 0f 3d
       0.035347413 -0.08019874 -0.08035978 0.035102583
000040 35 10 c5 3d 3f 3f 94 bd 69 a3 09 be 22 1a 91 bd
       0.09622232 -0.07238626 -0.13441242 -0.070850626
000050 61 c2 a1 bd 7f 12 49 3c f3 a5 9b bc ca f6 63 bd
       -0.07898403 0.012272476 -0.01900003 -0.05565528
000060 07 03 d5 3d c9 60 54 3d ba 2f 3e bd 50 5b 5d bc
       0.10400968 0.051850114 -0.046432234 -0.01351054
000070 30 0c 09 bd 2d 93 38 3c d3 9e a8 bd 31 af 1b 3d
       -0.03345889 0.011265558 -0.08233418 0.038008872
000080 06 1f d4 bd ad 5e 2a bd 3e f4 7d 3d b1 0b e6 3d
       -0.1035748 -0.041594196 0.062000506 0.11232699
000090 f6 5b 3c 3e f5 c3 b2 bd 75 87 ea bb 18 28 4a 3c
       0.18394455 -0.08728782 -0.007157261 0.012338661
0000a0 55 9d 89 bd 35 83 17 3e 5f 08 a4 bd 4f 60 27 3d
       -0.06719462 0.14796145 -0.08009409 0.04086333
0000b0 1c 0f dd bd 70 9b 2b be 41 7b 1a be 44 2d 6f bd
       -0.107938975 -0.16758513 -0.1508608 -0.058392778
0000c0 24 da d2 bd 76 86 0e be 9d e9 22 be 09 37 35 3d
       -0.10295513 -0.1391848 -0.15909429 0.04424194
0000d0 83 af e2 bd f6 5d 98 bd c5 6f 77 bd 6e d3 17 3c
       -0.110686325 -0.074397966 -0.060409326 0.009266717
0000e0 7e ba 95 3d d6 86 0f be bd 26 32 be 6b 79 57 3e
       0.07310961 -0.1401628 -0.1739759 0.21042411
0000f0 52 a0 4b bd 6a 60 de 3d 77 16 c0 3d 30 88 20 be
       -0.04971344 0.10858233 0.09379285 -0.15676951

fc2.weight f4 [128, 64]
000000 a8 4a 42 bd 18 69 a9 3d e4 87 89 3d df 07 d1 3d
       -0.04743448 0.08271998 0.06715372 0.102065794
000010 02 7e b1 3d 9b 46 e7 3d a8 13 ec 3d a0 ca 9d 3c
       0.08666612 0.11292764 0.11527187 0.019261658
000020 40 e8 98 bd 07 01 ea 3c f6 28 e2 3d ed bd 48 3d
       -0.07466173 0.028564943 0.11042969 0.049009252
000030 70 43 ba bc f7 4f 40 3c 3f ef bb bd be fc ad 3d
       -0.022737235 0.011737815 -0.09176492 0.08495472
000040 5f 62 1d bc 80 38 a5 3d a8 2c 37 bd 30 d8 ba 3d
       -0.009605973 0.08067417 -0.044720322 0.09123266
000050 88 28 63 3d 6e a7 0d 3d 1c c2 06 3d 85 39 05 be
       0.055458575 0.0345835 0.03289996 -0.13010223
000060 c5 5c 25 3c fb 14 4d 3e a5 17 a3 3b 9c a8 18 bd
       0.010092919 0.20027535 0.004977184 -0.037270173
000070 8c f1 63 bd e6 88 d2 3c d7 23 56 3d dd b0 9e bd
       -0.05565028 0.025700044 0.052280273 -0.07748578
000080 88 c3 b3 3d 5d e6 88 3d cf a8 a8 bd 36 8c c2 bd
       0.08777529 0.06684563 -0.08235323 -0.09499399
000090 36 cf ba 3d 0a f6 95 3d 4b 1b da 3d 49 15 1c 3e
       0.091215536 0.07322319 0.10649737 0.15242495
0000a0 4f 40 1a 3e 4a 25 91 bd 5a 53 e5 3d ea 84 d8 3d
       0.15063594 -0.070871904 0.11197539 0.10572226
0000b0 2f af ba 3d 40 1e 99 3d 63 f0 f8 3d e3 66 73 3d
       0.09115445 0.07476473 0.12155225 0.059424292
0000c0 5e 90 eb 3d 18 bb f9 3c fa 0f ca 3d ca ec bc bb
       0.11502145 0.030484721 0.098663285 -0.005765532
0000d0 63 60 e3 3d 18 a9 e1 3c 18 04 f2 bc bf 77 f9 3d
       0.11102369 0.02754645 -0.029542968 0.12181043
0000e0 18 cd a3 bc 6c b6 67 3d 47 e8 7c bd 8c 37 78 3d
       -0.019995257 0.056570455 -0.061744954 0.06059985
0000f0 54 37 90 bd 18 56 7b bd 64 f8 34 bd 24 29 71 3d
       -0.07041803 -0.061361402 -0.044182196 0.058877125
000100 c0 15 71 bb 7a a4 b8 bd fc 0b f3 3d 5f 27 a2 3d
       -0.0036786646 -0.090157464 0.1186752 0.07917666
000110 30 3e 38 bc 0b e7 78 bc fa 5d c9 bb 08 9b d0 3d
       -0.011245295 -0.015191804 -0.006145236 0.1018582
000120 72 ff 97 3c ce ab 40 3d e1 77 83 bd 22 b9 24 3d
       0.018554423 0.047038846 -0.064193495 0.04021562
000130 42 7e 87 bd 87 71 1a be 65 af 8b bd 7d 42 bc bd
       -0.06615879 -0.1508237 -0.06820563 -0.09192369
000140 93 22 cf 3d e4 78 94 3d a3 0f 10 3d d8 2a a4 bc
       0.101140164 0.072496206 0.035171162 -0.02003996
000150 68 d7 9a 3c 04 c2 62 3d 6a ee 38 3e 78 35 45 3e
       0.018901542 0.05536081 0.18059698 0.19258678
000160 b4 04 e6 3d 81 ca f9 3c f8 71 b1 bd 28 05 8c 3d
       0.11231366 0.03049207 -0.08664316 0.06836921
000170 00 ba c2 3c 09 8f f1 bc ab b8 3c 3d 05 8a bf 3d
       0.023770332 -0.02948715 0.04607455 0.09352497
000180 10 6f cd 3d 6c cf 3a 3d 44 05 81 3d ca 38 84 bd
       0.10030949 0.04560797 0.062998325 -0.06456144
000190 04 69 4d 3d 80 1f 87 bd 7a 44 9b 3c 6b 11 35 3d
       0.05014898 -0.06597805 0.01895355 0.044206064
0001a0 f8 b7 18 bd 50 f7 56 bd 08 81 9a bd b3 57 01 bd
       -0.03728482 -0.05248195 -0.07544142 -0.031577777
0001b0 e3 ea 07 3e b4 c3 e5 bd c7 95 4a be 68 c6 b4 3d
       0.13273196 -0.11218968 -0.19783698 0.088269055
0001c0 00 7a 99 bb 10 06 24 bd 30 3c e2 3c f5 aa 04 3e
       -0.004683733 -0.040044844 0.02761659 0.1295584
0001d0 7e 42 99 3d 68 30 9c bd 90 d7 3f bd 6d 4c 17 be
       0.074833855 -0.0762642 -0.046836436 -0.14775248
0001e0 80 b7 8e bc 5e 28 da 3d aa 5b cc bd cc c6 b4 bd
       -0.017421484 0.10652231 -0.09978421 -0.0882698
0001f0 c0 78 b0 3d 26 89 8b bd c0 5d eb bd 00 45 10 bb
       0.08616781 -0.06813268 -0.11492491 -0.0022013783
000200 70 19 c2 bd 52 c1 cc 3d a8 5b aa 3c bb 13 1b be
       -0.09477508 0.099978104 0.020795658 -0.15144245
000210 58 f8 34 3d f6 3a f7 bd 30 2f 03 3d 34 0d 2c bd
       0.04418215 -0.12071793 0.032027423 -0.04200478
000220 98 ce 73 bc b5 ad b0 bd d8 8e 1b 3d fb 92 86 bd
       -0.014880799 -0.08626882 0.037978023 -0.06571003
000230 40 f1 17 3d 50 12 46 3d 51 90 3c be 31 53 44 bd
       0.03709531 0.048357308 -0.18414427 -0.0479309
000240 39 1f 01 bc 6a dc 81 3d e7 10 83 bc dc fb d0 bd
       -0.007880979 0.06340869 -0.01599927 -0.10204288
000250 ae 6f 9d bd a3 07 7e bd b8 c8 81 bd 8d 63 39 be
       -0.07687317 -0.062019 -0.06337112 -0.18104382
000260 32 05 8a bd c2 11 41 be 41 41 41 3c 24 bc 34 bd
       -0.06739272 -0.1885443 0.011795343 -0.044124737
000270 e4 d1 d3 bd 78 e8 81 bd 00 d6 4b be b9 eb 17 3d
       -0.10342768 -0.06343168 -0.19905853 0.037090037
000280 ac 4b 10 3d 6d 63 c8 bd 1a 83 2a be 68 0c 32 bd
       0.035228416 -0.09784589 -0.16651574 -0.043468863
000290 7c 4e 76 3d fe 72 de bd 4c f7 59 3c be 69 19 bd
       0.060133442 -0.10861777 0.013303589 -0.03745436
0002a0 ae 08 30 be 12 3f e0 3d 82 70 a8 3d 03 b6 9e bd
       -0.17190811 0.1094953 0.08224584 -0.0774956
0002b0 bf ee b0 bc 52 fb ed bd 2e 33 1b be f2 12 07 bd
       -0.021598218 -0.11620201 -0.15156242 -0.032977052
0002c0 a0 4a 17 bd 58 87 da 3d 83 f9 1c 3b 85 d7 d2 bd
       -0.036936402 0.10670346 0.0023952432 -0.10295013
0002d0 7c 93 c3 bb 1c 01 4d bd 92 0f dd bd ea 6c b4 bc
       -0.0059685092 -0.050049886 -0.107939854 -0.02202459
0002e0 30 e2 0f 3c 08 7d 66 bd e3 4c cd bd d0 78 b4 3c
       0.008781955 -0.056271583 -0.100244306 0.022030264
0002f0 04 89 3b 3d 24 63 12 bd 50 2a 67 bc 80 02 94 3c
       0.045784965 -0.03573908 -0.014109209 0.018067598
000300 9a 81 e1 bd 5c 6c 57 bd 9e ee be bd 97 7b b9 bd
       -0.11011048 -0.052593574 -0.09322856 -0.09056776
000310 30 57 79 bc bc 62 88 bc 53 fc 58 3d 50 0c ac 3d
       -0.015218541 -0.016648643 0.05297501 0.08400786
000320 58 fb 63 bd 24 77 1d bd dc ee 69 bc eb 7b 42 3c
       -0.055659622 -0.0384437 -0.01427814 0.011870365
000330 b8 59 fc 3d fc c6 f0 bd 53 90 02 bd 60 a6 85 3d
       0.123218 -0.11756703 -0.03187592 0.06525874
000340 a5 50 60 bd 38 25 c8 3c 94 62 0f be 28 2f e8 bc
       -0.05476441 0.02443181 -0.14002448 -0.028342798
000350 90 81 2d 3d ff de d6 bd 2d 8d 5e 3d d0 8e 09 be
       0.04235989 -0.10491752 0.054333854 -0.13433385
000360 f5 6f 3e bd 03 47 c5 bd 66 ac c2 bd f8 c5 17 bd
       -0.04649349 -0.09632685 -0.09505539 -0.037054032
000370 40 1d 05 3b 57 fe 20 be c0 36 14 be 96 f1 05 bb
       0.0020311624 -0.15722023 -0.1447401 -0.0020438186
000380 58 d9 fe bd d6 68 be bd bd 61 d5 3a ec 6d 3f bd
       -0.12443799 -0.092973396 0.0016279739 -0.04673569
000390 82 20 99 3d de 97 a5 bd a0 66 87 bd 06 21 a4 bd
       0.074769035 -0.08085607 -0.06611371 -0.08014111
0003a0 bb 95 7b 3d 4a 6e bd bd 7a e0 85 bd 5f fb b5 bd
       0.06142209 -0.092495516 -0.06536956 -0.08885836
0003b0 92 a8 15 3d e2 af f1 bd 1f fb 5f 3c 63 a4 f1 bd
       0.036537714 -0.11801125 0.013670712 -0.117989324
0003c0 28 fd a6 bc 76 9d 90 bd cb c9 85 bd 5e de ca bc
       -0.020384386 -0.07061283 -0.065326296 -0.024764236
0003d0 ce 4c e6 bd 64 e6 d0 bd 40 f5 8c 3b d3 0b a4 3c
       -0.11245118 -0.102001935 0.004301697 0.02002517
0003e0 24 c3 a2 bd 1a 9e bc 3d 31 67 ed bc 70 e2 fd 3c
       -0.07947376 0.09209843 -0.02897987 0.030991763
0003f0 8a 57 c2 bd 00 fa 80 b9 50 ab 7e bc e4 2a 68 bd
       -0.09489353 -0.00024600327 -0.015543774 -0.05668153

fc2.bias f4 [128]
000000 b9 f1 93 bd 0a 29 4a bd ef 79 10 be 67 e0 da bd
       -0.07223839 -0.049355544 -0.14109014 -0.106873326
000010 24 02 f5 bd 4c 0a 3c bd b6 c4 04 bd c7 7b 9a 3b
       -0.11963299 -0.045908257 -0.03241416 0.0047144624
000020 b6 d1 b0 3d bb 26 c3 3c 9a fe 6b bb 9f 1a 19 bd
       0.08633749 0.023822179 -0.0036009909 -0.037378903
000030 8f a9 90 bd 5a bd f0 bd b7 12 12 3d d0 da d6 bc
       -0.07063591 -0.11754866 0.03566238 -0.026227385
000040 d8 24 b3 bd 28 b8 bd 3d f5 f6 9d bb c4 73 2d bd
       -0.08747262 0.09263641 -0.0048206993 -0.04234673
000050 3e c6 84 bd eb a1 d6 bb b6 fd 0d bd 74 eb 24 be
       -0.06483124 -0.006550064 -0.034665786 -0.16105443
000060 b8 13 5d bd 24 73 37 bd ab a4 8a 3d c6 2f 64 ba
       -0.053973883 -0.04478754 0.06769689 -0.00087046286
000070 2c 22 18 bd 27 c2 15 3d d8 43 e4 bd 9d e7 51 be
       -0.037141964 0.03656211 -0.11145753 -0.2049851
000080 e5 4e 4f bd d0 b7 60 bb 71 7d 4d be 7b 57 4b 3d
       -0.05061235 -0.0034289248 -0.20067383 0.049643975
000090 12 82 28 be b8 ba 86 bc 40 d6 61 bd f8 fe 63 bd
       -0.16455868 -0.016446456 -0.055135965 -0.05566308
0000a0 16 03 a9 bd 03 29 31 bd 91 78 1c 3d 1c 4f e7 bd
       -0.08252542 -0.043252002 0.03820092 -0.11294386
0000b0 a0 53 08 3e 25 95 06 bc 4a e6 4b bd c2 bf ed 3d
       0.1331315 -0.00821427 -0.049780168 0.116088405
0000c0 dd 05 84 3d f3 be b1 bd ae 6c cf bd 6f d5 ab bd
       0.06446431 -0.08678999 -0.10128151 -0.083903186
0000d0 45 4d 0e bc 25 e4 87 bc 32 e9 88 3d 7a 1f ef bd
       -0.008685415 -0.01658828 0.066851035 -0.116759256
0000e0 0e 9f a7 3c c5 77 19 be a2 10 d3 bc 04 e7 96 bd
       0.020461585 -0.14987095 -0.025764767 -0.073682815
0000f0 cb 2c aa 3d ac 3f 3e bd 2c 56 c4 bd af 48 d5 3b
       0.08309325 -0.04644744 -0.095867485 0.0065089087
000100 c2 da e2 3c a2 4a 19 be 10 39 21 bc 0b 7d 02 bd
       0.027692202 -0.14969876 -0.009840265 -0.03185753
000110 a4 5b 8f bd bc 7d 61 bd de 77 bf bd 14 25 d5 bd
       -0.06999901 -0.05505155 -0.09349035 -0.10407463
000120 dd 21 71 3d 13 60 12 3c a8 89 ea bd d8 be c3 3d
       0.058870185 0.008934039 -0.11452037 0.09557885
000130 ec 0d 50 3c 4f 1f 2e 3d 6d 69 18 3d b4 9a 30 be
       0.012698632 0.042510327 0.037209917 -0.17246515
000140 63 12 86 bd fe 3c 17 be 61 40 a8 bd 8f 59 63 3a
       -0.06546476 -0.1476936 -0.08215404 0.0008672708
000150 25 8a f2 bb 12 cb 83 bd aa 22 b6 bd 55 4e 93 3d
       -0.007401722 -0.06435217 -0.088933304 0.07192675
000160 8a c2 d1 3d b8 b0 fd 3d 1a 68 31 be 94 c0 1c bd
       0.102421835 0.12387222 -0.17324868 -0.038269594
000170 ec bf 74 bd 38 b2 e3 bd 92 e4 cc 3c b7 27 03 bd
       -0.059753343 -0.11117977 0.025011335 -0.032020297
000180 30 67 b1 bd 5c 4e 28 be fd 4d 1d be 76 d6 10 be
       -0.086622596 -0.16436142 -0.15361781 -0.1414431
000190 df 38 9b bc 38 a9 35 3d e3 05 9f bc 25 40 9c bd
       -0.018948017 0.044350833 -0.019411987 -0.07629422
0001a0 ce 67 b0 bd 5b 12 48 bc 39 8b 4e bd 38 30 94 bd
       -0.08613549 -0.012211408 -0.05042574 -0.072357595
0001b0 d5 51 dd bd 09 e7 c7 39 85 4f 19 3c 99 e4 4d bc
       -0.10806624 0.00038128372 0.009357338 -0.012566709
0001c0 6b 7a dd 3c ee 34 54 3d 43 0d 09 bd 71 ae 26 bd
       0.027035912 0.05180829 -0.033459913 -0.040693704
0001d0 6e 6a 96 3c e0 65 d3 bd 9e ae 00 bd 3c eb b8 bc
       0.018361297 -0.103221655 -0.031416528 -0.022573106
0001e0 ec 6e 12 bb 0a 6c 56 bd 54 ed 27 be 39 95 fe bd
       -0.0022343947 -0.052349128 -0.16399127 -0.12430806
0001f0 66 7e 5f bd 60 fd fb bd c0 5e 07 3b 67 fc dd bd
       -0.054563902 -0.12304187 0.002065584 -0.108391576

fc2_1.weight f4 [64, 128]
000000 03 5a b1 3c 53 11 03 3d 70 98 c9 bd 27 3f 82 bc
       0.021649366 0.031998944 -0.09843528 -0.015899254
000010 e2 cc ec bc 54 0a be bd 45 71 5a bd 34 5c 88 3c
       -0.02890629 -0.09279314 -0.05333068 0.016645528
000020 c9 b2 32 bd 85 ce 52 bd 2f a5 82 bd 09 f5 a9 bd
       -0.043627534 -0.051466484 -0.063791625 -0.0829869
000030 90 e7 3a 3d b7 73 13 bc cf a3 64 3d db d1 6b bd
       0.04563099 -0.008999757 0.055820283 -0.05757318
000040 a0 33 39 bb 39 4c 5d 3d 0e 4d 69 bd 69 f4 01 bd
       -0.002825953 0.05402777 -0.05695825 -0.03172723
000050 f6 95 4c bd 3f 41 ae bd 18 ee 90 3c ac 78 2d bc
       -0.0499477 -0.085085385 0.017691657 -0.010587852
000060 31 d8 47 bd ed 49 a1 bd 34 42 11 3d 93 08 f0 bc
       -0.04879016 -0.07875428 0.035463527 -0.029300964
000070 d2 bf 67 3d 81 9b d8 bc a0 9a 46 bc fa db 79 3d
       0.05657942 -0.026441338 -0.012121826 0.0610008
000080 c0 6e e3 bc c3 63 fb ba 94 15 94 bd a3 8f 8b 3d
       -0.02776277 -0.0019179512 -0.07230678 0.06814506
000090 da 9c 4c 3d 97 78 2b 3d 4e 81 6c 3d 5d 08 57 bd
       0.049954273 0.04186305 0.057740502 -0.05249821
0000a0 d2 e1 f2 bd 79 86 a1 3d 38 73 2e bd f7 84 96 3d
       -0.11859478 0.07886977 -0.04259035 0.0734958
0000b0 61 b4 c7 3a 16 f9 a8 bd f7 99 81 bc 1b e2 76 bd
       0.0015236252 -0.08250634 -0.015820486 -0.060274225
0000c0 55 bd 05 bd 74 24 a1 bd 03 86 f1 3c 5e 41 dd 3c
       -0.032651264 -0.07868281 0.029482847 0.027008709
0000d0 4f 94 0d 3d db 60 8e 3d 82 9c 28 3d 37 1d 00 bd
       0.034565266 0.069520675 0.041164882 -0.03127786
0000e0 60 49 69 3d 1c 01 a0 bc 87 fe 8c 3d 14 aa 0e 3d
       0.05695474 -0.019531779 0.06884485 0.034830168
0000f0 4d dc b2 bd 52 f4 8c 3a 22 84 6b bd 61 1c 35 3d
       -0.08733425 0.0010753965 -0.05749906 0.044216517
000100 43 3e 94 3d c2 88 cf bd f7 d0 f4 bb 6f 7a 42 bd
       0.07238438 -0.10133506 -0.0074711996 -0.047480043
000110 e8 fd d6 3c 78 21 83 bc 80 3f b8 3a 2f 91 81 3d
       0.026244119 -0.01600717 0.001405701 0.0632652
000120 98 88 f3 3c 9a ae 82 bd 30 8a d8 3b d7 e7 99 bc
       0.029728219 -0.06380959 0.00660827 -0.018787308
000130 60 ec b2 bd 9d b1 86 bd 40 ae b7 3c f8 d4 f1 bc
       -0.08736491 -0.06576846 0.022421956 -0.029520497
000140 5d e8 fa bc e6 aa 1d bd e4 39 99 3c f0 77 e1 3c
       -0.030628378 -0.03849306 0.018704362 0.027523011
000150 61 23 8b 3d 80 a5 06 3a e1 89 5c bd c1 19 22 bc
       0.06793857 0.0005136356 -0.05384243 -0.0098938355
000160 c0 b7 fc bd 15 db 15 bd 61 e5 ae bc 3e 63 1c 3c
       -0.12339735 -0.036585886 -0.02134961 0.009545146
000170 52 e6 86 bd 1d f9 95 bd 49 3c 04 bd 80 7d b2 bd
       -0.06586899 -0.07322905 -0.032284055 -0.087153435
000180 c8 53 07 bc 3f 5e f3 bb 48 9f ce bc 40 d6 b5 3c
       -0.008259721 -0.0074270065 -0.025222436 0.022196889
000190 b2 eb ea bd 92 e4 b0 bc 60 80 c6 bd e5 f1 89 3d
       -0.114707366 -0.021593366 -0.09692454 0.06735591
0001a0 9e a9 52 3d ce 10 25 3d db 49 a5 bd a8 04 bb 3c
       0.05143129 0.04029923 -0.080707274 0.022829369
0001b0 c4 c3 af 3c f2 d0 19 3d 1e 07 22 bd c2 80 f4 bc
       0.021455653 0.03755278 -0.03955757 -0.029846553
0001c0 52 7c 1a 3d 6a b7 0c bd fb c0 8d bd d2 a0 7d 3d
       0.037716217 -0.034354605 -0.06921574 0.06192095
0001d0 04 5f ff bd c4 15 04 3d 14 87 f1 bd 42 13 ad bd
       -0.12469295 0.03224732 -0.11793342 -0.08450939
0001e0 2e d6 71 bd ed 35 87 3c d3 f6 a2 3d b0 be 6b bd
       -0.05904215 0.016505206 0.07957234 -0.0575549
0001f0 c1 dd 73 bc d7 20 07 3d e0 2f a5 bd 70 d8 c4 3d
       -0.014884413 0.032990303 -0.08065772 0.09611595
000200 9a 72 b5 3b c6 ce d3 b9 df 5c e1 bd d1 ba ac 3d
       0.005537343 -0.00040399114 -0.11004042 0.0843407
000210 e0 79 af 3b b2 c2 e9 bd 77 14 23 be 5f c2 2d be
       0.005355105 -0.11414088 -0.15925775 -0.16968678
000220 d9 b8 04 3d b1 46 f9 3b 97 0f 01 3d 85 bd 10 bb
       0.032402847 0.007607304 0.03150901 -0.0022085619
000230 64 e7 13 bd df 16 b7 bd 7e f8 03 3d 71 8b 58 bd
       -0.036109343 -0.08939909 0.032219402 -0.052867357
000240 a4 4b 3b bd 65 02 04 be 50 78 bd 3d c5 ff bc bd
       -0.045726433 -0.12891538 0.092514634 -0.09228472
000250 3c 30 26 be 7f 65 a7 3d 64 1c ca 3c 4e 98 46 bd
       -0.16229337 0.08173656 0.02467174 -0.048485093
000260 d0 8f f7 3c 77 ef da bb c9 15 9e bc 82 51 0a bd
       0.030219942 -0.0066813785 -0.019297497 -0.03376914
000270 10 50 cc 3b 7b 86 f2 bc ff 05 08 be 9a d5 78 3d
       0.00623513 -0.02960514 -0.13283537 0.06075058
000280 50 99 98 3c 4b 83 12 be 39 3e 07 bd ed 4d 37 bd
       0.018627793 -0.14307897 -0.033018325 -0.04475205
000290 a5 b5 1c bd ec d8 c4 bd f0 20 ac bd e0 06 00 3b
       -0.038259167 -0.09611687 -0.0840472 0.0019535348
0002a0 87 05 11 bd df 77 d9 bd a2 69 cc bd 0c c1 62 bd
       -0.035405662 -0.10618567 -0.09981085 -0.055359885
0002b0 cb 4a d6 bd 02 d0 21 3e ea 36 0d bd a3 83 cd bd
       -0.104634844 0.15802005 -0.0344762 -0.10034873
0002c0 b5 10 81 bd 7a d0 aa bd 28 da b3 bd ae e1 2c bd
       -0.06302015 -0.08340545 -0.087818444 -0.042207412
0002d0 20 06 a2 3b 81 6a 27 bd a9 59 4f bc 50 d8 49 3c
       0.004944578 -0.040873054 -0.012655654 0.012319639
0002e0 39 a2 8c 3d a8 09 5e 3c 47 7b f9 3a 0f cd 9a 3d
       0.06866879 0.013552107 0.0019033932 0.07558643
0002f0 c3 9e 40 bd b7 d5 5e bc 84 d0 fc 3c 4d 2f e6 bd
       -0.047026407 -0.013600758 0.030861147 -0.11239491
000300 02 f2 9c bc 93 3d 92 bc 63 df 2d be 78 86 92 3d
       -0.019158367 -0.017851627 -0.16979747 0.07154554
000310 7c 32 d9 3c da 33 62 3d 92 43 5b bd 0c f1 c8 bd
       0.02651333 0.05522523 -0.053531237 -0.09811601
000320 9a 63 88 3d 58 b7 a7 3d b9 ab b4 bd 26 ff b3 bd
       0.066596225 0.08189267 -0.08821816 -0.087889
000330 31 72 ac 3c de cb cb bd 67 96 5d bc 64 bb 2b bd
       0.021050544 -0.09950994 -0.013524628 -0.041926757
000340 d2 0a 0f be 91 0e 8e 3c 0d e0 6e 3c de c9 c0 3d
       -0.13968971 0.01734093 0.014579785 0.09413503
000350 4b c9 cc 3c 10 ec 73 3c 6f 65 90 3d 37 d0 c1 bb
       0.024998328 0.014887825 0.07050597 -0.0059147137
000360 54 8a 63 bd 0d 22 e9 bd 37 b4 db bd cb 1e df 3d
       -0.05555184 -0.11383448 -0.10727733 0.10894545
000370 17 e2 9a bd 23 da 5e bd 3a f7 6d bd 49 9d aa 3d
       -0.075626545 -0.05440725 -0.0580971 0.08330781
000380 71 bc 48 bd 04 b4 bd bb f1 64 98 bd 4a 0c f4 3b
       -0.049007837 -0.005789282 -0.07441128 0.007447754
000390 8d 92 25 3d 72 e5 29 3d 16 2b 24 3d b8 8f a4 bd
       0.040422965 0.04147858 0.040080152 -0.08035225
0003a0 02 b9 56 3c 4e ff 9e bd 19 3e 67 bc 00 3f 4e 3a
       0.013105633 -0.07763539 -0.014113926 0.0007867664
0003b0 ce ff bc 3d 17 d3 9d bb c1 f4 34 bd a1 33 19 3d
       0.09228478 -0.0048164236 -0.044178728 0.037402753
0003c0 3a 52 35 3d c1 af 10 be 93 8b 44 bd 56 b1 2d bd
       0.04426787 -0.14129545 -0.04798467 -0.04240545
0003d0 cf 00 e9 3d c7 a6 50 3c e5 ea 26 bd 4e 30 27 3d
       0.11377107 0.012735075 -0.040751357 0.04081755
0003e0 4c 48 a8 bd d4 dc c3 3d 2e f9 2f bd 81 36 b9 bd
       -0.082169145 0.09563604 -0.042962246 -0.09043599
0003f0 28 90 42 bd f5 72 dd bd 00 a6 39 ba 29 00 ae 3d
       -0.04750076 -0.10812942 -0.0007081926 0.08496124

fc2_1.bias f4 [64]
000000 eb a0 a8 bd 35 9c be 39 1a 62 ac bd 27 b2 db 3c
       -0.08233818 0.00036356007 -0.08417149 0.026818348
000010 d5 e6 90 bd de e1 94 bc 82 5f 0b bd ca cc 9f bc
       -0.07075278 -0.018174108 -0.03402663 -0.01950683
000020 fc f1 68 3d 8c 88 a9 bd 52 51 87 bd e1 57 05 be
       0.0568714 -0.082779974 -0.066073075 -0.13021804
000030 9a 69 0d bd 92 8c 95 bb d9 cf b5 bb 8d 5a 02 bd
       -0.034524538 -0.0045638764 -0.005548459 -0.031824637
000040 9a db e9 bc b0 1e ef bc 97 99 82 bd 75 24 d2 bd
       -0.028547097 -0.029189438 -0.06376951 -0.1026086
000050 b8 50 04 bd 4f d5 1b 3d c4 f2 1d bc 63 68 f8 3c
       -0.032303542 0.038045224 -0.009640399 0.030323213
000060 39 6f ad bd 83 1d 12 bd 54 04 e9 bd b8 4f 1b bd
       -0.0846848 -0.035672676 -0.11377779 -0.037917823
000070 23 6b 43 bc 88 e1 9c bd c9 0c 05 be b7 d3 e2 bd
       -0.011927399 -0.07660204 -0.12993158 -0.11075538
000080 94 44 94 bc 8d c3 9c bd 13 93 91 bd 64 40 8a bd
       -0.018099107 -0.07654486 -0.0710813 -0.06750563
000090 70 a7 a9 bd 9c a3 7e 3d e7 59 35 3c 20 8e 88 3b
       -0.08283889 0.06216775 0.011068798 0.0041673332
0000a0 1f 92 b2 bd 5e 26 20 3d 29 3c a9 3d 33 7d ae bd
       -0.08719277 0.03909909 0.08263428 -0.085199736
0000b0 7c 76 6d 3c 4d 5d 50 3d 97 da 27 bd ec 63 cb bd
       0.014493581 0.05087023 -0.040979948 -0.09931168
0000c0 53 04 93 bd 50 91 46 bc a2 0c b0 bd a8 ca 5a 3d
       -0.07178559 -0.012119606 -0.085961595 0.053415924
0000d0 e5 e2 87 3d 1c 2b 9b bd bd 66 97 bd 44 03 94 bd
       0.066350736 -0.07576582 -0.07392643 -0.07227185
0000e0 72 c5 4f bd de db 2a 3d 22 50 ac bd b8 2a 35 bd
       -0.050725408 0.041713588 -0.084137216 -0.044230193
0000f0 7b 3a 12 be 23 23 f6 bd c6 52 49 bc 1a e6 81 3c
       -0.14280121 -0.120184205 -0.012287801 0.015856791

fc3.weight f4 [18, 64]
000000 0f f1 11 be 2a 5a a1 bd 6a 52 bc bd d7 3e dc 3d
       -0.14252113 -0.078785256 -0.09195407 0.10754173
000010 26 a3 6c 3b e9 e2 d1 bd 6b 05 5d 3d 3b 1a 54 3d
       0.0036107986 -0.10248358 0.053960245 0.051782828
000020 fb c6 f3 bc 5c 52 48 3d 9c 8f 68 3d 9f b8 fd bc
       -0.029757967 0.04890667 0.05677758 -0.030971823
000030 e4 fb 98 3d 29 14 c0 3d ce 74 1a be 7f 9c d1 bd
       0.07469919 0.09378845 -0.1508362 -0.102349274
000040 cd 95 2e be 12 c1 a6 bc 5e 99 48 3c e4 f5 0a 3d
       -0.17049332 -0.020355735 0.012243597 0.033925906
000050 06 94 2b bd c1 1b b8 3d c6 d0 1f bd 01 ec 88 3d
       -0.041889213 0.08989669 -0.03901746 0.06685639
000060 d4 e2 60 3d 80 61 e8 3d ab a9 9f bc e0 29 2c 3e
       0.05490382 0.11346722 -0.019490084 0.16812849
000070 82 42 9d 3c 32 76 8d 3d 5c 71 81 3c b0 3b 94 bd
       0.019196752 0.069073096 0.015801124 -0.07237947
000080 c8 5d cf bd 79 06 36 be d1 6a da bd 6c 6a a1 bd
       -0.10125309 -0.17775907 -0.10664905 -0.078816265
000090 10 35 14 bc e9 0a bc 3b 26 26 22 bd ca fc 8d 3d
       -0.009045854 0.0057386053 -0.039587162 0.06932981
0000a0 a4 97 d6 3d 90 91 17 be e4 2d aa bd dd 3c 87 bc
       0.10478142 -0.14801621 -0.08309534 -0.016508514
0000b0 bd 42 46 3d c5 69 22 bd f0 cb 55 3c 94 49 0d be
       0.04840349 -0.03965165 0.013049111 -0.13797599
0000c0 3a 66 ca bd 0e ab cb bd 17 35 11 3e 18 b7 d9 3d
       -0.098827794 -0.099447355 0.14180408 0.106306255
0000d0 7b 09 0c be 80 47 ff 3d 60 c9 80 bb b3 c5 b6 bb
       -0.13675492 0.124648094 -0.003930256 -0.005577767
0000e0 10 7f da bc 5c 8d d6 3c b0 9f db bc f3 a3 bc bd
       -0.026671916 0.026190452 -0.026809543 -0.09210958
0000f0 53 6f 80 3b 04 71 35 bd d6 a4 21 be 98 17 cb bd
       0.003919521 -0.044297233 -0.15785536 -0.099166095
000100 71 24 28 3e 0e 88 c3 3c 3a f2 92 3d 70 6a fd bd
       0.16420151 0.023868587 0.07175107 -0.12373817
000110 b3 10 b4 bd fc 4c 07 be 53 3d 35 bd 92 7d cc bc
       -0.087922476 -0.13212961 -0.044247936 -0.02496222
000120 58 28 ff bd 60 06 73 3d 1e b7 ef 3d 44 b0 14 be
       -0.12458867 0.05933225 0.11704849 -0.14520365
000130 e0 df 0c bc dd d8 0c be 31 ab bf bb 3e 93 52 bd
       -0.008598298 -0.13754602 -0.005849265 -0.051409952
000140 90 ba ca bc 6f 50 35 39 73 97 20 3d 33 db 82 bc
       -0.024747163 0.00017291469 0.039206933 -0.015973663
000150 ca 77 3f bd 2c 8c 39 be 2b 15 ee bc 0a 4c 15 3d
       -0.0467451 -0.18119878 -0.029062828 0.03644947
000160 7a c1 20 3b fb f0 8f bb 6c c8 c1 3c 28 ef f4 3c
       0.0024529384 -0.004392741 0.023655139 0.029899195
000170 1d 94 93 3b d8 82 fa 3d 18 1c 8c 3c 71 03 dd bc
       0.0045037405 0.12231988 0.01710324 -0.02697918
000180 d0 7e 7b bc de f0 9b 3b ca 5e a6 bb 18 ba ca bc
       -0.015350059 0.004758938 -0.0050772177 -0.02474694
000190 8a 74 ee 3d 94 48 5f bd 52 38 61 bd 18 45 db 3c
       0.11643322 -0.054512575 -0.05498535 0.026766345
0001a0 40 ea 49 3b ac ae dc bb aa f2 80 bd 49 b4 96 3d
       0.003080979 -0.0067346897 -0.062962845 0.073586054
0001b0 11 7f b8 3d 8d 5f a7 3c 9c a3 a4 bd 7b 2b 7c 3d
       0.09008611 0.020431304 -0.080390185 0.061564904
0001c0 1b 26 80 bd 1c 19 05 bd cd 46 eb 3d 81 8e a2 3d
       -0.06257268 -0.03249465 0.114881136 0.07937337
0001d0 25 de 81 bd e8 34 cb bd e6 a7 9e bd 40 64 88 3d
       -0.06341199 -0.099222004 -0.07746868 0.06659746
0001e0 b6 d4 f4 bd 8c dc e1 3d fa 00 ca bd 0a 6d a5 3d
       -0.11954634 0.11028394 -0.098634675 0.08077438
0001f0 e8 fb 2e 3d 71 3c fb 3b 2c 40 bc bc d8 ef 8b bc
       0.042720705 0.0076671173 -0.022979818 -0.01708214
000200 82 e3 31 3d 92 69 23 3d 60 f7 5d 3c 4b 4f bb 3d
       0.04342986 0.0398956 0.013547748 0.09145983
000210 41 60 12 3c 7e b8 a8 bc 5c 8a aa bc b0 c1 16 bb
       0.0089340815 -0.020595785 -0.020817928 -0.002300363
000220 7c 68 05 3c 28 9e ca 3c 7d 02 0e 3d 09 fe 32 3e
       0.008142587 0.024733618 0.03467034 0.17479719
000230 40 8a 94 3c 7b 0e 80 3d 70 b3 2d bd 19 8d 25 3e
       0.018132329 0.06252762 -0.042407453 0.16167106
000240 c4 a8 1b 3e 43 d1 51 bd 72 10 99 bc 81 fa 12 bd
       0.15201098 -0.05122496 -0.0186846 -0.03588343
000250 15 93 77 bc 6f cf b5 3d c2 05 74 3c c4 be 57 bb
       -0.015110751 0.088774554 0.014893951 -0.0032920102
000260 02 e8 ae bd 9b 85 76 3d fd b6 76 3d f9 f8 d5 3d
       -0.08540346 0.06018601 0.060233105 0.104478784
000270 eb ca c4 bc 84 66 2d 3d 75 31 2c 3e c2 ba c8 bd
       -0.02402254 0.042334095 0.16815741 -0.09801246
000280 50 79 b0 bd 52 ab f3 3d 7e 8b ca 3c f2 b9 f7 3d
       -0.086168885 0.11897911 0.024724718 0.12096013
000290 b6 8f 86 3d e7 24 81 bd 47 9b 47 bc 88 cc 2f bd
       0.065703794 -0.06305867 -0.012183017 -0.042919666
0002a0 94 9e d6 bd fd 0e 98 3d e9 34 bf 3d c7 7d 6c bc
       -0.10479465 0.07424734 0.09336264 -0.0144342845
0002b0 86 88 de bb 8a 6d a7 3b 30 85 d3 3d 60 b4 9b 3d
       -0.006791177 0.0051094936 0.10328138 0.07602763
0002c0 56 93 8f bc d6 c7 63 bd c8 b7 b8 3d 10 10 69 3b
       -0.01752631 -0.0556105 0.090194285 0.0035562553
0002d0 4f 8c 10 3d aa b1 a4 3d 90 dd f9 3d ca 09 02 3d
       0.03529006 0.08041699 0.12200463 0.031747617
0002e0 f2 5b 96 bd 83 e7 26 3d 12 11 c8 3d 12 b6 0b 3d
       -0.07341756 0.04074813 0.09768881 0.034109183
0002f0 26 66 2c be 6d 31 40 3d e7 57 82 3d 84 12 32 bc
       -0.16835842 0.046922136 0.06364422 -0.010868672
000300 7a 26 12 3d a7 e6 f1 3d 00 02 a2 bc f1 99 22 3e
       0.035681225 0.118115716 -0.019776344 0.15879036
000310 2f f9 63 bd 42 a5 03 3e f6 fc 11 bd 47 f8 76 bd
       -0.055657562 0.1285601 -0.035641633 -0.06029537
000320 89 de fc 3d 44 a5 5b bd 61 4c 09 be 08 45 a1 bb
       0.12347133 -0.053624406 -0.13408042 -0.0049215592
000330 70 77 d1 3c eb 8e 19 3e 5f 41 63 3b a8 ea 17 3b
       0.025569648 0.14995925 0.0034676415 0.0023180638
000340 c9 2f c5 3d c2 b1 87 bc 5c 4b 21 3d 5d ce ce 3c
       0.09628255 -0.016564254 0.03937851 0.025244886
000350 6b c8 6c 3c 0b cf 38 3e 35 14 b3 3d 64 78 08 3e
       0.01445208 0.1804773 0.087440886 0.13327175
000360 f1 4c d0 bd 42 76 6a 3d 86 16 3b 3e 60 f1 52 3d
       -0.101709254 0.057241686 0.18270311 0.051499724
000370 14 f4 9b 3d a0 2b b3 3d 3b 63 cf bc 93 cb ba 3c
       0.076149136 0.08748555 -0.025315871 0.02280215
000380 1e e7 ff 3d 29 93 ea 3d 17 e9 2c bd c6 6b af bd
       0.12495254 0.1145385 -0.04221448 -0.08565478
000390 20 e5 2a 3d a9 7b b7 3d b7 0b ee bc d0 34 2e bc
       0.041722417 0.08959133 -0.02905832 -0.010632709
0003a0 0c b1 bb 3d f6 c8 a4 3c cc 69 fd 3c 85 17 c5 bd
       0.091646284 0.020115357 0.030934237 -0.096236266
0003b0 a2 bf 5c bd 9a 1f 13 3e 1c 46 51 bd 66 cb 46 3d
       -0.053893693 0.14367524 -0.051092252 0.04853382
0003c0 e9 bb 9d bd 2f e0 bd bd 5f 33 11 be 4f da 31 bd
       -0.07701857 -0.09271275 -0.14179753 -0.043421086
0003d0 c2 bc 73 bd 10 08 83 3d 96 fb dc 3d 02 ca 16 3e
       -0.059506185 0.06398022 0.10790174 0.14725497
0003e0 f0 14 a9 3d 06 24 ba 3d f6 5f 95 bd 2a 6c 2d 3d
       0.08255947 0.09088902 -0.07293694 0.04233948
0003f0 c1 91 f9 3c c4 4c 58 3d e4 ff b8 3d 7c 7d c9 3d
       0.030465009 0.052807584 0.09033182 0.09838387

fc3.bias f4 [18]
000000 cd 78 85 3c 21 be d6 3c 0b c2 bd bc 44 7b 15 bd
       0.016292954 0.026213707 -0.023163816 -0.03649451
000010 7e 7d d9 bc ce 1f 0a 3c 5f 01 e1 bc 1c 4e c8 bc
       -0.026549097 0.008430434 -0.027466474 -0.024451308
000020 6b f5 42 bc b9 99 4b bc 6c 22 be 3c e8 7f 1f 3d
       -0.0118993325 -0.012426787 0.023209773 0.03894034
000030 e1 37 19 3d 1f 2e 55 3c 83 ce 0f 3d bb bf 88 3c
       0.037406806 0.013011484 0.035109054 0.016692987
000040 49 ac 38 bd c3 df af 3c
       -0.04508618 0.021469003
