models/2024-07-20_16-15-34/epoch_0007_loss_0.00028606/dynamics.pth (torch, 83084 bytes, 8 tensors)

fc1.weight f4 [64, 34]
0	0x3d1b4077	0.037903275
1	0x3de36ead	0.11105094
2	0xbd237869	-0.039909754
3	0x3c400f36	0.011722377
4	0xbd9b9e4f	-0.07598554
5	0x3da9dcb1	0.08294047
6	0xbd287b23	-0.041133057
7	0xbd32ec3d	-0.043682326
8	0xbd63184d	-0.055443097
9	0xbc4f0a9d	-0.012636808
10	0xbc1ec415	-0.009690304
11	0x3dd19875	0.10234157
12	0x3d76b526	0.06023135
13	0xbc8addea	-0.01695152
14	0xbdc6bccf	-0.09703981
15	0x3c953d96	0.018217843
16	0xbd8f5296	-0.06998174
17	0x3dc96de0	0.0983541
18	0xbd8086c5	-0.06275705
19	0x3def5fc1	0.116881855
20	0xbd686b7c	-0.05674313
21	0x3e233751	0.1593907
22	0xbd2f59d7	-0.042810287
23	0x3e063afd	0.1310844
24	0x3e278d3d	0.16362472
25	0x3cd9eb2e	0.0266014
26	0x3d877804	0.06614688
27	0x3d619ccf	0.055081185
28	0x3e1f9d7c	0.1558742
29	0x3d5490b3	0.05189581
30	0x3e1c8e6a	0.15288702
31	0xbe00eb79	-0.12589826
32	0xbd115936	-0.03548547
33	0xbc781f4f	-0.015144183
34	0xbdf41590	-0.11918175
35	0xbe224f4e	-0.15850565
36	0xbd873994	-0.06602779
37	0x3dd573d2	0.104224816
38	0x3e2ee149	0.17078127
39	0xbd1943b4	-0.037418082
40	0x3e1d6dbf	0.15373896
41	0x3e263481	0.16230966
42	0x3dc61862	0.096726194
43	0xbd4b4b9a	-0.049632646
44	0x3cbfca88	0.023412004
45	0xbbbea140	-0.0058175623
46	0x3cc62a58	0.024190113
47	0xbdf6e6a6	-0.120557114
48	0xbdb43388	-0.08798891
49	0xbe224464	-0.15846401
50	0xbd063f28	-0.032775074
51	0xbbe5a920	-0.0070086867
52	0xbe237696	-0.15963206
53	0xbe173dda	-0.14769688
54	0xbdb6d024	-0.089264184
55	0xbdc6cf4b	-0.09707507
56	0xbdaf9cb1	-0.085748084
57	0xbda015bb	-0.07816645
58	0x3da50bc6	0.08058886
59	0x3df704e2	0.12061478
60	0xbd2c5d2c	-0.042081043
61	0x3e2a6b79	0.1664256
62	0xbe1b315a	-0.15155545
63	0x3da0c8fe	0.07850836
64	0xbc7b4110	-0.015335336
65	0x3d9ea614	0.07746521
66	0x3da425a2	0.080149904
67	0x3d25a090	0.040436327
68	0x3d9332e2	0.071874395
69	0x3dec8f56	0.11550777
70	0x3e255b89	0.16148199
71	0x3db69c1c	0.08916494
72	0xbe104aa2	-0.1409097
73	0xbe54e130	-0.20789027
74	0x3d2e44d3	0.042546105
75	0x3ce0ae5c	0.027426891
76	0x3c3ccb16	0.011523029
77	0xbe5c19fe	-0.2149429
78	0x3e0795b9	0.13240708
79	0xbb730772	-0.0037083295
80	0xbdf399cb	-0.11894568
81	0xbda8a01d	-0.08233664
82	0x3cdd478f	0.02701166
83	0xbe59d397	-0.21272121
84	0x3dd5e055	0.104431786
85	0xbe545518	-0.20735586
86	0xbd2f24fe	-0.042759888
87	0x3d9bf946	0.076159045
88	0xbd88f756	-0.066878006
89	0x3d777894	0.060417727
90	0xbe18567e	-0.14876744
91	0x3e573072	0.21014574
92	0x3d56f8ec	0.052483484
93	0xbdd0e86a	-0.102005795
94	0x3e1591bb	0.14606373
95	0xbc20883e	-0.009798108
96	0xbe1b42be	-0.15162179
97	0xbdfecd64	-0.12441519
98	0xbde1606c	-0.11004719
99	0xbdd44895	-0.103654064
100	0xbe4a707a	-0.19769469
101	0xbe218acd	-0.15775605
102	0xbe135e64	-0.14391476
103	0x3e5b5f06	0.21422967
104	0x3d30cdad	0.043164898
105	0xbd9d4802	-0.0767975
106	0xbdd95ff2	-0.10614003
107	0x3d8c3b6e	0.06847273
108	0x3da296e6	0.07938938
109	0xbd0698be	-0.03286051
110	0xbd869439	-0.0657124
111	0x3dac671b	0.08418103
112	0xbd2693c6	-0.04066827
113	0xbcf190ff	-0.029488085
114	0xbe54d38c	-0.20783824
115	0xbce86afd	-0.028371328
116	0x3c9a6aee	0.018849816
117	0x3da33aa5	0.0797017
118	0x3d124bf5	0.03571697
119	0xbd1866e8	-0.037207514
120	0xbdc4270f	-0.09577762
121	0xbc926027	-0.017868115
122	0xbd0b5c54	-0.034023598
123	0xbdbd7ee9	-0.09252722
124	0x3d16a65e	0.036779754
125	0x3e3c61fe	0.18396756
126	0x3e1a43be	0.15064904
127	0x3d9b34f8	0.07578462
128	0xbd300f71	-0.042983476
129	0x3dd3b0ea	0.10336478
130	0xbe27513d	-0.16339584
131	0x3c8aad2d	0.01692828
132	0x3d2cab07	0.042155292
133	0xbe316132	-0.17322233
134	0xbe3183c2	-0.17335418
135	0x3a88e27f	0.0010443478
136	0x3d97c455	0.07410494
137	0x3de6855a	0.112559035
138	0x3d77a352	0.06045849
139	0xbbbff7d2	-0.0058584
140	0xbdc8e2d1	-0.09808887
141	0xbe0914af	-0.13386796
142	0xbc679a42	-0.014135899
143	0xbd7ad9b0	-0.06124276
144	0xbd34a002	-0.044097908
145	0xbda72ce7	-0.08162861
146	0xbd63bda1	-0.055600766
147	0x3cc69dc8	0.024245158
148	0xbdb9a66b	-0.09064945
149	0x3c9498c7	0.018139256
150	0xbdb528ba	-0.088456586
151	0xbd157770	-0.036490858
152	0xbd848e40	-0.064724445
153	0x3d0a8df0	0.03382677
154	0x3e4288a1	0.18997432
155	0xbd2786e6	-0.040900134
156	0xbdc8df66	-0.09808235
157	0xbe41b4df	-0.18916653
158	0x3bc78b4d	0.006089604
159	0xbc93d495	-0.018045703
160	0xbdad19e6	-0.08452205
161	0xbdfe653b	-0.12421652
162	0xbd81083b	-0.06300398
163	0xbe094767	-0.13406144
164	0x3dd0188a	0.101609305
165	0x3d0d1c87	0.034451034
166	0xbdf3de59	-0.11907644
167	0x3c46d1c9	0.012134978
168	0x3d4a5159	0.049393985
169	0xbe486e91	-0.19573428
170	0x3d7d6c90	0.06187111
171	0x3b91cd20	0.0044495016
172	0x3e2ec8cb	0.17068784
173	0xbdd79de1	-0.1052816
174	0xbd9134d8	-0.07090157
175	0xbdda57c8	-0.10661274
176	0x3dd87406	0.10569005
177	0x3d681710	0.05666262
178	0x3dec6096	0.1154186
179	0x3e253b1f	0.16135834
180	0x3e0adcf9	0.13560857
181	0xbd9ae540	-0.07563257
182	0x3d7a1e2c	0.06106393
183	0xbd70b9be	-0.058770888
184	0x3e0b17b7	0.13583265
185	0x3da516a6	0.080609605
186	0x3df8f10e	0.121553525
187	0xbd050888	-0.03247884
188	0xbbc3d260	-0.0059760064
189	0xbc62cc50	-0.013842657
190	0xbdf67819	-0.120346256
191	0xbdc7bbc1	-0.09752608
192	0xbe22b7d5	-0.15890439
193	0x3cc3dcd0	0.023909003
194	0x3dd93676	0.10606091
195	0x3e2469b1	0.16055943
196	0xbcd02698	-0.025409028
197	0x3e209c6b	0.15684669
198	0x3dcbaf0e	0.099454984
199	0x3e1e705b	0.15472548
200	0x3db9c56e	0.0907086
201	0xbd88ecb7	-0.06685775
202	0x3e28e29b	0.16492693
203	0x3e0bfca1	0.13670589
204	0xbd73f081	-0.059555534
205	0x3d991c65	0.07476119
206	0x3dc79cf5	0.09746734
207	0x3e15c9af	0.14627717
208	0xbe6e5182	-0.2327328
209	0xbb4d0f62	-0.0031289686
210	0x3d91bd80	0.071162224
211	0xbdaf1c72	-0.085503474
212	0xbd3ec09a	-0.046570398
213	0xbcbf10c2	-0.02332342
214	0x3c2418e8	0.010015704
215	0xbd58eb7f	-0.05295896
216	0x3cb79bdb	0.022413185
217	0x3d06a4fd	0.03287219
218	0x3d835bad	0.0641397
219	0x3cb006c1	0.021487596
220	0x3dc1495f	0.094378226
221	0x3e17d66c	0.14827889
222	0xbde6a73c	-0.11262366
223	0x3e2e2582	0.17006496
224	0xbdf5e112	-0.120058194
225	0xbca774bc	-0.020441405
226	0x3ddc709c	0.10763666
227	0x3cac85dd	0.021059925
228	0x3d1b0f97	0.037856665
229	0x3d45d5b0	0.04829949
230	0x3e2d4d76	0.1692408
231	0xbe20d223	-0.15705161
232	0xbd973511	-0.073831685
233	0x3d30260e	0.04300504
234	0x3d64523a	0.05574248
235	0x3e00dce1	0.12584259
236	0xbd838dfe	-0.06423567
237	0xbdefc32b	-0.11707147
238	0xbe512546	-0.20424375
239	0x3e05da96	0.13071665
240	0xbe1ac2c5	-0.15113361
241	0x3da73a5d	0.08165429
242	0xbdac5692	-0.084149495
243	0x3de27dfb	0.11059185
244	0xbe3faaca	-0.18717495
245	0xbc8f9258	-0.017525837
246	0x3dac65c8	0.08417851
247	0xbe387016	-0.18011507
248	0xbd1a0392	-0.03760106
249	0x3d5c4c62	0.05378378
250	0xbe04e792	-0.12978962
251	0x3e1633ca	0.14668193
252	0x38f5edec	0.00011726827
253	0xbe249de0	-0.1607585
254	0x3e36e3e4	0.17860371
255	0xbe434c46	-0.19072065

fc1.bias f4 [64]
0	0xbc0b138e	-0.008488549
1	0xbd389778	-0.045066327
2	0xbe2dec11	-0.16984583
3	0xbe11a421	-0.14222766
4	0x3e39b435	0.1813515
5	0xbc1cf410	-0.009579673
6	0x3dec2664	0.1153076
7	0xbe3ce27e	-0.18445775
8	0x3d16a3e9	0.03677741
9	0x3c00bc57	0.007857404
10	0xbe58c320	-0.21168184
11	0xbd999471	-0.07499016
12	0xbd0c3f31	-0.03423995
13	0xbe06ff04	-0.13183218
14	0x3deb6e36	0.114956304
15	0x39d5bdc2	0.00040767906
16	0x3df3106b	0.11868366
17	0xbdb115e5	-0.08646754
18	0xbda7b93e	-0.08189629
19	0xbe2cd508	-0.1687814
20	0xbe0d0409	-0.1377107
21	0xbda23ba8	-0.07921535
22	0xbe011367	-0.12605058
23	0xbd86bd15	-0.06579033
24	0xbdc3193e	-0.09526299
25	0xbd813f15	-0.0631086
26	0x3db859bb	0.0900149
27	0xbe0deba2	-0.13859418
28	0xbe120f97	-0.1426376
29	0xbde433d6	-0.111426994
30	0xbdba58af	-0.09098946
31	0x3d96fd95	0.07372586
32	0x3d848cd3	0.064721726
33	0x3caad520	0.020853579
34	0xbde6e806	-0.11274724
35	0x3c05f67f	0.008176445
36	0x3df7e7ac	0.12104735
37	0x3b2b7a6a	0.0026165494
38	0xbe03acf2	-0.12858942
39	0xbe21d2af	-0.15803026
40	0x3d511c3b	0.051052313
41	0xbd390908	-0.04517463
42	0xbe2d7884	-0.16940504
43	0xbdc57852	-0.0964209
44	0xbe387cd6	-0.18016371
45	0xbe3f891e	-0.1870465
46	0x3c4cb391	0.012493984
47	0x3da9ca6c	0.08290562
48	0x3dc28973	0.094988726
49	0x3d3e71ea	0.046495356
50	0xbd301820	-0.042991757
51	0x3d01a685	0.031652946
52	0x3e25660d	0.1615221
53	0xbd8123ce	-0.06305657
54	0xbd9d7a8c	-0.076893896
55	0xbe1f8e4d	-0.15581627
56	0x3d8506cd	0.06495438
57	0x3dd41709	0.10355956
58	0x3e161462	0.14656213
59	0xbe1ec190	-0.15503526
60	0x3cbd40f0	0.023102254
61	0xbd828c29	-0.0637439
62	0x3d72d067	0.05928078
63	0x3dfa68a1	0.12226988

fc2.weight f4 [128, 64]
0	0xbd6c5dd2	-0.05770666
1	0x3d3e1e0c	0.046415374
2	0x3a9c4f2f	0.0011925454
3	0x3dd7792b	0.10521158
4	0xbcd75af7	-0.026288493
5	0x3d6594b8	0.056050032
6	0x3c86db39	0.016461955
7	0x3cb743b9	0.02237116
8	0xbd1c1f24	-0.038115636
9	0x3c9e6724	0.01933629
10	0x3e136564	0.14394146
11	0x3dd2ff5a	0.10302611
12	0xba120c99	-0.0005571335
13	0x3d4c9734	0.049948886
14	0x3d0bfb99	0.03417549
15	0xbd85a355	-0.06525294
16	0xbd7737fa	-0.060356118
17	0x3b35a6d4	0.0027717846
18	0x3dec8564	0.1154888
19	0x3d051b02	0.03249646
20	0x3d93cc9d	0.07216761
21	0x3d5afe4a	0.053465165
22	0x3d6c3cb8	0.057675093
23	0xbdc0d47c	-0.09415528
24	0x3d6388b4	0.055550292
25	0x3db1f002	0.08688356
26	0xbe2dfa6c	-0.1699006
27	0xbd4cd8b4	-0.05001135
28	0xbd669bdd	-0.056300987
29	0x3d982717	0.07429331
30	0x3e1c235f	0.15247868
31	0xbd86fae9	-0.06590826
32	0x3cc7e04c	0.024398945
33	0xbd8e3c63	-0.069451116
34	0xbdf9b9c2	-0.121936336
35	0x3d754069	0.05987588
36	0x3cf91a31	0.030407997
37	0x3ce1b248	0.027550831
38	0x3d18c790	0.037299693
39	0xbcf39e18	-0.02973847
40	0xbdb16486	-0.086617514
41	0xbd69c7f4	-0.057075456
42	0xbda183a8	-0.078864396
43	0x3d8627ad	0.06550536
44	0x3db50f14	0.088407665
45	0x3d835c6a	0.06414111
46	0x3adddecc	0.001692736
47	0xbdaa791e	-0.083238825
48	0xbe031ff4	-0.12805158
49	0xbd727c2e	-0.05920046
50	0xbd9cfcca	-0.07665403
51	0x3d177d29	0.036984596
52	0xbdcb7a58	-0.099354446
53	0x3cbf3c50	0.023344189
54	0x3d8a574d	0.067549326
55	0xbb3596c0	-0.0027708262
56	0xbe1f10d9	-0.1553377
57	0xbd00754f	-0.031361874
58	0xbdb27d7a	-0.08715339
59	0x3dd64a00	0.10463333
60	0x3b474870	0.0030408166
61	0x3c43fcc8	0.011962123
62	0xbc8d5d2c	-0.017256342
63	0xbd7d69ad	-0.06186836
64	0x3c08e81c	0.00835612
65	0x3da3437a	0.079718545
66	0x3d837159	0.06418104
67	0x3de4e13a	0.11175771
68	0xbe58acbb	-0.21159641
69	0x3c177220	0.009243518
70	0x3de0b57c	0.109721154
71	0x3dab2716	0.083570644
72	0xbdc0bdf2	-0.09411229
73	0xbd98ba17	-0.07457369
74	0x3e0ab452	0.13545349
75	0x3d3f61db	0.04672418
76	0xbd43b128	-0.04777637
77	0x3d833f0a	0.06408508
78	0xbdf4964a	-0.11942728
79	0x3e14f980	0.14548302
80	0xbce8cd29	-0.02841814
81	0xbddb2d49	-0.10701997
82	0xbc6aa982	-0.01432264
83	0x3bb704bd	0.0055852816
84	0x3d4d27d8	0.050086826
85	0xbc37618d	-0.0111926915
86	0x3dfd2488	0.123604834
87	0x3dcdaab4	0.10042325
88	0xbc6bf870	-0.014402494
89	0xbd5dbcaa	-0.054135002
90	0xbdf4965b	-0.119427405
91	0x3d23a0cc	0.03994827
92	0xbc935d76	-0.017988902
93	0x3dc50a09	0.09621055
94	0x3c1205f9	0.008912557
95	0x3bfd438c	0.0077289995
96	0x3dea20fd	0.11432073
97	0x3deb27e0	0.11482215
98	0xbd943a5c	-0.07237694
99	0xbdcaef66	-0.09908943
100	0x3bf6e2fe	0.007534384
101	0xbe41cfcf	-0.18926929
102	0xbdb01892	-0.085984364
103	0x3da4ceff	0.08047294
104	0xbddf1027	-0.10891753
105	0xbded4926	-0.115862176
106	0xbdb7c820	-0.08973718
107	0xbd5f9f59	-0.054595325
108	0xbdb001f2	-0.08594121
109	0x3d8ad4de	0.067788824
110	0xbd7fbdaf	-0.062436756
111	0x3dd1d05e	0.10244821
112	0xbdbea80e	-0.09309398
113	0xbe6c97c0	-0.23104763
114	0x3d4863b8	0.048923224
115	0x3cad7f6f	0.02117893
116	0xbe45151a	-0.19246331
117	0xbd596c90	-0.05308205
118	0x3dda7567	0.10666924
119	0x3da2b92a	0.079454735
120	0xbddc32b6	-0.1075186
121	0x3df8145d	0.12113259
122	0xbe021d6c	-0.12706536
123	0x3c479830	0.01218228
124	0xbd262b23	-0.040568482
125	0xbdf0c0e8	-0.11755544
126	0xbc0f8765	-0.008760308
127	0xbdceafee	-0.1009215
128	0x3da7b44a	0.08188684
129	0x3d3b3254	0.045702294
130	0xbdb43e78	-0.088009775
131	0xbddea5e8	-0.10871488
132	0xbb15f180	-0.002287954
133	0x3d14df0c	0.036345527
134	0x3d226fc4	0.03965737
135	0xbd2e8480	-0.04260683
136	0xbd39e564	-0.04538478
137	0xbdc25b2c	-0.09490046
138	0xbdebe1b6	-0.1151766
139	0xbdf1e244	-0.11810735
140	0x3d4ca8d8	0.04996571
141	0x3d352cc0	0.04423213
142	0xbd97a336	-0.07404177
143	0x3d8f92b6	0.07010405
144	0xbce2fc48	-0.027708188
145	0xbcadb720	-0.021205485
146	0xbd59d1ac	-0.053178474
147	0x3d7b9104	0.061417595
148	0x3d6ab94c	0.05730562
149	0x3ddeb780	0.108748436
150	0x3cbbd960	0.0229308
151	0x3dbfbff8	0.09362787
152	0x3d79aee0	0.06095779
153	0x3af12180	0.0018396825
154	0x3dc74084	0.09729102
155	0xbd19f840	-0.037590265
156	0xbbe4c220	-0.0069811493
157	0xbdbc52d2	-0.09195484
158	0xbd64a428	-0.055820614
159	0xbdad6c8e	-0.08467971
160	0xbd0039a0	-0.031304955
161	0x3d0a7cd8	0.033810467
162	0xbceb0888	-0.028690591
163	0xbdabb22e	-0.083835945
164	0xbd523314	-0.051318243
165	0xbcbdd648	-0.023173466
166	0x3df048cc	0.11732635
167	0xbddcb466	-0.10776596
168	0x3d2e1e88	0.042509586
169	0x3d8eaac2	0.06966163
170	0x3dc4898c	0.095965475
171	0x3bdd1bc0	0.006747693
172	0x3c7900b0	0.015197918
173	0x3dc7e372	0.097601786
174	0x3db85fc4	0.09002641
175	0xbda910e8	-0.08255178
176	0xbd21d938	-0.039513797
177	0x3cf3bac8	0.02975215
178	0x38557000	5.0887465e-05
179	0xbd9c5764	-0.07633856
180	0xbd845bd6	-0.06462829
181	0xbbcf3b60	-0.0063242167
182	0x3d36f044	0.04466273
183	0xbd39c9dc	-0.045358524
184	0x3defb40e	0.117042646
185	0x3b29abc0	0.0025889724
186	0xbdcebca4	-0.10094574
187	0x3bcecd20	0.006311074
188	0xbdbf1ea0	-0.09332013
189	0x3d163260	0.036669135
190	0xbd508034	-0.050903514
191	0xbc0986d0	-0.008393958
192	0xbd164224	-0.03668417
193	0xbdb536a6	-0.08848314
194	0xbc805350	-0.015664726
195	0x3dde4bc6	0.108542964
196	0x3d5fcef8	0.05464074
197	0x3c9ff8a8	0.019527748
198	0xbda4165e	-0.08012079
199	0x3d87e8e0	0.06636214
200	0xbd09f5fc	-0.033681855
201	0x3ce2c458	0.027681515
202	0xbd057194	-0.03257902
203	0x3d2c57a4	0.042075768
204	0xbdc627ca	-0.09675558
205	0xbd9719ae	-0.07377945
206	0xbdb93ca2	-0.09044768
207	0xbd882d6c	-0.066492885
208	0x3df5a3e8	0.11994153
209	0x3ddc7122	0.10763766
210	0xbcfb1200	-0.030648232
211	0xbcf67cd0	-0.030088812
212	0x3cf5a390	0.02998522
213	0x3d7ad308	0.06123641
214	0xbdf5c9ac	-0.120013565
215	0x3d84d5c6	0.064860865
216	0xbc88b760	-0.016689003
217	0x3d4115b4	0.04713984
218	0x3ce1d6e8	0.027568296
219	0xbda203ee	-0.07910906
220	0x3cfac6f0	0.030612439
221	0x3d117490	0.035511553
222	0x3dfca4d4	0.12336126
223	0xbbd30b80	-0.00644058
224	0x3ddf3fda	0.109008506
225	0xbd4bcc34	-0.04975529
226	0xbd2d1780	-0.04225874
227	0xbda474c8	-0.08030087
228	0xbda058f2	-0.07829465
229	0xbdaf1ae6	-0.08550052
230	0xbdb56b6e	-0.08858381
231	0x3d5b1380	0.053485394
232	0xbb77bb00	-0.003780067
233	0x3db52054	0.08844057
234	0x3daa3ffa	0.08312984
235	0xbd9850c6	-0.07437281
236	0xbde13548	-0.10996491
237	0x3d4a5a34	0.04940243
238	0xbdffc87e	-0.12489413
239	0xbc9b7000	-0.018974304
240	0xbc8b40e0	-0.016998708
241	0xbdada46a	-0.08478625
242	0x3c3451f0	0.011005864
243	0xbd15e090	-0.036591113
244	0x3c15eca0	0.009150654
245	0xbdfe6f66	-0.12423591
246	0x3c7edff0	0.015556321
247	0x3d50e038	0.05099508
248	0xbdbf3d26	-0.09337835
249	0xbde97b82	-0.1140051
250	0xbc023a70	-0.007948503
251	0x3d885e96	0.06658666
252	0x3db22980	0.08699322
253	0xbdb7e676	-0.08979504
254	0xbd6eb838	-0.058281153
255	0x3ddb0df6	0.10696022

fc2.bias f4 [128]
0	0x3d81869e	0.06324504
1	0x3cbac41d	0.022798592
2	0x3d255dc0	0.04037261
3	0xbc6b5c00	-0.014365196
4	0x3b488c40	0.0030601174
5	0xbbf8a0bf	-0.007587522
6	0x3d9b8283	0.075932525
7	0x3e0a8b60	0.1352973
8	0xbda053da	-0.078284934
9	0x3a47b00a	0.00076174794
10	0xbde4cd12	-0.111719266
11	0x3c336c1f	0.010951071
12	0xbdbf6cf2	-0.093469515
13	0x3bf021e8	0.0073282607
14	0x3cdaf18a	0.026726503
15	0x3df01efb	0.11724659
16	0xbe200a45	-0.15628918
17	0x3d051c64	0.03249778
18	0x3d77e3f4	0.060520127
19	0xbd9a99e8	-0.075488865
20	0xbd2ddfca	-0.04244975
21	0x3d0b5a82	0.03402186
22	0x3d7b6a27	0.06138053
23	0xbd374876	-0.04474684
24	0x3d2ea459	0.042637203
25	0xbd911c06	-0.07085423
26	0x3cda5825	0.026653359
27	0xbd83c65a	-0.06434317
28	0xbe248c06	-0.1606904
29	0xbc8f70ee	-0.017509904
30	0xbe17bfc2	-0.14819244
31	0xbcb9a9f8	-0.022664055
32	0xbdacb96a	-0.084338024
33	0x3dbef3e8	0.09323865
34	0xbc117390	-0.00887765
35	0x3dd143c9	0.10218007
36	0xbdd5f2cf	-0.10446703
37	0xbd5c1e24	-0.05373968
38	0x3c930188	0.017945066
39	0xbd0f933a	-0.035052516
40	0xbd75cf04	-0.06001188
41	0xbd8f06b8	-0.069837034
42	0xbdb1698b	-0.08662709
43	0xbdc3d5b7	-0.09562247
44	0xbd6def04	-0.05808927
45	0x3ccec675	0.025241116
46	0xbc916300	-0.017747402
47	0xbd384911	-0.044991557
48	0xbd279780	-0.040915966
49	0xbca3c2b4	-0.019990303
50	0xbdbc99e8	-0.09209043
51	0xbba1235f	-0.0049175466
52	0x3d5c06ca	0.053717412
53	0xbca71d9d	-0.020399863
54	0xbdbf8b6e	-0.09352766
55	0xbe1b2d80	-0.15154076
56	0x3cc88b23	0.024480408
57	0xbdd59fb8	-0.104308546
58	0x3ac09d00	0.0014695227
59	0xbd71cdc8	-0.05903414
60	0xbd76b21d	-0.060228456
61	0xbce642ee	-0.028108086
62	0xbe17efee	-0.1483762
63	0x3c276732	0.010217475
64	0xba7139b4	-0.0009202019
65	0xbd6fdadd	-0.058558334
66	0x3db6ff0e	0.089353666
67	0xbcb4e16e	-0.02208015
68	0xbdbe4328	-0.09290153
69	0x3d17046a	0.036869444
70	0xbdfb5886	-0.12272744
71	0xbcc07e76	-0.023497801
72	0xbdc41b80	-0.09575558
73	0xbd4662e4	-0.048434153
74	0x3ce35b8f	0.02775362
75	0xbe22b6d5	-0.15890057
76	0xbdd61346	-0.10452895
77	0xbd236e30	-0.039900005
78	0xbbbc2140	-0.0057412684
79	0xbbba9c5c	-0.005694909
80	0x3daf1579	0.085490175
81	0xbd6146dc	-0.054999217
82	0xbda52ada	-0.08064814
83	0x3dc0edc2	0.09420349
84	0x3cfd0ba6	0.030889343
85	0xbdb72744	-0.08943036
86	0x3c670378	0.014099948
87	0x3e0ac9fe	0.13553616
88	0xbdebcc5f	-0.1151359
89	0xbc976a7a	-0.01848339
90	0x3d024206	0.031801246
91	0xbd9e6aa7	-0.07735186
92	0xbc3c1566	-0.011479711
93	0x3c31c40f	0.010849967
94	0x3cc57553	0.024103796
95	0xbd62c065	-0.055359263
96	0xbde1ae41	-0.110195644
97	0xbdb37039	-0.08761639
98	0xbda98710	-0.08277714
99	0xbdcc9583	-0.099894546
100	0xbce2638b	-0.027635356
101	0x3d7436ba	0.059622504
102	0x3d48f650	0.049063027
103	0x3d9dfa81	0.077137955
104	0xbdd1a8c4	-0.102372676
105	0xbdf74fc4	-0.12075761
106	0xbd6495cd	-0.055806924
107	0xbddf4828	-0.109024346
108	0xbdd633a8	-0.104590714
109	0x3cc3252b	0.023821434
110	0xbd07dcbd	-0.033169497
111	0xbd531ee8	-0.051543146
112	0xbdb4f5dd	-0.08835957
113	0xbcfff520	-0.031244814
114	0xbd1852fe	-0.037188523
115	0x3dcbea87	0.09956842
116	0xbe3352f9	-0.1751212
117	0xbd7b57ca	-0.06136302
118	0xbc9357de	-0.017986234
119	0x3e17d506	0.14827356
120	0x3d149424	0.03627409
121	0x3da8f0ee	0.08249079
122	0xbcd50a51	-0.026005896
123	0x3ce0d918	0.027447268
124	0x3e056029	0.13024963
125	0x3d1d5295	0.038408834
126	0xbd3eac0a	-0.046550788
127	0xbcffe15f	-0.031235395

fc2_1.weight f4 [64, 128]
0	0xbc926714	-0.017871417
1	0xbdbfcfe6	-0.09365825
2	0xbbd4c710	-0.0064934567
3	0x3d88d7fb	0.0668182
4	0x3cac1024	0.02100379
5	0xbd80c949	-0.06288392
6	0xbe123213	-0.14276914
7	0xbd0ddfdc	-0.034637317
8	0xbc3d4a28	-0.011553325
9	0xbcb2ee4f	-0.02184215
10	0x3b412120	0.0029469207
11	0x3cd2b380	0.025720358
12	0xbd0882a4	-0.033327714
13	0xbdfe3a5d	-0.12413476
14	0xbddc54f6	-0.107583925
15	0xbd16a500	-0.03677845
16	0x3d9afb63	0.075674795
17	0xbdc63046	-0.09677176
18	0xbddc4aa6	-0.107564256
19	0xbda4acca	-0.080407694
20	0xbd9df551	-0.07712806
21	0xbdb08ee3	-0.086210035
22	0x3bb28d88	0.0054490007
23	0xbb8a241f	-0.0042157318
24	0xbbbe6ca0	-0.005811289
25	0x3cbc41c9	0.022980588
26	0x3c0db6b9	0.0086495215
27	0x3c831a60	0.016003788
28	0x3c8cca30	0.017186254
29	0xbd1a7a1b	-0.037714105
30	0xbd27a2e4	-0.04092683
31	0xbd6070e9	-0.05479518
32	0x3b633ae0	0.0034672543
33	0xbe0bcb04	-0.13651663
34	0xbd6706f6	-0.056403123
35	0xbc8e278c	-0.017352842
36	0xbd8a066d	-0.06739507
37	0x3c9af078	0.018913493
38	0xbe137948	-0.14401734
39	0xbe0f08ed	-0.13968249
40	0xbc9cc929	-0.01913889
41	0xbcd207c4	-0.025638469
42	0xbde10a39	-0.10988278
43	0xbe14309a	-0.14471665
44	0xbd9bbe77	-0.07604688
45	0xbd639f9b	-0.055572134
46	0xbd941dba	-0.072322324
47	0xbd55e9a2	-0.052224763
48	0xbda38338	-0.07984012
49	0x3d61e966	0.055154227
50	0x3cdbf350	0.026849419
51	0xbe04ab04	-0.12955862
52	0xbddbfc31	-0.10741461
53	0x3cfd7d10	0.030943424
54	0xbde3ca52	-0.11122574
55	0x3bb9076d	0.005646637
56	0xbe16fef0	-0.14745688
57	0x3c4d0324	0.012512956
58	0x3d602d22	0.054730542
59	0xbb8237f0	-0.0039739534
60	0x3c5bb4ae	0.013409777
61	0xbd44ba5e	-0.048029296
62	0xbc7557e8	-0.014974572
63	0x3bbef80e	0.0058279103
64	0xbdc0b1c7	-0.09408908
65	0xbb3a0929	-0.0028386808
66	0xbe0c848c	-0.13722438
67	0xbc880aed	-0.016606772
68	0x3c7e1c60	0.015509695
69	0x3b87ec58	0.0041480474
70	0x3cb13eac	0.02163633
71	0xbdd2c50d	-0.10291491
72	0xbd804d9e	-0.06264804
73	0x3d42b94a	0.047539987
74	0xbe0583c6	-0.13038549
75	0xbcdb975e	-0.026805576
76	0x3b15be91	0.0022849182
77	0xbdefd872	-0.117112055
78	0x3ca1080f	0.019657163
79	0x3ca044f8	0.019564137
80	0xbe0e74b6	-0.13911709
81	0xbd4a75a5	-0.0494286
82	0x3d3e124a	0.04640416
83	0xbe08cb7b	-0.13358872
84	0xbd43959d	-0.047750104
85	0xbdc4f23d	-0.09616516
86	0xbb0e2726	-0.0021690815
87	0xbd250d87	-0.040296104
88	0xbcc0e836	-0.023548227
89	0xbd1f0ebf	-0.038832422
90	0xbdbb18fd	-0.091356255
91	0xbdf977b1	-0.121810324
92	0xbd2635c5	-0.040578622
93	0xbdba143b	-0.0908589
94	0xbd49e875	-0.049293954
95	0xbdef0896	-0.116715595
96	0x3c5ca106	0.013466125
97	0xbdffc508	-0.124887526
98	0x3c90998c	0.017651342
99	0xbd96fda2	-0.07372595
100	0xbe051996	-0.12998042
101	0xbe059626	-0.13045558
102	0x3cda2f1f	0.026633797
103	0xbdc0cf53	-0.09414544
104	0x3d9f7be5	0.07787303
105	0x3d776d8e	0.060407214
106	0xbd8db8a4	-0.06919983
107	0x3d90483d	0.07045028
108	0xbd3445e9	-0.044011984
109	0xbda2e9d2	-0.07954754
110	0xbe0fc118	-0.14038503
111	0x3bc4b390	0.006002851
112	0xbd52f5ca	-0.051503934
113	0x3dab1c5d	0.08355019
114	0x3c98edf1	0.018668147
115	0x3c3cd351	0.011524991
116	0xbd94fad8	-0.07274407
117	0x3b8392a3	0.004015283
118	0xbcfd868b	-0.030947944
119	0xbd8c082f	-0.068374984
120	0x3d466a2e	0.048441105
121	0xbc7d06a3	-0.015443477
122	0xbca31506	-0.019907486
123	0xbdf22aea	-0.118245915
124	0x3cc799ae	0.024365272
125	0xbda875f0	-0.0822562
126	0x3c8aceb9	0.016944276
127	0x3cdd519b	0.027016452
128	0xbd3159fd	-0.04329871
129	0xbbec7710	-0.007216342
130	0xbdb15c03	-0.08660128
131	0x3db0320d	0.086032964
132	0x3d594876	0.05304762
133	0x3bc081fd	0.005874871
134	0xbd8c095f	-0.06837725
135	0x3c606244	0.013695303
136	0xbcfceb12	-0.030873809
137	0xbd7991ec	-0.060930178
138	0x3c6a4960	0.0142997205
139	0xbceee051	-0.029159697
140	0x3dbae4ab	0.09125646
141	0xbc446f40	-0.011989415
142	0x3de52236	0.11188166
143	0xbcf0d986	-0.029400598
144	0xbd823c2a	-0.06359132
145	0x3d88b2ed	0.066747524
146	0xbe132e6d	-0.14373179
147	0xbb881670	-0.0041530654
148	0x3da63dbb	0.08117243
149	0xbe1765e5	-0.14784963
150	0x3d8be35b	0.06830474
151	0x3e10983f	0.14120577
152	0x3ac28fb1	0.0014843849
153	0xbbdf589e	-0.006815984
154	0x3c924925	0.017857144
155	0xbbcc2e90	-0.0062311366
156	0x3cd75ea8	0.026290253
157	0xbd071a78	-0.032984227
158	0xbcf953ba	-0.030435432
159	0x3da4897f	0.08034038
160	0x3c9b6be0	0.018972337
161	0x3dcbca7e	0.09950732
162	0xbd6f0248	-0.058351785
163	0x3dd560ae	0.10418831
164	0x3dab1dff	0.08355331
165	0x3c0e4d40	0.00868541
166	0xbcef0079	-0.02917503
167	0xbc870d50	-0.01648584
168	0x3dc94fe8	0.09829694
169	0x3da3394d	0.07969914
170	0xbb42639c	-0.0029661423
171	0xbbf2b435	-0.0074067363
172	0xbcc19ab0	-0.023633331
173	0x3d751431	0.05983371
174	0x3d8026f7	0.06257432
175	0x3d538db5	0.051648814
176	0x3d37ccc1	0.044873003
177	0xbda88ee6	-0.08230381
178	0x3daa8837	0.08326762
179	0x3d1f8dde	0.038953654
180	0xbb3e802c	-0.0029068096
181	0x3d361a3e	0.04445862
182	0xbd40bf4f	-0.047057446
183	0x3c8a5121	0.016884388
184	0x3dc4b8c2	0.09605552
185	0x3de9fe54	0.11425462
186	0xbbb03340	-0.005377203
187	0x3dab59a3	0.08366706
188	0x3d73c4e4	0.05951394
189	0xbc4fcc3c	-0.012682971
190	0xbda2661f	-0.07929634
191	0x3d57cfd6	0.052688442
192	0x3d341733	0.043967437
193	0xbd8705a7	-0.06592875
194	0x3c8de5c0	0.017321467
195	0xbcd1ada4	-0.025595494
196	0xbd31d326	-0.043414257
197	0x3dbe83e4	0.093025
198	0xbc7aa910	-0.015299097
199	0x3e066f5a	0.13128415
200	0xbc6fdce0	-0.014640063
201	0x3ce5bcd4	0.028044142
202	0x3db07073	0.08615198
203	0x3e11e698	0.14248121
204	0xbcb90ec9	-0.022590058
205	0xbdf460c1	-0.11932517
206	0x3dd79b4e	0.10527669
207	0xbe115c99	-0.1419548
208	0x3cb1556f	0.021647183
209	0xbcc56698	-0.024096772
210	0xbd3be28a	-0.04587034
211	0x3d89f3b5	0.067359366
212	0xbd587a58	-0.05285105
213	0x3e000c87	0.12504779
214	0x3e06a8d9	0.13150348
215	0xbddd4009	-0.10803229
216	0x3d93bd03	0.072137855
217	0x3cb2f5e8	0.021845773
218	0xbe0f5871	-0.13998581
219	0x3d0e62e9	0.034762297
220	0x3dbc6a53	0.09199967
221	0x3c0111c1	0.007877768
222	0x3dbf5860	0.09343028
223	0xbd2540f9	-0.040345166
224	0x3d4aa5f8	0.049474686
225	0x3cb3b5e9	0.021937327
226	0x3c4046b0	0.011735603
227	0x3dd13d54	0.102167755
228	0xbb23cc64	-0.0024993652
229	0xbe021db5	-0.12706645
230	0x3c5e3320	0.013561994
231	0x3ca13c15	0.01968197
232	0xbbff7b80	-0.007796705
233	0x3d14385e	0.03618657
234	0x3d9c5250	0.07632887
235	0x3cf94644	0.030429013
236	0x3d298c6b	0.04139368
237	0x3d5a60d7	0.05331501
238	0x3db8eecb	0.09029921
239	0x3cd5e124	0.026108332
240	0x3e147894	0.14499122
241	0xbd9437be	-0.072371945
242	0xbc8d9cb4	-0.017286636
243	0xbdcd6557	-0.10029095
244	0xbcd26164	-0.025681205
245	0x3da6e223	0.08148601
246	0x3e016ed8	0.1263994
247	0x3d311f11	0.043242518
248	0xbda09b60	-0.078421354
249	0xbe2f5fd9	-0.17126407
250	0xbc2a2a8c	-0.0103861205
251	0x3d9c12f8	0.076208055
252	0xbe005bd0	-0.12535024
253	0xbd46b838	-0.04851553
254	0x3d316ad4	0.04331477
255	0xbe0ac165	-0.13550337

fc2_1.bias f4 [64]
0	0xbc96d90c	-0.018414043
1	0xbd39e334	-0.045382693
2	0x3d17bcc3	0.03704525
3	0x3d7bad11	0.061444346
4	0xbd006ada	-0.0313519
5	0x3cf31599	0.029673385
6	0x3caecfcf	0.021339325
7	0xbd0731a6	-0.033006333
8	0xbda68f4c	-0.081328005
9	0xbc2c57e9	-0.010519006
10	0xbd8eda6c	-0.069752544
11	0xbcb2b688	-0.021815553
12	0xbc1a7418	-0.009427093
13	0x3cc93574	0.024561621
14	0xbd7c6a0e	-0.06162458
15	0xbde3223c	-0.11090514
16	0xbd48e2fb	-0.04904459
17	0xbd7deac5	-0.06199147
18	0xbdf4b9f9	-0.11949534
19	0x3d005ccc	0.031338498
20	0xbdd0785c	-0.10179207
21	0x3da74b6b	0.08168682
22	0xbcc06104	-0.02348376
23	0x3c00a251	0.007851199
24	0xbd41f8ce	-0.04735642
25	0xbd848b2e	-0.06471859
26	0x3d6aa0c8	0.05728224
27	0x3d94d34b	0.072668634
28	0xbdb87e55	-0.09008471
29	0x3d7340b8	0.059387892
30	0xbde34325	-0.11096791
31	0xbdac3245	-0.08408026
32	0x3dc493c5	0.09598497
33	0xbd80dba7	-0.06291895
34	0xbd346fe6	-0.044052027
35	0xbcdadd43	-0.026716834
36	0xbdaf4d7c	-0.08559701
37	0xbdd5aa03	-0.10432818
38	0xbd57eef1	-0.052718107
39	0xbdf900e8	-0.12158376
40	0xbdba8aa6	-0.09108476
41	0x3d3a6e6c	0.045515463
42	0xbd2ea049	-0.04263333
43	0x3d2494e2	0.04018105
44	0xbdc7bc41	-0.097527035
45	0xbca852b2	-0.020547245
46	0x3c072c03	0.008250239
47	0x3dc337ce	0.09532128
48	0xbc563876	-0.013074985
49	0x3da27683	0.079327606
50	0xbd4f8c5e	-0.050670974
51	0xbdc80ca7	-0.09768038
52	0xbd763503	-0.06010915
53	0xbcba3c70	-0.022733897
54	0xbd61faf1	-0.055170957
55	0x3c8ad669	0.016947942
56	0xbda33c38	-0.0797047
57	0x3d088126	0.03332629
58	0xbd891511	-0.06693471
59	0xbdb236eb	-0.08701881
60	0xbd6cb858	-0.05779299
61	0x3cc68a66	0.024235915
62	0xbda803f6	-0.082038805
63	0xbdea1b91	-0.11431039

fc3.weight f4 [18, 64]
0	0x3e0ffee2	0.14062074
1	0x3d0845d1	0.033269707
2	0xbcc010ed	-0.02344557
3	0x3d9e28f8	0.07722658
4	0xbd4f1e16	-0.0505658
5	0x3cf82226	0.03028972
6	0xbd14d9fe	-0.036340706
7	0x3d8821e2	0.06647088
8	0xbdfb6302	-0.122747436
9	0x3e2847ae	0.16433594
10	0xbd3e4bb9	-0.046458934
11	0x3e1a4646	0.1506587
12	0x3de084dc	0.10962841
13	0x3d734968	0.059396178
14	0xbd691450	-0.056904137
15	0xbe0fe191	-0.1405089
16	0x3caad6b8	0.020854339
17	0x3c2bd0df	0.0104868105
18	0xbc09df0b	-0.008414994
19	0x3c6330d5	0.013866623
20	0xbd936138	-0.071962774
21	0x3dd2b33e	0.10288094
22	0x3c74e950	0.014948204
23	0xbdca4b2f	-0.098776214
24	0x3d2d8364	0.042361632
25	0x3dc20b7f	0.09474849
26	0x3e24f206	0.1610795
27	0x3d97a00a	0.07403572
28	0x3dffd430	0.124916434
29	0x3d04029c	0.03222905
30	0xbd866cd4	-0.06563726
31	0x3e31fd64	0.17381817
32	0x3c7f84b9	0.015595608
33	0xbda4386a	-0.08018573
34	0x392f65b6	0.00016727191
35	0xbcb6bf1f	-0.02230793
36	0x3d874dfd	0.06606672
37	0xbe20fbe5	-0.1572109
38	0xbe21ec67	-0.15812837
39	0x3da8775d	0.08225892
40	0x3d5a0b3d	0.053233374
41	0x3d995794	0.07487407
42	0xbdc22bac	-0.09480986
43	0xbd36b0b3	-0.044602107
44	0x3e0ca4eb	0.13734786
45	0xbc2e5133	-0.010639477
46	0x3d7e0bab	0.062022846
47	0xbdd8e666	-0.1059082
48	0x3d304345	0.043032903
49	0xbd9fcd22	-0.07802798
50	0xbc0e1630	-0.008672282
51	0x3e3681bb	0.17822926
52	0xbd815a27	-0.06316023
53	0x3cf13ec9	0.029448884
54	0x3d95ccd1	0.07314456
55	0xbd5f7a32	-0.054559894
56	0x3c9972ca	0.018731494
57	0xbd65d7bb	-0.05611394
58	0x38548a00	5.067326e-05
59	0x3d375e85	0.044767875
60	0x3dcb1f2b	0.09918054
61	0x3d75df02	0.06002713
62	0xbdb97a30	-0.090565085
63	0x3d00c6a1	0.031439427
64	0x3d79e11a	0.06100569
65	0x3d41750f	0.047230776
66	0x3b4d8f49	0.0031365922
67	0x3e1f1fa6	0.15539417
68	0x3c6f5691	0.014608041
69	0xbd8a7e97	-0.06762426
70	0xbd80047d	-0.06250856
71	0xbde811cc	-0.113315195
72	0xbd310578	-0.043218106
73	0x3c69697d	0.014246342
74	0x3e0afbd6	0.1357263
75	0x3d2bdd4e	0.0419591
76	0xbdeb59d4	-0.11491743
77	0xbb115337	-0.0022174844
78	0xbdc218d0	-0.09477389
79	0x3cf31fd3	0.02967826
80	0xbd007dc4	-0.03136994
81	0xbc3efd1b	-0.011657025
82	0xbd492b1d	-0.04911338
83	0x3d88827a	0.066655114
84	0xbd82d9ac	-0.06389174
85	0x3bc45aee	0.005992285
86	0x3ba34000	0.0049819946
87	0x3d64025e	0.05566632
88	0xbd130478	-0.035892934
89	0x3dde93ef	0.1086806
90	0x3d3e9035	0.046524245
91	0x3e255708	0.16146481
92	0xbdbaf81e	-0.09129356
93	0xbd9d0801	-0.07667542
94	0x3caf2ef3	0.021384692
95	0x3bdae6ab	0.00668033
96	0x3c42d3c9	0.011891314
97	0x3df906ec	0.12159523
98	0x3d1be2d3	0.038058113
99	0x3a46e002	0.00075864804
100	0x3cf03d62	0.029326145
101	0x3d52727d	0.051378716
102	0xbdc79c69	-0.0974663
103	0xbcc5d6c1	-0.024150254
104	0x3d5786b7	0.05261871
105	0x3def7113	0.11691489
106	0xbd830284	-0.06396964
107	0x3df97665	0.12180785
108	0x3d9d88a2	0.07692076
109	0x3da128d8	0.078691185
110	0x3dc590b4	0.096467406
111	0xbd9b9116	-0.07596032
112	0x3d6ed39f	0.058307286
113	0xbd3a3bf6	-0.04546734
114	0xbda497b2	-0.08036746
115	0x3cc6cdfa	0.02426814
116	0x3dfec464	0.12439802
117	0xbcee4a12	-0.029088054
118	0x3dd5e594	0.10444179
119	0x3dbcea90	0.09224427
120	0x3dd1290f	0.102129094
121	0x3d8d0069	0.06884844
122	0xbcf085a2	-0.029360596
123	0x3ae3e1ce	0.0017386021
124	0x3c061eda	0.0081860665
125	0x3da0366c	0.0782288
126	0x3dd12b20	0.102133036
127	0xbd356773	-0.04428811
128	0xbd802c75	-0.062584795
129	0xbd18fb7a	-0.0373492
130	0xbdc491c5	-0.09598116
131	0x3e321c2b	0.17393558
132	0xbd07a710	-0.033118308
133	0xbd3e7d7a	-0.046506383
134	0xbd15413f	-0.036439177
135	0x3dfbb866	0.122910306
136	0xbd87bf8e	-0.06628333
137	0x3d94ca91	0.07265199
138	0x3d43dced	0.047818113
139	0x3dceb851	0.10093749
140	0x3da55e3a	0.08074613
141	0x3e1c7f9d	0.15283056
142	0xbc92bf20	-0.017913401
143	0x3dcf4433	0.1012043
144	0xbdf09498	-0.11747092
145	0xbd261b88	-0.0405536
146	0x3dd4ffb7	0.10400336
147	0xbd7ee499	-0.062229726
148	0xbd905709	-0.07047851
149	0x3d646067	0.055756
150	0x3cd01b10	0.02540353
151	0x3dba9325	0.09110097
152	0x3dd8a028	0.105774224
153	0xbd66abe4	-0.05631627
154	0x3d7e1fe5	0.062042136
155	0xbbc9c641	-0.006157667
156	0xbe3a28a4	-0.18179566
157	0xbcff7998	-0.03118591
158	0x3cbf18ee	0.023327317
159	0x3ddd388f	0.10801803
160	0x3e0d2175	0.13782294
161	0x3dda0ef2	0.10647382
162	0xbc197532	-0.00936632
163	0xbcfae445	-0.030626426
164	0x3df997fa	0.1218719
165	0x3e2e7af8	0.17039096
166	0x3dbc519b	0.091952525
167	0x3d9f60c1	0.07782126
168	0xbe027f03	-0.12743764
169	0xbc8bb8d6	-0.01705591
170	0x3d2245c4	0.039617315
171	0x3da8fdb9	0.08251519
172	0x3dc74e55	0.097317375
173	0x3d83a01d	0.064270236
174	0xbcacf757	-0.021114035
175	0x3ddedff4	0.108825594
176	0x3d6a2c11	0.05717093
177	0x3b09ff28	0.0021056626
178	0x3dd549b4	0.104144484
179	0x3dd76cc8	0.10518795
180	0xbd786853	-0.060646366
181	0xbd4988b7	-0.049202647
182	0xbcc23291	-0.023705753
183	0x3db2ff73	0.08740129
184	0xbc35ad34	-0.011088658
185	0x3cf586c9	0.029971497
186	0x3af90e06	0.0019001372
187	0x3e29ae22	0.16570333
188	0x3e1b6dcc	0.15178603
189	0x3cc3e49d	0.023912722
190	0xbcfdf158	-0.03099887
191	0x3d4e236a	0.050326742
192	0x3e1167e2	0.14199784
193	0xbd6b1003	-0.057388317
194	0x3d9716bb	0.07377382
195	0xbd88db35	-0.066824354
196	0xbdd28eda	-0.10281153
197	0x39aae8ca	0.00032598368
198	0xbcf17d49	-0.029478686
199	0x3deb2b6c	0.114828914
200	0x3cbd06a0	0.023074448
201	0xbbd76185	-0.0065729045
202	0x3e0982ba	0.13428774
203	0xbb9270ba	-0.0044690045
204	0xbda8467a	-0.08216567
205	0xbd560298	-0.052248567
206	0x3cc88bb8	0.024480686
207	0xbda925e0	-0.08259177
208	0xbc598fc0	-0.013278902
209	0xbac472aa	-0.0014987786
210	0xbd269278	-0.040667027
211	0x3dc5bb0b	0.09654816
212	0xbc348bdc	-0.011019673
213	0x3dcf5e95	0.10125462
214	0xbd8a1fa6	-0.06744318
215	0x3d49b948	0.049248964
216	0xbddc6f62	-0.10763432
217	0xbd080cdb	-0.033215385
218	0x3dced09b	0.10098382
219	0x3d9093df	0.07059454
220	0x3d329983	0.04360343
221	0xba94e1cd	-0.0011358798
222	0x3e09cd89	0.13457312
223	0x3e1c4271	0.1525972
224	0xbd591700	-0.05300045
225	0x3d83499c	0.06410524
226	0x3e0984bb	0.13429539
227	0x3d9f0a03	0.077655815
228	0x3c8eceee	0.017432656
229	0x3de10740	0.10987711
230	0x3d5268cc	0.051369473
231	0x3d483ffb	0.04888914
232	0xbc873328	-0.016503885
233	0xbd881c45	-0.06646017
234	0x3db5331c	0.08847639
235	0xbd0479ac	-0.032342598
236	0xbc673d1f	-0.0141136935
237	0x3cf38d42	0.029730443
238	0x3db2f0e8	0.087373555
239	0xbd694a07	-0.056955364
240	0x3dc306cf	0.09522783
241	0xbd5e4229	-0.054262314
242	0xbdaeb6d2	-0.08530964
243	0x3bcfba78	0.0063393675
244	0xbc81d949	-0.01585068
245	0x3d74898f	0.0597015
246	0x3c9779c1	0.018490674
247	0x3cc950f7	0.02457474
248	0x3c4bcda3	0.012439164
249	0x3d97b035	0.07406656
250	0x3bb949e2	0.0056545595
251	0xbd053616	-0.032522283
252	0x3d23a715	0.039954264
253	0x3d96fbf5	0.07372276
254	0xbdd94d48	-0.10610443
255	0x3dc98328	0.09839469

fc3.bias f4 [18]
0	0xbccd834e	-0.025087025
1	0xbd0b34ff	-0.033986088
2	0xbce663d8	-0.028123781
3	0xbb3cb982	-0.0028797095
4	0x3ca974c6	0.020685565
5	0x3b9b3cca	0.004737471
6	0x38b5ddf0	8.672092e-05
7	0xbb07743d	-0.0020668649
8	0xbca5e7dd	-0.020252163
9	0x3c5af6d4	0.0133645125
10	0xbc4721d5	-0.012154062
11	0xbc77a9b0	-0.01511614
12	0x3c5e6023	0.0135727255
13	0xbcf4818f	-0.029846935
14	0x3ba1408a	0.0049210237
15	0x3b571f55	0.0032825072
16	0xbc93b000	-0.01802826
17	0x3b9b3715	0.004736791
