models/2024-07-20_16-19-11/epoch_0010_loss_0.00040140/dynamics.pth (torch, 83084 bytes, 8 tensors)

fc1.weight f4 [64, 34]
0	0xbe09b10f	-0.13446449
1	0x3d904a44	0.07045415
2	0xbdd43def	-0.103633754
3	0x3bc11860	0.0058927983
4	0xbd47cece	-0.04878121
5	0xbe2907a7	-0.16506825
6	0xbe09b644	-0.13448435
7	0xbe165329	-0.1468016
8	0x3d08cd40	0.033398867
9	0xbe25b176	-0.16180977
10	0xbd96d4e0	-0.073648214
11	0xbd818c5a	-0.06325598
12	0xbd37f34c	-0.04490976
13	0x3d000f84	0.031264797
14	0x3d98d1e4	0.074619085
15	0xbddc83ec	-0.107673496
16	0xbe2a1b96	-0.16612086
17	0x3d039fc8	0.0321348
18	0x3de3707a	0.111054376
19	0x3e0789db	0.13236181
20	0xbe0bdc3b	-0.1365823
21	0xbe111675	-0.14168723
22	0x3e2cb2c5	0.1686507
23	0xbbe15b40	-0.006877333
24	0xbd0a4308	-0.033755332
25	0x3e2ebc41	0.17064
26	0x3de9443e	0.11389969
27	0xbd6642f0	-0.05621618
28	0x3e036ff3	0.12835674
29	0xbdee47c0	-0.11634779
30	0x3d5ba660	0.053625464
31	0x3e2cf501	0.16890337
32	0xbdfaca0f	-0.12245571
33	0xbe25fba8	-0.1620928
34	0x3d0d7a3c	0.0345404
35	0x3d078dcc	0.033094212
36	0x3e0c3e43	0.13695626
37	0x3d84035a	0.06445952
38	0x3df795be	0.12089108
39	0x3d751900	0.059838295
40	0x3dabde52	0.083920136
41	0xbd410d64	-0.04713191
42	0xbdb40b35	-0.087912
43	0xbdce3edf	-0.100705855
44	0x3d62fc1c	0.05541621
45	0x3da6c09e	0.081422076
46	0xbdd823c1	-0.105536945
47	0xbd2b995c	-0.0418943
48	0xbdbc0abe	-0.091817364
49	0x3e2adec3	0.1668654
50	0xbdb3000c	-0.08740243
51	0xbc697390	-0.014248744
52	0x3d96640a	0.073433
53	0xbd7d2f98	-0.061812967
54	0x3dfce702	0.12348749
55	0xbdff5680	-0.124676704
56	0x3d1e100c	0.038589522
57	0x3dd32f32	0.10311736
58	0x3ca27d48	0.01983513
59	0xbd4ab194	-0.049485758
60	0x3e22e4bb	0.15907566
61	0x3daae98a	0.08345325
62	0x3e145511	0.14485575
63	0x3df9ed9a	0.12203522
64	0x3e242385	0.16029175
65	0x3d7980cc	0.060913846
66	0xbdbc27ae	-0.09187256
67	0xbd7e2b04	-0.06205274
68	0xbe225f6c	-0.15856713
69	0x3e47811c	0.19482845
70	0x3db4f98e	0.08836661
71	0x3e272d04	0.16325766
72	0xbc673c6c	-0.014113527
73	0xbdc77976	-0.09739964
74	0xbda3ff13	-0.08007636
75	0xbd5772f4	-0.052599862
76	0xbd493cc3	-0.049130213
77	0xbe73d19b	-0.23810427
78	0x3e4171a1	0.18891002
79	0x3cdba998	0.026814267
80	0xbdb342a4	-0.08752945
81	0xbb6571f1	-0.0035010541
82	0xbe02c34d	-0.12769814
83	0xbd6edf38	-0.058318347
84	0x3e4f3ce9	0.20238079
85	0x3d70db61	0.058802966
86	0xbde5994c	-0.1121088
87	0xbdeecb9d	-0.1165993
88	0xbe1c5b69	-0.15269245
89	0xbd5f3e4a	-0.054502763
90	0xbc98b268	-0.018639758
91	0x3d38c526	0.04510989
92	0x3d05dc54	0.032680824
93	0x3d6215ee	0.055196695
94	0xbbf0cf37	-0.0073489207
95	0x3d563ef0	0.052306116
96	0x3b939ef1	0.0045050313
97	0xbe4ec73c	-0.2019319
98	0xbdaeab09	-0.08528716
99	0x3d5b3cfd	0.05352496
100	0xbe70ef29	-0.23528732
101	0xbd6a31cd	-0.0571764
102	0xbd82c3a5	-0.063849725
103	0x3d9d9fc4	0.076964885
104	0x3e2d61ad	0.16931792
105	0x3e1b95fb	0.15193932
106	0x3dec2fd6	0.115325615
107	0x3dfbe392	0.12299265
108	0xbe1f424c	-0.15552634
109	0x3e122181	0.14270593
110	0x3e06e833	0.13174514
111	0xbdf5cc70	-0.12001884
112	0xbdfaa0d3	-0.12237706
113	0xbc338720	-0.010957509
114	0x3dba874a	0.091078356
115	0x3c2f02e0	0.010681838
116	0x3e2b1545	0.16707332
117	0x3baf1b20	0.0053438097
118	0xbdf5d300	-0.12003136
119	0xbd39d938	-0.04537317
120	0xbe1adbbc	-0.15122885
121	0x3ca94d20	0.020666659
122	0xbdaa5867	-0.08317643
123	0xbdb2c878	-0.08729643
124	0x3daac8ca	0.08339079
125	0xbb703e80	-0.0036658347
126	0xbd8ed11b	-0.069734775
127	0x3c2e1640	0.010625422
128	0x3d3eaed8	0.046553463
129	0x3df0dbca	0.117606714
130	0x3d345038	0.044021815
131	0x3bd93440	0.006628543
132	0xbb0a7bc0	-0.002113089
133	0xbe048565	-0.12941511
134	0x3d58d1ec	0.052934572
135	0xbe2ee9cd	-0.17081375
136	0xbd8ec580	-0.06971264
137	0xbcce8490	-0.025209695
138	0xbc4c5ae0	-0.012472838
139	0xbd8fcf6e	-0.07021986
140	0xbd276e84	-0.04087688
141	0x3dd4b8e6	0.10386829
142	0xbdb66e0e	-0.0890771
143	0x3def2f06	0.11678891
144	0x3ccafb98	0.024778172
145	0xbe255828	-0.1614691
146	0x3dbaa0fe	0.09112738
147	0xbd1ee308	-0.038790733
148	0x3da93296	0.082616016
149	0x3d75fcc0	0.060055494
150	0xbd8762de	-0.06610654
151	0x3c8ebf20	0.01742512
152	0x3d12e57c	0.035863385
153	0xbe1f22ee	-0.15540668
154	0xbd8ca5b3	-0.06867542
155	0xbdbcdd57	-0.09221905
156	0xbdeaab7e	-0.11458491
157	0xbd69b29e	-0.05705511
158	0xbdeec63c	-0.11658904
159	0x3d5b0c00	0.05347824
160	0xbda490cc	-0.0803543
161	0x3deee50a	0.116647795
162	0xbca45980	-0.020062208
163	0x3dae4012	0.08508314
164	0x3e1fccdb	0.1560549
165	0xbcd011a8	-0.025399044
166	0x3e24d2c3	0.16096024
167	0x3df9a46a	0.121895626
168	0xbd16f6bc	-0.036856398
169	0x3df25876	0.11833279
170	0xbdc05463	-0.093910955
171	0x3b918f00	0.0044420958
172	0x3bc53e80	0.0060194135
173	0xbd5a4aae	-0.053293876
174	0xbdeb7bf9	-0.11498255
175	0xbe372d1a	-0.17888299
176	0xbdbb7b5d	-0.09154389
177	0x3d86ef18	0.06588572
178	0xbe409e28	-0.18810332
179	0xbcda2430	-0.026628584
180	0x3cae14be	0.021250125
181	0xbe117113	-0.1420329
182	0x3dbf127d	0.09329698
183	0x3d196b27	0.037455704
184	0xbd5937fb	-0.053031903
185	0xbe29886f	-0.16555952
186	0xbd9a7024	-0.075409204
187	0xbdc6cf92	-0.0970756
188	0x3dcd66a0	0.1002934
189	0xbd66a24f	-0.056307133
190	0x3ddf8c77	0.109154634
191	0xbdde78df	-0.10862898
192	0xbe16f682	-0.14742473
193	0xbd91887e	-0.07106112
194	0xbd5b3bbf	-0.053523775
195	0xbcb1b0c2	-0.02169073
196	0x3d9a7bcd	0.075431444
197	0x3dcf20b5	0.1011366
198	0xbda5c7ef	-0.08094775
199	0xbe643f92	-0.22289875
200	0xbd2be4c7	-0.041966226
201	0x3de3fe67	0.11132508
202	0x3d8a6393	0.067572735
203	0xbda5d699	-0.08097572
204	0xbe26efa7	-0.16302358
205	0x3d227224	0.039659634
206	0xbe23d186	-0.15997896
207	0xbd7b7f3a	-0.06140063
208	0x3d3175ac	0.04332511
209	0xbe2b0f9b	-0.16705172
210	0x3c933b70	0.017972678
211	0x3db993aa	0.09061368
212	0x3da32bfe	0.07967375
213	0x3e2bf107	0.16791163
214	0x3ce8cf10	0.028419048
215	0x3de67c06	0.11254124
216	0x3e13bc61	0.1442733
217	0x3dcaa60a	0.09894951
218	0x3d9b8314	0.075933605
219	0x3dcb14fa	0.0991611
220	0xbd85b8b1	-0.06529368
221	0x3e04204d	0.12902947
222	0xbb61b540	-0.0034440309
223	0x3dfebd52	0.12438454
224	0xbddfe9b2	-0.10933246
225	0xbdcdc0d2	-0.10046543
226	0x3ddbf7d2	0.10740627
227	0xbddd8d04	-0.10817912
228	0x3c6d0c40	0.014468253
229	0x3d3893d4	0.045062855
230	0x3caab200	0.02083683
231	0xbcaa2e98	-0.02077417
232	0x3df5cc42	0.1200185
233	0xbdeb3884	-0.11485389
234	0x3e25b02b	0.16180484
235	0x3bdd5360	0.006754324
236	0xbd43a366	-0.04776325
237	0x3d83b77c	0.06431481
238	0x3cc52b90	0.024068624
239	0x3ce0a338	0.027421579
240	0x3db7d512	0.08976187
241	0xbdf94287	-0.12170892
242	0x3d049fdc	0.032379016
243	0xbd0af584	-0.03392555
244	0xbdf168d0	-0.117875695
245	0xba350000	-0.0006904602
246	0xbe2d9c2f	-0.1695411
247	0x3ce84518	0.028353259
248	0xbe25f968	-0.16208422
249	0x3e182d5d	0.14861055
250	0x3d05c560	0.032658935
251	0xbe0222c2	-0.12708572
252	0xbd95cf7a	-0.07314964
253	0xbda6e2df	-0.08148741
254	0x3e1791e1	0.14801742
255	0xbdf3e624	-0.1190913

fc1.bias f4 [64]
0	0xbc9fc5b8	-0.01950346
1	0x3d4c8f2c	0.049941227
2	0xbe413112	-0.18866375
3	0x3dd19df9	0.10235209
4	0xbd16bdc9	-0.036802087
5	0xbc328d9b	-0.010898019
6	0xbc8597e0	-0.016307771
7	0xbdc5bbc5	-0.09654955
8	0x3d439e0c	0.047758147
9	0xbc2d3605	-0.010571961
10	0x3dd44008	0.103637755
11	0xbd381e64	-0.044950858
12	0xbdcb0672	-0.09913339
13	0xbdbc3ebf	-0.09191655
14	0xbd8b5b81	-0.06804562
15	0xbd3b9e24	-0.04580511
16	0xbd28e380	-0.041232586
17	0xbd51af4a	-0.05119256
18	0x3dad0b6b	0.084494434
19	0xbdda9b26	-0.106741235
20	0xbe00b291	-0.12568118
21	0x3cf27ee4	0.029601522
22	0x3e095560	0.13411474
23	0xbc9b833e	-0.01898348
24	0xbd53d6de	-0.051718585
25	0xbd71186e	-0.05886119
26	0xbb4481a0	-0.002998449
27	0xbcdde12e	-0.027084913
28	0xbd5858fa	-0.05281923
29	0x3d7e53cc	0.062091634
30	0xbe03a49b	-0.12855761
31	0xbe26af1b	-0.16277735
32	0xbe070092	-0.13183811
33	0x3dad6bdb	0.084678374
34	0x3ddf1f9e	0.108947024
35	0xbc88fa4b	-0.016720911
36	0xbd3050b3	-0.04304571
37	0x3e74d5e9	0.23909725
38	0x3d8920a0	0.06695676
39	0xbe18e193	-0.149298
40	0x3da274b9	0.07932419
41	0xbd81d01e	-0.06338523
42	0x3dd4bbb7	0.10387366
43	0xbd7c1895	-0.06154688
44	0x3e2e8512	0.1704295
45	0x3de90543	0.11377957
46	0x3d65785c	0.056022987
47	0xbe404a45	-0.18778332
48	0xbbd62a8f	-0.006535835
49	0xbdc28a40	-0.09499025
50	0x3dea5664	0.11442259
51	0x3e0823fd	0.13294978
52	0xbcc0a4a8	-0.023516014
53	0x3d2e34f7	0.04253098
54	0x3e0eaaf2	0.13932398
55	0xbd8a52e6	-0.06754093
56	0xbba9b622	-0.0051791826
57	0xbcf1ec54	-0.029531635
58	0x3ca30461	0.019899549
59	0x3dbe4e48	0.09292275
60	0xbc7c2b07	-0.015391118
61	0x3cfa6bd8	0.030569002
62	0xbe292fbb	-0.16522114
63	0xbe56633f	-0.20936297

fc2.weight f4 [128, 64]
0	0x3da55b1c	0.08074018
1	0x3be29def	0.0069158
2	0x3cd4a89f	0.025959311
3	0x3c403296	0.011730811
4	0xbddbe530	-0.107370734
5	0xbe054587	-0.13014804
6	0x3cfe1e10	0.031020194
7	0xbd376b5c	-0.04478012
8	0xbcb9c7c0	-0.022678256
9	0x3d5b1877	0.05349013
10	0xbdcc97a0	-0.09989858
11	0xbd907bfc	-0.07054898
12	0x3d81342c	0.06308779
13	0x3db3896c	0.087664455
14	0xbe011ad6	-0.12607893
15	0x3d967d9c	0.07348177
16	0xbd4d6f4c	-0.05015497
17	0x3d116a56	0.0355018
18	0x3d05e878	0.032692403
19	0xbd3512e0	-0.044207454
20	0xbdb3aa44	-0.0877271
21	0x3dc639b6	0.09678976
22	0xbd88a6eb	-0.06672462
23	0xbd506dda	-0.050886013
24	0x3cfe1b2f	0.031018822
25	0xbd849098	-0.064728916
26	0xbc7ca4cb	-0.015420149
27	0x3d6e000e	0.05810552
28	0xbd769480	-0.060200214
29	0xbe2cd9b1	-0.16879918
30	0xbdd57956	-0.104235336
31	0xbdd52855	-0.10408083
32	0x3db773fc	0.08957669
33	0xbc00203f	-0.007820188
34	0xbe1f2ead	-0.15545149
35	0xbd6eeab0	-0.058329284
36	0x3ce751d0	0.028237253
37	0xbe2e2103	-0.1700478
38	0x3d16faef	0.036860403
39	0x3e035838	0.12826622
40	0xbdf7e1bc	-0.12103602
41	0xbd3c3c38	-0.045955867
42	0xbe0bedf7	-0.13664995
43	0xbda7ad80	-0.081873894
44	0xbde4d9f9	-0.111743875
45	0x3d1fa1fd	0.038972843
46	0x3d8bdd66	0.06829338
47	0x3e0ef945	0.13962276
48	0xba7390a1	-0.0009291266
49	0xbbc24030	-0.005928062
50	0xbe0ef82a	-0.13961855
51	0x3c21767f	0.009854912
52	0x3dff90ae	0.12478767
53	0xbdc8211e	-0.097719416
54	0xbd2e4868	-0.04254952
55	0x3de6f4b6	0.11277144
56	0xbc4e606e	-0.012596233
57	0xbe26bf73	-0.1628397
58	0xbe28297b	-0.16422074
59	0xbd883960	-0.066515684
60	0x3c9a9f7d	0.018874878
61	0xbd4ed6de	-0.050497882
62	0xbda21a1c	-0.07915136
63	0xbdc03c2a	-0.093864754
64	0xbdbab734	-0.091169745
65	0xbdfa3c84	-0.12218574
66	0xbe2789b9	-0.16361131
67	0x3de8116e	0.113314494
68	0x3c92c110	0.017914325
69	0x3c230840	0.009950697
70	0x3ba14300	0.004921317
71	0x3cbea948	0.023274079
72	0x3dfc6ac0	0.123250484
73	0xbbc57d5f	-0.0060269083
74	0xbd48cf4c	-0.04902582
75	0xbca62ad0	-0.020284086
76	0x3d92d19a	0.071688846
77	0xbdc51e48	-0.09624916
78	0xbda3c74d	-0.07996998
79	0xbd613c77	-0.054989304
80	0xbd095e34	-0.033537105
81	0xbe1d8b0c	-0.15385073
82	0x3aa1b39f	0.0012336856
83	0x3dd5892e	0.104265556
84	0xbdefc53c	-0.11707541
85	0xbe24dac7	-0.16099082
86	0xbc42e9d0	-0.011896566
87	0xbb2ce500	-0.0026381612
88	0x3d1bc250	0.038027108
89	0xbc63dc40	-0.013907492
90	0x3d3e97e7	0.046531584
91	0xbd9aca2b	-0.07558092
92	0xbbb83a40	-0.0056221783
93	0xbc62c470	-0.01384078
94	0xbda13e69	-0.07873232
95	0xbd4e8955	-0.05042394
96	0x3d0634f8	0.03276536
97	0xbcb2171b	-0.021739533
98	0xbd8acea6	-0.06777696
99	0x3d4be470	0.0497784
100	0xbcb46758	-0.022021934
101	0x3ce4edd8	0.027945444
102	0x3ca9ca24	0.020726271
103	0xbe2f2c19	-0.17106666
104	0xbe00f185	-0.12592132
105	0x3d456880	0.048195362
106	0xbd6f76ac	-0.058462784
107	0xbd2d6152	-0.04232914
108	0xbdb64844	-0.08900502
109	0xbdc4da41	-0.09611941
110	0x3c61ecac	0.013789337
111	0x3dd965a2	0.10615088
112	0x3ad18f82	0.0015988203
113	0x3d2e6fc7	0.042587068
114	0x3d4e68d9	0.05039296
115	0x3d6a5418	0.057209104
116	0x3d1a4554	0.037663773
117	0xbddf653d	-0.109079815
118	0x3dd2676c	0.102736324
119	0xbe0307e2	-0.12795976
120	0xbd921f9e	-0.07134937
121	0xbdd42504	-0.10358623
122	0x3d78d2a0	0.060747743
123	0xbd5c2f22	-0.053755887
124	0xbd8ae2e3	-0.067815565
125	0xbde52aec	-0.11189827
126	0x3d754bd4	0.05988677
127	0xbc8d2d70	-0.01723358
128	0xbba08a40	-0.004899293
129	0x3ddf5d63	0.10906484
130	0xbd4942ac	-0.04913585
131	0x3e141815	0.14462312
132	0x3b231cfa	0.0024889098
133	0x3de262c2	0.11053993
134	0x3dd5b38a	0.10434635
135	0x3dbe9bf8	0.093070924
136	0x3d521972	0.051293798
137	0x3e022992	0.1271117
138	0x3e0a4470	0.1350267
139	0x3b87a200	0.004139185
140	0x3d201018	0.03907785
141	0x3d550410	0.052005827
142	0xbc060b7a	-0.008181447
143	0xbddac4ca	-0.10682066
144	0x3cf42290	0.029801637
145	0xbdb7c1ac	-0.08972487
146	0x3dcafb8c	0.0991126
147	0x3dc9efde	0.09860204
148	0xbdb47bcc	-0.08812675
149	0xbdcadd6e	-0.099055156
150	0x3e2df6a7	0.16988622
151	0x3e34efca	0.17669597
152	0x3e4037a5	0.18771227
153	0x3dcfc6a2	0.10145308
154	0xbe139c22	-0.14415029
155	0x3d3b07b2	0.045661636
156	0xbd577cc0	-0.052609205
157	0x3dca9ca5	0.09893159
158	0xbdcb6fba	-0.099334195
159	0xbd98c3e0	-0.07459235
160	0xbd5ca414	-0.053867415
161	0x3e044a7a	0.12919036
162	0x3da39873	0.07988062
163	0x3c98333d	0.01857912
164	0x3def7d88	0.11693865
165	0x3e592d20	0.2120862
166	0xbd9d63de	-0.07685064
167	0x3dac465c	0.084118575
168	0xbdbbf632	-0.091778174
169	0xbc6807f0	-0.014162049
170	0x3e3f0b00	0.1865654
171	0xbd9174bf	-0.07102346
172	0x3e2def1c	0.16985744
173	0x3e298cff	0.16557692
174	0x3e027332	0.12739256
175	0xbe28d770	-0.16488433
176	0x3cbb22d6	0.02284376
177	0xbd0f9f0c	-0.03506379
178	0x3bba54df	0.005686387
179	0xbd676bd9	-0.056499336
180	0xbd00a558	-0.031407684
181	0xbdc6a99b	-0.097003184
182	0x3d88caf9	0.06679339
183	0xbe1bc80c	-0.1521303
184	0xbcfec438	-0.031099424
185	0xbd09549d	-0.03352796
186	0x3d9487a0	0.07252431
187	0x3d2240f0	0.03961271
188	0x3dd98979	0.10621924
189	0x3e19941a	0.14997903
190	0xbdcf1ff6	-0.10113518
191	0xbdb08830	-0.08619726
192	0xbba47140	-0.0050183833
193	0x3e114173	0.14185123
194	0xbe39b404	-0.18135077
195	0x3e172fe4	0.14764363
196	0x3e4e883c	0.20169157
197	0x3e547447	0.20747481
198	0x3c484ed0	0.012225822
199	0xbc153360	-0.009106487
200	0x3e08eaff	0.13370894
201	0x3b28bf6e	0.0025748867
202	0x3cc73c26	0.024320673
203	0x3cff0170	0.031128615
204	0xbdd19f70	-0.102354884
205	0xbda720f0	-0.08160579
206	0xbe343bd0	-0.17600942
207	0x3cc7d48f	0.024393348
208	0xbde331e2	-0.11093499
209	0xbe35f6d5	-0.1776994
210	0x3c43ff39	0.011962705
211	0xbda1f9d2	-0.079089776
212	0xbc6d76e0	-0.014493674
213	0xbaa5de61	-0.0012654775
214	0x3dbe9b7a	0.093069986
215	0x3c822e66	0.015891265
216	0x3d0f38ef	0.034966405
217	0xbce1b8e8	-0.02755399
218	0xbe197d82	-0.14989284
219	0xbe1dc58b	-0.15407388
220	0x3db35394	0.08756176
221	0x3d956741	0.07295085
222	0xbda61876	-0.08110134
223	0xbdbacc00	-0.09120941
224	0xbc3fb4e0	-0.011700839
225	0xbd8d25a6	-0.068919465
226	0x3de99078	0.11404508
227	0x3e27397f	0.16330527
228	0xbc31b2c6	-0.010845846
229	0x3e27ccdd	0.16386743
230	0xbd63d032	-0.055618472
231	0xbdc8a5d6	-0.09797256
232	0x3dfd4a0a	0.123676375
233	0xbd2f4cf4	-0.042797998
234	0x3d5145a2	0.051091798
235	0xbd0f2bb8	-0.034953803
236	0x3e212f8a	0.15740791
237	0x3de488f2	0.11158933
238	0xbdd5df8b	-0.10443028
239	0xbce4ce68	-0.027930453
240	0x3d4d4df0	0.050123155
241	0xbcfae41f	-0.030626355
242	0x3d89d7fa	0.067306474
243	0xbd376f85	-0.044784088
244	0x3cd0e9b8	0.02550207
245	0x3cb3a031	0.021926971
246	0x3e0efa23	0.13962607
247	0xbe236eeb	-0.1596028
248	0xbd1b8335	-0.037966926
249	0xbd9f02d7	-0.077642135
250	0x3e10ca55	0.14139684
251	0x3dee453d	0.116343
252	0x3bf8c7c4	0.0075921733
253	0x3e038a0e	0.12845632
254	0x3b9a5e40	0.0047109425
255	0x3cdd184f	0.02698913

fc2.bias f4 [128]
0	0x3ce66cce	0.028128054
1	0xbde69773	-0.112593554
2	0x3dc59f07	0.09649473
3	0x3df304d8	0.11866158
4	0x3bf1f219	0.0073835966
5	0x3d7bc6a8	0.06146875
6	0x3c703821	0.01466182
7	0x3d9e5cb0	0.077325225
8	0xbd87492e	-0.06605755
9	0xbdf3dcb4	-0.1190733
10	0x3cf8024a	0.030274529
11	0x3d885465	0.06656722
12	0xbd854ce4	-0.06508806
13	0xbd2717db	-0.040794235
14	0xbdb5136c	-0.08841595
15	0xbdb986b2	-0.09058894
16	0xbd1d18fc	-0.038353905
17	0x3d882c9a	0.06649132
18	0xbdacea0e	-0.0844308
19	0xbd9c16af	-0.07621514
20	0xbd774206	-0.0603657
21	0xbd80ef0d	-0.06295595
22	0x3c880f7d	0.016608948
23	0xbd9541b1	-0.0728792
24	0xbd80a52e	-0.062815055
25	0xbcc676b8	-0.024226531
26	0xbdbf45fc	-0.0933952
27	0xbcbc7310	-0.023004085
28	0xbd762998	-0.06009826
29	0xbc5f9ece	-0.013648702
30	0xbcb06b70	-0.021535605
31	0xbde49441	-0.1116109
32	0xbd0a1022	-0.03370679
33	0xbdbed7ca	-0.09318502
34	0xbdad2ccf	-0.08455812
35	0xbcadfe58	-0.021239445
36	0x3de694cb	0.11258849
37	0xbc6ad388	-0.01433266
38	0x3d7a7553	0.061147045
39	0xbe1f7d8c	-0.15575236
40	0x3dcbefc3	0.0995784
41	0x3d81b37a	0.063330606
42	0xbc5e2cef	-0.013560518
43	0xbd4db044	-0.050216928
44	0xbdf7c56e	-0.120982036
45	0xbd28bff0	-0.04119867
46	0x3d891655	0.066937126
47	0xbd91fda7	-0.071284585
48	0xbbde7d69	-0.0067898524
49	0xbd6519b0	-0.0559327
50	0xbc5c89bf	-0.013460576
51	0x3c8782de	0.016541895
52	0xbc8d7b2f	-0.017270653
53	0x3cc544ad	0.024080599
54	0xbd1aedd8	-0.03782448
55	0xbd83eef7	-0.06442063
56	0xbdc27db8	-0.09496635
57	0x3e0a6ed8	0.13518846
58	0xbcab42d8	-0.020905897
59	0xbc478302	-0.012177231
60	0x3d611378	0.054950207
61	0xbd08dcee	-0.03341382
62	0xbb466e3c	-0.0030278107
63	0x3d9a2ec4	0.07528451
64	0x3c0f9c08	0.008765228
65	0xbe3277a4	-0.17428452
66	0xbd319ee7	-0.04336443
67	0xbc742970	-0.014902458
68	0xbce8a530	-0.02839908
69	0x3ba989c4	0.0051738936
70	0xbc9958df	-0.018719135
71	0x3d145920	0.03621781
72	0xbdda9dca	-0.10674627
73	0x3c8e6f9f	0.01738721
74	0xbe25ef35	-0.16204531
75	0xbe1273ae	-0.14301941
76	0xbc950f76	-0.018195849
77	0x3cb9848c	0.022646211
78	0xbd8aaf04	-0.06771663
79	0xbdecb962	-0.115587965
80	0x3e17e6e8	0.14834177
81	0xbdbb915e	-0.09158586
82	0x3d90ce64	0.07070616
83	0xbd81f174	-0.06344882
84	0xbdd3bba8	-0.10338527
85	0xbd4f9f2d	-0.05068891
86	0xbb9fa398	-0.004871797
87	0xbd8f2095	-0.069886364
88	0xbde69305	-0.112585105
89	0x3c1ab2e0	0.009442061
90	0xbd99ffe4	-0.075195104
91	0x3cde5723	0.02714116
92	0xbd0dcf73	-0.034621667
93	0xbd2abe40	-0.041685343
94	0x3c801ff4	0.015640236
95	0xbc5224fc	-0.012826201
96	0xbc922bd1	-0.017843159
97	0xbde9a71e	-0.11408828
98	0xb969a400	-0.00022281706
99	0x3d570770	0.052497327
100	0xbc5410e3	-0.012943479
101	0xbd4bf56c	-0.0497946
102	0xbc476390	-0.012169734
103	0x3d13c4cd	0.036076356
104	0xbdb8e830	-0.09028661
105	0xbd945267	-0.072422795
106	0xbc934ca9	-0.01798089
107	0x3bd0fe1b	0.006377948
108	0x3db89e0f	0.09014522
109	0xbdfedc9a	-0.1244442
110	0xbdb1a04a	-0.08673151
111	0xbc8ccfc9	-0.017188923
112	0xbd9658eb	-0.073411785
113	0xbd09a998	-0.033609003
114	0xbd866328	-0.06561881
115	0x3c06cba1	0.00822726
116	0xbc345027	-0.011005438
117	0xbdf93179	-0.12167639
118	0xbbbbcb22	-0.0057310024
119	0xbdc5c8df	-0.09657454
120	0xbd5b826c	-0.053591177
121	0xbda76fbe	-0.0817561
122	0x3d57ea21	0.052713517
123	0x3ceae47f	0.028673409
124	0xbdf7562a	-0.12076981
125	0xbd3a83b6	-0.045535766
126	0x3c1bf450	0.009518698
127	0x3d3288a0	0.043587327

fc2_1.weight f4 [64, 128]
0	0xbdca1d29	-0.09868843
1	0x3c87cece	0.016578104
2	0x3c969dac	0.01838573
3	0xbe078a9f	-0.13236474
4	0x3c11f25c	0.008907881
5	0xbc365330	-0.011128232
6	0xbcbb8724	-0.022891589
7	0xbe1400b1	-0.14453389
8	0xbd9a8aa2	-0.07545973
9	0x3c872958	0.016499206
10	0x3a120400	0.0005570054
11	0x3d27c9f2	0.040964074
12	0xbe011d70	-0.12608886
13	0xbccaa7b8	-0.024738178
14	0x3d60c872	0.05487866
15	0xbe13a8a3	-0.14419799
16	0x3d4f02ce	0.050539784
17	0xbc7a3cc8	-0.01527328
18	0xbd14f1f0	-0.036363542
19	0xbddcc996	-0.10780637
20	0x3c296bab	0.010340611
21	0x3b864450	0.004097499
22	0x3ce57928	0.028011873
23	0xbc9c178d	-0.019054199
24	0x3d876707	0.06611448
25	0x3d490dbe	0.04908537
26	0x3d525286	0.05134823
27	0xbd356417	-0.044284906
28	0xbd86a36e	-0.065741405
29	0xbd0b8cf6	-0.034069978
30	0x3d817e73	0.063229464
31	0xbe057d2d	-0.13036032
32	0xbd20791d	-0.039178003
33	0x3b628960	0.0034566745
34	0x3d6a5c9e	0.057217233
35	0xbd1cebdd	-0.038310874
36	0xbdd08cbb	-0.10183092
37	0xbbb45710	-0.0055035427
38	0xbdc16777	-0.094435625
39	0xbb54f4c0	-0.0032494515
40	0x3d560602	0.052251823
41	0xbe138f3d	-0.1441011
42	0xbd999a0b	-0.075000845
43	0xbd86ac8f	-0.06575882
44	0x3ccd5001	0.025062563
45	0xbd08b391	-0.033374373
46	0xbdf1da3e	-0.118092045
47	0xbd609649	-0.054830823
48	0xbbf2734d	-0.007398999
49	0xbd83ad58	-0.06429547
50	0xbd1872b5	-0.03721877
51	0xbe167c90	-0.14695954
52	0xbc3cba73	-0.011519062
53	0xbdbad6de	-0.09123014
54	0xbcb3358c	-0.02187612
55	0xbcfe74fa	-0.031061638
56	0xbc0bad18	-0.0085251555
57	0x3cc287f4	0.023746468
58	0x3d6066b2	0.054785438
59	0xbc15a0ff	-0.009132623
60	0xbdad9fe1	-0.0847776
61	0xbe00ca4e	-0.12577173
62	0xbddd630c	-0.10809907
63	0xbb8bd11d	-0.0042668716
64	0xbd8d3250	-0.06894362
65	0xbdfbe08e	-0.1229869
66	0x3cd91260	0.02649802
67	0x3c23f8f0	0.010008082
68	0xbd9c172e	-0.07621609
69	0xbd3b1e16	-0.04568299
70	0xbde0cd59	-0.10976667
71	0xbe152184	-0.14563566
72	0x3d3061f6	0.043062173
73	0xba1b52f7	-0.00059251435
74	0x3bab06d4	0.00521932
75	0xbc7737a8	-0.015088953
76	0xbd536dbf	-0.051618334
77	0xbd633560	-0.055470824
78	0x3d21a2c2	0.03946186
79	0x3dab4f85	0.083647765
80	0xbc4bec04	-0.012446407
81	0xbd5179ee	-0.05114167
82	0xbd1d1c62	-0.038357146
83	0xbd7789f8	-0.06043431
84	0xbd866e40	-0.06563997
85	0xbc83314f	-0.016014723
86	0x3b6b688a	0.0035920464
87	0x3c93d448	0.01804556
88	0xbd7eacc3	-0.062176477
89	0x3d88500f	0.06655895
90	0xbc006760	-0.0078371465
91	0xbce94820	-0.028476775
92	0x3c029368	0.007969715
93	0x3d9132b1	0.07089747
94	0x3d3715de	0.04469859
95	0xbda06955	-0.078325905
96	0xbd8de56b	-0.06928524
97	0x3d8ce059	0.068787284
98	0x3d9ff9fd	0.07811353
99	0xbd6a38e6	-0.05718317
100	0xbd05726b	-0.03257982
101	0xbd15f0a2	-0.03660644
102	0x3d09e58c	0.03366618
103	0x3ba3aa70	0.004994683
104	0xbdaaf137	-0.08346789
105	0xbd9a3972	-0.07530488
106	0x3b6146bf	0.0034374443
107	0x3cb24920	0.021763384
108	0xbe0c3f89	-0.13696112
109	0x3d4d939a	0.050189592
110	0xbd9e6f19	-0.07736034
111	0xbd657421	-0.056018952
112	0x3b8f5910	0.0043746307
113	0xbbaeb91f	-0.0053321267
114	0x3cc0dacf	0.023541836
115	0x3d8322c1	0.06403113
116	0x3d6afc5e	0.057369582
117	0xbcbe5836	-0.023235422
118	0xbdf67f4a	-0.12035997
119	0xbca60b55	-0.020269075
120	0xbbdc7270	-0.006727509
121	0x3cd3e4df	0.02586597
122	0x3c9cc54c	0.019137047
123	0x3c47d2a2	0.012196215
124	0x3da88b47	0.0822969
125	0xbd9e6529	-0.077341385
126	0x3d8bdc03	0.06829073
127	0xbd9c6887	-0.076371245
128	0xbd118ed2	-0.035536595
129	0x3d7a82ca	0.061159886
130	0xbdc87a6b	-0.097889744
131	0xbd9f9113	-0.077913426
132	0x3cd7bd90	0.026335508
133	0x3b40f420	0.0029442385
134	0x3c9b77de	0.018978056
135	0xbd8ceeae	-0.06881462
136	0xbd7768bf	-0.060402628
137	0x3cdce404	0.026964195
138	0xbd941345	-0.07230238
139	0xbcb15710	-0.02164796
140	0xbd6ee2b2	-0.058321662
141	0x3dad8fa9	0.084746666
142	0x3d5f3a22	0.0544988
143	0x3cb1b6ff	0.021693705
144	0x3d550ba6	0.052013062
145	0xbde13323	-0.10996082
146	0xbd03022c	-0.031984493
147	0xbce3b363	-0.0277955
148	0xbdf5ed11	-0.120081075
149	0x3da62faf	0.08114564
150	0xbde36d77	-0.11104863
151	0xbbdfdb84	-0.006831588
152	0x3ccde041	0.025131347
153	0x3c773278	0.015087716
154	0xbd182a64	-0.0371498
155	0x3d11fdf6	0.035642587
156	0xbd349e19	-0.044096086
157	0x3d013bdf	0.03155124
158	0x3d88d5e5	0.06681422
159	0x3cc9d8f4	0.024639584
160	0xbdb5702f	-0.08859288
161	0x3d824cdb	0.06362315
162	0x3d960c4d	0.07326565
163	0x3cc351f4	0.02384279
164	0xbce11cda	-0.027479578
165	0x3d04d5f2	0.032430597
166	0xbdf9e815	-0.12202469
167	0xbd3e6fd2	-0.04649336
168	0x3c70522a	0.014668027
169	0xbcf421d6	-0.02980129
170	0xbe09786b	-0.13424842
171	0x3c3aad00	0.0113937855
172	0xbd81d55c	-0.06339523
173	0xbd81c187	-0.063357405
174	0xbd8a6e21	-0.06759287
175	0xbd4d95f9	-0.050191853
176	0xbde5b7f6	-0.112167284
177	0xbda50744	-0.080580264
178	0xbc51b098	-0.012798451
179	0xbcf3f990	-0.029782087
180	0xbca45fc2	-0.020065192
181	0xbcb229fc	-0.021748535
182	0x3d39755e	0.045277946
183	0x3cff02b8	0.031129226
184	0x3d67d0d2	0.05659563
185	0xbd725126	-0.05915942
186	0xbdac0f46	-0.08401351
187	0xbda0a336	-0.0784363
188	0x3ccd7f3c	0.025085084
189	0xbdc9601a	-0.09832783
190	0x3c9df062	0.019279663
191	0xbdc64dec	-0.09682831
192	0xbd484562	-0.048894294
193	0xbd2167af	-0.03940552
194	0x3d3656e2	0.04451645
195	0xbc203f28	-0.009780683
196	0x3cfe0a99	0.031010913
197	0xbdadea04	-0.084919006
198	0x3d444012	0.047912665
199	0x3cc0c81a	0.023532916
200	0xbd12dc15	-0.035854418
201	0x3c40926f	0.0117536625
202	0xbd8b4d5c	-0.068018645
203	0xbdd0abbc	-0.10189006
204	0xbd12e127	-0.035859253
205	0xbd8a3dde	-0.067500815
206	0xbcf3af5e	-0.029746708
207	0xbd9ecd6d	-0.077540256
208	0xbe0d1ebb	-0.13781254
209	0x3cf7e138	0.03025876
210	0xbd8f98c0	-0.070115566
211	0x3d3eac52	0.046551056
212	0xbd9c9bb9	-0.07646889
213	0xbc9692c7	-0.018380536
214	0xbe027647	-0.12740432
215	0xbdfbfd62	-0.12304188
216	0xbd82aee2	-0.063810125
217	0xbd9d592d	-0.076830246
218	0x3b9cf610	0.004790075
219	0x3cd3af6b	0.025840482
220	0xbc9f0101	-0.019409658
221	0x3d8c4ae1	0.068502195
222	0x3c86a3f5	0.016435603
223	0xbdab7072	-0.083710566
224	0x3d455d66	0.048184775
225	0xbd839222	-0.06424357
226	0xbc8adf6c	-0.016952239
227	0xbd906948	-0.07051331
228	0x3cc97112	0.024590049
229	0xbda2cdaf	-0.07949387
230	0x3d6995b2	0.057027526
231	0xbbe07c29	-0.0068507385
232	0x3d95b8a7	0.0731061
233	0xbd51e44a	-0.051243104
234	0x3cfc1f8f	0.030776767
235	0x3cedd14f	0.02903047
236	0xbb9170ba	-0.004438487
237	0xbdba26be	-0.09089421
238	0xbc3416f8	-0.010991804
239	0xbe08c0ac	-0.13354748
240	0x3def97f5	0.116989054
241	0xbca2f61a	-0.019892741
242	0xbdc930ef	-0.098237865
243	0xbd8fc3b0	-0.07019746
244	0xbd857a78	-0.065175
245	0x3d6e1d4e	0.058133416
246	0x3cf90019	0.030395554
247	0xbd9f406b	-0.077759586
248	0xbcada0d0	-0.021194845
249	0xbd6a2bb7	-0.057170596
250	0xbda619a3	-0.081103586
251	0x3c424145	0.011856382
252	0x3d6422fe	0.055697434
253	0x3d7e5156	0.062089287
254	0xbe0c4238	-0.13697135
255	0xbd85c8f1	-0.06532467

fc2_1.bias f4 [64]
0	0xbde1094e	-0.10988103
1	0xbdebe1cb	-0.11517676
2	0xbda31d22	-0.07964541
3	0xbb0ff169	-0.002196396
4	0xbe0340e3	-0.12817721
5	0x3d23cf09	0.039992366
6	0xbd8fecc7	-0.070275836
7	0x3c0cd474	0.008595575
8	0xbcc74a5f	-0.024327455
9	0xbdb69657	-0.08915394
10	0xbd870b9e	-0.06594013
11	0xbd7b44fc	-0.061345086
12	0xbd05a8d5	-0.032631714
13	0xbdd0c941	-0.10194636
14	0xbcb948f9	-0.022617804
15	0xbdc4b5e6	-0.09605007
16	0x3d95320b	0.072849356
17	0xbbe337b3	-0.00693413
18	0xbe0042f8	-0.12525547
19	0x3d0583ad	0.03259628
20	0x3d905fde	0.07049535
21	0xbd1d2890	-0.03836876
22	0x3d72650b	0.059178393
23	0x3ce1d2eb	0.027566394
24	0x3c7849f8	0.015154354
25	0x3c19a6d0	0.00937815
26	0xbda7b030	-0.08187902
27	0x3cea9883	0.028637176
28	0x3c6e8319	0.014557623
29	0xbc81fc33	-0.015867328
30	0x3b8b0c55	0.0042434135
31	0xbca12e34	-0.019675352
32	0xbcf1a618	-0.029498145
33	0x3b628dff	0.00345695
34	0xbd40fe09	-0.047117267
35	0xbdcc51f3	-0.09976568
36	0xbd534e73	-0.051588487
37	0x3c951fd5	0.018203655
38	0xbd6c3de2	-0.057676204
39	0xbd5c9886	-0.053856395
40	0xbd3118e4	-0.04323663
41	0x3bb36fbf	0.0054759677
42	0xbc9f8d34	-0.01947651
43	0x3d68e862	0.056862243
44	0xbd0833c7	-0.033252504
45	0xbd6b198c	-0.05739741
46	0x3a60f46a	0.00085813424
47	0xbd549588	-0.051900417
48	0xbba6b45f	-0.00508742
49	0x3d96438f	0.073371045
50	0xbdb15ae0	-0.08659911
51	0xbddf207c	-0.10894868
52	0x3ced9bd3	0.029004967
53	0xbe0cd70b	-0.13753907
54	0xbcc4e629	-0.02403553
55	0xbcd02eb5	-0.025412897
56	0x3cb1a1f0	0.021683663
57	0x3db47715	0.088117756
58	0xbe08c7f0	-0.1335752
59	0x3d8e3f99	0.06945724
60	0xbce7620c	-0.028244995
61	0xbb94acc6	-0.0045371978
62	0x3cd108d7	0.02551691
63	0xbdd8b104	-0.10580638

fc3.weight f4 [18, 64]
0	0x3e0a3920	0.13498354
1	0xbda1ea06	-0.079059646
2	0x3ded4cb9	0.11586899
3	0xbd318f3e	-0.043349497
4	0xbd8713fe	-0.0659561
5	0x3dacea43	0.084431194
6	0xbc82cca8	-0.015966728
7	0x3b0e569c	0.0021719104
8	0xbdad52a9	-0.08463032
9	0x3e13bc81	0.14427377
10	0x3de27706	0.11057858
11	0x3d024197	0.031800833
12	0x3dc46d59	0.09591169
13	0x3cbddc6c	0.023176394
14	0x3d2c5e02	0.04208184
15	0xbd4b0f57	-0.049575176
16	0x3d93d939	0.07219166
17	0x3e2bccee	0.16777393
18	0x3dae3c86	0.08507638
19	0x3c5905d8	0.013246022
20	0x3ce938e3	0.028469509
21	0xbbf85ac0	-0.0075791776
22	0x3dca67a8	0.09883052
23	0x3d15dc2b	0.03658692
24	0xbd1e07d9	-0.038581703
25	0x3caf6d54	0.021414436
26	0xbd24a938	-0.040200442
27	0x3b9884f6	0.004654522
28	0x3d76f633	0.060293388
29	0xbd3403d9	-0.043948982
30	0xbdb4653c	-0.088083714
31	0x3d45235d	0.04812943
32	0x3d7c3fcc	0.06158428
33	0x3cb2fcf9	0.021849142
34	0x3d9ebb88	0.077506125
35	0x3c6a89be	0.014315067
36	0xbc1419ca	-0.009039352
37	0xbdc53c9a	-0.096306995
38	0xbb0f69fe	-0.0021883245
39	0x3d2fa5c8	0.04288271
40	0x3de5d7f0	0.112228274
41	0xbd9fb493	-0.07798114
42	0x3d60ea55	0.054910976
43	0xbb7b758b	-0.0038369622
44	0xbdab5a01	-0.08366776
45	0x3cc00620	0.02344042
46	0x3cd1bab2	0.025601719
47	0x3d7534aa	0.059864677
48	0x3c865e91	0.016402515
49	0x3e05f41f	0.13081406
50	0x3da19fbe	0.078917965
51	0x3e160bf1	0.14652993
52	0xbcb8a344	-0.022538789
53	0xbe13a236	-0.14417347
54	0xbc60866e	-0.013703926
55	0x3e0274ce	0.1273987
56	0x3cd461a8	0.025925472
57	0x3d36c552	0.044621773
58	0x3e05012d	0.1298873
59	0x3dbb729d	0.0915272
60	0xbdc3b87c	-0.09556672
61	0xbdc9e1ea	-0.09857543
62	0x3d98b2ba	0.074559644
63	0x3d629f95	0.05532797
64	0xbc2de4f3	-0.010613668
65	0x3cad625b	0.021165064
66	0xbe11e7bd	-0.14248557
67	0x3d9788ac	0.07399115
68	0x3cb0ae38	0.021567449
69	0xbd904a40	-0.07045412
70	0xbd7516f0	-0.059836328
71	0xbdbd8527	-0.092539124
72	0x3dcffa59	0.10155172
73	0xbdc7f775	-0.097639956
74	0x3d112564	0.03543605
75	0xbe085ed3	-0.13317423
76	0xbca03389	-0.019555824
77	0xbe277204	-0.16352087
78	0xbd8acc07	-0.067771964
79	0xbdd26d9a	-0.10274811
80	0xbe03088e	-0.12796232
81	0xbe0ea659	-0.13930644
82	0xbd77f0d2	-0.0605324
83	0xbd8492e1	-0.064733274
84	0xbdc2139e	-0.09476398
85	0xbd7b7f78	-0.06140086
86	0xbceee1e3	-0.029160446
87	0x3d9d17dd	0.07670567
88	0xbe1f834c	-0.1557743
89	0xbc7a4b9f	-0.015276819
90	0x3dca1728	0.09867698
91	0xbdb80bc2	-0.089866176
92	0x3dd1498d	0.10219107
93	0x3c87b9d0	0.016568094
94	0xbd66c2a3	-0.056337964
95	0x3e002510	0.12514138
96	0xbc126e70	-0.008937463
97	0x3d7f84cc	0.062382504
98	0xbdc73104	-0.09726146
99	0xbd86063c	-0.06544158
100	0x3d6e7a03	0.05822183
101	0xbd815eb4	-0.06316891
102	0x3dae6ec4	0.085172206
103	0xbdf671b8	-0.12033409
104	0xbdd3f0f8	-0.103486955
105	0x3cf4e986	0.029896509
106	0x3b54a601	0.003244758
107	0x3c348365	0.011017655
108	0x3e1d3225	0.1535116
109	0x3d550500	0.05200672
110	0xbe02a45a	-0.12758008
111	0x3c0395cb	0.008031319
112	0xbda29db5	-0.079402365
113	0xbe04baba	-0.12961856
114	0xbdf14baa	-0.1178201
115	0xbcc9fbcb	-0.024656197
116	0xbdd0b9da	-0.10191698
117	0x3c7fb0b7	0.015606097
118	0xbe2806f7	-0.16408907
119	0xbe291d0c	-0.16514987
120	0xbdfcc752	-0.12342705
121	0xbde02de2	-0.109462515
122	0x3c26f093	0.010189193
123	0xbd901b07	-0.07036405
124	0x3d8aedb8	0.067836225
125	0xbdaa2577	-0.08307927
126	0x3d5800a8	0.052735
127	0x3e250369	0.16114582
128	0x3d6e3ff0	0.058166444
129	0x3d905d6c	0.07049069
130	0xbd7f24c1	-0.06229091
131	0xbc49a811	-0.012308137
132	0xbe288c94	-0.16459876
133	0x3cef701b	0.02922826
134	0xbdda5120	-0.106600046
135	0xbe1bf164	-0.15228802
136	0x3dc395f3	0.09550085
137	0xbd97672d	-0.07392726
138	0xbd5c8d26	-0.053845547
139	0x3c044d33	0.008075046
140	0x3d969389	0.07352359
141	0x3db5a6d4	0.088697106
142	0xbd1a47da	-0.03766618
143	0xbd3ecb88	-0.04658082
144	0xbd31f026	-0.043441914
145	0xbccbc9ef	-0.024876563
146	0xbd0f2ea0	-0.034956574
147	0xbd804b50	-0.06264365
148	0x3bb16a14	0.005414257
149	0x3d465308	0.04841903
150	0x3d96e270	0.07367408
151	0x3d556cb5	0.052105624
152	0xbd9d1a2d	-0.07671008
153	0x3d2b8480	0.04187441
154	0xbddae22e	-0.106876716
155	0xbdd65c15	-0.10466782
156	0xbd6161f3	-0.055025052
157	0x3bfa1e5a	0.0076330127
158	0xbdb2b818	-0.08726519
159	0xbdc15805	-0.094406165
160	0x3dde3224	0.10849407
161	0x3da69a84	0.0813494
162	0x3d713c10	0.05889517
163	0xbdc1626c	-0.094426006
164	0xbc4f7fea	-0.012664774
165	0xbdb614c8	-0.088906825
166	0x3c404fab	0.011737744
167	0xbd98fb01	-0.0746975
168	0x3cff4e40	0.031165242
169	0x3d6a0565	0.05713405
170	0xbc935213	-0.017983472
171	0xbdd7980d	-0.10527048
172	0xbc3595a8	-0.011083044
173	0xbc3e5b10	-0.011618391
174	0xbd9ed564	-0.07755545
175	0xbd862f99	-0.06552047
176	0xbddc6f09	-0.10763366
177	0xbdfd74df	-0.12375807
178	0xbde8aab7	-0.11360686
179	0x3d6b003f	0.05737328
180	0xbd6a553d	-0.057210196
181	0xbde3f7c6	-0.111312434
182	0x3d5a079f	0.053229924
183	0xbd07ca27	-0.033151772
184	0xbdf43ad3	-0.11925282
185	0xbd247371	-0.040149156
186	0x3ce32d1b	0.027731469
187	0xbd62a92d	-0.05533712
188	0xbdb3ee14	-0.08785644
189	0xbcbc301a	-0.022972155
190	0x3c61bc28	0.01377777
191	0xbd8dea18	-0.069294155
192	0x3c7a67b6	0.015283516
193	0xbdc0661c	-0.09394476
194	0xbd4b8fff	-0.049697872
195	0x3cd23aab	0.02566274
196	0xbdbc5daf	-0.09197556
197	0xbde292b4	-0.11063138
198	0xbc37e780	-0.0112246275
199	0x3b50bbe2	0.0031850268
200	0x3db55589	0.08854205
201	0x3e2aad36	0.16667637
202	0x3d490e17	0.049085703
203	0x3e07db20	0.13267183
204	0xbd79bf11	-0.06097323
205	0x3bd9f437	0.006651427
206	0xbd124cc3	-0.035717737
207	0x3dd8e243	0.10590031
208	0xbd2a8cb8	-0.041638106
209	0xbc491c70	-0.012274846
210	0xbe057fcd	-0.13037033
211	0xbd35f49d	-0.044422735
212	0x3d9afb35	0.07567445
213	0x3df3f7ac	0.11912474
214	0x3cd5c84d	0.026096487
215	0x3e3e9363	0.18610911
216	0x3da70745	0.081556834
217	0xbd83475c	-0.06410095
218	0xbddc2d16	-0.10750787
219	0xbd9b0bd9	-0.07570619
220	0xbd61dcba	-0.055142142
221	0x3d641881	0.05568743
222	0x3b85984f	0.0040769945
223	0x3d0b3f8b	0.033996146
224	0x3da116ce	0.07865678
225	0x3d76cffb	0.06025694
226	0xbd2d914e	-0.0423749
227	0xbd7169f2	-0.058938928
228	0x3e0cd692	0.13753727
229	0x3a53c2b8	0.00080780266
230	0xbca6cbe8	-0.020360902
231	0x3e57a762	0.21059945
232	0xbd88d470	-0.06681144
233	0x3d85f8b1	0.06541575
234	0x3c56761b	0.013089682
235	0xbca854ef	-0.020548312
236	0xbd7d9a88	-0.06191495
237	0x3d3e5f04	0.046477333
238	0x3d6a2fb4	0.0571744
239	0x3cbcf446	0.023065697
240	0x3a3e5058	0.0007259897
241	0x3ddd4213	0.10803618
242	0x3e3a0858	0.18167245
243	0xbbc76625	-0.0060851746
244	0xbdf02126	-0.117250726
245	0xba577575	-0.00082191016
246	0x3bacfd4d	0.0052792192
247	0xbc860766	-0.01636095
248	0x3e18b9b4	0.1491459
249	0x3d9a3a5c	0.075306624
250	0x3dca63ee	0.09882341
251	0xbd926be6	-0.07149486
252	0xbb103880	-0.0022006333
253	0xbdf7ed1b	-0.12105771
254	0x3bd3ff7c	0.006469665
255	0xbd8505b9	-0.06495232

fc3.bias f4 [18]
0	0xbd61288b	-0.054970305
1	0x3d779608	0.060445815
2	0x3cd5e8de	0.026112016
3	0xbc3b83d0	-0.011445001
4	0x3c92b4bf	0.017908452
5	0xbd175923	-0.03695024
6	0xbd533298	-0.05156192
7	0x3bb7003e	0.0055847457
8	0xbd15e875	-0.03659864
9	0x3d4a11fa	0.04933355
10	0x3d589777	0.052878823
11	0x3d02ea1d	0.03196155
12	0xba1c3870	-0.00059593376
13	0xbcfcc65a	-0.0308563
14	0xbd416d6d	-0.047223497
15	0x3d26dc1b	0.040737253
16	0xbd7991e8	-0.060930163
17	0xbc4cb267	-0.012493706
