models/2024-07-20_16-15-34/epoch_0050_loss_0.00033025/dynamics.pth (torch, 83084 bytes, 8 tensors)

fc1.weight f4 [64, 34]
0.11762292 0.014124987 -0.03473298 0.0066011334 0.043679394 0.11868686 -0.039995365 -0.03918969
-0.05526603 -0.05800768 -0.008104464 0.10739557 0.06884603 -0.017811462 -0.09516867 0.018851968
-0.068923526 0.10221061 -0.07423816 0.08577192 -0.05230368 0.15263401 -0.036793023 0.17661344
0.21524765 0.069346346 -0.06361611 0.06606954 0.15454991 0.047412965 0.13849615 -0.11651589
-0.0572033 -0.026118368 -0.11918175 -0.15850565 -0.06602779 0.104224816 0.17078127 -0.037418082
0.15373896 0.16230966 0.096726194 -0.049632646 0.023412004 -0.0058175623 0.024190113 -0.120557114
-0.08798891 -0.15846401 -0.032775074 -0.0070086867 -0.15963206 -0.14769688 -0.089264184 -0.09707507
-0.085748084 -0.07816645 0.08058886 0.12061478 -0.042081043 0.1664256 -0.15155545 0.07850836
-0.015335336 0.07746521 0.080149904 0.040436327 0.071874395 0.11550777 0.16148199 0.0893874
-0.14111982 -0.20811543 0.042320672 0.027652653 0.011297449 -0.21516383 0.13263285 -0.0039340993
-0.119171366 -0.08211087 0.026786072 -0.21294683 0.104657575 -0.20758153 -0.042545963 0.07638152
-0.06710372 0.060191788 -0.1489931 0.21037047 0.0526903 -0.102230564 0.14628726 -0.009575993
-0.15184703 -0.12464094 -0.11027288 -0.10387986 -0.19792011 -0.15798175 -0.14413026 0.21445133
0.04295014 -0.076573186 -0.106296785 0.068247005 0.07916365 -0.032634653 -0.06593818 0.083955966
-0.040442396 -0.029713973 -0.20806403 -0.028145438 0.018623997 0.07947585 0.035942845 -0.03743338
-0.09600116 -0.017643284 -0.03424946 -0.09275315 0.036553904 0.18419294 0.15087122 0.07555943
-0.043207083 0.103141926 -0.16362152 0.01670239 0.041929442 -0.17344815 -0.17357989 0.00081845047
0.07459477 0.111333095 0.060745537 -0.0041896254 -0.09938708 -0.13559124 -0.01583657 -0.059534185
-0.045794282 -0.0833908 -0.053900477 0.0225577 -0.09233027 0.019835902 -0.09015094 -0.038187984
-0.06302375 0.032137282 0.19091421 -0.040227536 -0.099698894 -0.19085345 0.0043144748 -0.016768973
-0.08567313 -0.12356657 -0.061454542 -0.13352251 0.10010253 0.03277969 -0.120598495 0.010440519
0.04791751 -0.1974188 0.06187111 0.0044495016 0.17068784 -0.1052816 -0.07090157 -0.10661274
0.10569005 0.05666262 0.1154186 0.16135834 0.13560857 -0.07563257 0.06106393 -0.058770888
0.13583265 0.080609605 0.121553525 -0.03247884 -0.0059760064 -0.013842657 -0.120346256 -0.09752608
-0.15890439 0.023909003 0.10606091 0.16055943 -0.025409028 0.15684669 0.099454984 0.15472548
0.0907086 -0.06685775 0.16492693 0.13670589 -0.08303212 -0.12939145 0.093893506 0.14051412
-0.2484456 0.037962824 0.07123835 -0.08257346 -0.047570255 0.025836505 0.011495884 -0.054025546
0.01758332 0.035210896 0.0629146 0.019189114 0.09565215 0.147194 -0.1992851 0.18681592
-0.11897709 -0.02312521 0.10432211 0.041677475 0.13107607 0.033059143 0.12800576 -0.1688879
-0.0769677 0.0431116 0.052754 0.12369032 -0.08011892 -0.12282798 -0.20512986 0.13114157
-0.15203261 0.081855044 -0.084432885 0.11036401 -0.18740027 -0.017306708 0.08395342 -0.18028045
-0.037383523 0.053559154 -0.13000944 0.14690255 -0.00010780657 -0.16098739 0.17882243 -0.19094498
00000000: 49e4 f03d 7d6c 673c 2b44 0ebd 524e d83b
00000010: 2ae9 323d 1912 f33d 2ed2 23bd 5e85 20bd
00000020: a25e 62bd 7699 6dbd 96c8 04bc 35f2 db3d
00000030: 26ff 8c3d 58e9 91bc cbe7 c2bd 716f 9a3c
00000040: c727 8dbd cc53 d13d 2d0a 98bd 30a9 af3d
00000050: 623c 56bd 174c 1c3e 48b4 16bd 27da 343e
00000060: e169 5c3e 7505 8e3d 2a49 82bd 784f 873d
00000070: 5542 1e3e 1934 423d efd1 0d3e e29f eebd
00000080: 024e 6abd 30f6 d5bc 9015 f4bd 4e4f 22be
00000090: 9439 87bd d273 d53d 49e1 2e3e b443 19bd
000000a0: bf6d 1d3e 8134 263e 6218 c63d 9a4b 4bbd
000000b0: 88ca bf3c 40a1 bebb 582a c63c a6e6 f6bd
000000c0: 8833 b4bd 6444 22be 283f 06bd 20a9 e5bb
000000d0: 9676 23be da3d 17be 24d0 b6bd 4bcf c6bd
000000e0: b19c afbd bb15 a0bd c60b a53d e204 f73d
000000f0: 2c5d 2cbd 796b 2a3e 5a31 1bbe fec8 a03d
00000100: 1041 7bbc 14a6 9e3d a225 a43d 90a0 253d
00000110: e232 933d 568f ec3d 895b 253e be10 b73d
00000120: b781 10be 361c 55be 7158 2d3d d187 e23c
00000130: ef18 393c e853 5cbe e8d0 073e 9ee9 80bb
00000140: 1e10 f4bd be29 a8bd 776e db3c bc0e 5abe
00000150: b656 d63d 4190 54be ad44 2ebd ea6d 9c3d
00000160: ad6d 89bd aa8b 763d a691 18be 5b6b 573e
00000170: c9d1 573d 425e d1bd 54cc 153e a0e4 1cbc
00000180: ca7d 1bbe c043 ffbd bfd6 e1bd f7be d4bd
00000190: 92ab 4abe f8c5 21be e296 13be 2199 5b3e
000001a0: 7cec 2f3d 67d2 9cbd 21b2 d9bd 16c5 8b3d
000001b0: 8d20 a23d eaab 05bd 990a 87bd 1bf1 ab3d
000001c0: eda6 25bd b86a f3bc bd0e 55be 4391 e6bc
000001d0: 5a91 983c 3cc4 a23d ce38 133d be53 19bd
000001e0: 429c c4bd a688 90bc 2949 0cbd 5df5 bdbd
000001f0: 8cb9 153d 139d 3c3e fc7d 1a3e e7be 9a3d
00000200: e9f9 30bd 133c d33d 668c 27be 73d3 883c
00000210: 35be 2b3d 649c 31be edbe 31be 488d 563a
00000220: 25c5 983d 9b02 e43d 50d0 783d 2049 89bb
00000230: 748b cbbd 6ed8 0abe b2bb 81bc 1eda 73bd
00000240: c992 3bbd ccc8 aabd bfc6 5cbd edca b83c
00000250: a717 bdbd e77e a23c 0ea1 b8bd 016b 1cbd
00000260: 9912 81bd 62a2 033d 047f 433e a1c5 24bd
00000270: ef2e ccbd 166f 43be 7060 8d3b 165f 89bc
00000280: 6575 afbd 7810 fdbd c2b7 7bbd 20ba 08be
00000290: 8e02 cd3d ff43 063d 58fc f6bd b60e 2b3c
000002a0: 2745 443d 2728 4abe 906c 7d3d 20cd 913b
000002b0: cbc8 2e3e e19d d7bd d834 91bd c857 dabd
000002c0: 0674 d83d 1017 683d 9660 ec3d 1f3b 253e
000002d0: f9dc 0a3e 40e5 9abd 2c1e 7a3d beb9 70bd
000002e0: b717 0b3e a616 a53d 0ef1 f83d 8808 05bd
000002f0: 60d2 c3bb 50cc 62bc 1978 f6bd c1bb c7bd
00000300: d5b7 22be d0dc c33c 7636 d93d b169 243e
00000310: 9826 d0bc 6b9c 203e 0eaf cb3d 5b70 1e3e
00000320: 6ec5 b93d b7ec 88bd 9be2 283e a1fc 0b3e
00000330: be0c aabd 317f 04be 3d4b c03d efe2 0f3e
00000340: 8668 7ebe e87e 1b3d 69e5 913d 461c a9bd
00000350: 07d9 42bd 14a7 d33c 3b59 3c3c e449 5dbd
00000360: e50a 903c 4d39 103d 5fd9 803d 7d32 9d3c
00000370: 46e5 c33d 06ba 163e 6511 4cbe ac4c 3f3e
00000380: 43aa f3bd 1571 bdbc d5a6 d53d 00b6 2a3d
00000390: ce38 063e 0669 073d f113 033e f3f0 2cbe
000003a0: 3ea1 9dbd ca95 303d 9414 583d 5a51 fd3d
000003b0: 6315 a4bd 3c8d fbbd 900d 52be fa49 063e
000003c0: 70ae 1bbe 9ea3 a73d 26eb acbd 8706 e23d
000003d0: dbe5 3fbe ccc6 8dbc c5ef ab3d 709b 38be
000003e0: 771f 19bd d860 5b3d 3221 05be 9f6d 163e
000003f0: 3616 e2b8 e1d9 24be 3a1d 373e 1587 43be

fc1.bias f4 [64]
-0.008448047 -0.045066327 -0.17007163 -0.1424535 0.17889793 -0.009579673 0.11374946 -0.18467978
0.035555203 0.006210004 -0.21190098 -0.075387605 -0.034542132 -0.13183218 0.11404388 0.005027629
0.11685568 -0.086760014 -0.0842155 -0.16911855 -0.13348366 -0.079423666 -0.12605058 -0.06579033
-0.09526299 -0.06333412 0.08710164 -0.13859418 -0.14750619 -0.11062415 -0.09120869 0.07297512
0.06485921 0.019485552 -0.11274724 0.0072445194 0.12181866 -0.003962018 -0.12858942 -0.15835112
0.049237765 -0.035462268 -0.1700241 -0.09664679 -0.18041432 -0.1872723 0.013571506 0.08274783
0.09391781 0.035706896 -0.042991757 0.031093337 0.16235892 -0.06305657 -0.086127706 -0.15581627
0.06561216 0.10437914 0.13851818 -0.15503526 0.021439984 -0.064653546 0.055548854 0.12084967
00000000: ad69 0abc 7897 38bd 4227 2ebe 55df 11be
00000010: 0531 373e 10f4 1cbc 7af5 e83d b21c 3dbe
00000020: 55a2 113d 4a7d cb3b 92fc 58be d164 9abd
00000030: 0d7c 0dbd 04ff 06be d68f e93d cfbe a43b
00000040: 0852 ef3d 3caf b1bd 2d79 acbd 6a2d 2dbe
00000050: f1af 08be e0a8 a2bd 6713 01be 15bd 86bd
00000060: 3e19 c3bd 52b5 81bd 5862 b23d a2eb 0dbe
00000070: dd0b 17be ea8e e2bd 9fcb babd fb73 953d
00000080: e8d4 843d 2aa0 9f3c 06e8 e6bd 6f63 ed3b
00000090: 107c f93d d1d3 81bb f2ac 03be cc26 22be
000000a0: 8aad 493d e240 11bd cc1a 2ebe c1ee c5bd
000000b0: 88be 38be 4fc4 3fbe 065b 5e3c b277 a93d
000000c0: fb57 c03d 6541 123d 2018 30bd 74b7 fe3c
000000d0: 6b41 263e ce23 81bd b963 b0bd 4d8e 1fbe
000000e0: ab5f 863d bbc4 d53d b6d7 0d3e 90c1 1ebe
000000f0: e8a2 af3c 1469 84bd 3287 633d 0880 f73d

fc2.weight f4 [128, 64]
-0.053293165 0.046415374 0.0014170561 0.1054368 -0.026736645 0.056050032 0.015910912 0.022233192
-0.03826592 0.019177364 0.14418793 0.10306368 -0.0009437919 0.049948886 0.033594612 -0.08598185
-0.060947612 0.0025340975 0.121871665 0.03273638 0.032270733 0.05367083 0.057675093 -0.09415528
0.055550292 0.08710369 -0.17052127 -0.05001135 -0.07280322 0.07723242 0.15270455 -0.066441596
0.019681375 -0.06948027 -0.121936336 0.059730414 0.024713289 0.026966657 0.037299693 -0.055658802
-0.086854294 -0.119165085 -0.06972562 0.06573026 0.08823674 0.06431696 0.003468292 -0.07470611
-0.12814267 -0.059747912 -0.07665403 0.041295685 -0.0999076 0.023344189 0.09470184 -0.0027708262
-0.15571472 -0.022052886 -0.08771135 0.10463333 0.010191672 0.01147093 -0.017803751 -0.0624419
0.009093718 0.079718545 0.06440457 0.11198322 -0.21174613 0.009243518 0.109263934 0.08343185
-0.09418835 -0.074729875 0.13572931 0.046474822 -0.04790009 0.06408508 -0.119978204 0.12718716
-0.028967328 -0.10726502 -0.02218073 0.005856399 0.016702186 -0.0109815635 0.123604834 0.10042325
-0.014402494 -0.053915825 -0.119980864 0.03994827 -0.03439196 0.09445415 0.009143617 0.00719186
0.110199735 0.11485796 -0.07237694 -0.10096828 0.0022529217 -0.18982106 -0.085984364 0.05555593
-0.10899357 -0.16166413 -0.092179805 -0.05437024 -0.08608808 0.06800189 -0.06338783 0.1084332
-0.09311117 -0.23159692 0.048923224 0.023370204 -0.19301717 -0.05308205 0.11678967 0.079454735
-0.107902616 0.124452665 -0.12761311 0.01218228 -0.043551702 -0.11810242 -0.009310154 -0.10147053
0.08188684 0.045702294 -0.088009775 -0.10871488 -0.002287954 0.036345527 0.03965737 -0.04260683
-0.04538478 -0.09490046 -0.1151766 -0.11810735 0.04996571 0.04423213 -0.07404177 0.07010405
-0.027708188 -0.021205485 -0.053178474 0.061417595 0.05730562 0.108748436 0.0229308 0.09362787
0.06095779 0.0018396825 0.09729102 -0.037590265 -0.0069811493 -0.09195484 -0.055820614 -0.08467971
-0.031304955 0.033810467 -0.028690591 -0.083835945 -0.051318243 -0.023173466 0.11732635 -0.10776596
0.042509586 0.06966163 0.095965475 0.006747693 0.015197918 0.097601786 0.09002641 -0.08255178
-0.039513797 0.02975215 5.0887465e-05 -0.07633856 -0.06462829 -0.0063242167 0.04466273 -0.045358524
0.117042646 0.0025889724 -0.10094574 0.006311074 -0.09332013 0.036669135 -0.050903514 -0.008393958
-0.03668417 -0.08848314 -0.015664726 0.108542964 0.05464074 0.019527748 -0.08012079 0.06636214
-0.033681855 0.027681515 -0.03257902 0.042075768 -0.09675558 -0.07377945 -0.09044768 -0.066492885
0.11994153 0.10763766 -0.030648232 -0.030088812 0.02998522 0.06123641 -0.120013565 0.064860865
-0.016689003 0.04713984 0.027568296 -0.07910906 0.030612439 0.035511553 0.12336126 -0.00644058
0.109008506 -0.04975529 -0.04225874 -0.08030087 -0.07829465 -0.08550052 -0.08858381 0.053485394
-0.003780067 0.08844057 0.08312984 -0.07437281 -0.10996491 0.04940243 -0.12489413 -0.018974304
-0.016998708 -0.08478625 0.011005864 -0.036591113 0.009150654 -0.12423591 0.015556321 0.05099508
-0.09337835 -0.1140051 -0.007948503 0.06658666 0.08699322 -0.08979504 -0.058281153 0.10696022
00000000: ef49 5abd 0c1e 3e3d 83bc b93a 40ef d73d
00000010: cf06 dbbc b894 653d 9a57 823c 6222 b63c
00000020: babc 1cbd d919 9d3c 00a6 133e 0d13 d33d
00000030: cd68 77ba 3497 4c3d 819a 093d 4117 b0bd
00000040: 34a4 79bd 1a13 263b da97 f93d 9516 063d
00000050: 512e 043d f2d5 5b3d b83c 6c3d 7cd4 c0bd
00000060: b488 633d 6b63 b23d 219d 2ebe b4d8 4cbd
00000070: db19 95bd 082c 9e3d 955e 1c3e 8812 88bd
00000080: d63a a13c ac4b 8ebd c2b9 f9bd e1a7 743d
00000090: 8673 ca3c 2ee9 dc3c 90c7 183d 7cfa 63bd
000000a0: aae0 b1bd d30c f4bd 4ecc 8ebd 969d 863d
000000b0: 77b5 b43d 9cb8 833d 494c 633b 84ff 98bd
000000c0: d537 03be 3aba 74bd cafc 9cbd aa25 293d
000000d0: 5b9c ccbd 503c bf3c 0af3 c13d c096 35bb
000000e0: ae73 1fbe 41a8 b4bc 02a2 b3bd 004a d63d
000000f0: f8fa 263c 91f0 3b3c 2cd9 91bc 14c3 7fbd
00000100: d1fd 143c 7a43 a33d 8be6 833d 7557 e53d
00000110: fad3 58be 2072 173c c5c5 df3d 51de aa3d
00000120: d2e5 c0bd fa0b 99bd a0fc 0a3e 625c 3e3d
00000130: e332 44bd 0a3f 833d 22b7 f5bd 5a3d 023e
00000140: e44c edbc c3ad dbbd 5db4 b5bc 09e7 bf3b
00000150: 06d3 883c 04ec 33bc 8824 fd3d b4aa cd3d
00000160: 70f8 6bbc d7d6 5cbd 87b8 f5bd cca0 233d
00000170: 95de 0cbd 2d71 c13d 1ccf 153c b2a9 eb3b
00000180: 66b0 e13d a63a eb3d 5c3a 94bd 75c8 cebd
00000190: c1a5 133b 7460 42be 9218 b0bd 9d8e 633d
000001a0: 0538 dfbd 488b 25be c4c8 bcbd 54b3 5ebd
000001b0: f34e b0bd 9344 8b3d 7bd1 81bd 3a12 de3d
000001c0: 12b1 bebd be27 6dbe b863 483d df72 bf3c
000001d0: 4ba6 45be 906c 59bd 6c2f ef3d 2ab9 a23d
000001e0: 0cfc dcbd 0ae1 fe3d 03ad 02be 3098 473c
000001f0: 4563 32bd aedf f1bd 9e89 18bc c8cf cfbd
00000200: 4ab4 a73d 5432 3b3d 783e b4bd e8a5 debd
00000210: 80f1 15bb 0cdf 143d c46f 223d 8084 2ebd
00000220: 64e5 39bd 2c5b c2bd b6e1 ebbd 44e2 f1bd
00000230: d8a8 4c3d c02c 353d 36a3 97bd b692 8f3d
00000240: 48fc e2bc 20b7 adbc acd1 59bd 0491 7b3d
00000250: 4cb9 6a3d 80b7 de3d 60d9 bb3c f8bf bf3d
00000260: e0ae 793d 8021 f13a 8440 c73d 40f8 19bd
00000270: 20c2 e4bb d252 bcbd 28a4 64bd 8e6c adbd
00000280: a039 00bd d87c 0a3d 8808 ebbc 2eb2 abbd
00000290: 1433 52bd 48d6 bdbc cc48 f03d 66b4 dcbd
000002a0: 881e 2e3d c2aa 8e3d 8c89 c43d c01b dd3b
000002b0: b000 793c 72e3 c73d c45f b83d e810 a9bd
000002c0: 38d9 21bd c8ba f33c 0070 5538 6457 9cbd
000002d0: d65b 84bd 603b cfbb 44f0 363d dcc9 39bd
000002e0: 0eb4 ef3d c0ab 293b a4bc cebd 20cd ce3b
000002f0: a01e bfbd 6032 163d 3480 50bd d086 09bc
00000300: 2442 16bd a636 b5bd 5053 80bc c64b de3d
00000310: f8ce 5f3d a8f8 9f3c 5e16 a4bd e0e8 873d
00000320: fcf5 09bd 58c4 e23c 9471 05bd a457 2c3d
00000330: ca27 c6bd ae19 97bd a23c b9bd 6c2d 88bd
00000340: e8a3 f53d 2271 dc3d 0012 fbbc d07c f6bc
00000350: 90a3 f53c 08d3 7a3d acc9 f5bd c6d5 843d
00000360: 60b7 88bc b415 413d e8d6 e13c ee03 a2bd
00000370: f0c6 fa3c 9074 113d d4a4 fc3d 800b d3bb
00000380: da3f df3d 34cc 4bbd 8017 2dbd c874 a4bd
00000390: f258 a0bd e61a afbd 6e6b b5bd 8013 5b3d
000003a0: 00bb 77bb 5420 b53d fa3f aa3d c650 98bd
000003b0: 4835 e1bd 345a 4a3d 7ec8 ffbd 0070 9bbc
000003c0: e040 8bbc 6aa4 adbd f051 343c 90e0 15bd
000003d0: a0ec 153c 666f febd f0df 7e3c 38e0 503d
000003e0: 263d bfbd 827b e9bd 703a 02bc 965e 883d
000003f0: 8029 b23d 76e6 b7bd 38b8 6ebd f60d db3d

fc2.bias f4 [128]
0.0620816 0.025105879 0.04037261 -0.014365196 0.0030601174 0.0019379595 0.0738486 0.13067813
-0.078284934 0.006753116 -0.111719266 0.010280126 -0.08900302 0.0069093206 0.030943261 0.11126985
-0.15783304 0.027260251 0.06263329 -0.075488865 -0.03986986 0.03347258 0.06595898 -0.044972785
0.041495692 -0.06434771 0.026252372 -0.06434317 -0.17105688 -0.01771921 -0.14841782 -0.022664055
-0.084338024 0.09742722 -0.008876881 0.10634291 -0.104692884 -0.05373968 0.017256161 -0.036860418
-0.060234267 -0.069837034 -0.0868503 -0.09622976 -0.05808927 0.029259207 -0.017747402 -0.038663626
-0.034073472 -0.023111397 -0.09209043 -0.0006747447 0.053037968 -0.023557398 -0.09406299 -0.15176664
0.032188267 -0.10453447 0.0014695227 -0.05903414 -0.060493544 -0.021273592 -0.14946215 0.0098806
-0.0037469645 -0.049376473 0.09974907 -0.014417064 -0.09290153 0.035758473 -0.12272744 -0.023699127
-0.09575558 -0.048434153 0.027015075 -0.15912646 -0.104754835 -0.044754162 0.0067012873 0.0009742271
0.090854615 -0.054999217 -0.08064814 0.09217093 0.03819657 -0.09335234 0.013634958 0.13302867
-0.115361825 -0.0004447283 0.02959319 -0.077580325 -0.0077623096 0.01032641 0.023887755 -0.055585127
-0.09981763 -0.077339314 -0.08277714 -0.10012042 -0.028219014 0.058821857 0.048831277 0.0768264
-0.102372676 -0.12075761 -0.047347896 -0.109024346 -0.108038925 0.023043482 -0.020901296 -0.051543146
-0.08853129 -0.031244814 -0.03741443 0.09876889 -0.17534707 -0.061588965 -0.018401152 0.14846568
0.008922545 0.08052403 -0.026231665 0.0268428 0.12293151 0.037048522 -0.048805162 -0.031618256
00000000: 4749 7e3d d8aa cd3c c05d 253d 005c 6bbc
00000010: 408c 483b 2103 fe3a ef3d 973d 7dd0 053e
00000020: da53 a0bd 3e49 dd3b 12cd e4bd f96d 283c
00000030: 3747 b6bd 9567 e23b b97c fd3c 72e1 e33d
00000040: fc9e 21be e450 df3c e245 803d e899 9abd
00000050: 944e 23bd 8b1a 093d 8015 873d 6235 38bd
00000060: 63f7 293d bbc8 83bd 370f d73c 5ac6 83bd
00000070: 8929 2fbe e027 91bc d7fa 17be f8a9 b9bc
00000080: 6ab9 acbd ec87 c73d 5670 11bc 50ca d93d
00000090: 3969 d6bd 241e 5cbd cb5c 8d3c f3fa 16bd
000000a0: 35b8 76bd b806 8fbd 92de b1bd 1c14 c5bd
000000b0: 04ef 6dbd 01b1 ef3c 0063 91bc c05d 1ebd
000000c0: a090 0bbd 1d54 bdbc e899 bcbd 5ae1 30ba
000000d0: 573e 593d 72fb c0bc 19a4 c0bd b768 1bbe
000000e0: d8d7 033d 2b16 d6bd 009d c03a c8cd 71bd
000000f0: 14c8 77bd f545 aebc 9b0c 19be 3de2 213c
00000100: a28f 75bb fc3e 4abd 3e49 cc3d 8d35 6cbc
00000110: 2843 bebd 7a77 123d 8658 fbbd ac24 c2bc
00000120: 801b c4bd e462 46bd b84e dd3c 0cf2 22be
00000130: b489 d6bd 2450 37bd 7996 db3b 4663 7f3a
00000140: fc11 ba3d dc46 61bd da2a a5bd 1dc4 bc3d
00000150: 0274 1c3d 832f bfbd 2965 5f3c ab38 083e
00000160: d242 ecbd 6c2a e9b9 6b6d f23c 6fe2 9ebd
00000170: f95a febb 1a30 293c 41b0 c33c 3bad 63bd
00000180: 306d ccbd 1364 9ebd 1087 a9bd ef0b cdbd
00000190: 902b e7bc 30ef 703d 4e03 483d 2957 9d3d
000001a0: c4a8 d1bd c44f f7bd deef 41bd 2848 dfbd
000001b0: 8343 ddbd afc5 bc3c 3239 abbc e81e 53bd
000001c0: e54f b5bd 20f5 ffbc e03f 19bd 5847 ca3d
000001d0: 2f8e 33be b644 7cbd 03be 96bc 6307 183e
000001e0: de2f 123c c8e9 a43d cae3 d6bc 6fe5 db3c
000001f0: 84c3 fb3d 31c0 173d ece7 47bd 2582 01bd

fc2_1.weight f4 [64, 128]
-0.018097369 -0.09388414 -0.0064934567 0.0668182 0.02100379 -0.063109845 -0.14299501 -0.03486319
-0.011553325 -0.02206804 0.0029469207 0.025499523 -0.03355364 -0.12436029 -0.10780981 -0.037004184
0.075674795 -0.09699767 -0.10779004 -0.080407694 -0.07735395 -0.086435705 0.005223048 -0.004441508
-0.006036811 0.022754654 0.008423568 0.016003788 0.017186254 -0.037939966 -0.041089315 -0.05479518
0.0034672543 -0.13674252 -0.056403123 -0.017578792 -0.06762074 0.018913493 -0.14424314 -0.1399083
-0.019364767 -0.025638469 -0.11010865 -0.14494252 -0.07604688 -0.05579796 -0.072322324 -0.052450564
-0.08006604 0.055154227 0.026849419 -0.1297845 -0.10764048 0.030943424 -0.111451626 0.005420923
-0.14768277 0.012287044 0.054730542 -0.0039739534 0.013183837 -0.048255224 -0.014974572 0.0056020264
-0.094315 -0.003064609 -0.13745026 -0.01683273 0.015509695 0.0039220974 0.02163633 -0.103140816
-0.06264804 0.047539987 -0.13061137 -0.027030887 0.002059004 -0.11733794 0.019431202 0.019564137
-0.13934298 -0.0494286 0.04640416 -0.13381459 -0.047976032 -0.09639107 -0.0023950406 -0.040521976
-0.023774138 -0.039058372 -0.09158213 -0.12203623 -0.040804498 -0.091084816 -0.04951988 -0.11694008
0.013240171 -0.12511338 0.017651342 -0.073951736 -0.13020632 -0.13068138 0.026407924 -0.09437089
0.07787303 0.060407214 -0.06942568 0.07045028 -0.044011984 -0.07977347 -0.1406109 0.006002851
-0.05172986 0.08355019 0.018442474 0.011299086 -0.07296993 0.0037893464 -0.031173902 -0.06860087
0.048441105 -0.015669407 -0.020133233 -0.11847179 0.024139393 -0.082482055 0.016718326 0.026790544
-0.045511574 -0.006078933 -0.08660128 0.086032964 0.05304762 0.0045969123 -0.068788566 0.013346961
-0.030873809 -0.073214054 0.0142997205 -0.029619813 0.08011246 -0.012437379 0.11654473 -0.029840948
-0.06491607 0.065027274 -0.14419352 -0.0041530654 0.07442573 -0.14831583 0.06896959 0.14142345
0.0017073723 -0.005882453 0.017748829 -0.0062311366 0.013929427 -0.032984227 -0.03034739 0.08034038
0.018972337 0.1028995 -0.058351785 0.11002157 0.08377882 0.00868541 -0.029377865 -0.03717966
0.09852844 0.07969914 -0.0027402702 -0.007285099 -0.023633331 0.059845027 0.06257432 0.04151639
0.04734756 -0.08318524 0.08326762 0.022164082 -0.021600848 0.04445862 -0.047139015 0.01710997
0.09486964 0.114480495 -0.005377203 0.08366706 0.059743043 -0.009970803 -0.08036022 0.052688442
0.04425703 -0.070621155 0.021395521 -0.021756096 -0.043414257 0.064849295 -0.015299097 0.13156463
-0.014640063 0.028044142 0.08615623 0.14270635 -0.022364156 -0.11965969 0.104067005 -0.14285074
0.023014123 -0.024096772 -0.04587034 0.062232513 -0.058749735 0.12514575 0.13166529 -0.108502746
0.07236372 0.014990167 -0.1404273 0.034785252 0.0917378 0.0076653957 0.09369042 -0.040345166
0.05190353 0.018456835 0.011735603 0.10239344 -0.0021805712 -0.12751691 0.013561994 0.019870337
-0.007796705 0.03618657 0.06455481 0.030429013 0.039004136 0.053288244 0.09914262 0.026108332
0.14526339 -0.072371945 -0.017286636 -0.10073835 -0.02545535 0.081711896 0.12647009 0.043336444
-0.07936934 -0.1717359 -0.010160455 0.07605811 -0.12581764 -0.04840477 0.031505845 -0.13593113
00000000: ef40 94bc 5446 c0bd 10c7 d4bb fbd7 883d
00000010: 2410 ac3c bc3f 81bd 496d 12be b4cc 0ebd
00000020: 284a 3dbc 09c8 b4bc 2021 413b 60e4 d03c
00000030: 8b6f 09bd 9cb0 febd 64cb dcbd b391 17bd
00000040: 63fb 9a3d b7a6 c6bd 06c1 dcbd caac a4bd
00000050: bf6b 9ebd 3405 b1bd 1a26 ab3b 128a 91bb
00000060: 71d0 c5bb f867 ba3c 0103 0a3c 601a 833c
00000070: 30ca 8c3c f066 1bbd 454d 28bd e970 60bd
00000080: e03a 633b 3b06 0cbe f606 67bd 6601 90bc
00000090: be7c 8abd 78f0 9a3c 79b4 13be 1f44 0fbe
000000a0: dca2 9ebc c407 d2bc a580 e1bd d06b 14be
000000b0: 77be 9bbd 678c 64bd ba1d 94bd 67d6 56bd
000000c0: aaf9 a3bd 66e9 613d 50f3 db3c 3ae6 04be
000000d0: 9d72 dcbd 107d fd3c c040 e4bd ffa1 b13b
000000e0: 273a 17be 994f 493c 222d 603d f037 82bb
000000f0: 0501 583c 45a7 45bd e857 75bc 3491 b73b
00000100: 3928 c1bd 9bd7 48bb c3bf 0cbe cbe4 89bc
00000110: 601c 7e3c f084 803b ac3e b13c 7e3b d3bd
00000120: 9e4d 80bd 4ab9 423d fdbe 05be e16f ddbc
00000130: 5bf0 063b e04e f0bd 2f2e 9f3c f844 a03c
00000140: edaf 0ebe a575 4abd 4a12 3e3d b106 09be
00000150: 8482 44bd ae68 c5bd 1df6 1cbb 5ffa 25bd
00000160: fbc1 c2bc acfb 1fbd 698f bbbd 22ee f9bd
00000170: 9e22 27bd ad8a babd 5cd5 4abd 487e efbd
00000180: 4ded 583c b91d 00be 8c99 903c 0274 97bd
00000190: ce54 05be 57d1 05be 6e55 d83c 8645 c1bd
000001a0: e57b 9f3d 8e6d 773d 0d2f 8ebd 3d48 903d
000001b0: e945 34bd 4660 a3bd 4efc 0fbe 90b3 c43b
000001c0: b1e2 53bd 5d1c ab3d ac14 973c cd1f 393c
000001d0: 4271 95bd af56 783b 6960 ffbc 9d7e 8cbd
000001e0: 2e6a 463d 215d 80bc 73ee a4bc 56a1 f2bd
000001f0: fabf c53c 5aec a8bd dff4 883c d877 db3c
00000200: 586a 3abd c931 c7bb 035c b1bd 0d32 b03d
00000210: 7648 593d b2a1 963b 05e1 8cbd 36ad 5a3c
00000220: 12eb fcbc 40f1 95bd 6049 6a3c 40a5 f2bc
00000230: 0012 a43d 26c6 4bbc 01af ee3d 0175 f4bc
00000240: b7f2 84bd 052d 853d 77a7 13be 7016 88bb
00000250: 846c 983d 1be0 17be ee3f 8d3d 4fd1 103e
00000260: e8c9 df3a 98c1 c0bb fe65 913c 902e ccbb
00000270: 4038 643c 781a 07bd 179b f8bc 7f89 a43d
00000280: e06b 9b3c f9bc d23d 4802 6fbd fd52 e13d
00000290: 3b94 ab3d 404d 0e3c d9a9 f0bc b349 18bd
000002a0: 47c9 c93d 4d39 a33d 1b96 33bb d7b7 eebb
000002b0: b09a c1bc 0f20 753d f726 803d 170d 2a3d
000002c0: 84ef 413d 065d aabd 3788 aa3d 7391 b53c
000002d0: 43f4 b0bc 3e1a 363d d714 41bd 352a 8c3c
000002e0: 044b c23d c074 ea3d 4033 b0bb a359 ab3d
000002f0: 1fb5 743d 945c 23bc e693 a4bd d6cf 573d
00000300: dc46 353d d3a1 90bd a945 af3c d739 b2bc
00000310: 26d3 31bd b5cf 843d 10a9 7abc e1b8 063e
00000320: e0dc 6fbc d4bc e53c ad72 b03d 9d21 123e
00000330: 0935 b7bc 2410 f5bd 1521 d53d 7747 12be
00000340: 1d88 bc3c 9866 c5bc 8ae2 3bbd 85e7 7e3d
00000350: 90a3 70bd 3526 003e 44d3 063e b036 debd
00000360: 6e33 943d 5199 753c 2dcc 0fbe fb7a 0e3d
00000370: 07e1 bb3d 002e fb3b c3e0 bf3d f940 25bd
00000380: cc98 543d ca32 973c b046 403c a7b3 d13d
00000390: eae7 0ebb cb93 02be 2033 5e3c 1ec7 a23c
000003a0: 807b ffbb 5e38 143d 5035 843d 4446 f93c
000003b0: cdc2 1f3d c644 5a3d 490b cb3d 24e1 d53c
000003c0: edbf 143e be37 94bd b49c 8dbc e84f cebd
000003d0: bd87 d0bc 9158 a73d 6081 013e 8e81 313d
000003e0: 648c a2bd 89db 2fbe 0978 26bc 5bc4 9b3d
000003f0: 57d6 00be 1544 46bd 460c 013d 8831 0bbe

fc2_1.bias f4 [64]
-0.018640017 -0.029542176 0.056266163 0.057291362 -0.030118134 0.044493176 0.033949435 -0.033006333
-0.081328005 -0.010744979 -0.069978476 -0.022041518 -0.009427093 0.024335647 -0.06162458 -0.11135448
-0.04904459 -0.062217414 -0.12133117 0.051217116 -0.1023148 0.09319694 -0.02348376 0.0072890427
-0.04735642 -0.06494452 0.06931805 0.080635 -0.09038013 0.06984808 -0.111410715 -0.08430619
0.10824169 -0.06291895 -0.044277955 -0.026942804 -0.08582294 -0.104554065 -0.0533407 -0.12180969
-0.09155551 0.058286816 -0.04263333 0.034705438 -0.09775296 -0.020773184 0.0077175186 0.10122726
-0.013300949 0.09632952 -0.050670974 -0.097906314 -0.0603351 -0.022959864 -0.03767396 0.016721988
-0.07995558 0.048952386 -0.11607445 -0.08728325 -0.05801894 0.026956154 -0.082038805 -0.1147369
00000000: f3b2 98bc 6f02 f2bc 5977 663d 59aa 6a3d
00000010: 4eba f6bc 7a3e 363d 900e 0b3d a631 07bd
00000020: 4c8f a6bd b50b 30bc e050 8fbd 6a90 b4bc
00000030: 1874 1abc 8d5b c73c 0e6a 7cbd d10d e4bd
00000040: fbe2 48bd b0d7 7ebd 7a7c f8bd 0ac9 513d
00000050: 6c8a d1bd 0ade be3d 0461 c0bc ecd8 ee3b
00000060: cef8 41bd a201 85bd 9ff6 8d3d f623 a53d
00000070: 3819 b9bd 830c 8f3d 4d2b e4bd b9a8 acbd
00000080: d2ad dd3d a7db 80bd cd5c 35bd 28b7 dcbc
00000090: f0c3 afbd 7120 d6bd c77b 5abd 5c77 f9bd
000000a0: 7581 bbbd 28be 6e3d 49a0 2ebd 4a27 0e3d
000000b0: b432 c8bd 862c aabc 3de3 fc3b 3d50 cf3d
000000c0: 39ec 59bc 6948 c53d 5e8c 4fbd 1b83 c8bd
000000d0: f021 77bd 5316 bcbc 0350 1abd 8dfc 883c
000000e0: c0bf a3bd 4c82 483d 71b8 edbd 90c1 b2bd
000000f0: 45a5 6dbd 27d3 dc3c f603 a8bd 2efb eabd

fc3.weight f4 [18, 64]
0.1408464 0.032467138 -0.022802942 0.07194927 -0.051184956 0.030897016 -0.036146346 0.06647088
-0.122747436 0.16456178 -0.04623313 0.15088406 0.10962841 0.059622068 -0.056904137 -0.14093168
0.020854339 0.010693909 -0.01127927 0.015858766 -0.07145187 0.10420333 0.014948204 -0.098868854
0.042361632 0.0949734 0.14853443 0.07172601 0.12512207 0.032093253 -0.06740713 0.17404109
0.017694032 -0.08018573 0.00038992811 -0.022082154 0.06585566 -0.15738575 -0.15959254 0.08248039
0.05369696 0.07338893 -0.09480986 -0.045317877 0.13757366 -0.010413621 0.062139016 -0.10540546
0.043258756 -0.07625513 -0.008672282 0.17845342 -0.06293669 0.029674739 0.07410597 -0.054334044
0.018480716 -0.054969296 -0.012493452 0.044762522 0.09940364 0.058827512 -0.090565085 0.031011255
0.061231595 0.044114836 0.004795521 0.1555295 0.020996796 -0.06576012 -0.05818196 -0.113315195
-0.043218106 0.014472298 0.13595217 0.042184837 -0.11491743 -0.0019915332 -0.09477389 0.029346576
-0.03136994 -0.011431876 -0.050691407 0.050750677 -0.06343161 0.0008923185 0.0049819946 0.055486843
-0.035892934 0.108906485 0.047018204 0.16051258 -0.09179643 -0.07251523 0.022444142 0.006906179
0.0105125215 0.12159523 0.038283963 0.0009845818 0.029551022 0.05159621 -0.09716866 -0.023924466
0.0521522 0.11662362 -0.06396964 0.12518589 0.07714665 0.07891707 0.0968767 -0.075133994
0.058533214 -0.043785464 -0.08036746 0.02449405 0.124623895 -0.028862124 0.09737649 0.09247016
0.10237994 0.06486289 -0.025497831 0.0020398002 0.008411943 0.07957766 0.102133036 -0.044100862
-0.06235888 -0.03546856 -0.094159864 0.17487462 -0.03209644 -0.04472284 -0.035310112 0.122910306
-0.06628333 0.07287792 0.048044052 0.101163246 0.08074613 0.15305644 -0.017913401 0.10125973
-0.11747092 -0.040328056 0.105777144 -0.05793627 -0.07097592 0.058208436 0.02540353 0.09096066
0.105774224 -0.056090344 0.06556786 -0.0015422729 -0.18240386 -0.029765826 0.024426179 0.10824392
0.13948458 0.10647382 -0.0091403965 -0.030400474 0.12209724 0.17061207 0.09491322 0.07804711
-0.12790014 -0.014375257 0.039617315 0.08224382 0.09754326 0.06449612 -0.02077684 0.109635755
0.05739686 0.002826247 0.104144484 0.10541386 -0.06042044 -0.048976738 -0.020573188 0.087627195
-0.0108377505 0.03219182 0.0026326277 0.16598254 0.15201187 0.025208574 -0.03099887 0.050765846
0.14222369 -0.06019354 0.07286962 -0.07121312 -0.10300243 -0.00011296481 -0.029753445 0.114828914
0.023074448 -0.006346952 0.13451362 -0.0042433576 -0.08216567 -0.052022625 0.024480686 -0.0829079
-0.013278902 -0.0012733754 -0.04183407 0.09063212 -0.010512292 0.10011239 -0.06744318 0.048892472
-0.10763432 -0.032989476 0.085125886 0.060317613 0.04396564 -0.0019120888 0.13558811 0.152823
-0.050530076 0.06410524 0.1345212 0.07788172 0.017657705 0.1100954 0.05248996 0.049114954
-0.01696818 -0.07026239 0.08847639 -0.033893004 -0.013887802 0.02995635 0.08767375 -0.05633612
0.09545372 -0.052191406 -0.08530964 0.0065652905 -0.01562475 0.05992737 0.016768789 0.024800668
0.012690044 0.07289086 0.013490053 -0.0322463 0.04018014 0.07223086 -0.10610443 0.0982309
00000000: 0a3a 103e 43fc 043d 3ccd babc 245a 933d
00000010: 51a7 51bd bd1b fd3c 310e 14bd e221 883d
00000020: 0263 fbbd e282 283e f35e 3dbd 5a81 1a3e
00000030: dc84 e03d 4536 743d 5014 69bd 6550 10be
00000040: b8d6 aa3c 8135 2f3c b0cc 38bc 3eea 813c
00000050: 5c55 92bd 8e68 d53d 50e9 743c c17b cabd
00000060: 6483 2d3d 6a81 c23d 6919 183e 16e5 923d
00000070: 0020 003e 3774 033d c00c 8abd d437 323e
00000080: 13f3 903c 6a38 a4bd 446f cc39 a2e5 b4bc
00000090: 55df 863d bb29 21be 3a6c 23be 7beb a83d
000000a0: 58f1 5b3d ef4c 963d ac2b c2bd 3d9f 39bd
000000b0: 1ce0 0c3e e49d 2abc 7b85 7e3d d1de d7bd
000000c0: 1830 313d a62b 9cbd 3016 0ebc 7ebc 363e
000000d0: f4e4 80bd 7018 f33c dfc4 973d 608d 5ebd
000000e0: df64 973c 7c27 61bd 56b1 4cbc e858 373d
000000f0: 2394 cb3d 1ef5 703d 307a b9bd 510b fe3c
00000100: fbcd 7a3d c2b1 343d bf23 9d3b 2043 1f3e
00000110: 7901 ac3c 3ead 86bd 3550 6ebd cc11 e8bd
00000120: 7805 31bd 381d 6d3c 0c37 0b3e 02ca 2c3d
00000130: d459 ebbd 6284 02bb d018 c2bd 3b68 f03c
00000140: c47d 00bd c34c 3bbc cba1 4fbd f1df 4f3d
00000150: 6fe8 81bd 7bea 693a 0040 a33b 2c46 633d
00000160: 7804 13bd 5d0a df3d 2996 403d 695d 243e
00000170: c4ff bbbd dd82 94bd c7dc b73c 3a4d e23b
00000180: b63c 2c3c ec06 f93d a5cf 1c3d 150d 813a
00000190: fc14 f23c 8c56 533d 5d00 c7bd 3efd c3bc
000001a0: 8c9d 553d 5dd8 ee3d 8402 83bd bb30 003e
000001b0: 10ff 9d3d 469f a13d 4b67 c63d dadf 99bd
000001c0: 86c0 6f3d 6358 33bd b297 a4bd bfa7 c83c
000001d0: d03a ff3d 4370 ecbc 536d c73d ff60 bd3d
000001e0: 93ac d13d d6d6 843d d4e0 d0bc 2bae 053b
000001f0: 3fd2 093c 9df9 a23d 202b d13d 1ba3 34bd
00000200: 066c 7fbd 7b47 11bd e3d6 c0bd 5512 333e
00000210: 8f77 03bd 4c2f 37bd 56a1 10bd 66b8 fb3d
00000220: 8ebf 87bd 0541 953d d7c9 443d ad2e cf3d
00000230: 3a5e a53d d4ba 1c3e 20bf 92bc 4361 cf3d
00000240: 9894 f0bd 082f 25bd b0a1 d83d 954e 6dbd
00000250: d35b 91bd f86b 6e3d 101b d03c 9549 ba3d
00000260: 28a0 d83d fdbe 65bd 7148 863d 1726 caba
00000270: 14c8 3abe 76d7 f3bc 6919 c83c fdae dd3d
00000280: 0cd5 0e3e f20e da3d 9ac1 15bc 6a0a f9bc
00000290: 1e0e fa3d eeb4 2e3e dd61 c23d 2ad7 9f3d
000002a0: 41f8 02be 3386 6bbc c445 223d 736f a83d
000002b0: c3c4 c73d 8b16 843d 3134 aabc b688 e03d
000002c0: f818 6b3d 8e38 393b b449 d53d 39e3 d73d
000002d0: 6c7b 77bd d59b 48bd 1a89 a8bc e375 b33d
000002e0: d290 31bc 92db 033d 2a88 2c3b 54f7 293e
000002f0: 00a9 1b3e 3682 ce3c 58f1 fdbc d9ef 4f3d
00000300: 16a3 113e 808d 76bd ab3c 953d 2fd8 91bd
00000310: f0f2 d2bd 85e7 ecb8 7fbd f3bc 6c2b eb3d
00000320: a006 bd3c 18fa cfbb f0bd 093e dd0b 8bbb
00000330: 7a46 a8bd ad15 55bd b88b c83c 9ecb a9bd
00000340: c08f 59bc 63e7 a6ba 345a 2bbd 559d b93d
00000350: c03b 2cbc ba07 cd3d a61f 8abd 7943 483d
00000360: 626f dcbd f91f 07bd 7b56 ae3d 9a0f 773d
00000370: 5115 343d 0e9f faba 9cd7 0a3e a27d 1c3e
00000380: a0f8 4ebd 9c49 833d edbf 093e 7480 9f3d
00000390: e4a6 903c b279 e13d b6ff 563d c32c 493d
000003a0: da00 8bbc bae5 8fbd 1c33 b53d 64d3 0abd
000003b0: aa89 63bc 0567 f53c 4c8e b33d b4c0 66bd
000003c0: 3d7d c33d a8c6 55bd d2b6 aebd a621 d73b
000003d0: f4fe 7fbc 6776 753d b35e 893c c52a cb3c
000003e0: e7e9 4f3c ce47 953d 6205 5d3c b214 04bd
000003f0: ee93 243d c6ed 933d 484d d9bd 482d c93d

fc3.bias f4 [18]
-0.02780117 -0.03603409 -0.023551261 -0.010485381 0.02122605 0.0057769516 -0.002370178 -0.00863966
-0.014283709 0.027975382 -0.013221844 -0.014991111 0.020318925 -0.03972517 0.008607242 0.021194402
-0.019263752 0.0067079286
00000000: 47bf e3bc 7b98 13bd 93ee c0bc e0ca 2bbc
00000010: 41e2 ad3c 954c bd3b fd54 1bbb 5c8d 0dbc
00000020: 3806 6abc a12c e53c 6fa0 58bc 479d 75bc
00000030: e073 a63c dcb6 22bd 6405 0d3c e29f ad3c
00000040: 04cf 9dbc 2fce db3b
