models/2024-07-20_16-38-18/epoch_0009_loss_0.00031154/dynamics.pth (torch, 83084 bytes, 8 tensors)

fc1.weight f4 [64, 34]
0	0x3c929a40	0.017895818
1	0x3dd98da6	0.106227204
2	0xbac2a400	-0.0014849901
3	0x3df64842	0.12025501
4	0xbdf64605	-0.12025074
5	0xbe2c1f76	-0.16808876
6	0x3dcee942	0.10103084
7	0x3e0d8095	0.13818581
8	0x3b634600	0.0034679174
9	0xbdbd2640	-0.09235811
10	0x3da3c482	0.07996465
11	0x3cfcaf20	0.030845225
12	0xbd97cc7f	-0.074120514
13	0x3e24226d	0.16028757
14	0x3da448b2	0.08021678
15	0xbc021c30	-0.007941291
16	0x3e1fdc3d	0.15611358
17	0x3dfec35e	0.12439607
18	0xbdb7ea10	-0.08980191
19	0x3c6afe60	0.014342874
20	0x3d9597a2	0.07304312
21	0xbd8d2e28	-0.06893569
22	0x3dfda952	0.12385811
23	0x3c387b40	0.011259854
24	0x3d8906bc	0.066907376
25	0xbddee784	-0.10884002
26	0xbe286500	-0.16444778
27	0x3e29a06b	0.16565101
28	0x3d04ba74	0.032404378
29	0xbda96509	-0.08271224
30	0x3d8424d0	0.06452334
31	0xba94eb80	-0.0011361688
32	0x3e09e38d	0.1346571
33	0x3d4e53a8	0.05037275
34	0xbd083535	-0.033253867
35	0xbd0d93b8	-0.034564704
36	0x3e0bb1b6	0.1364201
37	0x3e2451e4	0.16046864
38	0xbd8f2b67	-0.069907
39	0x3cdb6056	0.026779335
40	0xbc52d7ff	-0.01286888
41	0xbd6e044f	-0.058109578
42	0xbd978ba5	-0.07399682
43	0xbd028b44	-0.031871095
44	0xbd9f4552	-0.07776894
45	0xbe0ae635	-0.1356438
46	0xbe3d9130	-0.18512416
47	0xbcdb2d8f	-0.026755122
48	0x3db91958	0.09038037
49	0x3db3dbfe	0.087821946
50	0x3de63bb4	0.11241856
51	0x3ce2d246	0.027688157
52	0x3da40235	0.080082335
53	0x3c987178	0.018608794
54	0x3bb88b28	0.005631823
55	0xbdefc605	-0.11707691
56	0xbe2902f0	-0.16505027
57	0xbd5869a2	-0.052835114
58	0x3e40489d	0.187777
59	0x3e138e05	0.14409645
60	0xbe678618	-0.22609746
61	0x3e18d78c	0.14925975
62	0xbe5b04f0	-0.21388602
63	0xbd9ec316	-0.077520534
64	0x3dcc8415	0.0998613
65	0xbe1c5307	-0.15266047
66	0xbdf5929e	-0.11990856
67	0xbdf1c041	-0.11804248
68	0xbdb2d2c8	-0.087316096
69	0x3bdd33a0	0.006750539
70	0xbddad4e9	-0.10685141
71	0xbd8b08e7	-0.06788807
72	0x3dfda79e	0.12385486
73	0xbd7cbed6	-0.061705433
74	0xbd276de4	-0.040876284
75	0xbdb0c9fe	-0.08632277
76	0xbd81ad09	-0.06331832
77	0xbd52f576	-0.05150362
78	0xbe075721	-0.13216831
79	0xbdb9adaf	-0.09066331
80	0xbdfae0b8	-0.12249893
81	0xbd3f3e16	-0.04669007
82	0xbe23c85c	-0.159944
83	0x3db2c866	0.08729629
84	0x3dceb7f2	0.100936785
85	0xbdba42e3	-0.09094789
86	0x3e0940ff	0.134037
87	0xbdcbff92	-0.099608555
88	0x3e02ed73	0.12785892
89	0xbe1ae208	-0.15125287
90	0x3cd59ac0	0.026074767
91	0x3d748618	0.059698194
92	0x3e003341	0.12519552
93	0xbd9d4238	-0.07678646
94	0x3ddf22fa	0.10895343
95	0x3c6150a0	0.013752133
96	0xbd3d9fc0	-0.046294928
97	0xbdb791d1	-0.08963359
98	0xbcbc81b8	-0.023011073
99	0xbd8393e0	-0.06424689
100	0x3dd7c27e	0.10535143
101	0xbccb3748	-0.024806634
102	0x3dd9d909	0.10637099
103	0xbdcdfb81	-0.10057736
104	0x3dbc94ae	0.09208046
105	0xbd70e263	-0.05880965
106	0x3e632c21	0.22184803
107	0xbe315918	-0.17319143
108	0xbd2d737f	-0.042346474
109	0xbd6d35a6	-0.05791249
110	0xbe1f5d92	-0.15563038
111	0x3dea4ad3	0.11440053
112	0xbd97352d	-0.07383189
113	0x3d3dc1c9	0.046327386
114	0x3d29532d	0.04133909
115	0xbd4084f4	-0.047001794
116	0x3bf42c6f	0.007451586
117	0xbddcfbc5	-0.10790209
118	0xbcc1e612	-0.023669276
119	0xbcdf8020	-0.027282774
120	0x3df53fc7	0.11975055
121	0x3e7cf56e	0.24702999
122	0x3dd508ec	0.10402092
123	0x3de98d8b	0.1140395
124	0xbe1d605e	-0.15368792
125	0x3dd53fe4	0.10412577
126	0x3e0040fe	0.12524793
127	0xbcabf6b2	-0.020991657
128	0x3d485161	0.048905734
129	0x3b9eff52	0.004852214
130	0xbcabdc0a	-0.020978946
131	0x3dcd8a64	0.100361615
132	0xbd4ef2eb	-0.050524633
133	0xbe32363a	-0.17403498
134	0xbd828a97	-0.0637409
135	0xbe2c1a07	-0.16806804
136	0xbe034b58	-0.1282171
137	0x3e2f0bcd	0.17094345
138	0x3d0f8574	0.03503938
139	0x3ddc2406	0.107490584
140	0x3d09783c	0.03356193
141	0xbd49f6fc	-0.04930781
142	0x3be79500	0.0070673227
143	0x3e0c394f	0.13693736
144	0x3e11b2bf	0.14228342
145	0xbd1a6d04	-0.03770162
146	0xbd92efdb	-0.07174655
147	0x3da669ae	0.081256256
148	0xbdaacdec	-0.08340058
149	0xbe1debfa	-0.15422049
150	0xbe227d6c	-0.15868157
151	0xbe0b7fb6	-0.13622937
152	0xbd6e09e2	-0.058114894
153	0x3da35b36	0.079763815
154	0xbe27db6a	-0.16392294
155	0xbd19b04c	-0.037521645
156	0x3db6ceea	0.089261845
157	0xbda66f5b	-0.08126708
158	0x3d87ea98	0.06636542
159	0xbd78c8fa	-0.06073854
160	0x3d3b4eb8	0.04572937
161	0xbd596da4	-0.053083077
162	0x3df9dc4e	0.12200223
163	0x3c98c7a0	0.018649876
164	0xbd33a0e8	-0.043854624
165	0xbdb278e5	-0.08714465
166	0x3dce8a36	0.100849554
167	0xbdb46803	-0.08808901
168	0x3e0a86b9	0.13527955
169	0xbd931551	-0.071818
170	0x3e1504c8	0.14552605
171	0x3da50a3f	0.08058595
172	0x3e2afa87	0.16697131
173	0xbc9c57f6	-0.019084912
174	0x3e339a4c	0.17539328
175	0x3dd068fa	0.10176273
176	0xbe3e6dad	-0.18596525
177	0x3e0cd731	0.13753964
178	0xbd205c90	-0.039150774
179	0xbd9ed6bc	-0.07755801
180	0x3de31444	0.1108785
181	0xbc472636	-0.012155106
182	0x3e1d19a0	0.15341806
183	0x3d83dc5d	0.06438515
184	0xbc8d198d	-0.017224098
185	0x3e1068c0	0.14102459
186	0xbd3ed9af	-0.046594318
187	0x3d840d48	0.06447846
188	0x3d95d28f	0.073155515
189	0x3e58fcc9	0.2119018
190	0xbdd6d1da	-0.10489245
191	0x3c8f1c26	0.017469477
192	0x3d39a903	0.045327198
193	0xbbf71e04	-0.00754142
194	0x3e5bffc1	0.21484281
195	0x3c3dbbe6	0.011580443
196	0x3d4e4ed0	0.05036813
197	0x3c39b371	0.011334286
198	0x3c42d054	0.01189049
199	0x3e15bb13	0.14622144
200	0x3e130868	0.14358675
201	0x3d5c5dd4	0.05380042
202	0x3d986ca1	0.07442594
203	0x3dcd3721	0.10020281
204	0xbe157ad6	-0.1459764
205	0x3e012c21	0.1261449
206	0x3dd1bd8e	0.10241233
207	0x3e03d14f	0.12872814
208	0xbd9f5bb8	-0.07781166
209	0x3dd189f2	0.10231389
210	0x3b95cba0	0.004571393
211	0x3b862d40	0.0040947497
212	0x3d44b848	0.048027307
213	0xbc31c850	-0.010850981
214	0x3e29a601	0.16567232
215	0x3ddb2426	0.10700254
216	0xbd4bca36	-0.04975339
217	0xbd273e14	-0.040830687
218	0x3d993752	0.07481255
219	0x3dc28c42	0.09499408
220	0x3ddb49d2	0.107074395
221	0x3e16f9a7	0.14743672
222	0x3e1ce0d9	0.15320148
223	0xbd70e46c	-0.05881159
224	0xbdff6468	-0.12470323
225	0xbe00d826	-0.12582454
226	0xbe29244d	-0.16517754
227	0xbe0501d0	-0.12988973
228	0x3dbba0e6	0.09161548
229	0x3d6f3f74	0.058410123
230	0xbd62794e	-0.055291466
231	0xbc42cec0	-0.011890113
232	0xbe029800	-0.12753296
233	0x3dfc515e	0.12320207
234	0xbe24fce8	-0.16112101
235	0xbda49c31	-0.08037604
236	0x3db6cc8e	0.089257345
237	0x3e1365af	0.14394258
238	0x3e0b65d5	0.13613065
239	0x3e0fbe6d	0.14037485
240	0x3e2948ef	0.16531728
241	0x3d83ff16	0.06445138
242	0xbb32c1c0	-0.0027276129
243	0xbd7f2e9e	-0.062300317
244	0xbda2771e	-0.07932876
245	0xbdd268d5	-0.102739014
246	0xbd4f40d0	-0.05059892
247	0x3dce1416	0.10062425
248	0xbe000305	-0.12501152
249	0x3cd4d600	0.02598095
250	0x3d6bc5d4	0.05756171
251	0xbcbbfbe0	-0.022947252
252	0xbd88434e	-0.06653462
253	0x3ce57850	0.028011471
254	0xbd354b18	-0.044261068
255	0x3bf19680	0.0073726773

fc1.bias f4 [64]
0	0xbdadbf64	-0.084837705
1	0x3d8d5151	0.069002755
2	0x3dbfd1a7	0.0936616
3	0x3db39b37	0.08769839
4	0xbe197c38	-0.14988792
5	0xbcb7bac5	-0.022427926
6	0xbd9e3176	-0.07724278
7	0xbd98a932	-0.074541464
8	0xbd7b1e55	-0.061308224
9	0x3d4b398e	0.049615435
10	0xbe10164a	-0.14071003
11	0xbe0e9b9f	-0.13926552
12	0x3da58cef	0.080835216
13	0xbd2ab091	-0.041672293
14	0x3e169702	0.14706042
15	0xbdd1f044	-0.10250905
16	0x3e3295b9	0.17439927
17	0xbcea2b70	-0.028585166
18	0xbd52235a	-0.051303245
19	0x3de66716	0.11250131
20	0xbd5ad773	-0.053428125
21	0xbd81663e	-0.06318329
22	0x3e5ceacd	0.21573944
23	0xbe44a26c	-0.19202584
24	0xbb824504	-0.0039755125
25	0xbdc084e9	-0.094003506
26	0xbdd5e78d	-0.104445554
27	0x3e4b5c87	0.19859515
28	0xbdf540e2	-0.11975266
29	0x3d8a4d9d	0.06753085
30	0xbd628fe2	-0.055313
31	0x3dd65d43	0.10467007
32	0x3d9d678a	0.07685764
33	0xbcaf021d	-0.021363312
34	0x3d880340	0.06641245
35	0xbc51dba1	-0.012808711
36	0xbddbf244	-0.10739568
37	0xbe0608e8	-0.13089335
38	0x3d621dea	0.05520431
39	0xbe1406bd	-0.14455695
40	0xbdf3b1b4	-0.118991286
41	0xbdb83703	-0.08994868
42	0x3daf7658	0.08567494
43	0xbda72a58	-0.08162373
44	0xbd8d5c4a	-0.06902368
45	0xbd8498eb	-0.06474479
46	0x3e3865ad	0.18007536
47	0x3e3141df	0.17310284
48	0x3db69488	0.08915049
49	0xbbd57541	-0.006514222
50	0xbdf673ea	-0.120338276
51	0xbd8b5866	-0.0680397
52	0xbe0bbe71	-0.13646866
53	0xbb88a2b4	-0.0041697863
54	0x3e6ffcf5	0.23436339
55	0xbc7552a0	-0.014973313
56	0xbdbc67ab	-0.091994606
57	0x3dca92f5	0.09891311
58	0x3dc7be30	0.09753072
59	0xbbf10f80	-0.007356584
60	0x3e0ed188	0.13947117
61	0x3d8f37bf	0.069930546
62	0xb9947a00	-0.00028319657
63	0x3b638608	0.003471734

fc2.weight f4 [128, 64]
0	0x3dd2570a	0.10270508
1	0xbc401a94	-0.011725087
2	0xbe0fdc96	-0.1404899
3	0xbd03389e	-0.032036416
4	0x3dc611d6	0.09671371
5	0x3d7a7845	0.061149854
6	0x3dbebe66	0.09313659
7	0x3cd4f726	0.025996756
8	0xbd818794	-0.063246876
9	0xbc7bda33	-0.015371847
10	0x3d875140	0.06607294
11	0xbdcb8fa6	-0.09939508
12	0x3d2c38a8	0.04204622
13	0xbc8317a5	-0.016002486
14	0xbe751ed5	-0.23937543
15	0x3def8b89	0.11696536
16	0xbe6a4ab9	-0.22880067
17	0xbcb3327a	-0.021874655
18	0x3cdd44d9	0.027010368
19	0xbe7b5363	-0.24543528
20	0xbc85ef97	-0.016349597
21	0x3dbac97f	0.091204636
22	0xbc37dd16	-0.011222145
23	0x3dc29f38	0.09503025
24	0x3d445004	0.04792787
25	0x3d359ed8	0.04434094
26	0x3d033894	0.03203638
27	0xbd8bbc8a	-0.0682307
28	0xbc887080	-0.016655207
29	0xbc2675b5	-0.0101598995
30	0xbde69547	-0.11258941
31	0xbe2be827	-0.16787778
32	0xbe4c52a5	-0.19953401
33	0x3de7e988	0.113238394
34	0x3db595ed	0.08866487
35	0x3d7ab5d8	0.061208576
36	0xbd9aee10	-0.07564938
37	0x3d5a4c04	0.05329515
38	0xbdedf599	-0.1161911
39	0x3dacc93b	0.08436819
40	0x3ce78a7c	0.028264277
41	0x3d69b508	0.05705741
42	0x3bf35917	0.007426392
43	0xbdac298e	-0.084063634
44	0x3d043224	0.03227438
45	0x3c558e70	0.013034448
46	0xbe6d98eb	-0.23202865
47	0xbe42fa04	-0.19040686
48	0xbc8be5f4	-0.017077424
49	0x3d0c2b1e	0.034220807
50	0xbd877b1c	-0.06615278
51	0xbd99fc64	-0.07518843
52	0xbd235064	-0.03987159
53	0xbd1766dc	-0.03696333
54	0xbe63aa3b	-0.22232907
55	0xbdaff182	-0.08590986
56	0xbd1ac795	-0.037787993
57	0xbd368d6e	-0.04456847
58	0xbc3c3889	-0.011488088
59	0xbc373ac0	-0.011183441
60	0xbe790f2d	-0.24322195
61	0x3d4ddabd	0.050257433
62	0x3d80d96c	0.0629147
63	0xbdff1b28	-0.124563515
64	0x3dc9264a	0.09821756
65	0x3dca0b8e	0.09865485
66	0x3dfd736a	0.12375529
67	0xbdbb5f3c	-0.09149024
68	0x3dccd664	0.10001829
69	0x3dae09e2	0.08497979
70	0x3da10a58	0.07863301
71	0x3d450770	0.048102796
72	0xbcde6668	-0.02714844
73	0xbd66c670	-0.05634159
74	0xbde63f8a	-0.11242588
75	0xbdbc0318	-0.091802776
76	0xbd8a32a4	-0.0674794
77	0xbca5aae8	-0.020223096
78	0xbce5f758	-0.028072044
79	0xbd0adb10	-0.03390032
80	0xbdd50b20	-0.104025126
81	0x3d60b5c4	0.054860845
82	0xb99b2e00	-0.00029598176
83	0xbdab8ae4	-0.08376101
84	0xbd9f12ee	-0.077672824
85	0x3d3e6c40	0.046489954
86	0xbd40a2e0	-0.04703033
87	0x3df9e3fa	0.12201686
88	0x39af8c00	0.0003348291
89	0xbc728b90	-0.014803782
90	0xb9b73c00	-0.00034949183
91	0xbc7afd10	-0.015319124
92	0xbd9e6292	-0.077336445
93	0x3cfdf6d0	0.031001478
94	0x3c9f0538	0.019411668
95	0x3df658dc	0.12028667
96	0xbb7e0100	-0.003875792
97	0xbcf91668	-0.030406192
98	0x3c814c58	0.015783474
99	0xbd4ec850	-0.050484
100	0x3d01a93c	0.031655535
101	0x3dea653a	0.11445089
102	0xbc72de60	-0.014823526
103	0xbdf597ae	-0.11991821
104	0xbde39c22	-0.11113764
105	0xbde7e952	-0.11323799
106	0xbdaf6158	-0.08563489
107	0xbd95cd16	-0.07314508
108	0x3d49b5d8	0.049245685
109	0xbde645e8	-0.11243802
110	0x3db4234e	0.08795796
111	0xbca6e820	-0.020374358
112	0x3d468048	0.048462182
113	0xbcb67140	-0.022270799
114	0x3dc5e4e0	0.09662795
115	0xbb938dc0	-0.004502982
116	0xbd9a9978	-0.07548803
117	0x3db05db8	0.086116254
118	0x3ddc62f0	0.10761058
119	0xbdf0fb2a	-0.11766656
120	0x3cb555a8	0.02213557
121	0xbd398a28	-0.04529777
122	0xbda858ba	-0.08220048
123	0x3dd75972	0.10515107
124	0x3da34586	0.07972245
125	0xbd43cac4	-0.047800794
126	0xbc99b378	-0.018762335
127	0x3b844220	0.004036203
128	0xbd8066f0	-0.06269634
129	0xbcbcf6b3	-0.023066854
130	0xbca25c51	-0.01981941
131	0xbaf15afe	-0.0018413959
132	0x3dfc255c	0.12311813
133	0x3d2ae0ec	0.04171841
134	0xbd432164	-0.047639266
135	0x3d4ede80	0.05050516
136	0x3d319e95	0.043364126
137	0x3dbadc86	0.09124093
138	0xbd1d3528	-0.038380772
139	0x3b6950c8	0.0035601128
140	0xbdceffca	-0.10107382
141	0xbe089b58	-0.13340509
142	0xbdfad8bf	-0.12248372
143	0x3dfacb97	0.12245863
144	0xbd4c7b03	-0.049922
145	0x3d6f818e	0.058473162
146	0x3e01cc65	0.12675627
147	0xbe2ec358	-0.17066705
148	0xbd4687e2	-0.04846943
149	0xbb27ac01	-0.00255847
150	0xbcb5b5aa	-0.02218135
151	0xbdd63924	-0.104601175
152	0x3de219ff	0.110401146
153	0xbd2d933c	-0.04237674
154	0x3ddf0eda	0.108915046
155	0xbe55742d	-0.20845099
156	0x3d06a660	0.03287351
157	0xbd4a6527	-0.049412873
158	0xbd66af40	-0.056319475
159	0x3d450bc9	0.048106942
160	0xbe35db0b	-0.1775934
161	0x3dec9219	0.115513034
162	0xbd818a7a	-0.063252404
163	0x3b0f522e	0.0021869051
164	0x3d805baa	0.062674835
165	0xbdc4acaa	-0.096032456
166	0xbdc0ee23	-0.09420421
167	0x3d9cb63f	0.07651948
168	0xbd815322	-0.063146845
169	0xbd17fc10	-0.03710562
170	0xbc5a1b56	-0.013312181
171	0xbb2a2812	-0.0025963825
172	0xbdad6fdc	-0.08468601
173	0x3dabd006	0.08389287
174	0xbd118133	-0.035523605
175	0x3cb8d1fa	0.022561062
176	0x3bb919e7	0.0056488398
177	0x3d7fa6b4	0.06241484
178	0xbccfd260	-0.02536887
179	0xbdea5627	-0.114422135
180	0x3d66eb3f	0.056376692
181	0x3c91235a	0.017717052
182	0xbdd3c39f	-0.10340046
183	0x3d9768de	0.07393049
184	0x3d808d96	0.062770054
185	0xbd16aa68	-0.036783606
186	0x3d1c29f9	0.038125966
187	0xbd1df318	-0.03856191
188	0xbc3d5254	-0.011555273
189	0x3d88bc96	0.06676595
190	0xbd01ef18	-0.03172216
191	0xbd782a17	-0.060587015
192	0x3de90cc0	0.11379385
193	0xbe4ce717	-0.20010029
194	0xbe2bfe2e	-0.1679618
195	0xbd418dcd	-0.047254372
196	0xbd986bd4	-0.074424416
197	0xbce96e8a	-0.028495092
198	0x3dbfd3e6	0.09366588
199	0xbc07b35e	-0.008282511
200	0xbe2e0ab6	-0.16996273
201	0xbe375fcb	-0.17907636
202	0x3dc88d70	0.09792602
203	0x3d9f819b	0.07788392
204	0xbe2925cb	-0.16518323
205	0xbe1552ad	-0.1458232
206	0xbdac81e3	-0.084232114
207	0xbdd6770a	-0.10471924
208	0xbd71a076	-0.058990918
209	0x3dd01745	0.10160688
210	0x3d590b8a	0.05298952
211	0xbe354c19	-0.1770481
212	0xbda99ecd	-0.08282242
213	0xbe19c1db	-0.15015356
214	0x3bb9e021	0.00567247
215	0xbd39f84e	-0.045402817
216	0x3d7affce	0.06127911
217	0xbbbcd460	-0.0057626218
218	0xbd4fb3a0	-0.050708413
219	0xbd9886fa	-0.0744762
220	0xbde7cebe	-0.1131873
221	0x3d35b2ff	0.044360157
222	0x3d0b80a2	0.03405822
223	0xbd4a7774	-0.049430326
224	0xbc46cb7e	-0.012133477
225	0x3dd24a5f	0.102680914
226	0x3c83f1ec	0.016106568
227	0x3cd12747	0.025531424
228	0xbc319cad	-0.010840577
229	0xbd84d6c8	-0.06486279
230	0xbd8c9558	-0.068644226
231	0xbd927dde	-0.071529135
232	0xbd365142	-0.044511087
233	0x3dc04410	0.09387982
234	0x3daf497e	0.085589394
235	0x3c584d7b	0.0132020665
236	0xbdf17026	-0.11788969
237	0xbc3a1d00	-0.011359453
238	0xbdb9ffe2	-0.09082009
239	0xbe3d461f	-0.1848378
240	0x3921e314	0.0001543875
241	0xbe0af652	-0.13570526
242	0xbd6ec444	-0.058292642
243	0xbe317a31	-0.17331769
244	0xbda476dd	-0.08030484
245	0xbe2346c0	-0.15944958
246	0xbd189b96	-0.037257753
247	0x3db4e7fa	0.088333085
248	0xbe301985	-0.17197235
249	0xbe4ff577	-0.20308481
250	0x3c97fc6c	0.018552981
251	0xbdcdcd4e	-0.100489244
252	0xbe3d9e47	-0.1851741
253	0xbd993937	-0.07481616
254	0x3ce41618	0.027842566
255	0xbc9bc853	-0.01901642

fc2.bias f4 [128]
0	0x3d1eb27c	0.038744435
1	0xbc6872f0	-0.0141875595
2	0xbd1bd3d6	-0.03804382
3	0xba807ffa	-0.0009803765
4	0x3d331cfe	0.04372882
5	0xbd504cc5	-0.050854463
6	0xbb62fb5e	-0.003463469
7	0x3c807aa1	0.015683474
8	0xbdf73520	-0.1207068
9	0xbd7044b8	-0.058659285
10	0xbc91435e	-0.017732318
11	0x3d09c977	0.033639397
12	0xbd1c12bc	-0.038103804
13	0xbdc366c6	-0.09541087
14	0xbc05ebf9	-0.008173936
15	0xbd30a339	-0.04312441
16	0x3d61db19	0.05514059
17	0xbcdcb5ed	-0.026942218
18	0xbc046f48	-0.008083172
19	0xbd3d04c3	-0.04614712
20	0x3c26e177	0.010185591
21	0xbd1574eb	-0.036488455
22	0xbdd4e1ab	-0.10394605
23	0xbbb294b5	-0.005449856
24	0xbd8b6d90	-0.06808007
25	0x3d9aa723	0.0755141
26	0x3ca9a682	0.02070928
27	0xbd0ae095	-0.033905584
28	0xbdebeed8	-0.11520165
29	0xbca40603	-0.020022398
30	0xbc2e1cc5	-0.010626976
31	0x3c9deebe	0.01927888
32	0x3d38b68c	0.045095965
33	0xbdbaf76f	-0.091292255
34	0xbe0ce3b1	-0.13758732
35	0xbd816d16	-0.063196346
36	0x3c95bd75	0.018278817
37	0xbcd4ec77	-0.025991661
38	0xbd6477a2	-0.055778153
39	0xbcd9b520	-0.026575625
40	0xbda10fb0	-0.0786432
41	0xbdc5b1c1	-0.096530445
42	0xbd05f6b0	-0.032705963
43	0xbdd9148a	-0.10599621
44	0xbe02d578	-0.12776744
45	0x3d24b9bc	0.040216193
46	0x3dd4d3af	0.10391938
47	0xbd32f6fa	-0.043692566
48	0xbcc71d9e	-0.024306115
49	0xbe0f010a	-0.1396524
50	0x3d0b0d11	0.033948008
51	0xbd360fa8	-0.044448525
52	0x3c91c8e0	0.01779598
53	0xbd11d0f4	-0.035599664
54	0xbde0283a	-0.109451726
55	0x3ce05489	0.02738406
56	0x3d07c474	0.033146337
57	0xbe1a2843	-0.15054421
58	0x3ccf82ff	0.025331018
59	0x3d8622a3	0.06549575
60	0xbc6fc4c7	-0.014634318
61	0xbc706d10	-0.01467444
62	0xbcc37daf	-0.023863642
63	0xbda6fa96	-0.08153264
64	0x3b5969b9	0.0033174588
65	0xbc739123	-0.014866146
66	0x3d0a1268	0.03370896
67	0xbd7fbc07	-0.062435176
68	0xbe0b082c	-0.13577336
69	0xbcc2860a	-0.023745555
70	0x3dacd8d9	0.08439798
71	0xbe380bcb	-0.17973249
72	0xbdd8ffe0	-0.10595679
73	0xbd498758	-0.04920134
74	0xbdaeb5b5	-0.085307516
75	0x3c406bb0	0.011744425
76	0xbd52befc	-0.05145167
77	0xbccd2ce5	-0.025045821
78	0x3cfd8b21	0.03095013
79	0x3d3fd98f	0.04683834
80	0xbd3b18ba	-0.045677878
81	0xbdca50a8	-0.09878665
82	0xbd9cfe60	-0.07665706
83	0xbdf7fb7c	-0.12108514
84	0xbdd5c2d6	-0.10437553
85	0x3cb8cae5	0.022557685
86	0xbdae01db	-0.08496448
87	0x3d4d501c	0.050125226
88	0xbb4d62a4	-0.0031339312
89	0xbd7ffb13	-0.062495302
90	0xbde4982c	-0.11161837
91	0xbdc8f411	-0.09812177
92	0xbc7c6308	-0.01540447
93	0xbdcddd7a	-0.10052009
94	0xbe34ecbc	-0.17668432
95	0xbc6937f1	-0.014234529
96	0xbddd1426	-0.10794859
97	0x3db4bda8	0.088252366
98	0xbced8083	-0.028991943
99	0xbd861ac5	-0.06548075
100	0xbcfae040	-0.030624509
101	0xbd9d766a	-0.07688601
102	0xbdd08638	-0.1018185
103	0xbe1e5838	-0.1546334
104	0x3db70f05	0.089384116
105	0xbda17cb4	-0.07885113
106	0xbdb4ca7d	-0.08827684
107	0x3d4bde7a	0.049772717
108	0xbd1c58bc	-0.03817056
109	0xbcb095f0	-0.02155587
110	0xbd0b1e20	-0.033964276
111	0xbd96f1a6	-0.073703095
112	0xbd094d7a	-0.033521153
113	0x3d23c5b4	0.039983466
114	0xbdd34323	-0.1031554
115	0xbd121474	-0.035664037
116	0xbddeb6ca	-0.10874708
117	0xbca19b7c	-0.019727461
118	0xbd9bdbaa	-0.07610257
119	0x3d1ea6a7	0.03873315
120	0x3d289207	0.041154888
121	0x3d189c24	0.037258282
122	0xbde82f92	-0.11337198
123	0x3d6dc201	0.058046345
124	0xbbe6f2a0	-0.007047966
125	0x3c44a37d	0.012001869
126	0xbcfa57c6	-0.030559432
127	0xbd929a66	-0.071583554

fc2_1.weight f4 [64, 128]
0	0xbd691c91	-0.05691201
1	0x3bc5e3a0	0.006039098
2	0xbdb73984	-0.08946517
3	0xbd1afb56	-0.03783735
4	0xbd5b9f95	-0.053618986
5	0xbd807f74	-0.0627431
6	0x3d43a696	0.04776629
7	0xbc104c80	-0.0088073015
8	0x3d02e052	0.03195221
9	0xbdad182f	-0.08451878
10	0x3d84e287	0.06488519
11	0x3cbcc0d1	0.02304116
12	0xbc4ef128	-0.012630738
13	0x3d94883d	0.07252548
14	0xbdf273b4	-0.11838475
15	0xbb95cebd	-0.0045717643
16	0xbd7600c1	-0.060059313
17	0x3cc6e2c4	0.024278052
18	0xbd4baac6	-0.04972341
19	0xbd6fc36e	-0.058535986
20	0xbd854546	-0.065073535
21	0x3cd2d173	0.025734639
22	0x3b5e9820	0.0033965185
23	0xbdc8b655	-0.09800402
24	0x3cb773a6	0.022394013
25	0xbdea79e9	-0.11449034
26	0xbcf8b944	-0.030361779
27	0x3c23765e	0.009976951
28	0xbc6a4630	-0.014298961
29	0xbdd94890	-0.10609543
30	0xbc8b7f70	-0.01702854
31	0xbcd7f943	-0.026363974
32	0x3d0abf53	0.033873867
33	0xbdd8b976	-0.10582249
34	0x3d9ad753	0.07560601
35	0xbce968e8	-0.028492406
36	0xbc260f6f	-0.010135516
37	0x3d26e476	0.04074522
38	0xbd973f78	-0.073851526
39	0xbd97a54a	-0.07404573
40	0x3d77fdea	0.060544886
41	0x3d7b2342	0.06131292
42	0xbb9624c0	-0.0045820177
43	0xbcb80a2c	-0.022465788
44	0xbb6a1e8d	-0.0035723776
45	0xbd5e8c82	-0.054333217
46	0x3cb8862f	0.022524921
47	0xbdb00726	-0.085951135
48	0x3c9acea9	0.018897371
49	0x3dab1df9	0.08355326
50	0xbae2bfe0	-0.0017299615
51	0x3d68ed5e	0.056866996
52	0xbd98a736	-0.07453768
53	0xbc73d5d8	-0.014882527
54	0xbcaa7208	-0.020806327
55	0x3c29d6a0	0.010366112
56	0xbd7dc04f	-0.061950978
57	0xbd2a67b1	-0.041602794
58	0xbcd95543	-0.026529914
59	0xbe0d09b2	-0.1377323
60	0x3cf60f3b	0.03003656
61	0xbcce6f2c	-0.025199495
62	0xbda8d564	-0.08243826
63	0xbd924433	-0.07141914
64	0xbc91e8ac	-0.017811142
65	0x3cc3a564	0.023882575
66	0xbc413fcd	-0.011794996
67	0xbd8e456a	-0.069468334
68	0xbc100c2f	-0.008791967
69	0x3a312080	0.0006756857
70	0x3cdf1fe1	0.02723688
71	0x3cce4c04	0.025182731
72	0x3d998985	0.07496933
73	0xbcda20e2	-0.026627008
74	0xbd3b74a6	-0.04576554
75	0xbcc931e8	-0.02455993
76	0xbd932b2e	-0.0718597
77	0xbd351f80	-0.044219494
78	0xbdb1230b	-0.08649262
79	0x3cf121e1	0.0294351
80	0xbe02afa1	-0.1276231
81	0xbc1d8360	-0.009613842
82	0xbdd5404b	-0.104126535
83	0xb9f5b400	-0.00046864152
84	0x3d28aeaa	0.041182198
85	0xbca8d5ec	-0.020609818
86	0xbdb25b01	-0.08708764
87	0x3bc24701	0.0059288745
88	0xbd69c2ec	-0.057070658
89	0xbdd1acca	-0.10238035
90	0xbd9716d8	-0.07377404
91	0xbdf37ae0	-0.11888671
92	0xbdeb5d56	-0.11492412
93	0xbb55f8c0	-0.0032649487
94	0xbd8ccb44	-0.06874707
95	0xbd92c8cf	-0.071672074
96	0x3ade0800	0.001693964
97	0xbd8d9cc1	-0.06914664
98	0xbc430658	-0.011903368
99	0xbdb2b9b0	-0.08726823
100	0xbce3a2ae	-0.027787533
101	0xbd62518a	-0.055253543
102	0xbc884a10	-0.016636878
103	0xbdadda35	-0.08488885
104	0xbaf430e4	-0.0018630293
105	0xbdd07799	-0.101790614
106	0x3d05fbee	0.032710962
107	0x3d58ffa2	0.052978165
108	0x3d800b4d	0.062521555
109	0xbb5f7b00	-0.0034100413
110	0xbd77a332	-0.06045837
111	0x3d1a882e	0.037727527
112	0x3b7baee1	0.0038403796
113	0xbdbd010c	-0.09228715
114	0xbc87b10c	-0.016563915
115	0xbd7706fb	-0.06030939
116	0x3ba41500	0.005007386
117	0x3d724846	0.059150957
118	0x3d323d6a	0.0435156
119	0xbdb8da01	-0.09025956
120	0xbe06ae48	-0.1315242
121	0x3d995111	0.07486165
122	0xbdaf62a9	-0.0856374
123	0xbddc82c4	-0.10767129
124	0xbd175c6c	-0.036953375
125	0xbe0cbf9b	-0.13744967
126	0xbcaebe90	-0.021331102
127	0xbd89767c	-0.06712052
128	0xbd261678	-0.04054877
129	0xbba91670	-0.0051601455
130	0xbc373cff	-0.011183976
131	0xbdfb24f9	-0.12262911
132	0xbdd6ade2	-0.10482384
133	0x3df1b927	0.11802893
134	0xbc3e0681	-0.01159823
135	0xbdcaf16d	-0.099093296
136	0xbdfa8e5a	-0.12234183
137	0x3cf29db8	0.029616222
138	0xbe151c95	-0.14561684
139	0xbdbfd981	-0.093676575
140	0x3c3fc178	0.011703841
141	0xbd70ed06	-0.058819793
142	0xbd6c740c	-0.05772786
143	0x3ce1da31	0.027569862
144	0x3cbb2e3d	0.022849197
145	0xbe098bdd	-0.1343226
146	0xbe0d4cff	-0.13798903
147	0xbde07689	-0.10960109
148	0x3cc3fcc6	0.023924243
149	0x3c79a686	0.015237456
150	0xbc902626	-0.017596316
151	0xbdcf6ddc	-0.10128376
152	0x3df15ea4	0.117856294
153	0xbd9a7fab	-0.07543882
154	0xbd7634d3	-0.06010897
155	0x3e0c64ef	0.13710378
156	0x3c3446a5	0.011003171
157	0xbdecd28c	-0.11563596
158	0xbd41368b	-0.047171157
159	0x3b287385	0.002570362
160	0xbdef2fd0	-0.116790414
161	0x3d28342d	0.041065384
162	0x3d27089b	0.04077969
163	0xbcb0954c	-0.021555565
164	0x3d81dad4	0.06340566
165	0x3cddb93b	0.027065864
166	0x3a9542ac	0.0011387668
167	0xbd8b46c3	-0.06800606
168	0x3cadfb80	0.021238089
169	0xbdd9b9e6	-0.106311604
170	0x3d4073f6	0.04698559
171	0xbd2ab3d1	-0.041675393
172	0x3b704310	0.0036661066
173	0xbda7143b	-0.081581555
174	0xbe0e650e	-0.13905737
175	0x3cb517af	0.02210602
176	0xbe071318	-0.13190877
177	0x3d3102ae	0.043215446
178	0x3b9976f5	0.0046833702
179	0x3ddaff5e	0.10693239
180	0xbd98f089	-0.074677534
181	0x3d20162e	0.039083652
182	0xbc08a2b8	-0.008339576
183	0xbdb2dea3	-0.08733871
184	0xbd36b084	-0.044601932
185	0x3ccb5a31	0.02482328
186	0xbd76690f	-0.060158785
187	0xbde276eb	-0.11057838
188	0xbd489542	-0.04897047
189	0xbd82d94d	-0.06389103
190	0xbdc9cdcc	-0.09853706
191	0x3c0de2a5	0.008659993
192	0xbd1b4d8d	-0.037915755
193	0xbe082a6c	-0.13297433
194	0xbc7b6a6c	-0.015345197
195	0x3cc8cb38	0.024510965
196	0x3d163024	0.036667004
197	0xbd857784	-0.065169364
198	0x3c5d866c	0.013520818
199	0x3d8f2be3	0.069907926
200	0x3b6ac180	0.0035820901
201	0xbd460a16	-0.048349462
202	0x3d2488ed	0.040169645
203	0xbd67420a	-0.056459464
204	0xbc800394	-0.015626706
205	0xbd8eac15	-0.06966416
206	0xbd9455ab	-0.07242902
207	0x3b7ca04b	0.003854769
208	0xbd9ea0fb	-0.07745548
209	0x3d9fb961	0.0779903
210	0x3d801d96	0.06255643
211	0xbd0ec870	-0.03485912
212	0x3dc353b1	0.09537447
213	0xbd8de24d	-0.06927929
214	0xbe11d52e	-0.14241478
215	0xbc17a5df	-0.009255855
216	0x3b1150f4	0.0022173496
217	0xbdee063b	-0.11622282
218	0x3ceb7940	0.02874434
219	0x3dcca207	0.09991842
220	0xbe0543dc	-0.13014168
221	0xbc5ebd90	-0.013595
222	0x3c28edd0	0.010310605
223	0xbc4c2b86	-0.012461549
224	0x3d377a3a	0.0447943
225	0xbe12df55	-0.14343007
226	0xbe08b749	-0.13351168
227	0x3daf4e36	0.085598394
228	0xbd65b8cf	-0.05608445
229	0x3b2396fb	0.0024961818
230	0xbcbdf639	-0.023188697
231	0x3dd84a00	0.105609894
232	0xbd4b9be1	-0.049709205
233	0xbd139c9c	-0.036038026
234	0x3da666e8	0.081250966
235	0xbd834045	-0.06408743
236	0xbd702442	-0.05862833
237	0x3d8b0daf	0.06789719
238	0xbdad5906	-0.084642455
239	0x3dae7983	0.0851927
240	0x3d6a0dd2	0.057142086
241	0xbdb73e9d	-0.089474894
242	0xbdf1cc9a	-0.11806603
243	0x3b7eb5e1	0.0038865732
244	0x3d9b2cf9	0.07576937
245	0x3c8d2314	0.01722864
246	0x3de11693	0.10990634
247	0xbd191e30	-0.037382305
248	0xbd3a59d7	-0.045495834
249	0xbbf6f2d7	-0.007536273
250	0xbd75daf8	-0.060023278
251	0xbd6d2657	-0.05789789
252	0x3b9d8b80	0.0048078895
253	0xbc943256	-0.018090408
254	0xbe07119c	-0.13190311
255	0x3d3ae48a	0.045628108

fc2_1.bias f4 [64]
0	0xbdb2fca3	-0.08739593
1	0xbcdd8d62	-0.027044956
2	0x3cccc99f	0.024998484
3	0xbdab908c	-0.083771795
4	0xbdd4bdfb	-0.103877984
5	0xbda7e2ed	-0.081975795
6	0xbda39a73	-0.07988443
7	0xbd7e3c8b	-0.062069457
8	0x3d1b6a28	0.037943035
9	0xbd88a97c	-0.066729516
10	0xbd9cab9e	-0.07649921
11	0xbe04b46d	-0.12959452
12	0xbde8db44	-0.113699466
13	0x3d8efca4	0.06981781
14	0xbd9672a2	-0.07346083
15	0x3d0c43bf	0.034244295
16	0xbdbd70ce	-0.092500314
17	0x3d595869	0.05306283
18	0xbc152b7b	-0.009104605
19	0x3d475b9f	0.04867136
20	0xbccc33d0	-0.02492705
21	0x3dbcf355	0.092260994
22	0x3d649262	0.055803664
23	0xbd86329e	-0.06552623
24	0x3c04211b	0.008064534
25	0x3c877f3b	0.01654016
26	0xbd87d62a	-0.066326454
27	0xbd6ef262	-0.058336623
28	0x3b0663e3	0.0020506314
29	0x3d5f6d1d	0.054547418
30	0xbdac256e	-0.08405577
31	0xbdc45ac1	-0.095876224
32	0xbd79fe56	-0.06103357
33	0xbd7397a8	-0.059470803
34	0xbd0a3e0a	-0.03375057
35	0xbd3cc60f	-0.04608732
36	0xbdc68ef8	-0.09695238
37	0xbcbf6a08	-0.02336599
38	0xbd05a6e4	-0.032629862
39	0x3daeb010	0.08529675
40	0x3d3001aa	0.042970337
41	0x3de1d99a	0.11027832
42	0xbdf2c54c	-0.11854038
43	0xbda23ba1	-0.079215296
44	0xbd53246a	-0.0515484
45	0x3c83311d	0.01601463
46	0x3db0168a	0.08598049
47	0xbc8a0074	-0.01684592
48	0xbdfabf0e	-0.12243472
49	0xbcc6ced4	-0.024268545
50	0x3c26396d	0.010145527
51	0x3d4375ee	0.04771989
52	0xbd295a9d	-0.04134618
53	0xbd46aabe	-0.048502676
54	0xbd968bbd	-0.07350872
55	0x3daaf782	0.083479896
56	0xbd2fad21	-0.042889718
57	0xbda130df	-0.078706495
58	0xbd94116a	-0.07229884
59	0xbb3d25f6	-0.0028861738
60	0xbd97511a	-0.07388516
61	0xbdb032b3	-0.0860342
62	0xbda39381	-0.079871185
63	0xbd7e4bc1	-0.062083963

fc3.weight f4 [18, 64]
0	0x3d91c567	0.0711773
1	0x3c42c8eb	0.011888723
2	0xbdae4786	-0.08509736
3	0x3dd4ee9e	0.10397075
4	0xbd654249	-0.055971418
5	0x3db7f8f8	0.08983034
6	0xbdc88cc2	-0.097924724
7	0x3db296ea	0.08720191
8	0x3df6f41e	0.120582804
9	0x3d550e43	0.052015554
10	0x3d94a382	0.07257749
11	0x3d74b794	0.059745386
12	0xbdb085ba	-0.08619256
13	0x3d4067ae	0.046973877
14	0x3e31f424	0.17378289
15	0x3d866d0f	0.0656377
16	0xbd3d8023	-0.04626478
17	0x3caaf433	0.020868396
18	0x3da0b913	0.078478
19	0x3d88f068	0.06686479
20	0x3de8771a	0.11350842
21	0x3dad101e	0.0845034
22	0x3d6f8063	0.05847205
23	0xbdb89db4	-0.090144545
24	0xbc94d027	-0.018165661
25	0x3e02f566	0.12788925
26	0xbd1d0efc	-0.03834437
27	0xbd767cfc	-0.06017779
28	0x3d386246	0.045015596
29	0xbdd16362	-0.10224034
30	0xbc433b00	-0.011915922
31	0x3d3550ab	0.044266384
32	0xbd84f012	-0.06491102
33	0x3d859b2c	0.06523737
34	0x3cbff4ca	0.023432154
35	0xbcbfa269	-0.023392873
36	0x3df1beff	0.11804008
37	0xbd2bbc08	-0.041927367
38	0x3d9131b7	0.070895605
39	0x3c60cd25	0.013720785
40	0x3d7c372f	0.061576065
41	0x3d0dcb9c	0.034618005
42	0x3d02c3ef	0.031925138
43	0x3d85c9c6	0.06532626
44	0x3e089d14	0.1334117
45	0xbdcd96c0	-0.10038519
46	0x3c32eea3	0.010921153
47	0xbd0bfe55	-0.034178097
48	0xbd1f6ef3	-0.03892417
49	0xbdccf522	-0.10007693
50	0xbd79286f	-0.060829576
51	0xbc82b82e	-0.015956964
52	0xbc46810b	-0.012115727
53	0xbc9da3a8	-0.019243076
54	0x3d870772	0.06593217
55	0x3bb89111	0.0056325276
56	0x3cbaf290	0.022820741
57	0x3e352e73	0.176935
58	0x3da345b8	0.07972282
59	0x3da7fe84	0.08202842
60	0xbc50e4a6	-0.012749827
61	0x3d8e034d	0.06934223
62	0xbd7935f8	-0.060842484
63	0x3d7a109c	0.061050996
64	0xbc3438c5	-0.010999863
65	0x3dbbf379	0.09177298
66	0x3db20c72	0.0869378
67	0x3dc0a7d0	0.09407008
68	0xbcd63965	-0.026150415
69	0xbc00ff80	-0.007873416
70	0x3cd389c0	0.02582252
71	0x3d1e94fc	0.0387163
72	0xbde750ef	-0.11294734
73	0xbd268f7e	-0.04066419
74	0xbcc7ac10	-0.024374038
75	0xbd764d14	-0.0601321
76	0xbdb189ef	-0.08668887
77	0x3d1a93c7	0.037738588
78	0x3c4171be	0.011806903
79	0x3c6aefa6	0.014339363
80	0x3dad2c59	0.08455724
81	0x3da056a6	0.07829027
82	0xbc4b846f	-0.012421711
83	0xbd019235	-0.031633575
84	0x3dbbf79c	0.09178087
85	0x3d99cbe9	0.07509596
86	0x3be3d601	0.0069530015
87	0xbc795c00	-0.015219688
88	0xbdb25b87	-0.08708864
89	0x3e2a334b	0.16621129
90	0xbc158660	-0.009126276
91	0xbd8c7d22	-0.06859805
92	0x3df6967d	0.12040422
93	0xbdaa63f6	-0.08319847
94	0x3d1661a4	0.03671421
95	0x3dc026f5	0.093824305
96	0xbc7c9ab0	-0.01541774
97	0x3d4395c8	0.047750264
98	0x3d3adfcf	0.045623597
99	0x3c90aae0	0.017659605
100	0xbb8f6ffd	-0.0043773637
101	0x3d8d6486	0.06903939
102	0xbdab8e65	-0.08376769
103	0xbd02ecc6	-0.031964086
104	0x3d370a8d	0.044687796
105	0x3d980696	0.07423131
106	0xbbbce540	-0.0057646334
107	0x3dcceab4	0.100057036
108	0xbd2b4746	-0.04181602
109	0x3da0a0db	0.07843181
110	0x3df48b74	0.11940661
111	0xbdf84ac1	-0.12123633
112	0xbcf293ec	-0.02961155
113	0xbbfacd20	-0.0076538473
114	0xbc19efcd	-0.009395552
115	0x3e28c685	0.16481979
116	0x3cfbc97e	0.030735727
117	0x3d8ab5c8	0.06772953
118	0xbdc5fa25	-0.09666852
119	0x3de455c3	0.1114917
120	0x3d8bcf78	0.06826681
121	0x3e17386a	0.14767614
122	0x3d60918f	0.054826315
123	0xbd176abb	-0.03696702
124	0x3d4d33c8	0.05009821
125	0xbdc9b0db	-0.09848186
126	0xbd424764	-0.047431365
127	0xbddd5131	-0.10806502
128	0xbd5f4913	-0.05451305
129	0xbd525ca1	-0.05135787
130	0xbd41c652	-0.047308274
131	0xbdcce168	-0.1000393
132	0xbc37f491	-0.011227743
133	0xbcd5b380	-0.026086569
134	0x3cf59bb0	0.029981464
135	0x3bbc5727	0.005747694
136	0x3dc6fd91	0.09716333
137	0x3e781ffd	0.24230953
138	0xbd8ac562	-0.06775929
139	0x3d402564	0.04691066
140	0xbcebf937	-0.028805358
141	0x3e162da2	0.14665845
142	0x3dbcca01	0.09218217
143	0x3d67d0ec	0.056595728
144	0xbc35b165	-0.011089657
145	0xbdbe5339	-0.09293217
146	0x3db039c6	0.086047694
147	0x3d580a11	0.052743975
148	0x3d66609c	0.056244478
149	0x3d626fd8	0.055282444
150	0x3d73368f	0.059378203
151	0xbc71d870	-0.014761075
152	0xbda6fd40	-0.08153772
153	0xbd82f6db	-0.0639474
154	0xbdbd1170	-0.092318416
155	0x3df33140	0.11874628
156	0x3be4453b	0.0069662607
157	0x3be9dd98	0.0071370117
158	0xbdacda08	-0.08440024
159	0xbb1eebec	-0.0024249507
160	0xbd26fc58	-0.040767998
161	0xbd1d3408	-0.0383797
162	0x3db46cd6	0.08809821
163	0xbd21ae0f	-0.039472636
164	0xbd682b78	-0.05668208
165	0xbc7ff330	-0.015621945
166	0x3d8b43f7	0.06800073
167	0x3dcedf42	0.10101177
168	0x3df2f153	0.11862435
169	0x3d9a8396	0.07544629
170	0x3e1869e1	0.1488414
171	0xbd6aec20	-0.057354093
172	0x3da03e1c	0.078243464
173	0xbc4a9fca	-0.012367198
174	0x3d9312ad	0.071812965
175	0xbd8e04a1	-0.06934477
176	0x3d725b5a	0.05916915
177	0xbde7cba0	-0.11318135
178	0x3d1920d7	0.037384834
179	0x3ddb8833	0.10719337
180	0x3e258a5c	0.16166061
181	0xbdfe943e	-0.12430619
182	0xbdc53732	-0.09629668
183	0xbe00d8fc	-0.12582773
184	0xbdc63bc8	-0.09679371
185	0xbd0377ce	-0.032096677
186	0xbca198db	-0.019726207
187	0xbd002b58	-0.031291336
188	0xbd99cda8	-0.07509929
189	0x3d4c86d6	0.049933277
190	0xbd8da2ba	-0.06915803
191	0x3dfa3664	0.122174054
192	0x3d042892	0.032265253
193	0xbe165bed	-0.14683504
194	0xbd730416	-0.05933007
195	0xbce04350	-0.027375847
196	0x3d850175	0.064944185
197	0xbc617890	-0.0137616545
198	0xbd7f5608	-0.062337905
199	0xbdcf8bd9	-0.10134096
200	0xbd51a8aa	-0.05118624
201	0xbe3240ec	-0.17407578
202	0x3dedae46	0.11605506
203	0xbccd4466	-0.025057029
204	0xbcee230f	-0.029069452
205	0xbd525752	-0.051352806
206	0xbe23d81b	-0.16000406
207	0x3e08a033	0.13342361
208	0xbde0b20a	-0.10971458
209	0xbd8a0505	-0.06739239
210	0xbc966fa1	-0.018363776
211	0xbe026afb	-0.12736122
212	0x3c94db90	0.018171102
213	0xbdaa7663	-0.08323362
214	0x3c848020	0.016174376
215	0xbcb33448	-0.021875516
216	0xbd946c60	-0.072472334
217	0xbd1ce36f	-0.038302835
218	0xbd60dc70	-0.054897726
219	0xbd7f81b8	-0.06237957
220	0x3d1d75e8	0.038442522
221	0xbc7565e6	-0.014977908
222	0xbd6e9638	-0.05824873
223	0xbdb7f102	-0.089815155
224	0xbdbdd884	-0.09269813
225	0x3d4689bc	0.048471197
226	0xbd3c4674	-0.045965627
227	0x3c92fc11	0.01794246
228	0xbd86083c	-0.06544539
229	0xbd3678bc	-0.044548735
230	0x3d80bd05	0.062860526
231	0xbdc7147c	-0.09720704
232	0x3de3a4e5	0.111154355
233	0xbe2538d6	-0.16134962
234	0xbe007722	-0.12545446
235	0x3d8c05fc	0.06837079
236	0xbde7012e	-0.11279522
237	0x3bc350d3	0.0059605627
238	0xbd28d395	-0.041217405
239	0x3e25ed57	0.16203819
240	0xbd9dc2f1	-0.07703198
241	0xbd1b8558	-0.037968963
242	0xbd96131b	-0.07327863
243	0xbe227e7f	-0.15868567
244	0xbd2f6e92	-0.042830057
245	0xbd11b21c	-0.03557025
246	0xbd5d60d2	-0.054047413
247	0x3df3665b	0.11884757
248	0xbde56e14	-0.11202636
249	0xbd71271d	-0.058875192
250	0x3dbaaa0c	0.09114465
251	0xbdd64715	-0.104627766
252	0xbcc3058d	-0.023806358
253	0xbe7aa3ee	-0.24476597
254	0xbca9eee8	-0.020743802
255	0x3de3b88e	0.111191854

fc3.bias f4 [18]
0	0xbcbca39e	-0.023027238
1	0xbd1ba8d4	-0.038002804
2	0xbd6fc8c2	-0.058541067
3	0x3d6d2bf9	0.057903264
4	0x3d151cfa	0.036404587
5	0xbd2db05a	-0.04240451
6	0x3c88e161	0.016709032
7	0xbd8acdc7	-0.0677753
8	0xbc22c8c3	-0.009935561
9	0x3d0a5aa6	0.033777855
10	0xbd44ad7d	-0.048017014
11	0x3cae56a0	0.02128154
12	0xbc1af80c	-0.009458553
13	0x3c6ff30d	0.01464535
14	0x3d067928	0.032830387
15	0x3d804759	0.062636085
16	0xbc288422	-0.010285409
17	0xbd098a94	-0.033579424
