models/2024-07-20_16-38-18/epoch_0048_loss_0.00018005/dynamics.pth (torch, 83084 bytes, 8 tensors)

fc1.weight f4 [64, 34]
000000 40 9a 92 3c a6 8d d9 3d 00 a4 c2 ba 42 48 f6 3d
       0.017895818 0.106227204 -0.0014849901 0.12025501
000010 05 46 f6 bd 76 1f 2c be 42 e9 ce 3d 95 80 0d 3e
       -0.12025074 -0.16808876 0.10103084 0.13818581
000020 00 46 63 3b 40 26 bd bd 82 c4 a3 3d 20 af fc 3c
       0.0034679174 -0.09235811 0.07996465 0.030845225
000030 7f cc 97 bd 6d 22 24 3e b2 48 a4 3d 30 1c 02 bc
       -0.074120514 0.16028757 0.08021678 -0.007941291
000040 3d dc 1f 3e 5e c3 fe 3d 10 ea b7 bd 60 fe 6a 3c
       0.15611358 0.12439607 -0.08980191 0.014342874
000050 a2 97 95 3d 28 2e 8d bd 52 a9 fd 3d 40 7b 38 3c
       0.07304312 -0.06893569 0.12385811 0.011259854
000060 bc 06 89 3d 84 e7 de bd 00 65 28 be 6b a0 29 3e
       0.066907376 -0.10884002 -0.16444778 0.16565101
000070 74 ba 04 3d 09 65 a9 bd d0 24 84 3d 80 eb 94 ba
       0.032404378 -0.08271224 0.06452334 -0.0011361688
000080 8d e3 09 3e a8 53 4e 3d 59 10 08 bd e5 a6 0d bd
       0.1346571 0.05037275 -0.033218715 -0.03458299
000090 9c b3 0b 3e 01 5c 24 3e 8b 20 8f bd fe ff da 3c
       0.13642734 0.16050722 -0.06988629 0.026733395
0000a0 41 83 53 bc de d7 6d bd c8 a0 97 bd 1d b6 02 bd
       -0.012909711 -0.058067195 -0.074037135 -0.031911958
0000b0 74 2d 9f bd 15 f2 0a be 07 9a 3d be 5c d0 da bc
       -0.07772341 -0.1356891 -0.18515788 -0.026710682
0000c0 05 03 b9 3d 68 cc b3 3d 93 53 e6 3d ba 73 e2 3c
       0.09033779 0.08779222 0.11246409 0.027643073
0000d0 1a 1a a4 3d d0 cb 98 3c b4 fe b9 3b 61 de ef bd
       0.08012791 0.018651873 0.005676115 -0.11712337
0000e0 4e 0e 29 be 89 98 58 bd 0a 54 40 3e 39 99 13 3e
       -0.16509363 -0.052879844 0.18782058 0.14413919
0000f0 01 92 67 be b3 e2 18 3e be 10 5b be 51 da 9e bd
       -0.2261429 0.14930229 -0.21393105 -0.07756484
000100 f7 6b cc 3d ae 5e 1c be 19 9e f5 bd bc d3 f1 bd
       0.0998153 -0.15270492 -0.11993045 -0.11807963
000110 c8 d2 b2 bd a0 33 dd 3b e9 d4 da bd e7 08 8b bd
       -0.087316096 0.006750539 -0.10685141 -0.06788807
000120 9e a7 fd 3d d6 be 7c bd e4 6d 27 bd fe c9 b0 bd
       0.12385486 -0.061705433 -0.040876284 -0.08632277
000130 09 ad 81 bd 76 f5 52 bd 21 57 07 be af ad b9 bd
       -0.06331832 -0.05150362 -0.13216831 -0.09066331
000140 b8 e0 fa bd 16 3e 3f bd 5c c8 23 be 66 c8 b2 3d
       -0.12249893 -0.04669007 -0.159944 0.08729629
000150 f2 b7 ce 3d e3 42 ba bd ff 40 09 3e 92 ff cb bd
       0.100936785 -0.09094789 0.134037 -0.099608555
000160 73 ed 02 3e 08 e2 1a be c0 9a d5 3c 18 86 74 3d
       0.12785892 -0.15125287 0.026074767 0.059698194
000170 41 33 00 3e 38 42 9d bd fa 22 df 3d a0 50 61 3c
       0.12519552 -0.07678646 0.10895343 0.013752133
000180 c0 9f 3d bd d1 91 b7 bd b8 81 bc bc e0 93 83 bd
       -0.046294928 -0.08963359 -0.023011073 -0.06424689
000190 7e c2 d7 3d 48 37 cb bc c5 28 8a 3d 24 5b ec bd
       0.10535143 -0.024806634 0.067460574 -0.11540821
0001a0 76 de 8b 3a 42 24 73 bd e4 c5 5e 3e 85 93 26 be
       0.0010671157 -0.05936075 0.21755177 -0.16267212
0001b0 dc 45 37 bd b8 2e 61 bd 1c 41 22 be 02 a2 fa 3d
       -0.044744357 -0.054976195 -0.1584515 0.12237932
0001c0 1d 1d 92 bd cd 7b 32 3d 69 41 1f 3d ae 70 35 bd
       -0.07134459 0.043575097 0.03888074 -0.044296913
0001d0 0b 56 96 3b e2 ed e3 bd 79 83 ad bc 5b eb f5 bc
       0.004587894 -0.11129357 -0.021180855 -0.030019453
0001e0 24 a6 b7 3d 49 9c 56 3e 48 92 d7 3d ab f1 dc 3d
       0.08967236 0.20958056 0.10525948 0.10788282
0001f0 03 e5 1f be 84 f3 c4 3d 81 c0 0e 3e 81 eb df bc
       -0.15614705 0.096167594 0.13940622 -0.027333977
000200 2a 30 9e bd f7 53 e2 3b 3a fd cd bc ac 08 bc 3d
       -0.0772403 0.006906982 -0.025145162 0.091813415
000210 a6 84 61 bd fa 33 38 be 29 15 9e bd 43 c7 34 be
       -0.055058144 -0.17988577 -0.0771888 -0.17654137
000220 58 4b 03 be cd 0b 2f 3e 74 85 0f 3d 06 24 dc 3d
       -0.1282171 0.17094345 0.03503938 0.107490584
000230 3c 78 09 3d fc f6 49 bd 00 95 e7 3b 4f 39 0c 3e
       0.03356193 -0.04930781 0.0070673227 0.13693736
000240 bf b2 11 3e 04 6d 1a bd db ef 92 bd ae 69 a6 3d
       0.14228342 -0.03770162 -0.07174655 0.081256256
000250 ec cd aa bd fa eb 1d be 6c 7d 22 be b6 7f 0b be
       -0.08340058 -0.15422049 -0.15868157 -0.13622937
000260 e2 09 6e bd 36 5b a3 3d 6a db 27 be 4c b0 19 bd
       -0.058114894 0.079763815 -0.16392294 -0.037521645
000270 ea ce b6 3d 5b 6f a6 bd 98 ea 87 3d fa c8 78 bd
       0.089261845 -0.08126708 0.06636542 -0.06073854
000280 b8 4e 3b 3d a4 6d 59 bd 4e dc f9 3d a0 c7 98 3c
       0.04572937 -0.053083077 0.12200223 0.018649876
000290 e8 a0 33 bd e5 78 b2 bd 36 8a ce 3d 03 68 b4 bd
       -0.043854624 -0.08714465 0.100849554 -0.08808901
0002a0 b9 86 0a 3e 51 15 93 bd 4a bd 7e 3d bc 37 91 bd
       0.13527955 -0.071818 0.06219224 -0.070907086
0002b0 fe 32 d3 3d 36 01 00 bd d9 8f c9 3d 72 32 16 3e
       0.1031246 -0.031251155 0.0984189 0.14667681
0002c0 57 4b 3b be 37 ff 0b 3e c6 5f 18 bd c1 ee 37 bc
       -0.18290459 0.13671575 -0.03720071 -0.011226357
0002d0 9d c1 de 3d 7d 68 45 bc eb 66 16 3e b9 2f 84 3d
       0.108767726 -0.012048838 0.14687698 0.06454415
0002e0 59 e4 84 bc 6c d9 0f 3e 2c 89 47 bd dc 19 85 3d
       -0.016222166 0.14047784 -0.0487148 0.06499073
0002f0 24 7b a6 3d b7 e1 40 3e 04 2b bf bd db d6 65 3c
       0.08128956 0.18836103 -0.093343765 0.014028276
000300 0a 2a 33 3d e4 c8 60 bc 9e b2 a5 3e 4e 52 95 bb
       0.043741263 -0.013719771 0.32362837 -0.0045569306
000310 72 66 92 3d 95 49 2f 3b d6 8b 4d 3c 4e 02 16 3e
       0.07148446 0.002674674 0.0125455465 0.14649317
000320 67 3f 19 3e a1 f5 50 3d 45 0c 97 3d d6 54 c4 3d
       0.14965592 0.0510155 0.07375387 0.09586494
000330 d6 7a 15 be 21 2c 01 3e 8e bd d1 3d 4f d1 03 3e
       -0.1459764 0.1261449 0.10241233 0.12872814
000340 b8 5b 9f bd f2 89 d1 3d a0 cb 95 3b 40 2d 86 3b
       -0.07781166 0.10231389 0.004571393 0.0040947497
000350 48 b8 44 3d 50 c8 31 bc 01 a6 29 3e 26 24 db 3d
       0.048027307 -0.010850981 0.16567232 0.10700254
000360 36 ca 4b bd 14 3e 27 bd 52 37 99 3d 42 8c c2 3d
       -0.04975339 -0.040830687 0.07481255 0.09499408
000370 d2 49 db 3d a7 f9 16 3e d9 e0 1c 3e 6c e4 70 bd
       0.107074395 0.14743672 0.15320148 -0.05881159
000380 68 64 ff bd 26 d8 00 be 4d 24 29 be d0 01 05 be
       -0.12470323 -0.12582454 -0.16517754 -0.12988973
000390 e6 a0 bb 3d 74 3f 6f 3d 4e 79 62 bd c0 ce 42 bc
       0.09161548 0.058410123 -0.055291466 -0.011890113
0003a0 00 98 02 be 5e 51 fc 3d e8 fc 24 be 31 9c a4 bd
       -0.12753296 0.12320207 -0.16112101 -0.08037604
0003b0 8e cc b6 3d af 65 13 3e d5 65 0b 3e 6d be 0f 3e
       0.089257345 0.14394258 0.13613065 0.14037485
0003c0 ef 48 29 3e 16 ff 83 3d c0 c1 32 bb 9e 2e 7f bd
       0.16531728 0.06445138 -0.0027276129 -0.062300317
0003d0 1e 77 a2 bd d5 68 d2 bd d0 40 4f bd 16 14 ce 3d
       -0.07932876 -0.102739014 -0.05059892 0.10062425
0003e0 05 03 00 be 00 d6 d4 3c d4 c5 6b 3d e0 fb bb bc
       -0.12501152 0.02598095 0.05756171 -0.022947252
0003f0 4e 43 88 bd 50 78 e5 3c 18 4b 35 bd 80 96 f1 3b
       -0.06653462 0.028011471 -0.044261068 0.0073726773

fc1.bias f4 [64]
000000 64 bf ad bd 18 ad 89 3d 94 f2 bd 3d 4f 3f af 3d
       -0.084837705 0.06722468 0.09274784 0.08556997
000010 38 7c 19 be c5 b4 b4 bc 76 31 9e bd 8b d8 98 bd
       -0.14988792 -0.022058854 -0.07724278 -0.07463177
000020 6e 4f 7b bd 7a 30 46 3d 4a 16 10 be a6 aa 0e be
       -0.061355047 0.048386075 -0.14071003 -0.13932285
000030 43 a9 a8 3d 97 8c 36 bd f7 57 15 3e 2a 72 d2 bd
       0.08235409 -0.04456767 0.14584337 -0.10275681
000040 73 ac 31 3e ea cb c1 bc 0e 5c 3e bd 7d a9 e8 3d
       0.1735094 -0.023656804 -0.04647451 0.11360452
000050 b8 23 5b bd 66 8c 81 bd 2a e3 5d 3e 57 b1 44 be
       -0.05350086 -0.06325607 0.21668687 -0.19208275
000060 a1 59 07 bb e9 84 c0 bd 8d e7 d5 bd 1b ab 4d 3e
       -0.0020652788 -0.094003506 -0.104445554 0.20084803
000070 e2 40 f5 bd 1e 64 8a 3d 90 63 53 bd ed ac cf 3d
       -0.11975266 0.06757377 -0.051608622 0.10140405
000080 36 a0 9b 3d 98 fc 90 bc 4f cf 80 3d 67 be 3a bc
       0.07598917 -0.017698571 0.06289541 -0.0113979345
000090 79 be d7 bd e8 08 06 be 16 1f 6a 3d 19 16 14 be
       -0.10534377 -0.13089335 0.057158552 -0.14461555
0000a0 e1 2d f4 bd 03 37 b8 bd ee a0 b7 3d b7 d4 a1 bd
       -0.11922813 -0.08994868 0.08966242 -0.079019
0000b0 4a 5c 8d bd eb 98 84 bd 75 af 37 3e 3c 0a 34 3e
       -0.06902368 -0.06474479 0.17938025 0.17582029
0000c0 5b de b1 3d bd fb d9 bb ea 73 f6 bd 8d bd 8b bd
       0.08684989 -0.006652324 -0.120338276 -0.06823263
0000d0 52 4d 08 be 82 26 90 bb 1a cc 72 3e a0 52 75 bc
       -0.13310745 -0.0043991217 0.23710671 -0.014973313
0000e0 b0 85 bc bd 90 03 c7 3d d2 f3 c8 3d 80 0f f1 bb
       -0.09205186 0.09717476 0.0981213 -0.007356584
0000f0 47 4a 0e 3e 41 e5 98 3d 00 7a 94 b9 2f 73 b4 3b
       0.13895522 0.07465602 -0.00028319657 0.005506895

fc2.weight f4 [128, 64]
000000 0a 57 d2 3d 12 88 42 bc dc 09 10 be da 5a 08 bd
       0.10270508 -0.011873262 -0.14066261 -0.033289768
000010 d6 11 c6 3d 3c 94 80 3d 66 be be 3d 74 88 d4 3c
       0.09671371 0.062782735 0.09313659 0.025943972
000020 89 6f 81 bd 20 50 7d bc 40 51 87 3d 5f b1 cb bd
       -0.06320102 -0.015460998 0.06607294 -0.0994594
000030 59 af f9 3c 5d c7 20 bd 64 45 75 be 14 76 07 3e
       0.03047912 -0.039252628 -0.23952252 0.13228637
000040 1c 72 6a be 3c 6b 8a bc b6 7f 11 3d 5a 7d 7b be
       -0.22895092 -0.016896836 0.035522185 -0.24559537
000050 17 71 86 bc 82 d5 ba 3d 7a 5a 3a bc 90 bf c2 3d
       -0.016411347 0.09122755 -0.01137411 0.09509194
000060 7b 61 24 3d d8 9e 35 3d 94 38 03 3d c6 0a 8c bd
       0.040132027 0.04434094 0.03203638 -0.06837992
000070 80 70 88 bc 76 92 f9 bc 6b c3 f8 bd c3 10 2c be
       -0.016655207 -0.030465346 -0.12146648 -0.16803269
000080 a2 78 4c be 1f 6a e7 3d 20 fe a9 3d b5 fe 6a 3d
       -0.19967893 0.11299538 0.083004236 0.057371814
000090 99 09 a2 bd 04 4c 5a 3d 3c 44 ee bd c0 ec ac 3d
       -0.07911987 0.05329515 -0.116341084 0.08443594
0000a0 90 d9 e6 3c 08 b5 69 3d 3e 31 2c 3c cb c0 a4 bd
       0.028179914 0.05705741 0.010509787 -0.08044585
0000b0 24 32 04 3d 70 8e 55 3c aa c1 6d be 3c 22 43 be
       0.03227438 0.013034448 -0.23218408 -0.19056028
0000c0 cb af b9 bc 1c ba 0b 3d 1c 7b 87 bd b9 1f 9a bd
       -0.022666832 0.034113035 -0.06615278 -0.07525582
0000d0 29 d2 0b bd 41 f8 17 bd 19 d2 63 be 82 f1 af bd
       -0.03413597 -0.037101988 -0.22248115 -0.08590986
0000e0 5f c7 1a bd 69 41 37 bd f1 14 f7 bb c0 3a 37 bc
       -0.03778779 -0.044740114 -0.007540338 -0.011183441
0000f0 75 39 79 be 4f 40 63 3d 6c d9 80 3d c7 40 06 be
       -0.24338324 0.05548125 0.0629147 -0.13110648
000100 4a 26 c9 3d 8e 0b ca 3d 6a 73 fd 3d 3c 5f bb bd
       0.09821756 0.09865485 0.12375529 -0.09149024
000110 64 d6 cc 3d e2 09 ae 3d 58 0a a1 3d 70 07 45 3d
       0.10001829 0.08497979 0.07863301 0.048102796
000120 68 66 de bc 70 c6 66 bd 8a 3f e6 bd 18 03 bc bd
       -0.02714844 -0.05634159 -0.11242588 -0.091802776
000130 a4 32 8a bd e8 aa a5 bc 58 f7 e5 bc 10 db 0a bd
       -0.0674794 -0.020223096 -0.028072044 -0.03390032
000140 20 0b d5 bd c4 b5 60 3d 00 2e 9b b9 e4 8a ab bd
       -0.104025126 0.054860845 -0.00029598176 -0.08376101
000150 ee 12 9f bd 40 6c 3e 3d e0 a2 40 bd fa e3 f9 3d
       -0.077672824 0.046489954 -0.04703033 0.12201686
000160 00 8c af 39 90 8b 72 bc 00 3c b7 b9 10 fd 7a bc
       0.0003348291 -0.014803782 -0.00034949183 -0.015319124
000170 92 62 9e bd d0 f6 fd 3c 38 05 9f 3c dc 58 f6 3d
       -0.077336445 0.031001478 0.019411668 0.12028667
000180 00 01 7e bb 68 16 f9 bc 58 4c 81 3c 50 c8 4e bd
       -0.003875792 -0.030406192 0.015783474 -0.050484
000190 3c a9 01 3d 3a 65 ea 3d 60 de 72 bc ae 97 f5 bd
       0.031655535 0.11445089 -0.014823526 -0.11991821
0001a0 22 9c e3 bd 52 e9 e7 bd 58 61 af bd 16 cd 95 bd
       -0.11113764 -0.11323799 -0.08563489 -0.07314508
0001b0 d8 b5 49 3d e8 45 e6 bd 4e 23 b4 3d 20 e8 a6 bc
       0.049245685 -0.11243802 0.08795796 -0.020374358
0001c0 48 80 46 3d 40 71 b6 bc e0 e4 c5 3d c0 8d 93 bb
       0.048462182 -0.022270799 0.09662795 -0.004502982
0001d0 78 99 9a bd b8 5d b0 3d f0 62 dc 3d 2a fb f0 bd
       -0.07548803 0.086116254 0.10761058 -0.11766656
0001e0 a8 55 b5 3c 28 8a 39 bd ba 58 a8 bd 72 59 d7 3d
       0.02213557 -0.04529777 -0.08220048 0.10515107
0001f0 86 45 a3 3d c4 ca 43 bd 78 b3 99 bc 20 42 84 3b
       0.07972245 -0.047800794 -0.018762335 0.004036203
000200 f0 66 80 bd c7 da bf bc ca 4c a5 bc e0 a8 e9 bb
       -0.06269634 -0.02341975 -0.020178217 -0.007130727
000210 5c 25 fc 3d c0 8b 16 3d 64 21 43 bd 80 de 4e 3d
       0.12311813 0.03675437 -0.047639266 0.05050516
000220 d7 6e 31 3d 2b e5 ba 3d 28 35 1d bd ea bb 6a 3b
       0.043318596 0.091257416 -0.038380772 0.0035817572
000230 75 81 e6 bd c7 df 23 be 87 92 fb bd 4e fa 02 3e
       -0.11255161 -0.16003333 -0.12283807 0.12790796
000240 a4 ee 4d bd 71 b6 68 3d 66 ec 02 3e 5e 20 2f be
       -0.050276414 0.056814615 0.12785491 -0.17102191
000250 a8 4b 46 bd a0 8b 23 bb 8d 9b b8 bc c4 48 d6 bd
       -0.048411995 -0.002495505 -0.02253511 -0.10463098
000260 2d 9b cc 3d 3c 93 2d bd da 0e df 3d 90 cd 55 be
       0.09990535 -0.04237674 0.108915046 -0.20879197
000270 60 a6 06 3d 96 3c 92 bd e1 8b 85 bd 2b 98 43 3d
       0.03287351 -0.07140462 -0.065208204 0.04775254
000280 88 38 36 be 50 c3 de 3d fb 3a 92 bd d0 75 02 bc
       -0.17795002 0.10877097 -0.07140156 -0.007962659
000290 a4 e3 60 3d aa ac c4 bd 68 a5 c1 bd b6 a4 9c 3d
       0.054904595 -0.096032456 -0.09455377 0.076486036
0002a0 1d 4b 81 bd 10 fc 17 bd 90 af 7f bc 41 02 ab bb
       -0.06313155 -0.03710562 -0.015605822 -0.0052187745
0002b0 dc 6f ad bd 06 d0 ab 3d 32 f6 12 bd 8f ed b5 3c
       -0.08468601 0.08389287 -0.03587932 0.022208003
0002c0 32 cc 8e bb f5 25 7f 3d 60 d2 cf bc 7f 65 ea bd
       -0.004357838 0.062292058 -0.02536887 -0.1144514
0002d0 b3 cd 79 3d 5a 50 8e 3c 62 7d d4 bd de 68 97 3d
       0.060987186 0.017372299 -0.103754774 0.07393049
0002e0 2b a5 80 3d 80 21 18 bd e9 23 14 3d 18 f3 1d bd
       0.06281503 -0.037141323 0.03616706 -0.03856191
0002f0 7b 27 43 bc e5 bd 96 3d 18 ef 01 bd 10 15 91 bd
       -0.011911268 0.07360438 -0.03172216 -0.070840955
000300 c0 0c e9 3d dd 01 4d be 9f 18 2c be 46 0a 48 bd
       0.11379385 -0.20020242 -0.16806267 -0.048837923
000310 d4 6b 98 bd cf 8c 0e bd e6 d3 bf 3d a8 2a 09 bc
       -0.074424416 -0.034802254 0.09366588 -0.008371986
000320 e9 16 2e be 00 6b 37 be 70 8d c8 3d b5 70 9f 3d
       -0.17000927 -0.17911911 0.09792602 0.07785169
000330 b4 cf 2b be b6 35 1c be 95 b6 ac bd 4c 7b d1 bd
       -0.16778451 -0.15254864 -0.08433262 -0.10228595
000340 ad 0a 72 bd 0b 6c d3 3d 29 e3 65 3d e8 65 35 be
       -0.059092212 0.10323342 0.05612484 -0.17714655
000350 1d c5 a9 bd 96 c8 19 be 00 9d b6 3b 0f 1d 3a bd
       -0.082895495 -0.15017924 0.005572915 -0.04543787
000360 e6 5d 85 3d 60 d4 bc bb a0 b3 4f bd 92 bd 98 bd
       0.0651205 -0.0057626218 -0.050708413 -0.07458033
000370 be ce e7 bd ed 9a 1b 3d 14 a3 0f 3d 56 e2 4a bd
       -0.1131873 0.037989546 0.035067633 -0.049532257
000380 11 79 48 bc 85 96 d2 3d 37 0f 8b 3c 38 27 a4 3c
       -0.012235896 0.102826156 0.016975028 0.020038232
000390 a0 8f 25 bc c8 d6 84 bd 87 ca 8c bd f0 88 92 bd
       -0.010105044 -0.06486279 -0.068745665 -0.07155025
0003a0 9e 3c 36 bd 10 44 c0 3d e3 e2 b5 3d 17 87 58 3c
       -0.044491403 0.09387982 0.08881166 0.013215802
0003b0 26 70 f1 bd 00 1d 3a bc d6 33 ba bd 34 60 3d be
       -0.11788969 -0.011359453 -0.09091918 -0.1849373
0003c0 b8 5b 0b 3a f6 0f 0b be 44 c4 6e bd 11 8d 31 be
       0.00053160964 -0.13580307 -0.058292642 -0.17338969
0003d0 34 24 a3 bd 1c 61 23 be 12 04 19 bd fa e7 b4 3d
       -0.079658896 -0.15955013 -0.037357397 0.088333085
0003e0 9e 26 30 be dd 0d 50 be c6 88 95 3c 4e cd cd bd
       -0.17202231 -0.20317788 0.018253695 -0.100489244
0003f0 0e b8 3d be 68 e9 92 bd 18 16 e4 3c f6 6a a1 bc
       -0.18527243 -0.07173425 0.027842566 -0.019704323

fc2.bias f4 [128]
000000 e2 5b 3d 3d f0 72 68 bc 1f e7 09 bd ef db 14 3c
       0.046230204 -0.0141875595 -0.03366768 0.009085639
000010 60 d6 33 3d cf 92 16 bd 39 0d 66 bb 8a 18 80 3c
       0.043905616 -0.0367611 -0.0035103096 0.015636701
000020 a9 4d f7 bd b8 44 70 bd 9c a5 91 bc ed 14 09 3d
       -0.120753594 -0.058659285 -0.017779164 0.033467222
000030 bc 12 1c bd c6 66 c3 bd 5f 31 47 3b 8b 61 12 bd
       -0.038103804 -0.09541087 0.0030394418 -0.035737555
000040 92 d0 72 3d 15 65 dd bc 64 a2 05 bc 32 5e 3d bd
       0.05928094 -0.027025739 -0.008156393 -0.04623241
000050 ad 97 24 3c 29 e9 15 bd 35 fa d4 bd 3c 39 82 b8
       0.010045928 -0.036599312 -0.10399286 -6.209544e-05
000060 d8 5c 81 bd ae 4b 9a 3d 2d 3f 70 3d 35 01 0d bd
       -0.06316537 0.07533966 0.058654 -0.03442498
000070 2e 09 ec bd f8 a8 a6 bc 38 e1 2e bc cc b7 fb 3c
       -0.115251884 -0.020344242 -0.0106738135 0.03072729
000080 d8 4a 50 3d be 13 bb bd 76 f4 0c be b4 8e 81 bd
       0.050852627 -0.09134625 -0.1376513 -0.063260466
000090 28 8b f4 3c bc 75 d5 bc b5 a8 64 bd 01 c6 da bc
       0.029851511 -0.026057117 -0.055824954 -0.026705744
0000a0 b0 0f a1 bd 4a ca c5 bd b0 f6 05 bd 8a 14 d9 bd
       -0.0786432 -0.09657724 -0.032705963 -0.10599621
0000b0 c6 f5 02 be bc b9 24 3d 70 45 e4 3d 44 27 33 bd
       -0.12789068 0.040216193 0.11146057 -0.04373862
0000c0 55 3c c8 bc 41 12 0f be fb 3b 13 3d ba 40 36 bd
       -0.024442831 -0.13971807 0.035945874 -0.04449532
0000d0 e0 c8 91 3c f4 d0 11 bd 3a 28 e0 bd cd c7 05 3d
       0.01779598 -0.035599664 -0.109451726 0.032661248
0000e0 76 e8 04 3d b0 2e 1a be f9 7f ce 3c fe 66 9a 3d
       0.032448255 -0.15056872 0.025207506 0.075391755
0000f0 ea d4 2a bc 8c 31 71 bc a0 f1 c4 bc 20 13 a7 bd
       -0.010426739 -0.014721286 -0.024040997 -0.08157945
000100 3d 2e 55 3b 94 55 74 bc b6 2a 17 3d 53 db 7f bd
       0.003252878 -0.014912982 0.036905967 -0.062465023
000110 26 13 0b be 29 ed c2 bc 47 f5 ca 3d 97 20 3a be
       -0.13581523 -0.023794727 0.09910064 -0.18176495
000120 e0 ff d8 bd 58 87 49 bd 74 db ae bd b0 6b 40 3c
       -0.10595679 -0.04920134 -0.08537951 0.011744425
000130 56 50 16 be 91 b2 cd bc f5 37 fd 3c f6 bb 70 3d
       -0.14679083 -0.025109561 0.030910471 0.058773004
000140 4d e3 1c bd e4 29 cb bd 0c 25 9d bd 7c fb f7 bd
       -0.03830271 -0.099200994 -0.07673082 -0.12108514
000150 60 db d5 bd d1 c6 aa 3c 3d 37 ae bd 11 cc 4c 3d
       -0.10442233 0.020846756 -0.085066296 0.0499993
000160 9a ee 51 bb b7 41 80 bd 2c 98 e4 bd b3 27 c9 bd
       -0.0032033087 -0.06262534 -0.11161837 -0.09822025
000170 8d 94 80 bc 7a dd cd bd fd f8 34 be a6 ad 6a bc
       -0.015695835 -0.10052009 -0.17673106 -0.014323628
000180 26 14 dd bd 45 c1 ba 3d ae a2 a0 bc 55 70 6a bd
       -0.10794859 0.091188945 -0.019608822 -0.057236034
000190 40 e0 fa bc 01 9c 9d bd 4e be d0 bd 34 68 1e be
       -0.030624509 -0.07695771 -0.10192548 -0.15469438
0001a0 ba 6f d0 3d 42 65 a8 bd 07 e3 b4 bd fe 90 4b 3d
       0.1017756 -0.082224384 -0.088323645 0.049698822
0001b0 bc 58 1c bd f0 95 b0 bc 31 4f 0b bd a6 f1 96 bd
       -0.03817056 -0.02155587 -0.03401107 -0.073703095
0001c0 47 7b cc bc 31 fa 4c 3d ad 5b d3 bd 62 c2 d0 bc
       -0.024961127 0.05004329 -0.1032022 -0.025483314
0001d0 19 e5 58 be 4b 29 a2 bc 17 f2 9b bd c5 12 47 3d
       -0.21181144 -0.01979508 -0.07614534 0.048601884
0001e0 ea 4f 28 3d 4a 7d 18 3d 92 2f e8 bd 33 f8 8e 3d
       0.041091837 0.03722886 -0.11337198 0.06980934
0001f0 a0 f2 e6 bb 2a dc 41 3c 95 e2 fa bc f6 aa 92 bd
       -0.007047966 0.011832276 -0.03062562 -0.071615145

fc2_1.weight f4 [64, 128]
000000 b1 78 69 bd a0 e3 c5 3b 8e 67 b7 bd 5d 57 1b bd
       -0.056999866 0.006039098 -0.08955298 -0.037925113
000010 b5 fb 5b bd 82 ad 80 bd 96 a6 43 3d 80 4c 10 bc
       -0.053706843 -0.06283094 0.04776629 -0.0088073015
000020 52 e0 02 3d 2f 18 ad bd 87 e2 84 3d a9 08 bc 3c
       0.03195221 -0.08451878 0.06488519 0.022953348
000030 28 f1 4e bc 3d 88 94 3d c3 a1 f2 bd a1 af 98 bb
       -0.012630738 0.07252548 -0.1184726 -0.0046596085
000040 dd 5c 76 bd c4 e2 c6 3c c6 aa 4b bd 6e c3 6f bd
       -0.060147155 0.024278052 -0.04972341 -0.058535986
000050 4e 73 85 bd ec 19 d2 3c 20 98 5e 3b 60 e4 c8 bd
       -0.06516133 0.025647126 0.0033965185 -0.09809184
000060 63 bb b6 3c f3 a7 ea bd 44 b9 f8 bc 03 06 22 3c
       0.02230615 -0.11457815 -0.030361779 0.009889129
000070 30 46 6a bc 9d 76 d9 bd 70 7f 8b bc 80 b1 d8 bc
       -0.014298961 -0.10618327 -0.01702854 -0.026451826
000080 3a 63 0a 3d 7e e7 d8 bd 53 d7 9a 3d e8 68 e9 bc
       0.033786036 -0.10591029 0.07560601 -0.028492406
000090 e7 7f 27 bc 76 e4 26 3d 78 3f 97 bd 1e d3 97 bd
       -0.010223365 0.04074522 -0.073851526 -0.07413314
0000a0 ea fd 77 3d 42 23 7b 3d c0 24 96 bb 2c 0a b8 bc
       0.060544886 0.06131292 -0.0045820177 -0.022465788
0000b0 96 e0 6f bb 82 8c 5e bd f7 cd b7 3c 26 07 b0 bd
       -0.003660237 -0.054333217 0.022437079 -0.085951135
0000c0 9e 16 9a 3c f9 1d ab 3d c5 43 ee ba 5e ed 68 3d
       0.018809613 0.08355326 -0.0018178156 0.056866996
0000d0 36 a7 98 bd d8 d5 73 bc 08 72 aa bc 25 66 28 3c
       -0.07453768 -0.014882527 -0.020806327 0.010278259
0000e0 4f c0 7d bd b1 67 2a bd 62 0d da bc b9 20 0d be
       -0.061950978 -0.041602794 -0.02661771 -0.13782014
0000f0 0a 57 f5 3c 2c 6f ce bc 61 03 a9 bd 33 44 92 bd
       0.02994873 -0.025199495 -0.082525976 -0.07141914
000100 ac e8 91 bc 64 a5 c3 3c 03 b0 42 bc 6b 73 8e bd
       -0.017811142 0.023882575 -0.011882785 -0.06955608
000110 60 48 11 bc 80 20 31 3a a3 67 de 3c 04 4c ce 3c
       -0.008867353 0.0006756857 0.027149027 0.025182731
000120 85 89 99 3d e2 20 da bc b6 d0 3b bd e8 31 c9 bc
       0.07496933 -0.026627008 -0.04585334 -0.02455993
000130 2e 2b 93 bd 80 1f 35 bd 0b 23 b1 bd a7 69 f0 3c
       -0.0718597 -0.044219494 -0.08649262 0.029347254
000140 a8 c6 02 be 60 83 1d bc 17 6e d5 bd 00 b4 f5 b9
       -0.12771094 -0.009613842 -0.104213886 -0.00046864152
000150 aa ae 28 3d f1 8d a9 bc 07 89 b2 bd 54 66 bf 3b
       0.041182198 -0.020697566 -0.08717542 0.005841056
000160 01 1f 6a bd d2 da d1 bd d8 16 97 bd e4 a8 f3 bd
       -0.057158474 -0.10246815 -0.07377404 -0.11897448
000170 60 8b eb bd c0 f8 55 bb 44 cb 8c bd cf c8 92 bd
       -0.11501193 -0.0032649487 -0.06874707 -0.071672074
000180 00 08 de 3a cc ca 8d bd c5 76 44 bc b9 e7 b2 bd
       0.001693964 -0.06923446 -0.0119912075 -0.08735604
000190 ae a2 e3 bc 11 ad 62 bd 10 4a 88 bc 35 da ad bd
       -0.027787533 -0.05534083 -0.016636878 -0.08488885
0001a0 c3 b4 ff ba a3 a5 d0 bd ee fb 05 3d a2 ff 58 3d
       -0.0019508827 -0.10187843 0.032710962 0.052978165
0001b0 4d 0b 80 3d 00 7b 5f bb 32 a3 77 bd 2e 88 1a 3d
       0.062521555 -0.0034100413 -0.06045837 0.037727527
0001c0 ee ec 75 3b 18 2f bd bd 0c b1 87 bc 15 63 77 bd
       0.0037525254 -0.09237498 -0.016563915 -0.060397226
0001d0 00 15 a4 3b 46 48 72 3d 6a 3d 32 3d 0a 08 b9 bd
       0.005007386 0.059150957 0.0435156 -0.090347365
0001e0 2d c5 06 be 11 51 99 3d a9 62 af bd d2 b0 dc bd
       -0.13161154 0.07486165 -0.0856374 -0.10775913
0001f0 6c 5c 17 bd 95 d6 0c be 90 be ae bc 7c 76 89 bd
       -0.036953375 -0.13753732 -0.021331102 -0.06712052
000200 79 47 26 bd 70 16 a9 bb 95 7a 36 bc 70 3d fb bd
       -0.040595505 -0.0051601455 -0.011137624 -0.12267578
000210 65 c6 d6 bd 81 d1 f1 3d 9b c9 3e bc ad 09 cb bd
       -0.104870595 0.11807538 -0.011644746 -0.09913955
000220 c3 a6 fa bd b8 9d f2 3c ca 28 15 be f1 f1 bf bd
       -0.122388385 0.029616222 -0.14566341 -0.093723185
000230 78 c1 3f 3c 06 ed 70 bd d6 a3 6c bd a8 3b e2 3c
       0.011703841 -0.058819793 -0.057773434 0.027616337
000240 5a cc ba 3c 18 98 09 be 3a 59 0d be ea 8e e0 bd
       0.02280252 -0.13436925 -0.13803568 -0.10964759
000250 b1 9a c3 3c cb e2 78 3c 34 f2 8f bc 0d 82 cf bd
       0.023877474 0.01519079 -0.017571546 -0.10132227
000260 da 76 f1 3d 31 98 9a bd d3 34 76 bd eb 6f 0c 3e
       0.11790247 -0.075485595 -0.06010897 0.13714568
000270 01 09 35 3c f5 ea ec bd 4d 67 41 bd 11 69 25 3b
       0.01104951 -0.11568252 -0.047217656 0.0025239626
000280 54 48 ef bd 7a 64 28 3d 81 39 27 3d 4c 95 b0 bc
       -0.11683717 0.041111447 0.040826324 -0.021555565
000290 2a f3 81 3d 72 58 dd 3c 4e d8 96 3a 40 5f 8b bd
       0.06345208 0.027019713 0.0011508556 -0.06805277
0002a0 80 fb ad 3c 31 d2 d9 bd f6 73 40 3d d1 b3 2a bd
       0.021238089 -0.10635794 0.04698559 -0.041675393
0002b0 7c 26 73 3b 3b 14 a7 bd 48 71 0e be 0f 76 b5 3c
       0.0037101796 -0.081581555 -0.13910401 0.022151021
0002c0 46 1f 07 be ae 02 31 3d b3 ee 97 3b 9f 15 db 3d
       -0.13195524 0.043215446 0.0046366095 0.10697483
0002d0 89 f0 98 bd 2e 16 20 3d b8 a2 08 bc 28 f7 b2 bd
       -0.074677534 0.039083652 -0.008339576 -0.087385476
0002e0 84 b0 36 bd 9a bb cb 3c 0e 9a 76 bd 6a 8f e2 bd
       -0.044601932 0.024869729 -0.06020551 -0.1106251
0002f0 35 c6 48 bd 9e f1 82 bd 43 e6 c9 bd ba a4 0e 3c
       -0.04901715 -0.06393741 -0.09858372 0.008706266
000300 7f 7e 1b bd 74 36 08 be 47 aa 7a bc 38 cb c8 3c
       -0.037962433 -0.13302022 -0.015299386 0.024510965
000310 cc 60 16 3d f2 8f 85 bd 36 c2 5c 3c e3 2b 8f 3d
       0.036713406 -0.06521596 0.013474038 0.069907926
000320 80 c1 6a 3b 16 0a 46 bd cf 91 24 3d 0a 42 67 bd
       0.0035820901 -0.048349462 0.040178116 -0.056459464
000330 94 03 80 bc 15 ac 8e bd 2a 6e 94 bd d5 90 79 3b
       -0.015626706 -0.06966416 -0.072475746 0.0038080711
000340 25 b9 9e bd 61 b9 9f 3d 7e 35 80 3d 70 c8 0e bd
       -0.07750157 0.0779903 0.06260203 -0.03485912
000350 1f 6b c3 3d 4d e2 8d bd f4 e0 11 be 06 6a 18 bc
       0.09541916 -0.06927929 -0.14245969 -0.009302622
000360 8d 44 0e 3b b2 1e ee bd 40 79 eb 3c 11 ba cc 3d
       0.002170834 -0.116269484 0.02874434 0.09996427
000370 16 50 05 be 90 bd 5e bc ce 6c 28 3c a3 ef 4c bc
       -0.13018832 -0.013595 0.010279847 -0.012508306
000380 3a 7a 37 3d 90 eb 12 be 97 c2 08 be 6f 66 af 3d
       0.0447943 -0.14347672 -0.1335548 0.085644595
000390 cf b8 65 bd d3 8a 20 3b 4c 58 be bc 67 62 d8 3d
       -0.05608445 0.0024496808 -0.023235463 0.10565644
0003a0 d3 cc 4b bd 36 c7 13 bd 07 7f a6 3d c3 58 83 bd
       -0.049755882 -0.036078654 0.08129697 -0.06413414
0003b0 42 24 70 bd af 0d 8b 3d 74 71 ad bd 83 79 ae 3d
       -0.05862833 0.06789719 -0.08468905 0.0851927
0003c0 fb 3d 6a 3d 0b 57 b7 bd da e4 f1 bd cf a5 7b 3b
       0.057188015 -0.08952149 -0.11811228 0.003839839
0003d0 f9 2c 9b 3d 3d c1 8c 3c ef 2e e1 3d 28 4f 19 bd
       0.07576937 0.017181987 0.1099528 -0.037429005
0003e0 29 8a 3a bd 6f 7a f8 bb f8 da 75 bd 26 57 6d bd
       -0.045541916 -0.0075829546 -0.060023278 -0.05794444
0003f0 80 8b 9d 3b 69 94 94 bc d6 1d 07 be 62 15 3b 3d
       0.0048078895 -0.018137174 -0.13194975 0.04567469

fc2_1.bias f4 [64]
000000 b3 2a b3 bd 9f ef dd bc fc 92 41 3d 8c 90 ab bd
       -0.087483786 -0.0270918 0.047259316 -0.083771795
000010 85 d6 d4 bd ed e2 a7 bd 73 9a a3 bd aa 95 7e bd
       -0.10392479 -0.081975795 -0.07988443 -0.06215445
000020 d1 ce 30 3d c8 5c 89 bd 9e ab 9c bd 8e c3 04 be
       0.043165985 -0.0670715 -0.07649921 -0.12965223
000030 9d f4 e8 bd 49 66 89 3d 55 ac 96 bd 92 74 08 3d
       -0.11374781 0.067089625 -0.073570885 0.033314295
000040 58 89 bd bd 5b f1 86 3d d2 55 e2 bb 3f bd 2e 3d
       -0.09254712 0.06589004 -0.0069072032 0.042660948
000050 d0 33 cc bc e1 46 bf 3d 55 8d 85 3d 9e 32 86 bd
       -0.02492705 0.09339691 0.065210976 -0.06552623
000060 cd 55 e2 3c 09 1d 87 3c 2a d6 87 bd 62 f2 6e bd
       0.027628804 0.016493337 -0.066326454 -0.058336623
000070 4f 8e 1a 3c 7e 2d 87 3d 6e 25 ac bd 49 73 c4 bd
       0.009433343 0.06600474 -0.08405577 -0.095923014
000080 56 fe 79 bd a8 97 73 bd 27 6f 0a bd 2c f7 3c bd
       -0.06103357 -0.059470803 -0.03379741 -0.04613416
000090 82 a7 c6 bd 08 6a bf bc ab 2c f7 bb 2f 7e ae 3d
       -0.09699918 -0.02336599 -0.0075431666 0.08520161
0000a0 ff f8 71 3d 8e 22 eb 3d d6 dd f2 bd a1 3b a2 bd
       0.05907535 0.114812 -0.11858718 -0.079215296
0000b0 87 55 53 bd bb ce 08 3d 36 6f bb 3d 78 b6 ae bb
       -0.051595237 0.03340028 0.09152071 -0.0053318106
0000c0 35 f2 fa bd d4 ce c6 bc 56 82 e7 3c 20 81 50 3d
       -0.122532286 -0.024268545 0.028260391 0.050904393
0000d0 b2 02 2a bd be aa 46 bd 2b a9 96 bd 7c 59 d0 3d
       -0.041506477 -0.048502676 -0.07356485 0.10173318
0000e0 21 ad 2f bd 69 49 a1 bd a3 2c 94 bd de 37 40 bb
       -0.042889718 -0.0787533 -0.07235076 -0.0029330174
0000f0 5c 70 97 bd 3d a2 b0 bd 81 93 a3 bd b9 d9 64 bd
       -0.07394478 -0.086246945 -0.079871185 -0.0558717

fc3.weight f4 [18, 64]
000000 2c f3 91 3d 60 8d 43 3c 39 15 ab bd 9e ee d4 3d
       0.071264595 0.011935562 -0.08353657 0.10397075
000010 36 11 65 bd f8 f8 b7 3d c2 8c c8 bd 47 8c b2 3d
       -0.055924617 0.08983034 -0.097924724 0.08718162
000020 3e e9 f7 3d 29 0c 54 3d 82 a3 94 3d 54 f1 74 3d
       0.12105034 0.05176941 0.07257749 0.05980046
000030 e5 99 b0 bd 21 f5 2c 3d a6 01 32 3e cf 82 86 3d
       -0.08623103 0.04222596 0.17383441 0.065679185
000040 11 4f 3d bd ba 98 af 3c 84 33 98 3d 98 9e 87 3d
       -0.04621798 0.02143513 0.07431701 0.06622046
000050 1a 77 e8 3d 8b 86 b5 3d 50 66 67 3d b4 9d b8 bd
       0.11350842 0.08863553 0.056494057 -0.090144545
000060 47 aa 85 bc a7 01 03 3e fc 0e 1d bd fc 7c 76 bd
       -0.016316546 0.12793599 -0.03834437 -0.06017779
000070 b0 43 45 3d 10 cf d4 bd 00 3b 43 bc c7 80 35 3d
       0.048160255 -0.103910565 -0.011915922 0.044312265
000080 12 f0 84 bd 2c 9b 85 3d 08 57 c0 3c 57 40 bf bc
       -0.06491102 0.06523737 0.023479 -0.02334611
000090 89 d7 f1 3d 08 bc 2b bd 3e 6f 93 3d b4 fd 83 3c
       0.11808688 -0.041927367 0.07198952 0.016112186
0000a0 94 90 7d 3d d5 e3 f5 3c fe f4 02 3d c6 c9 85 3d
       0.06190546 0.030015865 0.031971924 0.06532626
0000b0 4f a9 08 3e 72 0e d0 bd a1 33 cf 3b 70 ad 28 bd
       0.13345836 -0.10159005 0.0063232933 -0.041181028
0000c0 35 0e 1f bd 22 f5 cc bd 5b e8 6c bd 25 a4 8f bc
       -0.03883191 -0.10007693 -0.05783878 -0.017534325
0000d0 7e ce 46 bc a8 a3 9d bc e4 e7 86 3d a8 ea cf 3b
       -0.0121341925 -0.019243076 0.065871984 0.006345112
0000e0 90 f2 ba 3c b4 3a 35 3e 08 5a a3 3d 0e 17 a8 3d
       0.022820741 0.17698175 0.079761565 0.08207522
0000f0 41 9d 51 bc 49 c5 8d 3d f8 35 79 bd bd 7e 65 3d
       -0.01279384 0.06922395 -0.060842484 0.05602907
000100 6b a3 35 bc 03 0c bc 3d 94 3b af 3d d0 a7 c0 3d
       -0.011086325 0.091819786 0.085562855 0.09407008
000110 34 d7 d5 bc 80 ff 00 bc c0 89 d3 3c 1b 77 1e 3d
       -0.026103593 -0.007873416 0.02582252 0.038687807
000120 95 07 e2 bd 08 e5 26 bd 10 ac c7 bc 04 12 76 bd
       -0.110366024 -0.040745765 -0.024374038 -0.060075775
000130 6f 9f b1 bd ef d1 2a 3d cc 46 42 3c 15 b8 6a 3c
       -0.08672988 0.041704115 0.0118577 0.014326115
000140 df 44 ad 3d 96 3c a7 3d f9 e0 5b bb 63 91 0c bd
       0.08460402 0.08165853 -0.0033550842 -0.03431834
000150 9c f7 bb 3d 3b fc 9b 3d 00 1d 3c 3c 00 5c 79 bc
       0.09178087 0.076164685 0.0114815235 -0.015219688
000160 a5 ee ad bd 8c 3f 2a 3e 60 86 15 bc 22 7d 8c bd
       -0.084927835 0.16625804 -0.009126276 -0.06859805
000170 da e1 f4 3d fb af 9e bd a4 61 16 3d 30 3e c0 3d
       0.1195714 -0.07748409 0.03671421 0.09386861
000180 b0 9a 7c bc c8 95 43 3d ea 10 3b 3d c1 0c 91 3c
       -0.01541774 0.047750264 0.045670427 0.017706277
000190 3b e7 8d bb 86 64 8d 3d f7 14 a6 bd 84 3c 09 bd
       -0.0043305433 0.06903939 -0.081094675 -0.033504978
0001a0 6e cb 40 3d c4 e5 a8 3d 19 5d bb bb b4 ea cc 3d
       0.047069006 0.08246949 -0.005717885 0.100057036
0001b0 3f 16 2b bd 90 2d a8 3d 7d 54 fb 3d f9 90 d8 bd
       -0.041769262 0.08211815 0.12271974 -0.10574526
0001c0 18 5e f3 bc 20 cd fa bb 27 e8 5c bc 4f 53 28 3e
       -0.029707953 -0.0076538473 -0.013483084 0.1643803
0001d0 b9 2c fa 3c c8 b5 8a 3d 19 20 c6 bd 67 b4 e5 3d
       0.030538904 0.06772953 -0.09674091 0.1121605
0001e0 78 cf 8b 3d ab 44 17 3e 0d 84 60 3d 9e 39 17 bd
       0.06826681 0.14772289 0.054813433 -0.036920182
0001f0 59 f4 4c 3d 5d 1c ca bd 64 47 42 bd 99 72 c1 bd
       0.050037716 -0.09868691 -0.047431365 -0.09445686
000200 80 ee 5e bd 85 2b 52 bd 5c cb 3b bd 68 e1 cc bd
       -0.05442667 -0.051311035 -0.045848235 -0.1000393
000210 1d 30 37 bc 80 b3 d5 bc b0 9b f5 3c 58 ff be 3b
       -0.011180905 -0.026086569 0.029981464 0.005828779
000220 59 97 ca 3d af 86 78 3e 62 c5 8a bd 00 ea 3f 3d
       0.098921485 0.24270128 -0.06775929 0.04685402
000230 19 26 ec bc 1d d7 0f 3e 37 e0 bc 3d 63 b7 67 3d
       -0.02882676 0.14046903 0.09222453 0.056571376
000240 f7 ec 34 bc c5 8e bb bd 64 1b ab 3d 2a a1 53 3d
       -0.011042825 -0.091580905 0.08354834 0.05166737
000250 9c 60 66 3d b5 37 68 3d 17 f8 77 3d 70 d8 71 bc
       0.056244478 0.05669375 0.06053933 -0.014761075
000260 7f 4c a3 bd 51 de 82 bd 70 11 bd bd 40 31 f3 3d
       -0.07973575 -0.0639006 -0.092318416 0.11874628
000270 97 68 0a 3c a5 36 0d 3c 08 da ac bd d7 e4 1b bb
       0.008447788 0.008618985 -0.08440024 -0.0023787522
000280 58 fc 26 bd 08 34 1d bd 60 85 b4 3d 00 7d 21 bd
       -0.040767998 -0.0383797 0.08814502 -0.03942585
000290 5e fa 67 bd 30 f3 7f bc f2 08 8d 3d 08 93 d0 3d
       -0.056635253 -0.015621945 0.06886472 0.10184294
0002a0 b6 ae f4 3d 58 95 93 3d 22 76 18 3e 20 ec 6a bd
       0.11947386 0.072062194 0.14888814 -0.057354093
0002b0 a2 56 a0 3d 43 cd 35 bc 2f 82 86 3d e6 2c 8e bd
       0.07829024 -0.0110963015 0.06567799 -0.069421574
0002c0 aa bf 72 3d a0 cb e7 bd e1 ef 20 3d 68 e3 d5 3d
       0.059264816 -0.11318135 0.039291266 0.10443765
0002d0 43 b4 25 3e 3e 94 fe bd c7 5c c5 bd fe 13 fe bd
       0.16182046 -0.12430619 -0.096368365 -0.12406157
0002e0 c8 3b c6 bd b4 46 03 bd 92 42 a1 bc 6c f4 ff bc
       -0.09679371 -0.03204985 -0.019685064 -0.03124448
0002f0 c8 e2 99 bd 55 78 4d 3d ba a2 8d bd a2 8a f7 3d
       -0.07513958 0.050163586 -0.06915803 0.12086989
000300 b8 cc 03 3d 2e 68 16 be d1 34 6b bd 50 43 e0 bc
       0.032177657 -0.14688179 -0.057423417 -0.027375847
000310 ec e8 84 3d 90 78 61 bc 08 56 7f bd f4 bc cf bd
       0.06489739 -0.0137616545 -0.062337905 -0.10143462
000320 ef 80 54 bd fa 47 32 be 46 ae ed 3d 67 cf cc bc
       -0.051880773 -0.1741027 0.11605506 -0.02500124
000330 1a ac ed bc 1d 97 50 bd c3 e6 23 be 30 9b 08 3e
       -0.029012728 -0.050925363 -0.16005997 0.1334045
000340 90 ca e0 bd 13 72 8d bd 87 05 96 bc 0d 99 02 be
       -0.10976136 -0.069065236 -0.018313183 -0.12753697
000350 90 db 94 3c 38 98 a3 bd 4f 43 42 3c 48 34 b3 bc
       0.018171102 -0.07988018 0.011856868 -0.021875516
000360 b6 95 91 bd 81 14 1d bd 70 dc 60 bd b8 81 7f bd
       -0.07108633 -0.038349632 -0.054897726 -0.06237957
000370 1a cb 27 3d 4b 7c 8d bc 38 96 6e bd 78 08 b8 bd
       0.040965177 -0.017271182 -0.05824873 -0.0898599
000380 84 d8 bd bd bc 89 46 3d 8d 77 3c bd 27 9a 92 3c
       -0.09269813 0.048471197 -0.04601245 0.017895771
000390 c5 20 86 bd bc 78 36 bd cc 54 80 3d 4e 44 be bd
       -0.06549219 -0.044548735 0.06266174 -0.09290372
0003a0 94 74 e0 3d 88 36 25 be 5d 83 00 be fc 05 8c 3d
       0.109597355 -0.16134083 -0.12550111 0.06837079
0003b0 a8 19 e7 bd 94 3f 4c 3b 57 83 29 bd 57 d9 1a 3e
       -0.112841904 0.0031165825 -0.04138502 0.15121971
0003c0 be f5 9d bd 58 85 1b bd 91 8c 90 bd 5e a2 21 be
       -0.07712887 -0.037968963 -0.07058061 -0.15784594
0003d0 8b cf 2f bd 1c b2 11 bd ae 0e 5d bd 93 18 f1 3d
       -0.042922538 -0.03557025 -0.053969078 0.11772265
0003e0 14 6e e5 bd 30 58 71 bd 7a c2 ba 3d 9f 5f d6 bd
       -0.11202636 -0.058921993 0.09119125 -0.10467457
0003f0 88 70 c2 bc 41 d9 7a be e8 ee a9 bc 6c ac d7 3d
       -0.0237353 -0.24496938 -0.020743802 0.10530934

fc3.bias f4 [18]
000000 49 79 b0 bc b7 82 1e bd b4 bc 6d bd 80 f6 6d 3d
       -0.021542208 -0.03869888 -0.05804129 0.05809641
000010 40 d8 1a 3d 0d e8 37 bd 14 64 b2 3c ac a6 a9 bd
       0.03780389 -0.044899035 0.021776237 -0.08283743
000020 f1 21 06 bb 85 e5 4a 3d fa cc 52 bd 48 23 df 3c
       -0.0020467008 0.049535293 -0.051465012 0.027238503
000030 2a e7 24 bb 33 8b 89 3b 48 db 1c 3d e1 15 af 3d
       -0.0025162199 0.004197502 0.03829506 0.08549095
000040 de 05 86 bc 3f 75 ef bc
       -0.01636022 -0.029230712
