models/2024-07-20_16-10-13/epoch_0024_loss_0.00034620/dynamics.pth (torch, 83084 bytes, 8 tensors)

fc1.weight f4 [64, 34]
-0.089874014 0.16018905 0.15717067 -0.049240835 0.14478217 -0.03823407 -0.11039564 0.11679374
0.08582036 -0.10853767 0.06938802 -0.16878144 -0.007239744 0.13064937 0.16167854 0.10745151
-0.027821168 0.02554968 0.063127264 -0.063204914 -0.096988074 -0.03911747 0.070011556 0.06154707
0.17110471 0.16367723 -0.09663948 -0.12744409 -0.056114264 -0.13280071 0.009227887 -0.08007019
-0.021605372 -0.08425533 -0.106580526 -0.07825628 -0.08427093 -0.14546278 -0.12798989 0.10820581
-0.16133688 0.084517434 -0.093553364 -0.1025424 -0.054508455 0.17030941 -0.103720374 -0.0066064447
-0.03736487 -0.09446108 0.1644182 0.0833091 0.03353861 0.048723355 -0.09680796 0.0946693
-0.10596677 0.059999585 -0.13804442 0.07875754 0.057295427 -0.06026078 -0.05224853 0.017073378
-0.058847517 -0.0698528 0.020129591 -0.13390362 0.11300732 0.062579826 0.07306075 -0.060873985
-0.056919396 0.099758014 -0.14498682 0.105642125 0.023337796 -0.09180342 -0.0013292283 0.105293825
0.10869487 0.038632452 0.05081345 0.10601409 -0.042780623 -0.1402926 0.048257977 -0.048391357
-0.13883959 -0.081099026 -0.015076488 0.053388074 -0.16392028 0.1674005 0.16977681 0.04698792
0.11060892 0.09677254 0.09221135 0.01776348 -0.022680432 0.13321675 0.032867096 0.0118376035
0.1525059 0.032770354 -0.04948651 -0.0866146 -0.0024712554 0.1387186 -0.08590788 -0.10876968
0.067046165 -0.0033945646 -0.18939133 0.19381458 -0.0031173327 0.0465892 -0.120093554 -0.07311335
0.037605453 0.14110084 -0.024212535 0.029662475 -0.15018429 0.13215457 0.14065756 0.015054586
-0.21234278 -0.00048161633 0.029877357 -0.05402455 0.018227667 0.12200201 0.087917425 -0.13365334
-0.13830133 -0.030249342 0.12070991 0.084646925 -0.042449474 -0.10411321 0.03025949 -0.063613534
-0.13427188 -0.038141116 0.1069596 -0.051315285 -0.03588994 -0.0824832 0.1349868 0.06142147
-0.11644727 -0.16184637 -0.09701749 -0.1393051 -0.054354057 -0.04000348 -0.099286065 0.13744996
0.023042053 -0.024951011 -0.077100895 0.14070724 0.033151418 0.14425723 0.077114075 -0.07426747
0.10631244 -0.048106447 0.24591812 0.045866773 -0.17038764 0.19508521 0.23604037 -0.18978399
-0.050185226 0.079604894 -0.06180742 -0.10591897 -0.045564387 -0.07760884 -0.017267955 -0.012651832
0.10050875 0.1501496 -0.055297956 0.03567378 -0.11618258 -0.06256762 -0.022074103 0.041031126
0.10662879 -0.016247306 0.16501574 -0.2000631 -0.3825963 0.19775498 -0.027217166 0.07854453
-0.03685039 -0.08325816 0.072523974 0.07489852 -0.06505996 0.23569082 -0.10785808 0.15546907
0.28175804 -0.14997402 -0.022957588 -0.056617253 -0.12731367 -0.18509802 -0.07923094 0.016281387
-0.1209587 0.085319884 0.049901746 0.034735814 0.050358072 0.03730923 -0.06380423 0.050488118
0.005882757 0.118465714 -0.07916521 -0.10170395 -0.15059075 -0.17707157 -0.22207983 0.010956059
0.060861237 -0.18391794 0.026426189 0.11937636 -0.046074364 0.15261327 -0.06162498 -0.097529866
0.15573297 -0.01635696 -0.09294335 -0.05244483 -0.10386714 -0.031203002 -0.09326032 0.07784134
-0.10355032 -0.06971388 -0.112637535 0.14451547 -0.041748196 -0.07999671 0.12150447 -0.08680082
00000000: de0f b8bd 9908 243e 59f1 203e c2b0 49bd
00000010: c741 143e 549b 1cbd 1c17 e2bd 8e31 ef3d
00000020: 96c2 af3d ff48 debd 4e1b 8e3d 0bd5 2cbe
00000030: 603b edbb f3c8 053e 0f8f 253e 8a0f dc3d
00000040: 38e9 e3bc 904d d13c de48 813d 9471 81bd
00000050: afa1 c6bd a439 20bd 3862 8f3d c818 7c3d
00000060: 1336 2f3e 019b 273e ebea c5bd b480 02be
00000070: 12d8 65bd e9fc 07be 9030 173c d7fb a3bd
00000080: c0fd b0bc 0f8e acbd e446 dabd d444 a0bd
00000090: 3d96 acbd 32f4 14be c80f 03be 029b dd3d
000000a0: 7f35 25be 7a17 ad3d e898 bfbd c001 d2bd
000000b0: 4244 5fbd 9765 2e3e 596b d4bd e07a d8bb
000000c0: e80b 19bd d074 c1bd 3f5d 283e f69d aa3d
000000d0: c85f 093d 2492 473d 4043 c6bd fae1 c13d
000000e0: 1b05 d9bd 20c2 753d 845b 0dbe a24b a13d
000000f0: 9cae 6a3d 02d4 76bd 8e02 56bd 78dd 8b3c
00000100: 180a 71bd fc0e 8fbd d0e6 a43c 081e 09be
00000110: 6270 e73d da29 803d e0a0 953d 0057 79bd
00000120: 5024 69bd ee4d cc3d 6d77 14be e65a d83d
00000130: e82e bf3c 6e03 bcbd 8039 aeba 4aa4 d73d
00000140: 6a9b de3d 103d 1e3d c421 503d ea1d d93d
00000150: bc3a 2fbd dda8 0fbe 28aa 453d 0436 46bd
00000160: f72b 0ebe 3f17 a6bd 6003 77bc 74ad 5a3d
00000170: b8da 27be 096b 2b3e f9d9 2d3e 6876 403d
00000180: ee86 e23d ae30 c63d 4ed9 bc3d b884 913c
00000190: 50cc b9bc f969 083e a69f 063d 82f2 413c
000001a0: 822a 1c3e 353a 063d 5eb2 4abd ff62 b1bd
000001b0: c9f4 21bb 400c 0e3e 78f0 afbd a3c2 debd
000001c0: 804f 893d 5877 5ebb cdef 41be 5477 463e
000001d0: 2a4c 4cbb 51d4 3e3d 9cf3 f5bd 74bc 95bd
000001e0: 2d08 1a3d bd7c 103e 5e59 c6bc b8fe f23c
000001f0: e9c9 19be 8753 073e 8908 103e 83a7 763c
00000200: 6370 59be 7381 fcb9 5cc1 f43c d948 5dbd
00000210: 3052 953c 31dc f93d 0d0e b43d 6cdc 08be
00000220: dd9e 0dbe 78cd f7bc c236 f73d 5e5b ad3d
00000230: 80df 2dbd 4f39 d5bd c0e2 f73c d047 82bd
00000240: 917e 09be dc39 1cbd a20d db3d fa2f 52bd
00000250: 5401 13bd f4ec a8bd fb39 0a3e 1495 7b3d
00000260: e87b eebd 0ebb 25be 1bb1 c6bd ffa5 0ebe
00000270: 5ca2 5ebd b0da 23bd 7e56 cbbd afbf 0c3e
00000280: b0c2 bc3c 1066 ccbc 13e7 9dbd 8f15 103e
00000290: c8c9 073d 2bb8 133e fced 9d3d 8b19 98bd
000002a0: 56ba d93d 440b 45bd f6d1 7b3e ccde 3b3d
000002b0: 197a 2ebe 6bc4 473e 91b4 713e bc56 42be
000002c0: 068f 4dbd e407 a33d c729 7dbd 0cec d8bd
000002d0: b9a1 3abd 62f1 9ebd 8775 8dbc a149 4fbc
000002e0: 88d7 cd3d d1c0 193e 1c80 62bd ab1e 123d
000002f0: 22f1 edbd 7423 80bd c0d4 b4bc 4110 283d
00000300: 3260 da3d 1219 85bc e3f9 283e 57dd 4cbe
00000310: aae3 c3be 4880 4a3e 89f6 debc f4db a03d
00000320: 6ff0 16bd 4183 aabd 7387 943d 6564 993d
00000330: 283e 85bd ef58 713e b2e4 dcbd 4933 1f3e
00000340: 9742 903e ca92 19be 8d11 bcbc 7ee7 67bd
00000350: 845e 02be 568a 3dbe d543 a2bd 8b60 853c
00000360: 32b9 f7bd 31bc ae3d c665 4c3d 2447 0e3d
00000370: 4444 4e3d 90d1 183d cbab 82bd a1cc 4e3d
00000380: 24c4 c03b 279e f23d 5f21 a2bd 294a d0bd
00000390: 7634 1abe 4052 35be e568 63be 0b81 333c
000003a0: a249 793d fc54 3cbe bc7b d83c 987b f43d
000003b0: 79b8 3cbd a746 1c3e 7a6a 7cbd bdbd c7bd
000003c0: 7778 1f3e 08ff 85bc 1559 bebd 64d0 56bd
000003d0: 4cb8 d4bd 709d ffbc 44ff bebd 486b 9f3d
000003e0: 3112 d4bd 27c6 8ebd 82ae e6bd ddfb 133e
000003f0: 2800 2bbd 51d5 a3bd 56d7 f83d a1c4 b1bd

fc1.bias f4 [64]
-0.104641676 -0.14633258 -0.08884676 -0.106732786 -0.1570467 -0.08110839 0.057819556 -0.0518782
-0.16954917 0.11939147 -0.047568478 0.08750392 0.035347138 -0.08018979 -0.08035257 0.03510164
0.09623377 -0.07238626 -0.13438575 -0.070850626 -0.07898403 0.012275562 -0.018978147 -0.05564403
0.10402322 0.05185049 -0.046432234 -0.01351054 -0.03345889 0.011275349 -0.082308955 0.03803363
-0.1035748 -0.041578468 0.06201809 0.11232754 0.18394342 -0.08728782 -0.007157261 0.012350331
-0.06719462 0.14796059 -0.08009409 0.04087892 -0.10793584 -0.16758513 -0.15086447 -0.058392778
-0.10295513 -0.1391848 -0.15909429 0.044252258 -0.11067486 -0.074397966 -0.060409326 0.009270974
0.07310937 -0.1401628 -0.1739759 0.2104228 -0.04971344 0.10858149 0.09379278 -0.15676951
00000000: 604e d6bd 35d8 15be 4af5 b5bd b896 dabd
00000010: dad0 20be 281c a6bd 33d4 6c3d 3c7e 54bd
00000020: 4c9e 2dbe 8483 f43d 2ad7 42bd 4135 b33d
00000030: 29c8 103d 8b3a a4bd e38f a4bd bdc6 0f3d
00000040: 3616 c53d 3f3f 94bd 6b9c 09be 221a 91bd
00000050: 61c2 a1bd 701f 493c 0f78 9bbc ffea 63bd
00000060: 200a d53d 2e61 543d ba2f 3ebd 505b 5dbc
00000070: 300c 09bd 3ebc 383c 9991 a8bd 27c9 1b3d
00000080: 061f d4bd 2f4e 2abd ae06 7e3d fb0b e63d
00000090: aa5b 3c3e f5c3 b2bd 7587 eabb 0b59 4a3c
000000a0: 559d 89bd fb82 173e 5f08 a4bd a870 273d
000000b0: 770d ddbd 709b 2bbe 377c 1abe 442d 6fbd
000000c0: 24da d2bd 7686 0ebe 9de9 22be db41 353d
000000d0: 80a9 e2bd f65d 98bd c56f 77bd 49e5 173c
000000e0: 5eba 953d d686 0fbe bd26 32be 1379 573e
000000f0: 52a0 4bbd f95f de3d 6e16 c03d 3088 20be

fc2.weight f4 [128, 64]
-0.04743448 0.08271998 0.06715372 0.102065794 0.08666612 0.11292944 0.11527684 0.019261658
-0.07466173 0.028564943 0.1104363 0.04900992 -0.022737235 0.01174108 -0.09176305 0.08495472
-0.009603485 0.08067417 -0.044710312 0.09123266 0.055458575 0.03458415 0.032903392 -0.13009903
0.0100992685 0.20027535 0.004977184 -0.037270173 -0.05565028 0.025701901 0.052285038 -0.0774785
0.08777529 0.06685169 -0.082349285 -0.09499399 0.091215536 0.07322319 0.10649737 0.1524296
0.15063594 -0.070871904 0.11197539 0.10572866 0.09115624 0.07476473 0.12155377 0.059424292
0.11502145 0.030484721 0.098663285 -0.0057624956 0.111028716 0.02754645 -0.029542968 0.121812366
-0.019995257 0.056570455 -0.061744954 0.06059985 -0.07041803 -0.061361402 -0.044182196 0.058877125
-0.0036786646 -0.090157464 0.1186752 0.07917666 -0.011245295 -0.015189515 -0.006138669 0.1018582
0.018554423 0.047038846 -0.064186044 0.04021709 -0.06615879 -0.15082034 -0.06820287 -0.09192369
0.10114352 0.072496206 0.03518321 -0.02003996 0.018901542 0.05536158 0.18060143 0.1925913
0.11232123 0.03049207 -0.08664316 0.06836921 0.023770332 -0.029484523 0.04608071 0.09353416
0.10030949 0.045614857 0.06300301 -0.06456144 0.05014898 -0.06597805 0.01895355 0.04421147
-0.03728482 -0.05248195 -0.07544142 -0.031570353 0.13273402 -0.11218968 -0.19783568 0.088269055
-0.004683733 -0.040044844 0.02761659 0.12956205 0.07483984 -0.0762642 -0.046836436 -0.14775075
-0.017421484 0.10652231 -0.09978421 -0.0882698 0.08616781 -0.06813268 -0.11492491 -0.0022013783
-0.09477508 0.099978104 0.020795658 -0.15144245 0.04418215 -0.12071793 0.032027423 -0.04200478
-0.014880799 -0.08626882 0.037978023 -0.06571003 0.03709531 0.048357308 -0.18414427 -0.0479309
-0.007880979 0.06340869 -0.01599927 -0.10204288 -0.07687317 -0.062019 -0.06337112 -0.18104382
-0.06739272 -0.1885443 0.011795343 -0.044124737 -0.10342768 -0.06343168 -0.19905853 0.037090037
0.035228416 -0.09784589 -0.16651574 -0.043468863 0.060133442 -0.10861777 0.013303589 -0.03745436
-0.17190811 0.1094953 0.08224584 -0.0774956 -0.021598218 -0.11620201 -0.15156242 -0.032977052
-0.036936402 0.10670346 0.0023952432 -0.10295013 -0.0059685092 -0.050049886 -0.107939854 -0.02202459
0.008781955 -0.056271583 -0.100244306 0.022030264 0.045784965 -0.03573908 -0.014109209 0.018067598
-0.11011048 -0.052593574 -0.09322856 -0.09056776 -0.015218541 -0.016648643 0.05297501 0.08400786
-0.055659622 -0.0384437 -0.01427814 0.011870365 0.123218 -0.11756703 -0.03187592 0.06525874
-0.05476441 0.02443181 -0.14002448 -0.028342798 0.04235989 -0.10491752 0.054333854 -0.13433385
-0.04649349 -0.09632685 -0.09505539 -0.037054032 0.0020311624 -0.15722023 -0.1447401 -0.0020438186
-0.12443799 -0.092973396 0.0016279739 -0.04673569 0.074769035 -0.08085607 -0.06611371 -0.08014111
0.06142209 -0.092495516 -0.06536956 -0.08885836 0.036537714 -0.11801125 0.013670712 -0.117989324
-0.020384386 -0.07061283 -0.065326296 -0.024764236 -0.11245118 -0.102001935 0.004301697 0.02002517
-0.07947376 0.09209843 -0.02897987 0.030991763 -0.09489353 -0.00024600327 -0.015543774 -0.05668153
00000000: a84a 42bd 1869 a93d e487 893d df07 d13d
00000010: 027e b13d 8d47 e73d 4416 ec3d a0ca 9d3c
00000020: 40e8 98bd 0701 ea3c 6d2c e23d a0be 483d
00000030: 7043 babc a95d 403c 44ee bbbd befc ad3d
00000040: f057 1dbc 8038 a53d 2922 37bd 30d8 ba3d
00000050: 8828 633d 1ca8 0d3d b5c5 063d ae38 05be
00000060: 6777 253c fb14 4d3e a517 a33b 9ca8 18bd
00000070: 8cf1 63bd cb8c d23c d628 563d 0cad 9ebd
00000080: 88c3 b33d 8ae9 883d bea6 a8bd 368c c2bd
00000090: 36cf ba3d 0af6 953d 4b1b da3d 8116 1c3e
000000a0: 4f40 1a3e 4a25 91bd 5a53 e53d 4588 d83d
000000b0: 1fb0 ba3d 401e 993d 2ff1 f83d e366 733d
000000c0: 5e90 eb3d 18bb f93c fa0f ca3d 51d3 bcbb
000000d0: 0663 e33d 18a9 e13c 1804 f2bc c378 f93d
000000e0: 18cd a3bc 6cb6 673d 47e8 7cbd 8c37 783d
000000f0: 5437 90bd 1856 7bbd 64f8 34bd 2429 713d
00000100: c015 71bb 7aa4 b8bd fc0b f33d 5f27 a23d
00000110: 303e 38bc 72dd 78bc e326 c9bb 089b d03d
00000120: 72ff 973c ceab 403d f973 83bd adba 243d
00000130: 427e 87bd a670 1abe f2ad 8bbd 7d42 bcbd
00000140: 5524 cf3d e478 943d 451c 103d d82a a4bc
00000150: 68d7 9a3c d3c2 623d 95ef 383e a736 453e
00000160: ac08 e63d 81ca f93c f871 b1bd 2805 8c3d
00000170: 00ba c23c 8789 f1bc 20bf 3c3d d68e bf3d
00000180: 106f cd3d a5d6 3a3d b907 813d ca38 84bd
00000190: 0469 4d3d 801f 87bd 7a44 9b3c 1617 353d
000001a0: f8b7 18bd 50f7 56bd 0881 9abd ea4f 01bd
000001b0: 6deb 073e b4c3 e5bd 7095 4abe 68c6 b43d
000001c0: 007a 99bb 1006 24bd 303c e23c eaab 043e
000001d0: a145 993d 6830 9cbd 90d7 3fbd f94b 17be
000001e0: 80b7 8ebc 5e28 da3d aa5b ccbd ccc6 b4bd
000001f0: c078 b03d 2689 8bbd c05d ebbd 0045 10bb
00000200: 7019 c2bd 52c1 cc3d a85b aa3c bb13 1bbe
00000210: 58f8 343d f63a f7bd 302f 033d 340d 2cbd
00000220: 98ce 73bc b5ad b0bd d88e 1b3d fb92 86bd
00000230: 40f1 173d 5012 463d 5190 3cbe 3153 44bd
00000240: 391f 01bc 6adc 813d e710 83bc dcfb d0bd
00000250: ae6f 9dbd a307 7ebd b8c8 81bd 8d63 39be
00000260: 3205 8abd c211 41be 4141 413c 24bc 34bd
00000270: e4d1 d3bd 78e8 81bd 00d6 4bbe b9eb 173d
00000280: ac4b 103d 6d63 c8bd 1a83 2abe 680c 32bd
00000290: 7c4e 763d fe72 debd 4cf7 593c be69 19bd
000002a0: ae08 30be 123f e03d 8270 a83d 03b6 9ebd
000002b0: bfee b0bc 52fb edbd 2e33 1bbe f212 07bd
000002c0: a04a 17bd 5887 da3d 83f9 1c3b 85d7 d2bd
000002d0: 7c93 c3bb 1c01 4dbd 920f ddbd ea6c b4bc
000002e0: 30e2 0f3c 087d 66bd e34c cdbd d078 b43c
000002f0: 0489 3b3d 2463 12bd 502a 67bc 8002 943c
00000300: 9a81 e1bd 5c6c 57bd 9eee bebd 977b b9bd
00000310: 3057 79bc bc62 88bc 53fc 583d 500c ac3d
00000320: 58fb 63bd 2477 1dbd dcee 69bc eb7b 423c
00000330: b859 fc3d fcc6 f0bd 5390 02bd 60a6 853d
00000340: a550 60bd 3825 c83c 9462 0fbe 282f e8bc
00000350: 9081 2d3d ffde d6bd 2d8d 5e3d d08e 09be
00000360: f56f 3ebd 0347 c5bd 66ac c2bd f8c5 17bd
00000370: 401d 053b 57fe 20be c036 14be 96f1 05bb
00000380: 58d9 febd d668 bebd bd61 d53a ec6d 3fbd
00000390: 8220 993d de97 a5bd a066 87bd 0621 a4bd
000003a0: bb95 7b3d 4a6e bdbd 7ae0 85bd 5ffb b5bd
000003b0: 92a8 153d e2af f1bd 1ffb 5f3c 63a4 f1bd
000003c0: 28fd a6bc 769d 90bd cbc9 85bd 5ede cabc
000003d0: ce4c e6bd 64e6 d0bd 40f5 8c3b d30b a43c
000003e0: 24c3 a2bd 1a9e bc3d 3167 edbc 70e2 fd3c
000003f0: 8a57 c2bd 00fa 80b9 50ab 7ebc e42a 68bd

fc2.bias f4 [128]
-0.07222972 -0.04934492 -0.14109014 -0.106873326 -0.11963299 -0.04588711 -0.032397944 0.0047144624
0.08633543 0.023822179 -0.0036009909 -0.03737151 -0.07062371 -0.11754866 0.035678077 -0.0262076
-0.08747262 0.09263596 -0.0048206993 -0.04232963 -0.06481628 -0.006550064 -0.034665786 -0.16105443
-0.053973883 -0.044764485 0.067706466 -0.00087046286 -0.037141964 0.03656211 -0.11145753 -0.2049851
-0.05061235 -0.0034030755 -0.20067383 0.049642276 -0.16455868 -0.016429579 -0.055135965 -0.05566308
-0.08252542 -0.043252002 0.038219422 -0.11294386 0.13312729 -0.00821427 -0.049780168 0.11608428
0.06446431 -0.08678999 -0.10126364 -0.083903186 -0.008685415 -0.01658828 0.066851035 -0.116759256
0.020472433 -0.14987095 -0.025764767 -0.073682815 0.08309159 -0.04643574 -0.095867485 0.0065303217
0.027692202 -0.14969876 -0.009827543 -0.03185753 -0.06999901 -0.05505155 -0.09349035 -0.10407463
0.058870185 0.008949065 -0.11452037 0.095589995 0.012685833 0.042523403 0.037209917 -0.17246515
-0.06546476 -0.1476936 -0.08215404 0.0008672708 -0.007401722 -0.06435217 -0.088933304 0.07194512
0.10242079 0.12387246 -0.17324868 -0.038269594 -0.059753343 -0.11117977 0.025009425 -0.032020297
-0.086622596 -0.16436142 -0.15361781 -0.1414431 -0.018937418 0.044350833 -0.019411987 -0.07629422
-0.08613549 -0.012199898 -0.05042574 -0.072357595 -0.10806624 0.00038128372 0.009356892 -0.012566709
0.027043903 0.051814016 -0.033459913 -0.040693704 0.018361297 -0.103221655 -0.03140928 -0.022573106
-0.0022315243 -0.052349128 -0.16399127 -0.12429822 -0.054563902 -0.12304187 0.002065584 -0.108391576
00000000: 2ded 93bd e61d 4abd ef79 10be 67e0 dabd
00000010: 2402 f5bd 1ff4 3bbd b5b3 04bd c77b 9a3b
00000020: a1d0 b03d bb26 c33c 9afe 6bbb de12 19bd
00000030: 2aa3 90bd 5abd f0bd 2d23 123d 52b1 d6bc
00000040: d824 b3bd ecb7 bd3d f5f6 9dbb d661 2dbd
00000050: 66be 84bd eba1 d6bb b6fd 0dbd 74eb 24be
00000060: b813 5dbd f75a 37bd b0a9 8a3d c62f 64ba
00000070: 2c22 18bd 27c2 153d d843 e4bd 9de7 51be
00000080: e54e 4fbd 2206 5fbb 717d 4dbe b355 4b3d
00000090: 1282 28be 5397 86bc 40d6 61bd f8fe 63bd
000000a0: 1603 a9bd 0329 31bd f88b 1c3d 1c4f e7bd
000000b0: 8552 083e 2595 06bc 4ae6 4bbd 98bd ed3d
000000c0: dd05 843d f3be b1bd 5063 cfbd 6fd5 abbd
000000d0: 454d 0ebc 25e4 87bc 32e9 883d 7a1f efbd
000000e0: ceb5 a73c c577 19be a210 d3bc 04e7 96bd
000000f0: ec2b aa3d 6733 3ebd 2c56 c4bd 4ffc d53b
00000100: c2da e23c a24a 19be b403 21bc 0b7d 02bd
00000110: a45b 8fbd bc7d 61bd de77 bfbd 1425 d5bd
00000120: dd21 713d 199f 123c a889 eabd b0c4 c33d
00000130: 3dd8 4f3c 052d 2e3d 6d69 183d b49a 30be
00000140: 6312 86bd fe3c 17be 6140 a8bd 8f59 633a
00000150: 258a f2bb 12cb 83bd aa22 b6bd f757 933d
00000160: fec1 d13d d8b0 fd3d 1a68 31be 94c0 1cbd
00000170: ecbf 74bd 38b2 e3bd 91e0 cc3c b727 03bd
00000180: 3067 b1bd 5c4e 28be fd4d 1dbe 76d6 10be
00000190: a522 9bbc 38a9 353d e305 9fbc 2540 9cbd
000001a0: ce67 b0bd 15e2 47bc 398b 4ebd 3830 94bd
000001b0: d551 ddbd 09e7 c739 a64d 193c 99e4 4dbc
000001c0: 2d8b dd3c ef3a 543d 430d 09bd 71ae 26bd
000001d0: 6e6a 963c e065 d3bd 04a7 00bd 3ceb b8bc
000001e0: c43e 12bb 0a6c 56bd 54ed 27be 1190 febd
000001f0: 667e 5fbd 60fd fbbd c05e 073b 67fc ddbd

fc2_1.weight f4 [64, 128]
0.021649366 0.031998944 -0.09843528 -0.015899254 -0.02890629 -0.09279314 -0.05333068 0.016645528
-0.043627534 -0.051466484 -0.063791625 -0.0829869 0.04563099 -0.008999757 0.055820283 -0.05757318
-0.002825953 0.05402777 -0.05695825 -0.03172723 -0.0499477 -0.085085385 0.017691657 -0.010587852
-0.04879016 -0.07875428 0.035463527 -0.029300964 0.05657942 -0.026441338 -0.012121826 0.0610008
-0.02776277 -0.0019179512 -0.07230678 0.06814506 0.049954273 0.04186305 0.057740502 -0.05249821
-0.11859478 0.07886977 -0.04259035 0.0734958 0.0015236252 -0.08250634 -0.015820486 -0.060274225
-0.032651264 -0.07868281 0.029482847 0.027008709 0.034565266 0.069520675 0.041164882 -0.03127786
0.05695474 -0.019531779 0.06884485 0.034830168 -0.08733425 0.0010753965 -0.05749906 0.044216517
0.07238438 -0.10133506 -0.0074711996 -0.047480043 0.026244119 -0.01600717 0.001405701 0.0632652
0.029728219 -0.06380959 0.00660827 -0.018787308 -0.08736491 -0.06576846 0.022421956 -0.029520497
-0.030628378 -0.03849306 0.018704362 0.027523011 0.06793857 0.0005136356 -0.05384243 -0.0098938355
-0.12339735 -0.036585886 -0.02134961 0.009545146 -0.06586899 -0.07322905 -0.032284055 -0.087153435
-0.008259721 -0.0074270065 -0.025222436 0.022196889 -0.114707366 -0.021593366 -0.09692454 0.06735591
0.05143129 0.04029923 -0.080707274 0.022829369 0.021455653 0.03755278 -0.03955757 -0.029846553
0.037716217 -0.034354605 -0.06921574 0.06192095 -0.12469295 0.03224732 -0.11793342 -0.08450939
-0.05904215 0.016505206 0.07957234 -0.0575549 -0.014884413 0.032990303 -0.08065772 0.09611595
0.005537343 -0.00040399114 -0.11004042 0.0843407 0.005355105 -0.11414088 -0.15925775 -0.16968678
0.032402847 0.007607304 0.03150901 -0.0022085619 -0.036109343 -0.08939909 0.032219402 -0.052867357
-0.045726433 -0.12891538 0.092514634 -0.09228472 -0.16229337 0.08173656 0.02467174 -0.048485093
0.030219942 -0.0066813785 -0.019297497 -0.03376914 0.00623513 -0.02960514 -0.13283537 0.06075058
0.018627793 -0.14307897 -0.033018325 -0.04475205 -0.038259167 -0.09611687 -0.0840472 0.0019535348
-0.035405662 -0.10618567 -0.09981085 -0.055359885 -0.104634844 0.15802005 -0.0344762 -0.10034873
-0.06302015 -0.08340545 -0.087818444 -0.042207412 0.004944578 -0.040873054 -0.012655654 0.012319639
0.06866879 0.013552107 0.0019033932 0.07558643 -0.047026407 -0.013600758 0.030861147 -0.11239491
-0.019158367 -0.017851627 -0.16979747 0.07154554 0.02651333 0.05522523 -0.053531237 -0.09811601
0.066596225 0.08189267 -0.08821816 -0.087889 0.021050544 -0.09950994 -0.013524628 -0.041926757
-0.13968971 0.01734093 0.014579785 0.09413503 0.024998328 0.014887825 0.07050597 -0.0059147137
-0.05555184 -0.11383448 -0.10727733 0.10894545 -0.075626545 -0.05440725 -0.0580971 0.08330781
-0.049007837 -0.005789282 -0.07441128 0.007447754 0.040422965 0.04147858 0.040080152 -0.08035225
0.013105633 -0.07763539 -0.014113926 0.0007867664 0.09228478 -0.0048164236 -0.044178728 0.037402753
0.04426787 -0.14129545 -0.04798467 -0.04240545 0.11377107 0.012735075 -0.040751357 0.04081755
-0.082169145 0.09563604 -0.042962246 -0.09043599 -0.04750076 -0.10812942 -0.0007081926 0.08496124
00000000: 035a b13c 5311 033d 7098 c9bd 273f 82bc
00000010: e2cc ecbc 540a bebd 4571 5abd 345c 883c
00000020: c9b2 32bd 85ce 52bd 2fa5 82bd 09f5 a9bd
00000030: 90e7 3a3d b773 13bc cfa3 643d dbd1 6bbd
00000040: a033 39bb 394c 5d3d 0e4d 69bd 69f4 01bd
00000050: f695 4cbd 3f41 aebd 18ee 903c ac78 2dbc
00000060: 31d8 47bd ed49 a1bd 3442 113d 9308 f0bc
00000070: d2bf 673d 819b d8bc a09a 46bc fadb 793d
00000080: c06e e3bc c363 fbba 9415 94bd a38f 8b3d
00000090: da9c 4c3d 9778 2b3d 4e81 6c3d 5d08 57bd
000000a0: d2e1 f2bd 7986 a13d 3873 2ebd f784 963d
000000b0: 61b4 c73a 16f9 a8bd f799 81bc 1be2 76bd
000000c0: 55bd 05bd 7424 a1bd 0386 f13c 5e41 dd3c
000000d0: 4f94 0d3d db60 8e3d 829c 283d 371d 00bd
000000e0: 6049 693d 1c01 a0bc 87fe 8c3d 14aa 0e3d
000000f0: 4ddc b2bd 52f4 8c3a 2284 6bbd 611c 353d
00000100: 433e 943d c288 cfbd f7d0 f4bb 6f7a 42bd
00000110: e8fd d63c 7821 83bc 803f b83a 2f91 813d
00000120: 9888 f33c 9aae 82bd 308a d83b d7e7 99bc
00000130: 60ec b2bd 9db1 86bd 40ae b73c f8d4 f1bc
00000140: 5de8 fabc e6aa 1dbd e439 993c f077 e13c
00000150: 6123 8b3d 80a5 063a e189 5cbd c119 22bc
00000160: c0b7 fcbd 15db 15bd 61e5 aebc 3e63 1c3c
00000170: 52e6 86bd 1df9 95bd 493c 04bd 807d b2bd
00000180: c853 07bc 3f5e f3bb 489f cebc 40d6 b53c
00000190: b2eb eabd 92e4 b0bc 6080 c6bd e5f1 893d
000001a0: 9ea9 523d ce10 253d db49 a5bd a804 bb3c
000001b0: c4c3 af3c f2d0 193d 1e07 22bd c280 f4bc
000001c0: 527c 1a3d 6ab7 0cbd fbc0 8dbd d2a0 7d3d
000001d0: 045f ffbd c415 043d 1487 f1bd 4213 adbd
000001e0: 2ed6 71bd ed35 873c d3f6 a23d b0be 6bbd
000001f0: c1dd 73bc d720 073d e02f a5bd 70d8 c43d
00000200: 9a72 b53b c6ce d3b9 df5c e1bd d1ba ac3d
00000210: e079 af3b b2c2 e9bd 7714 23be 5fc2 2dbe
00000220: d9b8 043d b146 f93b 970f 013d 85bd 10bb
00000230: 64e7 13bd df16 b7bd 7ef8 033d 718b 58bd
00000240: a44b 3bbd 6502 04be 5078 bd3d c5ff bcbd
00000250: 3c30 26be 7f65 a73d 641c ca3c 4e98 46bd
00000260: d08f f73c 77ef dabb c915 9ebc 8251 0abd
00000270: 1050 cc3b 7b86 f2bc ff05 08be 9ad5 783d
00000280: 5099 983c 4b83 12be 393e 07bd ed4d 37bd
00000290: a5b5 1cbd ecd8 c4bd f020 acbd e006 003b
000002a0: 8705 11bd df77 d9bd a269 ccbd 0cc1 62bd
000002b0: cb4a d6bd 02d0 213e ea36 0dbd a383 cdbd
000002c0: b510 81bd 7ad0 aabd 28da b3bd aee1 2cbd
000002d0: 2006 a23b 816a 27bd a959 4fbc 50d8 493c
000002e0: 39a2 8c3d a809 5e3c 477b f93a 0fcd 9a3d
000002f0: c39e 40bd b7d5 5ebc 84d0 fc3c 4d2f e6bd
00000300: 02f2 9cbc 933d 92bc 63df 2dbe 7886 923d
00000310: 7c32 d93c da33 623d 9243 5bbd 0cf1 c8bd
00000320: 9a63 883d 58b7 a73d b9ab b4bd 26ff b3bd
00000330: 3172 ac3c decb cbbd 6796 5dbc 64bb 2bbd
00000340: d20a 0fbe 910e 8e3c 0de0 6e3c dec9 c03d
00000350: 4bc9 cc3c 10ec 733c 6f65 903d 37d0 c1bb
00000360: 548a 63bd 0d22 e9bd 37b4 dbbd cb1e df3d
00000370: 17e2 9abd 23da 5ebd 3af7 6dbd 499d aa3d
00000380: 71bc 48bd 04b4 bdbb f164 98bd 4a0c f43b
00000390: 8d92 253d 72e5 293d 162b 243d b88f a4bd
000003a0: 02b9 563c 4eff 9ebd 193e 67bc 003f 4e3a
000003b0: ceff bc3d 17d3 9dbb c1f4 34bd a133 193d
000003c0: 3a52 353d c1af 10be 938b 44bd 56b1 2dbd
000003d0: cf00 e93d c7a6 503c e5ea 26bd 4e30 273d
000003e0: 4c48 a8bd d4dc c33d 2ef9 2fbd 8136 b9bd
000003f0: 2890 42bd f572 ddbd 00a6 39ba 2900 ae3d

fc2_1.bias f4 [64]
-0.08233818 0.00036356007 -0.08417149 0.026821697 -0.07075278 -0.018174108 -0.03400492 -0.019459829
0.05690176 -0.082779974 -0.06606466 -0.13021804 -0.034524538 -0.0045721987 -0.005548459 -0.031824637
-0.028547097 -0.029189438 -0.06376951 -0.1026086 -0.032293 0.038028345 -0.009640399 0.030374525
-0.08467754 -0.035632413 -0.11377779 -0.037917823 -0.011927399 -0.07660204 -0.12993158 -0.11075538
-0.018099107 -0.07654486 -0.0710813 -0.06750563 -0.08283889 0.062204365 0.011068798 0.0041673332
-0.08719277 0.039084624 0.08267232 -0.085199736 0.01451032 0.05086924 -0.040979948 -0.09931168
-0.07179299 -0.012083147 -0.085961595 0.053427182 0.06638021 -0.07576582 -0.07392643 -0.07227185
-0.050725408 0.041743893 -0.084137216 -0.04422629 -0.14280121 -0.120184205 -0.012287801 0.015856791
00000000: eba0 a8bd 359c be39 1a62 acbd 2db9 db3c
00000010: d5e6 90bd dee1 94bc be48 0bbd 386a 9fbc
00000020: d211 693d 8c88 a9bd e94c 87bd e157 05be
00000030: 9a69 0dbd 62d2 95bb d9cf b5bb 8d5a 02bd
00000040: 9adb e9bc b01e efbc 9799 82bd 7524 d2bd
00000050: aa45 04bd 9cc3 1b3d c4f2 1dbc ffd3 f83c
00000060: 6b6b adbd 4bf3 11bd 5404 e9bd b84f 1bbd
00000070: 236b 43bc 88e1 9cbd c90c 05be b7d3 e2bd
00000080: 9444 94bc 8dc3 9cbd 1393 91bd 6440 8abd
00000090: 70a7 a9bd 01ca 7e3d e759 353c 208e 883b
000000a0: 1f92 b2bd 3317 203d 1b50 a93d 337d aebd
000000b0: b1bc 6d3c 445c 503d 97da 27bd ec63 cbbd
000000c0: 3408 93bd 64f8 45bc a20c b0bd 76d6 5a3d
000000d0: 59f2 873d 1c2b 9bbd bd66 97bd 4403 94bd
000000e0: 72c5 4fbd a5fb 2a3d 2250 acbd a026 35bd
000000f0: 7b3a 12be 2323 f6bd c652 49bc 1ae6 813c

fc3.weight f4 [18, 64]
-0.14252113 -0.078785256 -0.09195407 0.10754059 0.0036107986 -0.10248358 0.053967472 0.05179293
-0.02975501 0.04890667 0.05677974 -0.030971823 0.07469919 0.09378798 -0.1508362 -0.102349274
-0.17049332 -0.020355735 0.012243597 0.033925906 -0.041885998 0.08989203 -0.03901746 0.06686529
0.054908875 0.11346855 -0.019490084 0.16812849 0.019196752 0.069073096 0.015801124 -0.07237947
-0.10125309 -0.17775907 -0.10664905 -0.078816265 -0.009045854 0.005745759 -0.039587162 0.06932981
0.10478142 -0.1480209 -0.08309318 -0.016508514 0.0484089 -0.03965549 0.013049111 -0.13797599
-0.098824434 -0.099445 0.14180408 0.10630725 -0.13674304 0.124648094 -0.003930256 -0.005577767
-0.026671916 0.026195949 -0.026809543 -0.09210479 0.003919521 -0.044297233 -0.15785536 -0.099166095
0.16420151 0.023868587 0.07175107 -0.12373829 -0.087922476 -0.13212961 -0.04426187 -0.024985354
-0.12459593 0.05933225 0.11704437 -0.14520365 -0.008598298 -0.13754602 -0.005849265 -0.051409952
-0.024747163 0.00017291469 0.039206933 -0.015973663 -0.0467504 -0.18119942 -0.029062828 0.03643238
0.002444272 -0.0044008116 0.023655139 0.029899195 0.0045037405 0.12231988 0.01710324 -0.02697918
-0.015350059 0.004758938 -0.0050772177 -0.02474694 0.11643322 -0.054527987 -0.05498535 0.026766345
0.003080979 -0.0067353006 -0.062974215 0.073586054 0.090075865 0.020430803 -0.080390185 0.061564904
-0.0625789 -0.032501794 0.114881136 0.07937137 -0.06343634 -0.099222004 -0.07746868 0.06659746
-0.11954634 0.11027459 -0.098634675 0.08076696 0.042720705 0.0076671173 -0.022979818 -0.01708214
0.04342986 0.0398956 0.013547748 0.09145983 0.0089340815 -0.020595785 -0.02080882 -0.0022868165
0.008146476 0.024733618 0.034673158 0.17479719 0.018132329 0.06252762 -0.042407453 0.16167106
0.15201098 -0.05122496 -0.0186846 -0.03588343 -0.0151068205 0.088774435 0.014893951 -0.0032805235
-0.085397206 0.06018885 0.060233105 0.104478784 -0.02402254 0.042334095 0.16815741 -0.09801246
-0.086168885 0.11897911 0.024724718 0.12096013 0.065703794 -0.06304942 -0.012183017 -0.042919666
-0.10479465 0.07424722 0.093369275 -0.0144342845 -0.0067845187 0.0051094075 0.10328138 0.07602763
-0.01752214 -0.055605717 0.090194285 0.0035575482 0.035305317 0.08041699 0.12200463 0.031747617
-0.07341756 0.040754598 0.09768881 0.03411488 -0.16835842 0.046922136 0.06364422 -0.010868672
0.035681225 0.118115716 -0.019776344 0.15879013 -0.055657562 0.1285601 -0.035623085 -0.06026304
0.12348148 -0.053624406 -0.13407479 -0.0049215592 0.025569648 0.14995916 0.0034676415 0.0023180638
0.09628255 -0.016564254 0.03937851 0.025244886 0.01445865 0.18047619 0.087440886 0.1332936
-0.10169831 0.057255384 0.18270311 0.051499724 0.076149136 0.08748555 -0.025315871 0.02280215
0.12495254 0.1145385 -0.04221448 -0.08565478 0.041722417 0.089612454 -0.02905832 -0.010632709
0.091646284 0.02011424 0.030948535 -0.096236266 -0.053880475 0.14367431 -0.051092252 0.04853382
-0.077010594 -0.09270438 -0.14179753 -0.04341873 -0.059473556 0.06398022 0.10790174 0.14725497
0.08255947 0.09090102 -0.07293694 0.042348564 0.030465009 0.052807584 0.09033182 0.09838387
00000000: 0ff1 11be 2a5a a1bd 6a52 bcbd 3e3e dc3d
00000010: 26a3 6c3b e9e2 d1bd ff0c 5d3d d324 543d
00000020: c7c0 f3bc 5c52 483d df91 683d 9fb8 fdbc
00000030: e4fb 983d ea13 c03d ce74 1abe 7f9c d1bd
00000040: cd95 2ebe 12c1 a6bc 5e99 483c e4f5 0a3d
00000050: a790 2bbd 5019 b83d c6d0 1fbd abf0 883d
00000060: 21e8 603d 3362 e83d aba9 9fbc e029 2c3e
00000070: 8242 9d3c 3276 8d3d 5c71 813c b03b 94bd
00000080: c85d cfbd 7906 36be d16a dabd 6c6a a1bd
00000090: 1035 14bc eb46 bc3b 2626 22bd cafc 8d3d
000000a0: a497 d63d ca92 17be c22c aabd dd3c 87bc
000000b0: 6948 463d cc6d 22bd f0cb 553c 9449 0dbe
000000c0: 7764 cabd d2a9 cbbd 1735 113e 9eb7 d93d
000000d0: 5e06 0cbe 8047 ff3d 60c9 80bb b3c5 b6bb
000000e0: 107f dabc e398 d63c b09f dbbc 70a1 bcbd
000000f0: 536f 803b 0471 35bd d6a4 21be 9817 cbbd
00000100: 7124 283e 0e88 c33c 3af2 923d 806a fdbd
00000110: b310 b4bd fc4c 07be ef4b 35bd 16ae ccbc
00000120: 272c ffbd 6006 733d f5b4 ef3d 44b0 14be
00000130: e0df 0cbc ddd8 0cbe 31ab bfbb 3e93 52bd
00000140: 90ba cabc 6f50 3539 7397 203d 33db 82bc
00000150: 597d 3fbd 578c 39be 2b15 eebc 1f3a 153d
00000160: 1430 203b af34 90bb 6cc8 c13c 28ef f43c
00000170: 1d94 933b d882 fa3d 181c 8c3c 7103 ddbc
00000180: d07e 7bbc def0 9b3b ca5e a6bb 18ba cabc
00000190: 8a74 ee3d bd58 5fbd 5238 61bd 1845 db3c
000001a0: 40ea 493b ccb3 dcbb a0f8 80bd 49b4 963d
000001b0: b279 b83d 805e a73c 9ca3 a4bd 7b2b 7c3d
000001c0: 5e29 80bd 9a20 05bd cd46 eb3d 758d a23d
000001d0: e9ea 81bd e834 cbbd e6a7 9ebd 4064 883d
000001e0: b6d4 f4bd a5d7 e13d fa00 cabd 2669 a53d
000001f0: e8fb 2e3d 713c fb3b 2c40 bcbc d8ef 8bbc
00000200: 82e3 313d 9269 233d 60f7 5d3c 4b4f bb3d
00000210: 4160 123c 7eb8 a8bc 4277 aabc 6ade 15bb
00000220: cc78 053c 289e ca3c 7105 0e3d 09fe 323e
00000230: 408a 943c 7b0e 803d 70b3 2dbd 198d 253e
00000240: c4a8 1b3e 43d1 51bd 7210 99bc 81fa 12bd
00000250: 9982 77bc 5fcf b53d c205 743c 0dfe 56bb
00000260: bbe4 aebd 9588 763d fdb6 763d f9f8 d53d
00000270: ebca c4bc 8466 2d3d 7531 2c3e c2ba c8bd
00000280: 5079 b0bd 52ab f33d 7e8b ca3c f2b9 f73d
00000290: b68f 863d 0e20 81bd 479b 47bc 88cc 2fbd
000002a0: 949e d6bd ed0e 983d 6438 bf3d c77d 6cbc
000002b0: ab50 debb d16c a73b 3085 d33d 60b4 9b3d
000002c0: 978a 8fbc d2c2 63bd c8b7 b83d c125 693b
000002d0: 4f9c 103d aab1 a43d 90dd f93d ca09 023d
000002e0: f25b 96bd 4bee 263d 1211 c83d 0bbc 0b3d
000002f0: 2666 2cbe 6d31 403d e757 823d 8412 32bc
00000300: 7a26 123d a7e6 f13d 0002 a2bc e199 223e
00000310: 2ff9 63bd 42a5 033e 83e9 11bd 61d6 76bd
00000320: dce3 fc3d 44a5 5bbd e74a 09be 0845 a1bb
00000330: 7077 d13c e58e 193e 5f41 633b a8ea 173b
00000340: c92f c53d c2b1 87bc 5c4b 213d 5dce ce3c
00000350: f9e3 6c3c c0ce 383e 3514 b33d 1e7e 083e
00000360: 3447 d0bd 9f84 6a3d 8616 3b3e 60f1 523d
00000370: 14f4 9b3d a02b b33d 3b63 cfbc 93cb ba3c
00000380: 1ee7 ff3d 2993 ea3d 17e9 2cbd c66b afbd
00000390: 20e5 2a3d bc86 b73d b70b eebc d034 2ebc
000003a0: 0cb1 bb3d 9ec6 a43c c887 fd3c 8517 c5bd
000003b0: c6b1 5cbd 5c1f 133e 1c46 51bd 66cb 463d
000003c0: bbb7 9dbd cbdb bdbd 5f33 11be d7d7 31bd
000003d0: 8b9a 73bd 1008 833d 96fb dc3d 02ca 163e
000003e0: f014 a93d 502a ba3d f65f 95bd b075 2d3d
000003f0: c191 f93c c44c 583d e4ff b83d 7c7d c93d

fc3.bias f4 [18]
0.016259614 0.026178762 -0.023147251 -0.03646758 -0.026524367 0.008496704 -0.027413549 -0.024516676
-0.011799064 -0.01232867 0.023182381 0.039023973 0.03741375 0.012956355 0.03508056 0.016740158
-0.045137074 0.021573894
00000000: e232 853c d874 d63c 4e9f bdbc 075f 15bd
00000010: a149 d9bc c235 0b3c 6192 e0bc 32d7 c8bc
00000020: dd50 41bc 31fe 49bc fae8 bd3c 9ad7 1f3d
00000030: 293f 193d e446 543c a2b0 0f3d a822 893c
00000040: a7e1 38bd bcbb b03c
