models/2024-07-20_16-34-18/epoch_0007_loss_0.00065339/dynamics.pth (torch, 83084 bytes, 8 tensors)

fc1.weight f4 [64, 34]
0	0x3e6b7295	0.22992928
1	0xbde1e604	-0.110302
2	0x3d1256f1	0.035727445
3	0xbe074ed0	-0.13213658
4	0x3d8be759	0.068312354
5	0x3c98ae4c	0.018637799
6	0xbe1e038b	-0.15431039
7	0x3ab4eed4	0.0013804086
8	0xbe25eea6	-0.16204318
9	0x3d342a1d	0.043985475
10	0x3e2cab75	0.1686228
11	0xbd6c61d0	-0.05771047
12	0xbdfd0e5f	-0.12356257
13	0xbe1c8e03	-0.15288548
14	0x3de8be94	0.11364475
15	0x3d8618ea	0.06547721
16	0xbdf6b933	-0.12047043
17	0xbdcab6da	-0.098981574
18	0x3da9a5e0	0.08283591
19	0xbdc08d22	-0.09401919
20	0x3da29491	0.07938493
21	0xbd498965	-0.049203295
22	0x3e03fdfb	0.12889855
23	0xbdcb68e7	-0.09932118
24	0x3e0c47f2	0.1369932
25	0x3c80a2c6	0.015702616
26	0x3e120be7	0.14262353
27	0x3e05f0ad	0.13080092
28	0x3db5b3ad	0.08872161
29	0xbe1097f0	-0.1412046
30	0xbd546bca	-0.05186061
31	0x3e2573fd	0.16157527
32	0x3c8aff46	0.016967427
33	0x3e0adc2b	0.1356055
34	0x3d6380b7	0.055542674
35	0xbd8a4ef3	-0.067533396
36	0xbcd2c1b7	-0.025727136
37	0xbdf45578	-0.11930364
38	0x3c0573dd	0.0081453
39	0xbd93f5b8	-0.072246015
40	0x3d060cc4	0.032727018
41	0xbd9cb927	-0.076525025
42	0xbdcf053c	-0.1010842
43	0xbcc559e0	-0.024090707
44	0x3dc0bbcf	0.09410822
45	0x3c8b3f6d	0.016998017
46	0x3d8b40b2	0.06799449
47	0xbdce7bac	-0.10082182
48	0xbda937fa	-0.0826263
49	0x3daee200	0.085392
50	0x3e5913c0	0.2119894
51	0xbe119691	-0.14217593
52	0x3e1a6999	0.15079345
53	0xbc193ea2	-0.009353312
54	0xbe15859e	-0.14601752
55	0x3da61a24	0.08110455
56	0xbd360d7f	-0.044446465
57	0xbd585ef8	-0.052824944
58	0x3d61b27a	0.05510185
59	0xbd66fb56	-0.056392036
60	0x3dd1901e	0.10232566
61	0xbe7643fd	-0.24049373
62	0xbe6ad3be	-0.22932336
63	0xbd2af13b	-0.04173396
64	0xbe5a8f22	-0.21343663
65	0xbcb347b7	-0.021884782
66	0x3d353746	0.044242166
67	0xbe08d241	-0.13361456
68	0xbd9cb4c1	-0.076516636
69	0x3da339c7	0.079700045
70	0x3e47381b	0.19454996
71	0xbc5282d3	-0.012848574
72	0xbda41167	-0.08011132
73	0x3e002fe7	0.12518273
74	0xbe18e162	-0.14929727
75	0xbcb7dc43	-0.022443896
76	0xbe5e4151	-0.21704604
77	0x3e0658cd	0.13119812
78	0xbd0a71d1	-0.03379995
79	0xbd6203fa	-0.055179574
80	0xbd1a6cfe	-0.0377016
81	0xbdc1d0cb	-0.09463652
82	0xbe4663bc	-0.19373983
83	0x3dd9d9f7	0.106372766
84	0x3bc4f3ba	0.0060105
85	0xbe41b976	-0.18918404
86	0xbb48e9ed	-0.0030657009
87	0x3b3bd0c9	0.0028658381
88	0x3daade7e	0.08343218
89	0xbdf2e607	-0.118602805
90	0x3c90a5af	0.01765713
91	0x3d35e831	0.044410888
92	0x3e07637a	0.13221541
93	0x3dbc974e	0.092085466
94	0xbc15c976	-0.00914227
95	0xbda89304	-0.08231166
96	0xbe564588	-0.20924962
97	0xbd45910e	-0.048234038
98	0xbc9c4e94	-0.019080438
99	0xbe6892ff	-0.22712325
100	0xbe6426af	-0.22280382
101	0xbd10cc74	-0.03535123
102	0x3dc8400a	0.097778395
103	0xbb378ac0	-0.0028006285
104	0x3da741ea	0.08166869
105	0x3ddde8d2	0.108354226
106	0xbd93f413	-0.07224288
107	0x3e21fe8f	0.15819763
108	0x3e1bf8f9	0.15231694
109	0x3e1aeac9	0.15128626
110	0xbb7d3280	-0.0038634837
111	0xbd86e6b9	-0.065869756
112	0xbdc320dd	-0.095277525
113	0x3df1c6ee	0.11805521
114	0x3cd54ae8	0.026036695
115	0xbc2b2a60	-0.010447115
116	0xbc942df0	-0.018088311
117	0x3d0e5258	0.034746498
118	0x3d044400	0.032291412
119	0x3c13b4b0	0.009015247
120	0x3dec72fa	0.115453675
121	0xbdb0763a	-0.086163
122	0xbdbba109	-0.091615744
123	0xbdf51d48	-0.119684756
124	0x3e220945	0.15823849
125	0x3ddf40da	0.10901041
126	0x3e23ac49	0.1598369
127	0x3d0640f4	0.032776788
128	0x3d90b24c	0.070652574
129	0x3e2907b7	0.16506849
130	0xbdec6de1	-0.11544395
131	0xbc58cf60	-0.013233036
132	0x3c664370	0.014054164
133	0xbd00e4cc	-0.031468198
134	0xbbbfe340	-0.0058559477
135	0x3d9056cc	0.07047805
136	0x3e12ab53	0.14323168
137	0x3e04cdc7	0.12969123
138	0xbd8e386e	-0.06944357
139	0xbdce88fb	-0.10084721
140	0xbd9e0649	-0.077160425
141	0x3e2e1917	0.17001759
142	0xbd0ce2fc	-0.034396157
143	0x3e2835f9	0.16426839
144	0x3e0d51d1	0.13800742
145	0x3de863c6	0.11347155
146	0xbd8dacae	-0.06917702
147	0x3e03141b	0.12800638
148	0xbcc43b40	-0.023954034
149	0x3d3c4cb0	0.045971572
150	0x3e0a4411	0.13502528
151	0xbcccb398	-0.02498798
152	0xbd171b28	-0.036891133
153	0xbcad7798	-0.02117519
154	0xbd3372a0	-0.043810487
155	0xbdb1c517	-0.0868017
156	0xbe0af78a	-0.13570991
157	0xbe28fa92	-0.16501835
158	0xbe015f18	-0.12633932
159	0xbda6ee38	-0.08150905
160	0x3d8208cc	0.06349334
161	0x3cffaee8	0.031211331
162	0xbdcca3a4	-0.099921495
163	0x3e1438c7	0.14474784
164	0xbdb64dee	-0.08901583
165	0xbda52c6f	-0.08065116
166	0xbdae8f34	-0.085234076
167	0x3cf52db0	0.029929012
168	0x3d936018	0.07196063
169	0x3de7858a	0.113047674
170	0xbe26cf48	-0.16290009
171	0xbdcdbc54	-0.10045686
172	0x3dcc7e52	0.09985031
173	0x3dda6172	0.106631175
174	0x3d2889b4	0.04114695
175	0xbe078248	-0.13233292
176	0xbdf3d540	-0.119059086
177	0xbd129c04	-0.03579332
178	0xbdf182c6	-0.11792521
179	0x3d9fbcdc	0.07799694
180	0x3e05927d	0.13044162
181	0x3ca03700	0.019557476
182	0x3b0f3280	0.0021850169
183	0xbd726d38	-0.05918619
184	0x3dd01b0a	0.10161407
185	0x3dbfd93e	0.093676075
186	0xbdea9830	-0.11454809
187	0x3e16b11d	0.14716001
188	0x3e128719	0.14309348
189	0x3cdc5b40	0.02689898
190	0xbe00bd0b	-0.12572114
191	0xbe212b4e	-0.15739176
192	0x3d57c528	0.052678257
193	0x3d3f93ec	0.04677193
194	0xbd1dcc64	-0.038525
195	0x3cd86f00	0.026420116
196	0xbc909560	-0.017649353
197	0xbdfd03a9	-0.12354214
198	0x3d5cac2c	0.053875133
199	0xbd6222a2	-0.05520881
200	0x3ddcacd6	0.10775153
201	0x3c8b6c98	0.017019555
202	0x3dae4b36	0.08510439
203	0xbdb60756	-0.08888118
204	0x3e81b3ee	0.25332588
205	0xbba2bcfe	-0.0049663773
206	0x3e32a21c	0.17444652
207	0x3dd93f89	0.106078215
208	0xbd500421	-0.050785188
209	0xbd9ae944	-0.07564023
210	0xbdbc6176	-0.09198277
211	0x3d4529f3	0.04813571
212	0xbc6606d6	-0.014039716
213	0xbd87ed6c	-0.066370815
214	0xbdefa10e	-0.117006406
215	0x3dde59be	0.10856961
216	0x3e25019a	0.16113892
217	0xbd9f1229	-0.07767136
218	0x3d14cdc0	0.03632903
219	0x3e190179	0.14941968
220	0xbd70dd3e	-0.058804743
221	0x3d700347	0.058596876
222	0x3dae2c76	0.08504574
223	0xbd166594	-0.036717966
224	0x3cf5d346	0.03000797
225	0x3e1c9420	0.1529088
226	0x3de96d04	0.11397746
227	0x3db4df13	0.088316105
228	0x3e30ebb1	0.17277409
229	0x3df27d50	0.11840308
230	0xbe426347	-0.18983184
231	0x3dc6bfde	0.097045645
232	0xbdb765d4	-0.08954969
233	0xbe31477b	-0.17312424
234	0xbda0a210	-0.07843411
235	0xbdf16993	-0.11787715
236	0xbe21c141	-0.15796377
237	0xbe0189f2	-0.12650278
238	0xbe0f8b97	-0.14018093
239	0xbdff38f6	-0.12462036
240	0xbd5c544c	-0.05379133
241	0x3cd6ce38	0.02622138
242	0xbd48302c	-0.048874065
243	0xbe25e105	-0.1619912
244	0xbd801967	-0.06254845
245	0x3e0d5a5f	0.13804005
246	0xbe260a59	-0.16214885
247	0xbd862606	-0.06550221
248	0xbdea09d8	-0.11427659
249	0xbdaf39ca	-0.08555944
250	0x3d2deed0	0.042464077
251	0xbc87bb80	-0.0165689
252	0x3e0d4f39	0.13799752
253	0xbd6c96b8	-0.057760924
254	0xbd695dd0	-0.056974232
255	0x3d843714	0.06455818

fc1.bias f4 [64]
0	0xbd2841d0	-0.04107839
1	0xbd5e7a1c	-0.05431567
2	0x3d2d1597	0.042256918
3	0xbb12c580	-0.0022395551
4	0x3d40fa4c	0.0471137
5	0xbd4542fa	-0.048159577
6	0xbe189695	-0.14901192
7	0xbbec99ee	-0.0072204983
8	0xbe1a263a	-0.15053645
9	0xbd8e2e54	-0.0694243
10	0xbdd8093d	-0.10548637
11	0xbd1be36e	-0.03805869
12	0xbc64bd1d	-0.013961104
13	0xbd9a023a	-0.07519956
14	0xbd2f214e	-0.04275637
15	0xbe0ce731	-0.13760068
16	0xba302592	-0.00067194656
17	0xbc249f9d	-0.01004782
18	0x3e7501f0	0.2392652
19	0xbd310dc9	-0.043226037
20	0xbc898187	-0.016785396
21	0xbe2616fb	-0.16219704
22	0xbde88cc6	-0.113549754
23	0xbc281800	-0.010259628
24	0xbd9eebbd	-0.07759807
25	0xbc90cd0d	-0.0176759
26	0xbde209be	-0.110370144
27	0xbdb69551	-0.089151986
28	0xbd606a96	-0.05478915
29	0x3ccd515e	0.025063213
30	0xbd700608	-0.0585995
31	0x3d60133a	0.054705836
32	0xbe1509ff	-0.14554594
33	0xbd0624eb	-0.03275005
34	0xbd070a50	-0.03296882
35	0xbe081a5a	-0.13291302
36	0x3c86c74b	0.016452452
37	0x3e451ab5	0.19248469
38	0x3e0871d8	0.13324678
39	0xbc525ffd	-0.012840268
40	0xbc82592f	-0.015911667
41	0x3d1e203a	0.038604952
42	0xbe49f746	-0.19723234
43	0xbce750f7	-0.02823685
44	0xbd8be07f	-0.068299286
45	0xbd6700ac	-0.056397125
46	0xbc483820	-0.0122204125
47	0x3c3088e4	0.010774825
48	0x3e012180	0.12610435
49	0xbcbb52d0	-0.022866637
50	0xbbbbaeb1	-0.005727612
51	0xbe0cec5e	-0.13762042
52	0xbc9264ce	-0.017870333
53	0xbda816a2	-0.08207442
54	0xbe051a65	-0.1299835
55	0x3e121fc1	0.14269926
56	0xbce8c427	-0.028413845
57	0xbe66c999	-0.22537841
58	0xbc3c2e73	-0.011485684
59	0xbd2de91b	-0.042458635
60	0xbd2baf60	-0.041915298
61	0xbd0a97ca	-0.033836164
62	0xbdde8cfa	-0.10866733
63	0xbe274228	-0.1633383

fc2.weight f4 [128, 64]
0	0xbe0f6ae5	-0.14005621
1	0xbb00a872	-0.0019631651
2	0xbe2facdb	-0.17155783
3	0x3c732d50	0.014842346
4	0xbe64db1a	-0.22349206
5	0x3d0d3780	0.034476757
6	0xbd43e526	-0.047825955
7	0xbd72d87b	-0.059288483
8	0xbd8a1654	-0.0674254
9	0xbe716e04	-0.23577124
10	0x3d6e641c	0.05820094
11	0xbd5a89c7	-0.05335405
12	0x3c4988b5	0.01230066
13	0xbde0cc32	-0.10976447
14	0xbd8cdfe8	-0.06878644
15	0x3d012a0f	0.03153425
16	0xbdeb8dfe	-0.11501692
17	0xbe338452	-0.17530945
18	0xbd5a389d	-0.053276647
19	0x3cc0440b	0.023469945
20	0xbd3d8c3c	-0.046276316
21	0xbd88ae4c	-0.066738695
22	0x3db5dea4	0.08880356
23	0x3df69d52	0.12041725
24	0x3d0c4890	0.03424889
25	0xbd99128c	-0.07474241
26	0xbcbcb540	-0.023035645
27	0x3d7ab718	0.061209768
28	0xb912848a	-0.0001397302
29	0xbcf51bb9	-0.029920446
30	0xbde993c9	-0.11405141
31	0xbd62cc68	-0.05537072
32	0xbdb47244	-0.08810857
33	0xbd177f1d	-0.03698646
34	0xbdaff3de	-0.08591436
35	0xbd991a2f	-0.07475697
36	0xbd76359f	-0.06010973
37	0xbe69d313	-0.22834425
38	0xbd286b54	-0.04111798
39	0xbd8ee938	-0.06978077
40	0xbd21074d	-0.039313603
41	0xbe5bac9a	-0.21452561
42	0x3d820a5e	0.06349634
43	0xbe0e6a43	-0.13907723
44	0x3b3cc900	0.0028806329
45	0xbd3b2785	-0.045691986
46	0xbdb5fc0a	-0.08885963
47	0xbe54496b	-0.20731132
48	0xbc987242	-0.01860917
49	0xbda5f840	-0.081039906
50	0x3cec3f34	0.028838731
51	0xbdcd65e0	-0.10029197
52	0xbcabdd6d	-0.020979607
53	0x3df09f66	0.11749153
54	0xbd93998b	-0.0720702
55	0xbca61c91	-0.020277293
56	0xbcdd53ba	-0.027017463
57	0x3cf24c9a	0.029577542
58	0xbd8bd17f	-0.068270676
59	0xbd10b692	-0.035330363
60	0x3d1985c3	0.03748108
61	0xbe3cb6ab	-0.18429057
62	0x3d3ef4d8	0.04662022
63	0xbd7a9968	-0.061181456
64	0xbd27190a	-0.040795363
65	0x3db958ce	0.09050141
66	0xbe248da8	-0.16069663
67	0x3c6ccf20	0.014453679
68	0xbd57f98b	-0.052728217
69	0xbd898adc	-0.067159384
70	0xbd8960a4	-0.06707886
71	0xbdb916e9	-0.09037573
72	0xbdb55646	-0.08854346
73	0x3cd25528	0.025675371
74	0x3d51fc54	0.05126603
75	0x3c47e53a	0.012200648
76	0xbd61d0c2	-0.055130728
77	0xbcf5ccf0	-0.030004948
78	0xbda0534e	-0.07828389
79	0xbd1b49f4	-0.037912324
80	0xbd88bca3	-0.066766046
81	0xbe30ef3e	-0.17278764
82	0xbba95b9f	-0.005168393
83	0xbe2181ec	-0.15772218
84	0xbd1a819b	-0.037721258
85	0xbcac3348	-0.021020547
86	0x3d77f240	0.060533762
87	0x3d2cc080	0.04217577
88	0xbdd8064a	-0.105480745
89	0xbdae97a6	-0.085250184
90	0x3dd4db5c	0.10393402
91	0x3d18e618	0.03732881
92	0xbaf4ac0d	-0.0018666998
93	0xbca54877	-0.020176155
94	0xbdaca7c8	-0.08430439
95	0xbbadaf3f	-0.005300432
96	0xbd0bc284	-0.03412105
97	0xba1baac2	-0.00059382257
98	0xbac8a780	-0.0015308708
99	0xbd367fb0	-0.044555366
100	0xbdff357d	-0.12461374
101	0x3c364f60	0.011127323
102	0xbd65cc5d	-0.0561031
103	0xbaed9120	-0.0018124916
104	0x3c1cb2e9	0.00956414
105	0xbcbf17d3	-0.02332679
106	0x3db2351c	0.08701536
107	0x3aa9cc4c	0.0012954562
108	0x3bcdc100	0.006279111
109	0xbd7a6860	-0.061134696
110	0xbdc82966	-0.09773521
111	0xbd9e7ebb	-0.07739016
112	0xbe2a0ee7	-0.16607247
113	0x3c72e400	0.014824867
114	0xbdb30927	-0.0874198
115	0xbd9aaa72	-0.07552041
116	0xbd6f49db	-0.058420043
117	0x3d1214c8	0.03566435
118	0x3d86ac7e	0.06575869
119	0x3d0d8a9d	0.03455602
120	0xbdf67a46	-0.120350406
121	0xbdc4bf82	-0.0960684
122	0x3d583ea8	0.05279413
123	0xbd047898	-0.03234157
124	0xbc905c98	-0.017622277
125	0xbdf3ed3c	-0.11910483
126	0xbc0afcf0	-0.008483157
127	0xbd04f674	-0.0324616
128	0xbdf8ac12	-0.12142195
129	0xbd01c374	-0.03168054
130	0x3d2df155	0.04246648
131	0x3df36ec6	0.11886363
132	0xbe275812	-0.1634219
133	0x3cb63200	0.022240639
134	0x3d802e69	0.06258852
135	0xbdaeb9f8	-0.085315645
136	0xbd21b984	-0.039483562
137	0xbcec0ad4	-0.028813757
138	0xbc932048	-0.017959729
139	0x3cc21a6b	0.023694238
140	0xbb888965	-0.0041667693
141	0x3d2de647	0.042455938
142	0xbc614345	-0.013748948
143	0x3d18e340	0.037326097
144	0xbdd3e4bc	-0.10346362
145	0x3d62a940	0.05533719
146	0xbe1b52db	-0.15168326
147	0xbc0d6b96	-0.0086316075
148	0x3cce89c8	0.025212184
149	0x3d265dac	0.040616676
150	0x3da89eb8	0.08233398
151	0xbdb229ce	-0.0869938
152	0xbd832244	-0.0640302
153	0xbcc1ee07	-0.02367307
154	0xbd99c14e	-0.07507573
155	0x3d85bb56	0.06529872
156	0xbb98d461	-0.0046639894
157	0xbe2d23d0	-0.16908193
158	0xbdeda907	-0.11604505
159	0xbd6ed95f	-0.05831277
160	0x3d9a7dbc	0.07543513
161	0xbd065e09	-0.032804523
162	0xbd060f68	-0.032729536
163	0xbdbe3ff4	-0.09289542
164	0xbe102153	-0.14075212
165	0x3b21352c	0.0024598343
166	0xbe14d757	-0.1453527
167	0xbd1be4fe	-0.03806018
168	0xbe2d2b95	-0.16911156
169	0xbe2e60cd	-0.17029114
170	0xbd9ddf25	-0.07708577
171	0xbe1a6c4a	-0.15080371
172	0x3dbf38fc	0.09337041
173	0x3d4cb1fe	0.049974434
174	0xbd88a5b8	-0.06672233
175	0xbae7098e	-0.0017626749
176	0xbdb5ea5d	-0.08882592
177	0x3da925a2	0.08259131
178	0xbae17f65	-0.0017204104
179	0x3db21932	0.08696212
180	0xbdbb9d50	-0.09160864
181	0x3ba1f9c0	0.0049431026
182	0xbbf8d649	-0.007593904
183	0x3d480d37	0.048840728
184	0xbd867a89	-0.065663405
185	0xbd48c347	-0.049014356
186	0xbdab462f	-0.08362996
187	0xbe2e5cc5	-0.17027576
188	0xbb815605	-0.003947022
189	0x3d59b999	0.053155515
190	0x3df21218	0.11819857
191	0xbd329c78	-0.04360625
192	0x3d306839	0.043068144
193	0x3d1385aa	0.036016144
194	0xbbf604f0	-0.007507913
195	0xbde921e8	-0.1138342
196	0xbcc23310	-0.02370599
197	0x3d591440	0.052997828
198	0xbdf83f37	-0.12121432
199	0x3ce6a120	0.028153002
200	0xbd392dd4	-0.04520972
201	0x3d29d0fc	0.04145907
202	0x3d94937a	0.072546914
203	0xbc740272	-0.014893161
204	0x3cc29a67	0.023755265
205	0xbe1ff88d	-0.15622158
206	0xbe3720b2	-0.17883566
207	0xbdd40705	-0.10352901
208	0xbaf11c27	-0.0018395231
209	0xbd4eb390	-0.050464213
210	0xb96d7000	-0.00022643805
211	0xbcd5738d	-0.026056075
212	0xbe09cdb6	-0.13457379
213	0x3dc992a2	0.09842421
214	0xbdb53420	-0.08847833
215	0x3cd8a5b8	0.026446208
216	0xbd08c243	-0.033388387
217	0xbdbb3546	-0.091410205
218	0xbc617df0	-0.013762936
219	0xbdd9cf6e	-0.10635267
220	0x3d40f8ce	0.04711228
221	0x3bf56792	0.007489153
222	0xbe184c70	-0.14872909
223	0xbe1b8e8b	-0.15191095
224	0x3d407fe0	0.04699695
225	0xbd2162e1	-0.03940094
226	0xbcf802b0	-0.030274719
227	0xbdcd505e	-0.100250944
228	0xbcc80488	-0.024416223
229	0xbd1f1308	-0.03883651
230	0xbd9e811b	-0.07739469
231	0x3c214760	0.009843677
232	0xbd5320f4	-0.0515451
233	0xbca440a0	-0.020050347
234	0xbd08e77e	-0.033423893
235	0xbd9f239c	-0.07770464
236	0x3ced2be0	0.028951585
237	0xbcfa7f17	-0.03057818
238	0x3d8deb62	0.06929661
239	0x3d67aef8	0.056563348
240	0xbd148d78	-0.036267728
241	0xbd7f51d8	-0.06233391
242	0xbb7d8cdc	-0.0038688695
243	0x3db1ebd4	0.08687559
244	0xbe172a7f	-0.14762305
245	0x3c6ce1e0	0.01445815
246	0x3d0774d2	0.033070393
247	0x3d491c81	0.04909945
248	0xbdd74c47	-0.105125956
249	0x3dd55f8c	0.10418615
250	0xbe088ac3	-0.13334183
251	0xbc0b520a	-0.008503446
252	0xbe31e494	-0.17372352
253	0x3c871478	0.016489252
254	0x3df16de2	0.117885366
255	0xbd139388	-0.03602937

fc2.bias f4 [128]
0	0xbcaf756d	-0.021418298
1	0xbd5f0cc3	-0.05445553
2	0xbcf17a8c	-0.02947738
3	0xbd7f161f	-0.062276956
4	0xbd3be120	-0.045868993
5	0x3c55a989	0.013040909
6	0xbdc1c5c8	-0.09461552
7	0x3d8ba482	0.06818487
8	0xbc1c14ce	-0.009526445
9	0x3b002ba3	0.001955726
10	0x3ceadf27	0.02867086
11	0xbd1aff0d	-0.03784089
12	0xbdabb87e	-0.083847985
13	0xbc6d3be0	-0.014479607
14	0xbe0c7078	-0.13714778
15	0x3d29596f	0.041345056
16	0xbde29188	-0.11062914
17	0xbdf271a9	-0.11838085
18	0xbdf2e6ca	-0.11860426
19	0x3ca97d98	0.02068977
20	0xbdf74076	-0.12072842
21	0xbddf437f	-0.10901546
22	0xbde6fa76	-0.112782404
23	0x3c69ebb4	0.014277387
24	0x3b5aeb6b	0.003340448
25	0xbde0ffb3	-0.10986271
26	0x3d57149b	0.052509885
27	0xbe4d33f6	-0.20039353
28	0xbe03b23d	-0.12860961
29	0x3df444e4	0.11927202
30	0xbdac9d55	-0.08428446
31	0x3ccde7f8	0.025135025
32	0xbd17309d	-0.036911596
33	0x3db9ecbb	0.09078356
34	0x3cb5bc5c	0.022184543
35	0xbd9cc5d5	-0.07654921
36	0xbe1ec1a1	-0.15503551
37	0x3dd72291	0.1050464
38	0x3d548223	0.05188192
39	0xbe42064e	-0.18947718
40	0x3d1480de	0.03625571
41	0xbe13f7f2	-0.14450052
42	0xbd59ad66	-0.05314388
43	0xbd97f17d	-0.07419107
44	0xbdb25a35	-0.08708612
45	0xbcbd6acb	-0.023122212
46	0x3cca8da0	0.024725735
47	0xbdabb45e	-0.08384012
48	0x3d1982dc	0.037478313
49	0xbda3a3b0	-0.07990205
50	0xbd641281	-0.05568171
51	0xbdec8178	-0.11548132
52	0xbcc68635	-0.024233917
53	0xbd1653d8	-0.036701053
54	0xbd916386	-0.07099061
55	0xbdbb63d2	-0.091498986
56	0x3d3d6f65	0.046248812
57	0xbe12e2f4	-0.14344388
58	0xbd00fe9f	-0.031492826
59	0xbdebcdfc	-0.11513898
60	0xbdf3f3d2	-0.119117394
61	0xbdc10ada	-0.09425898
62	0xbd5998ab	-0.05312411
63	0xbd143162	-0.036179908
64	0xbe2d489f	-0.16922234
65	0xbe441e70	-0.19152236
66	0xbd8fca50	-0.0702101
67	0xbc273eb8	-0.010207824
68	0x3d741ee8	0.059599787
69	0xbdb35de5	-0.08758143
70	0xbdc79ed6	-0.097470924
71	0xbd13dab7	-0.036097255
72	0x3caa9eb7	0.020827634
73	0x3da48e1b	0.08034917
74	0xbdca58e8	-0.09880239
75	0x3c75c84e	0.01500137
76	0xbde288a4	-0.110612184
77	0x3db8a419	0.09015674
78	0xbbc2e4f9	-0.005947706
79	0xbda74db1	-0.08169115
80	0xbd2455c2	-0.040120848
81	0xbd670c66	-0.05640831
82	0xbd93407b	-0.07190033
83	0x3d8a82ce	0.0676323
84	0xbd940e1c	-0.07229254
85	0xbde98d54	-0.11403909
86	0xbddd4998	-0.108050525
87	0x3d829405	0.06375889
88	0xbd56691a	-0.052346326
89	0xbdb5a0ee	-0.088685855
90	0xbdf79e40	-0.12090731
91	0xbdf62c0a	-0.120201185
92	0x3c57ee7b	0.013179417
93	0xbce5f288	-0.02806975
94	0xbd921ce1	-0.071344145
95	0xbd7882fc	-0.06067179
96	0x3b269553	0.0025418594
97	0xbdfbb89c	-0.12291071
98	0x3dac6a62	0.084187284
99	0xbdd5e44e	-0.10443936
100	0xbc81cd3f	-0.01584494
101	0xbd171948	-0.036889344
102	0x3d4e8144	0.050416246
103	0x3c5de53b	0.013543422
104	0xbd8f3a73	-0.0699357
105	0xbd4923b4	-0.049106315
106	0x3db700aa	0.089356735
107	0x3c4a19f7	0.012335292
108	0x3d0680ee	0.0328378
109	0x3c8e2323	0.017350739
110	0xbd98c8cc	-0.07460174
111	0xbcef4f3a	-0.029212583
112	0xbd4ab770	-0.049491346
113	0xbd9d9fa6	-0.07696466
114	0xbb2ac82e	-0.0026059258
115	0x3c16e211	0.009209172
116	0xbdd51202	-0.10403825
117	0xbd73c9dc	-0.05951868
118	0xbe14595a	-0.1448721
119	0xbd9c42f0	-0.07629955
120	0xbde73302	-0.11289026
121	0x3ce5b2b4	0.028039314
122	0xbd850f54	-0.06497064
123	0x3d6e5cb7	0.05819389
124	0xbd4ea110	-0.05044657
125	0xbdaa8578	-0.083262384
126	0x3bc8e03c	0.0061302464
127	0xbe37addf	-0.1793742

fc2_1.weight f4 [64, 128]
0	0xbd149a06	-0.0362797
1	0x3cb55e92	0.022139821
2	0xbe05f9aa	-0.1308352
3	0x3d2782c6	0.0408962
4	0x3d75e43a	0.060032107
5	0x3d7343c7	0.05939081
6	0xbd28d548	-0.041219026
7	0xbc9ec6f1	-0.019381972
8	0xbc109443	-0.008824411
9	0xbd8a045a	-0.06739111
10	0x3dda8d8b	0.106715284
11	0x3b999f80	0.0046882033
12	0x3ce32460	0.027727306
13	0xbd785730	-0.060630023
14	0xbd765c14	-0.060146406
15	0xbd138e82	-0.036024578
16	0x3d411ff2	0.047149606
17	0xbe049d19	-0.12950553
18	0xbc9294db	-0.017893245
19	0xbd931300	-0.07181358
20	0xbd54d751	-0.051963154
21	0xbd1fadd5	-0.03898414
22	0x3d99470d	0.07484255
23	0xbd1679fe	-0.036737435
24	0x3e0cb5b3	0.13741188
25	0xbb51cd7b	-0.0032013345
26	0xbd8784dd	-0.066171385
27	0x3c15e80e	0.009149564
28	0xbd3a4b35	-0.04548188
29	0xbe1b55b3	-0.1516941
30	0xbcd5fbb7	-0.026121004
31	0x3dc69fd6	0.09698455
32	0x3d129cf2	0.035794206
33	0x3ca13abb	0.019681325
34	0x3d15aabf	0.03653979
35	0xbe110519	-0.14162101
36	0x3b82ed10	0.003995545
37	0xbb6d21d0	-0.0036183484
38	0x3cd4e633	0.025988674
39	0xbc3d4e7e	-0.0115543585
40	0xbde5fbea	-0.112296894
41	0x3da1577f	0.07878017
42	0xba28bfac	-0.0006437253
43	0xbdb40ed2	-0.08791889
44	0x3e0d0c5b	0.13774244
45	0xbd984d5a	-0.07436629
46	0x3ce09a78	0.027417406
47	0xbd96f039	-0.073700376
48	0xbdd81927	-0.105516724
49	0x3d8baa0b	0.068195425
50	0xbd6cfa9a	-0.05785618
51	0xbcc66a88	-0.02422072
52	0xbe10de62	-0.14147332
53	0x3d94bd3b	0.07262655
54	0xbd400d36	-0.0468876
55	0x3b276b60	0.0025546178
56	0xbcbca339	-0.02302705
57	0xbd0d4363	-0.034488093
58	0xbd3d76e9	-0.04625598
59	0xbd100b1c	-0.035166845
60	0xbc7a620a	-0.015282163
61	0x3e182ade	0.14860103
62	0xbdc7c946	-0.09755187
63	0x3db73fdd	0.08947728
64	0xbc54744f	-0.012967183
65	0xbbb5a740	-0.0055436194
66	0x3d7df296	0.061998926
67	0xbdb2785a	-0.087143615
68	0x3cc1b8cc	0.023647688
69	0x3cb4a27a	0.022050131
70	0x3d80ee2d	0.062954284
71	0xbdfb367f	-0.12266254
72	0x3e1208df	0.14261197
73	0xbe0f4194	-0.1398986
74	0x3d484b7a	0.048900105
75	0xbc700fa5	-0.014652167
76	0x3d60fd22	0.054928906
77	0xbd33fd2f	-0.043942627
78	0xbdb1a73f	-0.08674478
79	0x3da17e63	0.078854345
80	0xbe0e7f41	-0.13915731
81	0xbd6ca86c	-0.057777807
82	0xbddea965	-0.10872153
83	0xbd5afa73	-0.053461503
84	0x3df2fddf	0.11864828
85	0xbce92666	-0.028460693
86	0xbb897980	-0.004195392
87	0xbddfd047	-0.109283976
88	0xbd2488b9	-0.04016945
89	0x3c6ae710	0.014337316
90	0xbd79a329	-0.060946617
91	0x3db2f4e7	0.08738118
92	0x3d99efa1	0.07516409
93	0xbdaeee6e	-0.085415706
94	0x3d934fe9	0.07192976
95	0x3d730292	0.059328623
96	0x3d3bc0c8	0.045838147
97	0x3d9c7cff	0.076410286
98	0xbce30ffc	-0.027717583
99	0xbd2928b2	-0.041298576
100	0x3e0aac8f	0.13542388
101	0xbd8c2c6c	-0.0684441
102	0x3bc2b16a	0.0059415596
103	0x3da2eb61	0.07955051
104	0x3d399ea2	0.0453173
105	0x3d173a3e	0.03692078
106	0xbcb32e6f	-0.021872727
107	0xbdc4b34c	-0.09604511
108	0xbdb96416	-0.09052293
109	0xbdc3c135	-0.09558336
110	0xbcaddca4	-0.021223374
111	0xbd05a7a7	-0.03263059
112	0xbd5ecf71	-0.05439705
113	0xbd29ad73	-0.04142518
114	0x3c0338e8	0.008009173
115	0xbccb63a0	-0.024827778
116	0xbdae78e5	-0.085191526
117	0xbd3e2a68	-0.04642716
118	0xbdd72499	-0.10505027
119	0x3c13b759	0.009015881
120	0xbc0695a8	-0.008214392
121	0x3982c704	0.0002494381
122	0xbd2a5708	-0.041586906
123	0xbe037e4e	-0.1284115
124	0xbd203231	-0.039110366
125	0xbe14fd67	-0.1454979
126	0x3bd30dae	0.0064408397
127	0xbdb240fb	-0.087038
128	0xbced1f2c	-0.028945528
129	0xbddff7b5	-0.10935918
130	0x3e0f65fe	0.1400375
131	0x3d8765c5	0.06611208
132	0xbd86128a	-0.06546505
133	0xbda4c9cf	-0.080463044
134	0xbd799a5b	-0.06093822
135	0xbe388028	-0.18017638
136	0x3b120cac	0.0022285385
137	0xbdd6f517	-0.10495966
138	0xbe36ba55	-0.17844518
139	0x3d4438ef	0.04790586
140	0x3d78c0aa	0.060730614
141	0xbd74ef74	-0.059798673
142	0x3d8dd507	0.06925397
143	0xbe2a0df3	-0.16606884
144	0xbd6083ac	-0.054813072
145	0x3da20c93	0.079125546
146	0x3dca29fb	0.098712884
147	0xbd7e9f20	-0.062163472
148	0x3d8f5d25	0.07000188
149	0xbb650788	-0.0034947116
150	0x3d07f0f4	0.033188775
151	0x3dcf8915	0.10133568
152	0xbc309e5a	-0.010779941
153	0x3d6e3ecf	0.058165368
154	0x3d7ce521	0.06174195
155	0x3d926a72	0.07149209
156	0x3ca1621e	0.019700106
157	0xbc96712c	-0.018364511
158	0xbe06be74	-0.1315859
159	0x3cc23347	0.023706092
160	0xbd68901a	-0.05677805
161	0x3d706342	0.05868841
162	0xbe385361	-0.18000557
163	0x3df6fbe8	0.12059766
164	0x3dc6cc92	0.097069874
165	0xbe0fdf60	-0.14050055
166	0xbc0f33e6	-0.008740401
167	0xbbe804f3	-0.007080668
168	0x3e02844c	0.1274578
169	0xbdabe9a7	-0.08394175
170	0x3d5c07b0	0.05371827
171	0x3b1cf3f1	0.0023949111
172	0xbc58b62b	-0.013227026
173	0x3cf32a8f	0.02968338
174	0xbd80a50a	-0.06281479
175	0x3c478fd2	0.0121802855
176	0x3dc6ad1e	0.09700988
177	0xbbc56c60	-0.006024882
178	0x3d86bd37	0.065790586
179	0xbd018d10	-0.03162867
180	0x3d8f5b99	0.06999893
181	0xbd92dc3d	-0.07170913
182	0x3ad8f580	0.0016552657
183	0x3d1c858e	0.038213305
184	0xbd817ef9	-0.06323046
185	0x3da1d71a	0.079023555
186	0xbd20fef5	-0.039305646
187	0x3da0a583	0.07844069
188	0x3dd1343b	0.1021504
189	0x3b5c7440	0.0033638626
190	0xbc864f7e	-0.016395327
191	0x3cb17113	0.021660363
192	0x3da99838	0.082809865
193	0x3c81416e	0.01577827
194	0xbc9269e4	-0.017872758
195	0x3d5da387	0.05411103
196	0xbdae851f	-0.085214846
197	0xbc2464bc	-0.010033783
198	0x3d90769f	0.07053875
199	0x3d1018d4	0.035179928
200	0x3d855829	0.06510956
201	0xbd84f913	-0.0649282
202	0xbc2eaf78	-0.010661952
203	0x3c07457b	0.0082563115
204	0xbb9da617	-0.004811059
205	0x3c5b5583	0.013387087
206	0xbc401ddd	-0.01172587
207	0x3dedeb69	0.116171665
208	0x3d809f83	0.062804244
209	0x3d930b49	0.07179887
210	0xbd8d02fb	-0.06885334
211	0x3db9c3ba	0.09070535
212	0xbbc9c3a3	-0.006157355
213	0x3ca4891c	0.02008491
214	0x3d62ad8e	0.055341296
215	0xbcb3f8fc	-0.021969311
216	0x3d6c4425	0.057682175
217	0xbc5b6eb0	-0.013393089
218	0xbccd72d8	-0.025079176
219	0xbcbd3de4	-0.0231008
220	0xbc12060e	-0.008912576
221	0x3ca6c454	0.020357288
222	0x3c93c04d	0.018036032
223	0xba8cde80	-0.0010747463
224	0x3d58a558	0.05289206
225	0x3d61d09e	0.055130593
226	0xbd30396d	-0.043023515
227	0x3cc2049a	0.023683835
228	0x3d89ebe9	0.067344494
229	0x3ccdd8f0	0.025127858
230	0xbde59039	-0.11209149
231	0x3d4acbb1	0.04951066
232	0x3e06d498	0.13167036
233	0x3c2d8a60	0.010592073
234	0x3d8393e8	0.06424695
235	0x3d2f7c65	0.04284324
236	0x3d9d8028	0.076904595
237	0x3db0f917	0.0864126
238	0xbc380df8	-0.011233799
239	0xbc296ad2	-0.010340409
240	0x3c927974	0.017880179
241	0xbca4df88	-0.02012612
242	0xbcf24068	-0.029571727
243	0x3d1d8420	0.038456082
244	0x3d9ca1d5	0.076480545
245	0x3d82c722	0.06385638
246	0x3ce103e5	0.027467677
247	0xbd36bc65	-0.04461326
248	0x3d304dd2	0.043042965
249	0xbbcb030d	-0.006195432
250	0x3c84dd50	0.016218811
251	0x3cc7a81d	0.024372155
252	0xbd2a919a	-0.041642763
253	0x3c91ccb5	0.017797807
254	0x3d994419	0.07483692
255	0xbbac0dd3	-0.0052506714

fc2_1.bias f4 [64]
0	0xbc49c83a	-0.012315804
1	0xba3c00a9	-0.0007171729
2	0xbcc5d59f	-0.024149714
3	0xbd079532	-0.033101268
4	0xbd50050e	-0.05078607
5	0xbce22f2a	-0.02761038
6	0xbdbc179d	-0.091841914
7	0x3e08f672	0.13375261
8	0xbdd882f4	-0.10571852
9	0xbdabba71	-0.0838517
10	0x3b57db80	0.0032937229
11	0x3d9ccfa5	0.076567926
12	0xbd7ed7d4	-0.06221755
13	0xbd8a90c3	-0.06765892
14	0x3ceae43b	0.028673282
15	0xbd553a4a	-0.052057542
16	0xbd1f1962	-0.038842566
17	0x38d2b284	0.000100468314
18	0x3c8291bd	0.015938634
19	0x3dbd03cf	0.09229242
20	0xbdc30402	-0.09522249
21	0x3d82cf54	0.06387201
22	0x3d1ef8bd	0.038811434
23	0x3da21dc8	0.079158366
24	0x3d9d34c2	0.076760784
25	0xbd05ae80	-0.03263712
26	0xbdaeec6b	-0.08541187
27	0xbb16f740	-0.0023035556
28	0xbd943169	-0.07235987
29	0xbcd587c4	-0.026065715
30	0xbb4ccc8a	-0.0031249844
31	0xbd9b5fc0	-0.07586622
32	0x3d395c64	0.045254126
33	0xbdb376f0	-0.0876292
34	0x3cc9ec38	0.02464877
35	0xbd541eeb	-0.0517873
36	0x3d347954	0.04406102
37	0xbd984319	-0.07434673
38	0xbd09b904	-0.03362371
39	0x3ca810a3	0.020515746
40	0x3cd67668	0.026179507
41	0x3da81481	0.08207036
42	0xbd1d0b78	-0.038341016
43	0xbd2e5807	-0.04256442
44	0xbdb8025f	-0.08984827
45	0x3b8111f1	0.0039389064
46	0xbca579ac	-0.02019962
47	0xbd65dcd7	-0.056118812
48	0x3c9e351c	0.019312434
49	0xbd5e3be3	-0.05425633
50	0xbdf7f618	-0.121074855
51	0xbc749f7c	-0.014930602
52	0xbbc20466	-0.0059209345
53	0xbc995f08	-0.018722072
54	0x3ba4c287	0.0050280723
55	0xbc8c0f0c	-0.017097019
56	0xbcdbcbc8	-0.026830569
57	0xbd20f616	-0.039297186
58	0xbd060e9f	-0.032728788
59	0xbd9a3b2b	-0.07530817
60	0xbdb6b330	-0.08920896
61	0xbdab5ac4	-0.083669215
62	0xbdb5658a	-0.08857258
63	0xbd2f9299	-0.042864416

fc3.weight f4 [18, 64]
0	0xbe3867c1	-0.18008329
1	0xbce6d038	-0.028175458
2	0xbd11f8d6	-0.0356377
3	0x3d066a29	0.032816086
4	0xbd9da54b	-0.07697543
5	0xbde27ace	-0.110585794
6	0x3bd15b95	0.0063890913
7	0xbc065e52	-0.008201199
8	0xbdafaa9b	-0.08577462
9	0x3d867dd1	0.06566966
10	0xbd763e54	-0.060118034
11	0xbd5e33c0	-0.05424857
12	0xbcce00b1	-0.025146814
13	0x3d8255aa	0.063639954
14	0xbb9eb416	-0.0048432453
15	0x3ce141c8	0.027497187
16	0xbd8fdce7	-0.07024556
17	0xbd1c4873	-0.03815503
18	0x3cfa3d57	0.030546827
19	0x3c0f2b40	0.008738339
20	0x3d51eccf	0.05125123
21	0xbd2cee02	-0.04221917
22	0xbdce8c56	-0.10085361
23	0x3db004ed	0.085946895
24	0xbe32ddbe	-0.174674
25	0x3dddc045	0.10827688
26	0xbd6bd361	-0.057574634
27	0x3bfd6760	0.0077332705
28	0xbe14027c	-0.14454073
29	0xbcfaed2e	-0.030630674
30	0xbdb4e6da	-0.08833094
31	0x3dc5cde2	0.0965841
32	0x3da75670	0.081707835
33	0xbde60afc	-0.11232564
34	0x3cc2ddfc	0.023787491
35	0x3d2615a8	0.040547997
36	0xbdae3d21	-0.08507753
37	0xbd0560f4	-0.032563165
38	0x3beb7978	0.007186111
39	0xbc99e7f8	-0.01878737
40	0xbd33c2dc	-0.043887004
41	0xbe183850	-0.14865232
42	0xbd9fbd5b	-0.077997886
43	0x3df2019e	0.11816715
44	0xbc2eda20	-0.010672122
45	0xbe4e7af5	-0.20164092
46	0xbd90a9be	-0.07063626
47	0x3cce5e68	0.0251915
48	0xbc62fb30	-0.013853833
49	0x3d097535	0.033559043
50	0xbd25d3a1	-0.04048503
51	0xbd2bd918	-0.041955084
52	0xbd9d6e14	-0.07687011
53	0xbd644590	-0.055730402
54	0x3d5b2db9	0.0535104
55	0xbd47a23c	-0.048738703
56	0xbc8fda48	-0.01756014
57	0xbe0dfaed	-0.13865252
58	0x3dfcd4f2	0.123453036
59	0x3c95fdd8	0.018309519
60	0xbdbc2cf0	-0.09188259
61	0x3c001460	0.007817358
62	0xbd905565	-0.07047538
63	0xbe2776ea	-0.16353956
64	0x3cfb7561	0.030695619
65	0xbd57900f	-0.05262762
66	0x3ccae48b	0.02476718
67	0x3cc84a5a	0.024449516
68	0xbda3f344	-0.080053836
69	0xbd287718	-0.0411292
70	0xbdba2b1b	-0.09090253
71	0x3d8860a8	0.06659061
72	0x3d0624b7	0.032749858
73	0x3be9e2c4	0.0071376283
74	0x3ce502a0	0.027955353
75	0xbe0ba4a5	-0.13637026
76	0x3d8b150c	0.06791124
77	0xbdc7eaef	-0.09761607
78	0x3d3b0508	0.045659095
79	0x3da12ba4	0.07869652
80	0xbd09625b	-0.033541065
81	0xbd5ca203	-0.053865444
82	0xbda96d6f	-0.08272826
83	0x3da738fa	0.08165164
84	0xbd053ddc	-0.032529697
85	0x3d561dec	0.05227463
86	0x3dfd9a29	0.12382919
87	0x3c97d56b	0.018534383
88	0x3dfc6921	0.12324739
89	0x3c757b8e	0.014983071
90	0x3da6f499	0.08152122
91	0xbbfeb8a0	-0.007773474
92	0xbd1a4515	-0.037663538
93	0xbe4178f8	-0.18893802
94	0x3cc6bc89	0.024259822
95	0xbb14c161	-0.002269827
96	0xbd3b24fc	-0.045689568
97	0xbde28a32	-0.11061515
98	0x3d57f80e	0.052726798
99	0xbd47cb6e	-0.04877799
100	0x3d6a542d	0.057209183
101	0x3d03803e	0.032104723
102	0xbd7e00c5	-0.062012453
103	0xbdea637e	-0.11444758
104	0x3c20dabb	0.009817774
105	0x3c55e243	0.013054433
106	0x3dcca583	0.09992506
107	0xbd158e80	-0.03651285
108	0xbd3344b6	-0.0437667
109	0x3dbbcf1b	0.091703616
110	0xbe084f76	-0.13311562
111	0x3d31dacc	0.04342155
112	0xbb48c380	-0.0030634105
113	0xbe05fe73	-0.13085346
114	0xbd1dee2b	-0.038557213
115	0x3d8a99c9	0.067676134
116	0xbca8cf48	-0.020606652
117	0xbc8f2238	-0.017472371
118	0x3dc07b50	0.0939852
119	0xbdc3d92e	-0.09562908
120	0x3dcd9194	0.100375324
121	0x3de899af	0.11357438
122	0x3d458934	0.04822655
123	0xbc72291a	-0.014780307
124	0xbde0e364	-0.10980871
125	0xbdec3c32	-0.11534919
126	0xbdf3b30d	-0.118993856
127	0x3d3337a2	0.043754227
128	0xbc8c61af	-0.017136423
129	0x3dae7128	0.085176766
130	0xbcea1bd5	-0.028577724
131	0x3cc3e446	0.02391256
132	0x3d6b88c2	0.05750347
133	0x3c1534d0	0.00910683
134	0xbd9429b9	-0.072345205
135	0x3dc1d118	0.094637096
136	0xbd696b19	-0.056986902
137	0xbd567f8b	-0.05236773
138	0x3bcf5b00	0.0063279867
139	0xbddcfd89	-0.107905455
140	0x3b7859ac	0.0037895245
141	0x3d2dafa2	0.042403825
142	0xbbc9a979	-0.006154236
143	0x3cff1970	0.03114006
144	0xbdfd4f48	-0.12368637
145	0xbdf4ee9f	-0.11959576
146	0xbda9b72f	-0.082868926
147	0xbdbdf192	-0.092745915
148	0x3ce5cbc4	0.028051265
149	0xbd793b76	-0.060847722
150	0x3ccaab6c	0.024739943
151	0xbc4eaa0b	-0.012613784
152	0x398c34c8	0.00026742206
153	0x3c3ecab6	0.01164501
154	0x3dd4b779	0.10386557
155	0xbdb9c886	-0.0907145
156	0xbd61a5ab	-0.055089634
157	0x3d1c5c65	0.03817405
158	0xbc32e210	-0.010918155
159	0xbc84b92f	-0.016201584
160	0xbac3d847	-0.0014941775
161	0x3da5a05c	0.08087227
162	0x3deaa2d3	0.114568375
163	0x3db6def4	0.08929244
164	0x3d7a83ce	0.061160855
165	0xbda17474	-0.0788354
166	0x3d0f5a24	0.034998074
167	0x3d90cbaa	0.07070096
168	0xbdbbea95	-0.09175602
169	0x39d4bb2e	0.0004057525
170	0xbc8121f4	-0.01576326
171	0xbd2e0c70	-0.04249233
172	0x3c8ce91f	0.017201005
173	0xbccf6ff6	-0.025321942
174	0xbd8c7362	-0.06857945
175	0x3de7f6e8	0.113263905
176	0xbd239564	-0.039937392
177	0x3dd551ee	0.104160175
178	0x3da24c69	0.0792473
179	0x3bc6174b	0.006045257
180	0x3c5d7831	0.013517425
181	0x3d932cdd	0.07186291
182	0xbd6e9e3b	-0.05825637
183	0xbdcd8718	-0.10035533
184	0xbcaec360	-0.021333396
185	0x3d411175	0.04713579
186	0xbcc3dc80	-0.023908854
187	0xbd913c21	-0.07091547
188	0xbe198600	-0.14992523
189	0xbd3c01b8	-0.045900077
190	0xbe20c3c1	-0.15699674
191	0xbc0e9665	-0.008702849
192	0xbdaaa499	-0.08332176
193	0x3d1a76db	0.037711006
194	0xbd0211df	-0.031755324
195	0x3ce90512	0.0284448
196	0x3d9d47fd	0.07679746
197	0x3d40ee40	0.047102213
198	0xbe1be6aa	-0.1522471
199	0xbdeb2632	-0.114818946
200	0xbe5c3080	-0.21502876
201	0xbd94cd9d	-0.0726578
202	0xbc990af0	-0.018681973
203	0xbe2140be	-0.15747353
204	0xbdd493f9	-0.10379786
205	0x3bb972aa	0.005659421
206	0xbcb75bb5	-0.022382597
207	0x3c846d10	0.016165286
208	0xbca56cd5	-0.020193497
209	0x3c8fef54	0.017570175
210	0x3d339f66	0.043853186
211	0xbc6c87ec	-0.014436703
212	0xbd67a3be	-0.05655264
213	0x3d613a66	0.054987334
214	0x3c01beae	0.007918997
215	0xbd0fec2c	-0.03513734
216	0xbe096165	-0.1341606
217	0x3dd383f2	0.10327901
218	0x3d41eaa8	0.047342926
219	0x3d549264	0.05189742
220	0xbdb02135	-0.08600084
221	0x3d15eb30	0.036601245
222	0xbb148964	-0.00226649
223	0x3de33c75	0.11095516
224	0x3c1f7a85	0.009733801
225	0x3d822b36	0.06355898
226	0xbdb478af	-0.08812081
227	0x3caf44d3	0.021395123
228	0x3c42d509	0.011891612
229	0xbdf9d2e5	-0.12198428
230	0xbc2fe38e	-0.010735406
231	0x3d42b690	0.047537386
232	0xbd5377e3	-0.051628005
233	0xbda70ee3	-0.08157136
234	0xbd00fa99	-0.03148899
235	0x3cfec000	0.031097412
236	0x3d4ff00a	0.05076603
237	0xbd693ba3	-0.05694164
238	0x3db9a8c5	0.09065393
239	0xbca5caf8	-0.020238385
240	0x3de1e186	0.11029343
241	0xbd5d2a55	-0.05399545
242	0xbd306070	-0.04306072
243	0xbdb4f156	-0.08835094
244	0x3d4b0d29	0.049573097
245	0x3da73513	0.0816442
246	0xbde1bd54	-0.110224396
247	0x3ba1b3a0	0.004934743
248	0xbd23106c	-0.039810583
249	0xbe132780	-0.14370537
250	0x3d9e5bbc	0.07732341
251	0xbd601735	-0.054709632
252	0xbd381eb9	-0.044951174
253	0xbdfdcaf2	-0.12392224
254	0xbd6dc189	-0.058045898
255	0xbdfee99b	-0.124469005

fc3.bias f4 [18]
0	0x3d1875ed	0.037221838
1	0xbd2ecbdb	-0.04267488
2	0x3b82fc29	0.003997345
3	0x3d40c014	0.04705818
4	0xbd9c35b9	-0.07627434
5	0x3d370c10	0.044689238
6	0xbd2087a5	-0.03919186
7	0xbdc65a41	-0.09685183
8	0x3d5a41f3	0.05328555
9	0x3d5fbdb9	0.054624293
10	0xbd3ee7e3	-0.046607863
11	0xbcbc0d1f	-0.022955475
12	0x3d810482	0.06299688
13	0xbdadc4d1	-0.084848054
14	0x3cbfa2d4	0.023393072
15	0x3d91740a	0.07102211
16	0xbdd2d93a	-0.10295339
17	0xbd0589b6	-0.032602035
